lstm_model_10000.pth (torch, 204435 bytes, 9 tensors)

lstm.weight_ih_l0 f4 [256, 1]
0	0x3e3ec5cf	0.18630145
1	0x3e9f419a	0.31104738
2	0x3ee22ee0	0.44176388
3	0x3f1183e0	0.5684185
4	0x3ed47544	0.41495717
5	0x3fa17114	1.2612634
6	0xbe56e37f	-0.2098522
7	0x3e2d6651	0.16933562
8	0x3f02441c	0.50885177
9	0x3e46382f	0.1935737
10	0x3f0bb5f5	0.5457452
11	0x3f913304	1.1343694
12	0xbccb2146	-0.02479614
13	0x3f45abd2	0.772153
14	0x3d564020	0.052307248
15	0x3f64af8c	0.89330363
16	0x3e8dd86b	0.27704176
17	0x3ef39811	0.47576955
18	0x3f6d73dd	0.9275492
19	0x3f6b9521	0.9202443
20	0x3efd9a6a	0.4953187
21	0x3ee3f3f0	0.44522047
22	0x3ea3deb2	0.3200584
23	0x4028d03b	2.6377094
24	0xbee44148	-0.44581056
25	0x3ef10ddf	0.47080895
26	0x3ef79c59	0.4836147
27	0x3f2f1ac8	0.6840024
28	0x3ea2a12e	0.31763595
29	0xbe819d48	-0.2531531
30	0x3f0c38ab	0.5477397
31	0x3f402c61	0.75067717
32	0x3ef977ce	0.48724216
33	0x3e9e0f2a	0.30870944
34	0xbe536539	-0.20644082
35	0x3f692023	0.9106466
36	0x3f29ec1e	0.6637591
37	0x3f87f0d0	1.0620365
38	0xbe402591	-0.1876433
39	0x3e90426c	0.28175676
40	0xbecc8ac4	-0.3994962
41	0x3f060561	0.5235196
42	0x3f5edfc8	0.87060213
43	0xbf17974a	-0.59215224
44	0x3f819235	1.0122744
45	0x3ea10221	0.31446937
46	0x3e98de24	0.2985698
47	0x3fad012d	1.3515984
48	0x3f4a758d	0.7908562
49	0x3edd9d46	0.43284053
50	0x3f13ace5	0.5768569
51	0xbec19f2f	-0.3781676
52	0x3f9fbe67	1.2479981
53	0xbe81a5e7	-0.25321886
54	0x3e81d68a	0.25358993
55	0x3f1345d7	0.5752844
56	0x3ed25a8e	0.41084713
57	0x3dfffa90	0.12498963
58	0x3e08cba8	0.13358939
59	0xbcb2b5a7	-0.021815134
60	0x3eaac3c0	0.3335247
61	0x3f73536d	0.9504917
62	0xbf2148b7	-0.6300158
63	0xbe03a73e	-0.12856767
64	0x3ea4d868	0.32196355
65	0x3f000cfd	0.5001982
66	0x3ead5674	0.3385502
67	0xbe11c92c	-0.14236897
68	0x3e9d32c0	0.30702782
69	0xbeb655e2	-0.35612398
70	0x3e46dc82	0.19420055
71	0xbe6e3bf1	-0.23265053
72	0x3ec949a0	0.39313984
73	0xbe8eafdf	-0.27868554
74	0xbea7d0ce	-0.32776493
75	0xbe0fe095	-0.14050515
76	0x3dc7de30	0.09759176
77	0xbd711a62	-0.05886305
78	0x3de870d0	0.11349642
79	0xbe4a87de	-0.19778392
80	0x3d34b89e	0.044121377
81	0x3f10fb33	0.566333
82	0xbe0774b7	-0.13228117
83	0xbe6a1ee2	-0.22863343
84	0x3f49297b	0.7857892
85	0xbe8f2661	-0.27958968
86	0x3e12314c	0.14276618
87	0xbf27a94e	-0.65492713
88	0x3eaf66d0	0.34258127
89	0x3e86063a	0.26176625
90	0xbed15031	-0.40881494
91	0xbf1e0d1c	-0.61738753
92	0xbddb3756	-0.10703914
93	0x3deb20b3	0.11480846
94	0xbec9f15b	-0.39441952
95	0xbdfeba60	-0.12437892
96	0xbe6ba8ee	-0.2301366
97	0x3f0cc1a1	0.54982954
98	0xbe6bf55c	-0.23042816
99	0x3dbc8a0d	0.092060186
100	0xbe915e37	-0.28392193
101	0xbf8d0b82	-1.1019137
102	0xbd66a0aa	-0.056305565
103	0x3f07caff	0.5304412
104	0xbeae3a85	-0.34029022
105	0xbf7ef301	-0.99589545
106	0xbe159866	-0.14608917
107	0x3ed46e96	0.4149062
108	0xbedfd89a	-0.4371994
109	0xbc9d47f2	-0.019199345
110	0xbf174ad5	-0.5909856
111	0xbebf393d	-0.37348357
112	0xbeb32670	-0.34990263
113	0x3ef46339	0.4773195
114	0x3dcb7368	0.09934121
115	0x3df071d3	0.1174046
116	0xbf084c5c	-0.53241515
117	0xbf1be62a	-0.6089808
118	0x3d94e20c	0.072696775
119	0x3e06c968	0.13162768
120	0x3e355672	0.17708758
121	0x3e33333f	0.17500018
122	0xbe9da687	-0.30791113
123	0x3c0301c0	0.007996023
124	0xbe295bdd	-0.1653895
125	0xbe895c21	-0.268281
126	0x3ec24873	0.379459
127	0x3e99044e	0.29886097
128	0x3e036755	0.12832387
129	0xbf062c51	-0.5241137
130	0x3f2d4669	0.6768556
131	0x3f0e7627	0.55649036
132	0x3ecdf1c9	0.4022353
133	0xbe723da4	-0.23656327
134	0x3f1800ec	0.59376407
135	0x3f00dc6d	0.50336343
136	0xbec0c7d7	-0.37652466
137	0xbec5fab2	-0.38667828
138	0x3ee6d632	0.45085293
139	0xbf19712e	-0.59938323
140	0xbee2efd9	-0.44323614
141	0xbd894813	-0.067032
142	0x3ee524af	0.4475455
143	0x3e823463	0.25430593
144	0xbe9e0862	-0.3086577
145	0xbe58e993	-0.21182851
146	0x3ed71dc7	0.42014906
147	0x3e843090	0.258183
148	0xbeddf0c9	-0.43347767
149	0x3eb58ad3	0.35457477
150	0xbe91ce42	-0.28477675
151	0xbeefecca	-0.46860343
152	0x3e2bf12a	0.16791216
153	0xbeaccfca	-0.3375228
154	0x3f251c03	0.6449587
155	0xbfa7b2a0	-1.3101387
156	0xbf1f703e	-0.62280643
157	0x3efb4fe0	0.49084377
158	0x3e53c68b	0.20681207
159	0x3e6cf416	0.23139986
160	0xbe1c5387	-0.15266238
161	0x3e0cb29d	0.1374001
162	0x3cb7f208	0.022454277
163	0xbee0c97d	-0.43903723
164	0x3e0e7436	0.13911518
165	0xc01b4c13	-2.4265182
166	0xbe08d7df	-0.13363598
167	0x3e9550f3	0.29163322
168	0x3e9a12d0	0.30092478
169	0xbde8bb84	-0.11363891
170	0x3f67ddec	0.90573
171	0x3d29f558	0.041493744
172	0xc00003a6	-2.0002227
173	0x3daf5975	0.085619844
174	0xbe9bbf60	-0.30419445
175	0xbf5a802a	-0.8535181
176	0x3ed30040	0.41211128
177	0xbf25233b	-0.6450688
178	0xbf140b47	-0.5782971
179	0x3f1750b8	0.5910754
180	0x3ec88982	0.3916741
181	0xbea43cee	-0.32077736
182	0x3d387aa6	0.04503884
183	0xbe83624d	-0.25660935
184	0xbe2ae27b	-0.16687958
185	0xbf30a439	-0.69000584
186	0xbf6af005	-0.9177249
187	0xbf0229fc	-0.50845313
188	0xbe265273	-0.1624239
189	0x3ed4c1f1	0.41554216
190	0xbf63f19c	-0.8904054
191	0xbcf04230	-0.029328436
192	0x3dcfb992	0.101428166
193	0xbe865a05	-0.26240554
194	0xbd531e77	-0.051542725
195	0x3f127086	0.5720295
196	0x3e04e85a	0.1297926
197	0x3fd15d1a	1.6356537
198	0x3ed79f51	0.42113736
199	0x3ffdbdca	1.9823544
200	0x3ece13a0	0.40249348
201	0x3f1f7e9c	0.62302566
202	0x3efc0b11	0.49227193
203	0x3f9c3190	1.2202625
204	0x3e45c401	0.19313051
205	0x3f00f270	0.5036993
206	0xbe307bbc	-0.17234701
207	0x3f59c937	0.85072654
208	0x3ef75020	0.48303318
209	0x3e8b490d	0.2720417
210	0x3f693d9f	0.9110965
211	0x3f640c91	0.89081675
212	0x3e374516	0.17897448
213	0x3e37ff0f	0.17968391
214	0x3d0d5849	0.034508023
215	0x4047b1fa	3.1202378
216	0x3ede0e0e	0.43370098
217	0x400c1628	2.1888523
218	0xbdc76ab4	-0.09737149
219	0x3ef0475e	0.4692945
220	0x3ef6b119	0.4818199
221	0x3e998215	0.29982057
222	0xbe23ef84	-0.16009337
223	0x3e8bd39e	0.2730989
224	0x3f1d962b	0.61557263
225	0x3ef1df94	0.4724089
226	0x3dfee661	0.12446285
227	0x3f0dea6c	0.55435824
228	0x3d98fba7	0.07469874
229	0x3d2484ad	0.040165592
230	0x3e6ba6da	0.23012868
231	0x3e03786f	0.1283891
232	0x3e3a0cb5	0.1816891
233	0x3d1bae19	0.03800783
234	0x3eb8748a	0.36026412
235	0xbd825507	-0.06363874
236	0x3f011629	0.5042444
237	0x3eb9cfbc	0.362913
238	0x3eddea13	0.43342647
239	0x3e52f02d	0.20599432
240	0xbe08f3dd	-0.13374276
241	0x3e44a136	0.19202122
242	0x3ef0b072	0.47009617
243	0x3e3785d1	0.1792214
244	0x3fa5a2f6	1.2940357
245	0x3ec5029b	0.3847855
246	0xbe5f9105	-0.21832664
247	0x3ecb6d41	0.39731792
248	0x3df2fb1a	0.118643
249	0xbd605279	-0.054766152
250	0x3ea70932	0.32624203
251	0x3e026236	0.12732777
252	0x3f08fef8	0.5351405
253	0x3ec913e0	0.39272976
254	0x3ea930be	0.33045
255	0x3c0c8755	0.008577188

lstm.weight_hh_l0 f4 [256, 64]
0	0x3f88bb8b	1.0682234
1	0xbe35bfbb	-0.1774892
2	0xbe41fa81	-0.18943216
3	0xbf155a01	-0.5834046
4	0x3e797ed3	0.24364786
5	0x3e2af3fd	0.16694637
6	0x3d6e79f9	0.05822179
7	0x3f3a3333	0.72734374
8	0xbe89656e	-0.26835197
9	0xbd8ba490	-0.06818497
10	0x3f2315a6	0.6370491
11	0xbf2efd44	-0.683552
12	0xbfbc5db7	-1.47161
13	0x3f321aca	0.69572127
14	0x3d0b4991	0.034005705
15	0xbe6c8feb	-0.23101775
16	0x3ee7c7d3	0.4526964
17	0x3ebeb4ec	0.37247407
18	0x3ee798d1	0.45233777
19	0x3d9bbde7	0.076045804
20	0x3f490126	0.7851738
21	0xbe32eeb8	-0.17473876
22	0x3f28cdb2	0.65938866
23	0xbe82e7ae	-0.25567383
24	0xbec98ee7	-0.39366838
25	0x3ea49f11	0.32152608
26	0x3e03be2c	0.12865514
27	0xbdd0a393	-0.10187449
28	0xbf350b57	-0.7072043
29	0xbe58495c	-0.21121734
30	0x3eda216b	0.4260362
31	0x3ec91ea7	0.39281198
32	0xbf4e0370	-0.80473995
33	0xbe84f99b	-0.25971684
34	0xbe588c22	-0.21147206
35	0xbf770b54	-0.9650166
36	0x3e90611b	0.28199086
37	0xbe81fcf5	-0.25388303
38	0x3f2a1209	0.6643377
39	0xbf2953d0	-0.6614351
40	0x3f81735a	1.0113328
41	0x3f513f81	0.81737524
42	0x3e78db6f	0.24302457
43	0x3ca00f90	0.01953867
44	0x3e289c31	0.16465832
45	0x3eca1b90	0.39474154
46	0xbee71ddb	-0.45139965
47	0x3ddc4552	0.10755409
48	0xbdb297bf	-0.087203495
49	0x3f1abdd4	0.60445905
50	0xbe5a8b53	-0.2134221
51	0x3f3a6e91	0.7282496
52	0x3fa23bed	1.2674538
53	0xbe467278	-0.19379604
54	0x3f206166	0.6264862
55	0x3f32d1d4	0.6985142
56	0x3e7cfb1d	0.24705167
57	0xbea723de	-0.32644552
58	0xbf247014	-0.6423352
59	0x3e58eaac	0.2118327
60	0xbf6d32fb	-0.92655915
61	0x3eac3c5e	0.33639807
62	0xbc18829f	-0.009308486
63	0xbf159504	-0.58430505
64	0xbf379697	-0.71714157
65	0xbf886006	-1.0654304
66	0x3f2aa8b7	0.6666369
67	0x3d91f725	0.07127217
68	0x3efbfdf7	0.49217197
69	0x3f3c2a81	0.73502356
70	0xbe7eecff	-0.24895094
71	0x3ee5e1d5	0.4489886
72	0x3cc47652	0.0239822
73	0xbd18791f	-0.037224885
74	0x3e6eb7ce	0.23312303
75	0xbe2d04c9	-0.16896357
76	0xbea3df89	-0.3200648
77	0xc00d60d2	-2.2090344
78	0x3efe9b70	0.49727964
79	0xbf388bdb	-0.720884
80	0xbe517081	-0.20453073
81	0xbf9bd13b	-1.2173227
82	0x3f10f7d0	0.5662813
83	0x3f01f87c	0.5076978
84	0xbf9acfdc	-1.2094684
85	0x3f860507	1.0470284
86	0xbf08cd1f	-0.5343799
87	0xbe3745f5	-0.1789778
88	0xbf846ece	-1.0346315
89	0xbf7d160f	-0.98861784
90	0x3ee83c27	0.45358393
91	0xbeb42e6f	-0.35191676
92	0xbfca45bc	-1.5802531
93	0x3f2665f3	0.6499931
94	0xbe59b405	-0.21260078
95	0xbe862014	-0.2619635
96	0xbccbfb0f	-0.024899988
97	0xbf547657	-0.8299307
98	0x3f336c72	0.7008735
99	0xbdb7d361	-0.08975864
100	0xbf29d344	-0.6633799
101	0x3ca2e76c	0.019885741
102	0xbf07130d	-0.52763444
103	0x3e9a7f7f	0.30175397
104	0x3ef41a71	0.47676423
105	0xbf367d54	-0.71284986
106	0x3f2f84a2	0.68561757
107	0xbd0f33bf	-0.03496146
108	0xbe3f73c6	-0.18696508
109	0x3f555ec9	0.83347756
110	0xbe7c7c5f	-0.24656819
111	0x3f25478f	0.64562315
112	0x3ecad71b	0.39617237
113	0xbf8d5efd	-1.1044613
114	0x3ea33972	0.31879765
115	0xbf1431a1	-0.5788823
116	0x3ea06aa9	0.31331375
117	0xbed6efa1	-0.41979697
118	0xbf819bdb	-1.0125688
119	0xbe1ba41e	-0.15199324
120	0x3e8483bd	0.25881758
121	0xbf501b5c	-0.8129175
122	0x3c81faa5	0.015866587
123	0x3f46033e	0.773487
124	0xbe1965c6	-0.1498023
125	0x3f08a744	0.5338023
126	0xbe8f616c	-0.28004014
127	0xbea677b3	-0.32513198
128	0xbf41b232	-0.7566253
129	0xbfbf98b3	-1.4968475
130	0x3f874ffd	1.0571285
131	0x3daf556b	0.08561214
132	0x3eb32ad3	0.3499361
133	0x3f554386	0.8330616
134	0x3f33385c	0.7000787
135	0xbf101e7a	-0.56296504
136	0xbe6b6045	-0.22985943
137	0x3da352b2	0.07974757
138	0x3e399211	0.18122126
139	0xbf0889da	-0.53335345
140	0xbed5bea8	-0.41747022
141	0xbf75f32b	-0.9607417
142	0x3eddf100	0.4334793
143	0xbebad225	-0.36488453
144	0x3d8d54af	0.06900918
145	0xbf8a3044	-1.079598
146	0x3daee5e0	0.08539939
147	0x3f8f3756	1.1188762
148	0xbd8a59ea	-0.06755431
149	0xbeaa8116	-0.3330161
150	0xbcdf5cd9	-0.027265953
151	0xbeea20e0	-0.45728207
152	0xbea9053b	-0.33011803
153	0x3deb7772	0.11497392
154	0xbe342e0a	-0.17595688
155	0xbf5599c0	-0.8343773
156	0xbf7c259d	-0.98494893
157	0x3fa108ac	1.2580771
158	0x3d1c8317	0.038210955
159	0x3f2c229b	0.67240304
160	0x3e48caa8	0.19608557
161	0x3dc61bdd	0.09673283
162	0x3e121f87	0.14269839
163	0x3eb76a60	0.35823345
164	0xbee2a853	-0.44269046
165	0xbed5fbe1	-0.4179373
166	0x3ee47694	0.44621718
167	0x3e4b751f	0.19868897
168	0xbf03f153	-0.51540107
169	0x3e4a6abc	0.19767278
170	0x3f94aedc	1.1615863
171	0x3f69c989	0.91323143
172	0xbe174f64	-0.14776379
173	0x3d31312b	0.04325978
174	0xbf22b345	-0.63554794
175	0xbe874f8b	-0.26427874
176	0x3b978b2b	0.0046247444
177	0xbf138955	-0.5763143
178	0x3e9583dd	0.29202166
179	0x3d876fbc	0.066131085
180	0x3ed20795	0.4102141
181	0x3dce8e1f	0.10085701
182	0xbf367dfb	-0.7128598
183	0xbe31d82f	-0.17367624
184	0x3e25c210	0.1618731
185	0xbe84f75b	-0.25969967
186	0xbf2ca611	-0.674409
187	0x3e232965	0.1593376
188	0xbe997df4	-0.29978907
189	0x3f57bffc	0.8427732
190	0xbf828c0a	-1.0198987
191	0xbe926244	-0.28590596
192	0xbefe11a4	-0.49622834
193	0xbf11ce31	-0.5695525
194	0xbe2238ba	-0.15841952
195	0x3e3f80d7	0.18701492
196	0x3e75a0e8	0.23987162
197	0xbeb3ee41	-0.3514271
198	0x3f517030	0.8181181
199	0xbe80319b	-0.25037846
200	0xbf374a84	-0.71598077
201	0xbfd37dc9	-1.6522762
202	0x3e95ad2e	0.29233688
203	0xbf33291a	-0.6998459
204	0x3e890d83	0.2676812
205	0x3eaef574	0.3417164
206	0x3ef24564	0.47318566
207	0xbf56743c	-0.8377111
208	0x3cf2a38e	0.029619005
209	0xbf76ba3c	-0.9637792
210	0xbe4d87c2	-0.20071319
211	0xbd0bbe4a	-0.03411702
212	0xbfac4eef	-1.3461589
213	0x3f8b7b9a	1.0897095
214	0xbecebd65	-0.40378872
215	0xbf8ebde7	-1.1151704
216	0xbe9be8f1	-0.30451158
217	0xbecfc1aa	-0.4057744
218	0x3efef476	0.49795884
219	0xbe31194e	-0.17294809
220	0xbe309bd8	-0.1724695
221	0x3f231a7c	0.63712287
222	0xbf885ee1	-1.0653955
223	0x3ed7e290	0.4216504
224	0xbe39fdc9	-0.18163218
225	0xbeb2c4a0	-0.34915638
226	0x3e33b7b1	0.17550541
227	0x3df87ad1	0.121328
228	0x3deabd47	0.11461883
229	0xbf0702ad	-0.5273846
230	0xbea5c894	-0.3237959
231	0x3e4c9af6	0.19980988
232	0x3e866b8d	0.2625393
233	0xbf8fa6b2	-1.1222746
234	0x3f038d88	0.51387835
235	0xbed675e8	-0.4188683
236	0xbda80703	-0.082044624
237	0x3e93924b	0.2882255
238	0xbeba413d	-0.36377898
239	0xbf4f2640	-0.8091774
240	0x3f000ee8	0.50022745
241	0xbfa309f3	-1.2737411
242	0x3dcb4910	0.09926045
243	0xbd3dc539	-0.046330664
244	0xbed1fec0	-0.4101467
245	0x3f1a750e	0.6033486
246	0xbf1bbdb8	-0.6083636
247	0xbe098c9c	-0.13432544
248	0x3f6040e8	0.8759904
249	0xbfa71cf8	-1.3055716
250	0xbf0ede70	-0.5580816
251	0x3f6b6a7e	0.9195937
252	0x3f290172	0.6601783
253	0xbcce53a8	-0.025186375
254	0x3d5765e1	0.052587394
255	0xbeb41238	-0.3517015

lstm.bias_ih_l0 f4 [256]
0	0xbebd8474	-0.37015116
1	0xbed4b2ba	-0.41542608
2	0xbeaf154f	-0.34195945
3	0xbe7eaf03	-0.24871449
4	0x3e30bd2b	0.17259662
5	0xbe025a9f	-0.12729882
6	0x3e699ec6	0.22814474
7	0x3e98dbb6	0.29855126
8	0xbea7c5f4	-0.32768214
9	0x3f89cd4a	1.0765774
10	0x3e3e1351	0.18562056
11	0x3ea1967a	0.31560117
12	0x3e3a0c97	0.18168865
13	0xbec1acba	-0.37827092
14	0xbd7f48dd	-0.062325347
15	0xbe8c605c	-0.27417266
16	0x3cdfe40c	0.02733042
17	0xbe163a5c	-0.146707
18	0xbe30433d	-0.1721315
19	0xbc293351	-0.010327176
20	0xbe26f4fc	-0.16304392
21	0xbed3f112	-0.4139486
22	0xbefde14a	-0.49585944
23	0x3f6a2b02	0.91471875
24	0x3f48e180	0.78469086
25	0xbe9ebb8a	-0.31002456
26	0x3ede7251	0.43446591
27	0x3d9f92c0	0.07791662
28	0xbee6ac57	-0.4505336
29	0x3e7beb79	0.24601544
30	0x3efc7cb2	0.49313885
31	0xbeaac201	-0.33351138
32	0x3e01a457	0.12660347
33	0xbe7baa72	-0.24576738
34	0xbde3917d	-0.11111734
35	0xbeb4d308	-0.35317254
36	0x3e3fd338	0.18732917
37	0x3ef2a12b	0.47388586
38	0xbe482bc9	-0.19547953
39	0x3ea999f2	0.33125263
40	0x3ea63686	0.32463473
41	0x3d058dd2	0.032605954
42	0xbdd56a32	-0.10420646
43	0x3f2a7c0d	0.66595536
44	0x3c9debbf	0.019277452
45	0xbf0a4cd2	-0.5402347
46	0xbea4d2d3	-0.32192096
47	0x3e3b8a03	0.18314366
48	0x3f7e1abe	0.99259555
49	0xbe4eb1d5	-0.20185025
50	0xbe16180a	-0.14657608
51	0xbc47409e	-0.012161402
52	0x3e8a0dc0	0.26963615
53	0xbd56f53a	-0.05247996
54	0x3e969789	0.29412487
55	0x3e7d50e2	0.24737886
56	0xbe0a9849	-0.13534655
57	0xbe9ac4e6	-0.30228347
58	0x3f084bc3	0.53240603
59	0xbee6f100	-0.45105743
60	0x3ea21054	0.31653082
61	0xbdcbdf3d	-0.09954689
62	0x3e9c07e7	0.3047478
63	0xbd2146ac	-0.03937404
64	0x3cd56ed2	0.02605382
65	0x3e2d0325	0.16895731
66	0xbe979f22	-0.29613596
67	0xbe208c77	-0.15678583
68	0x3e118709	0.14211668
69	0xbf0d608e	-0.55225456
70	0xbf34d9c2	-0.7064477
71	0x3e44fee6	0.19237861
72	0xbb29a7d5	-0.002588739
73	0x3d4ea515	0.050450403
74	0x3d4a1b3f	0.04934239
75	0xbe1e00b5	-0.15429957
76	0x3e883008	0.26599145
77	0xbf00c12c	-0.50294757
78	0x3d4a8831	0.04944629
79	0xbf5f5e42	-0.872532
80	0xbe84064d	-0.25786057
81	0xbed577fd	-0.41693106
82	0xbea81d14	-0.32834685
83	0x3d27fe88	0.041014224
84	0xbf0566c2	-0.5210992
85	0x3d7124f0	0.058873117
86	0xbe74e7f6	-0.23916611
87	0xbe899867	-0.26874086
88	0x3ea078f2	0.31342274
89	0xbe1bcc42	-0.15214637
90	0xbe136868	-0.14395297
91	0xbdc747a5	-0.09730462
92	0x3e8ed44b	0.27896342
93	0xbf0df553	-0.5545246
94	0x3e83dc98	0.25754237
95	0xbda6c93e	-0.08143853
96	0x3ea439e8	0.3207543
97	0xbce038be	-0.027370807
98	0x3d650290	0.055910647
99	0xbe28dc1b	-0.16490214
100	0x3e1700cb	0.14746396
101	0x3d6854e9	0.0567216
102	0x3f8602d4	1.0469613
103	0x3e2f323f	0.17109011
104	0x3e2e7ffe	0.17041013
105	0x3cb22969	0.021748262
106	0xbd9f8523	-0.07789066
107	0x3edcd816	0.4313361
108	0x3eec748a	0.46182662
109	0xbedc7b92	-0.43063027
110	0x3e224611	0.1584704
111	0xbed6171e	-0.41814512
112	0x3edb612a	0.42847568
113	0xbe4feb83	-0.20304684
114	0xbee9e309	-0.45681027
115	0x3ef53085	0.4788858
116	0xbde3929d	-0.11111949
117	0x3e48e022	0.1961675
118	0xbd91def3	-0.07122602
119	0x3e11a43b	0.14222805
120	0xbe386475	-0.18007071
121	0x3cd67391	0.026178153
122	0x3eff85aa	0.49906665
123	0x3e45ed80	0.1932888
124	0xbe42a403	-0.19007878
125	0x3f3291f0	0.6975393
126	0xbe489393	-0.19587545
127	0x3e5fdc81	0.2186146
128	0xbe349538	-0.17635047
129	0x3d8dd0d1	0.06924594
130	0x3e500b50	0.20316815
131	0xbf091bb7	-0.53557914
132	0x3ecf9a6e	0.40547508
133	0x3ee28227	0.44239923
134	0xbede7441	-0.4344807
135	0xbf159573	-0.58431166
136	0xbe541d4e	-0.20714304
137	0x3f3a3b11	0.7274638
138	0xbf328a57	-0.6974234
139	0x3f0a762f	0.54086584
140	0xbe054f7a	-0.13018599
141	0xbe027f90	-0.12743974
142	0xbe29e5c7	-0.1659156
143	0xbf320ee4	-0.6955397
144	0x3e2cb24a	0.16864887
145	0xbe257716	-0.16158709
146	0xbf2bfc33	-0.671817
147	0x3d8b3b01	0.067983635
148	0xbed8bf5a	-0.4233349
149	0x3f0a62b0	0.54056835
150	0x3ea0e31c	0.3142327
151	0x3f0a8294	0.54105496
152	0x3e66905f	0.2251601
153	0x3f04a6f3	0.51817244
154	0xbf1c10bc	-0.60963035
155	0x3ef01b27	0.46895716
156	0x3e096f93	0.13421468
157	0xbeacab50	-0.3372445
158	0xbf3824af	-0.71930975
159	0xbe20d0ca	-0.15704647
160	0x3ec3f1d2	0.38270432
161	0xbe947f0b	-0.29003176
162	0x3d803f07	0.062620215
163	0x3ee7bbf9	0.452606
164	0xbf23f34d	-0.6404312
165	0x3e8d7bdf	0.2763357
166	0x3e8fbd84	0.28074276
167	0x3e1881e8	0.14893305
168	0x3e8dd661	0.2770262
169	0xbe811302	-0.25209814
170	0xbb9c92b7	-0.004778232
171	0xbdd5c81d	-0.10438559
172	0x3dc0b3e4	0.094093114
173	0x3eb0472c	0.344293
174	0x3d82cf00	0.06387138
175	0x3e855656	0.26042432
176	0xbf3ab5d0	-0.72933674
177	0x3dd7a661	0.10529781
178	0x3f128956	0.5724081
179	0x3e648971	0.22318055
180	0xbf3a10a4	-0.7268164
181	0x3ce420e5	0.027847717
182	0x3e2efc4f	0.17088436
183	0x3e4cf583	0.2001553
184	0x3ea7768d	0.32707635
185	0xbe91a70e	-0.28447765
186	0xbe5af216	-0.21381411
187	0xbdc78732	-0.09742583
188	0x3ec04d27	0.37558863
189	0xbe832d69	-0.25620583
190	0x3eedecf3	0.4646984
191	0xbe6a80ae	-0.2290065
192	0xbd8cb614	-0.06870666
193	0x3e2717ca	0.16317669
194	0x3ddeb388	0.108740866
195	0x3d6d1c81	0.05788851
196	0xbe56bac2	-0.2096968
197	0x3e06fa41	0.13181402
198	0x3e3436cc	0.17599028
199	0xbf26808f	-0.65039915
200	0xbeb8193b	-0.3595675
201	0x3e42b77d	0.19015308
202	0xbe3f447c	-0.18678468
203	0x3f0c8b4b	0.54900044
204	0x3e291bad	0.16514464
205	0xbee2b7a1	-0.44280723
206	0x3e596a19	0.2123188
207	0xbddb4ecf	-0.10708391
208	0xbe34e7de	-0.17666575
209	0x3eca84ea	0.3955453
210	0x3e63b666	0.22237548
211	0xbbdfe25a	-0.006832403
212	0xbf01a111	-0.5063639
213	0xbefe6512	-0.49686486
214	0xbf1fd2a1	-0.6243077
215	0x3f2864bf	0.65778726
216	0x3dcf75df	0.10129904
217	0xbea165c2	-0.31522948
218	0x3ea7e9ee	0.32795662
219	0x3de32445	0.11090902
220	0xbe541705	-0.20711906
221	0x3debbe8f	0.115109555
222	0x3efe2fce	0.49645847
223	0xbf5b45a8	-0.8565316
224	0xbeb3f553	-0.35148105
225	0xbed79388	-0.42104745
226	0xbe27a9c8	-0.1637336
227	0xbe45d0c0	-0.19317913
228	0xbe94276c	-0.28936327
229	0x3f6c9815	0.9241956
230	0xbf601b2e	-0.8754147
231	0xbf2aa622	-0.6665975
232	0x3e3961fc	0.18103784
233	0x3d7272a6	0.05919137
234	0xbe61c198	-0.22046506
235	0xbc0bafa0	-0.008525759
236	0x3e4b183c	0.19833463
237	0xbe8e99e1	-0.27851775
238	0xbd8e59b4	-0.06950703
239	0x3f674b3f	0.9034919
240	0x3f010d98	0.5041137
241	0xbecb9701	-0.39763644
242	0x3caf74fe	0.02141809
243	0x3ea1a9c4	0.31574833
244	0x3e9017a0	0.28143024
245	0x3c759778	0.014989726
246	0x3e9d704e	0.30749744
247	0x3e0f8bfe	0.14018247
248	0xbd8adb1b	-0.06780072
249	0xbf04ecc2	-0.51923764
250	0x3e44130b	0.1914789
251	0xbeb489c1	-0.35261348
252	0x3ea23708	0.3168261
253	0x3e96fd99	0.29490355
254	0xbed1a9be	-0.40949816
255	0x3e843f80	0.25829697

lstm.bias_hh_l0 f4 [256]
0	0xbeba3e63	-0.36375722
1	0xbea7083d	-0.32623473
2	0xbeb196eb	-0.34685454
3	0xbda0762f	-0.07835042
4	0x3e6ec480	0.23317146
5	0xbe6bc485	-0.23024185
6	0x3e48b50c	0.19600314
7	0x3ebc8700	0.36821747
8	0xbebba0bf	-0.36646077
9	0x3f5afe1d	0.85543996
10	0x3d1538c3	0.036431085
11	0x3ebfb139	0.37439898
12	0x3e49a6bc	0.1969251
13	0xbe8428f3	-0.25812492
14	0xbd7501dd	-0.05981623
15	0xbe01e848	-0.12686265
16	0x3ce52496	0.027971547
17	0xbde6be59	-0.11266775
18	0xbd9e5e54	-0.077328354
19	0xbd254464	-0.040348426
20	0xbd94d322	-0.07266833
21	0xbe718da1	-0.23589183
22	0xbf04e849	-0.5191694
23	0x3f5d29de	0.8639201
24	0x3f798a81	0.97476965
25	0xbe875057	-0.26428482
26	0x3ebbaa19	0.36653212
27	0x3e34064f	0.17580532
28	0xbefab1d2	-0.4896379
29	0x3e7c0b3e	0.24613664
30	0x3ec5139f	0.38491532
31	0xbefa55ae	-0.48893493
32	0x3dbb0618	0.09132022
33	0xbe98351b	-0.29728016
34	0xbe120b89	-0.14262213
35	0xbe7d528a	-0.24738517
36	0xbbd0ba0e	-0.0063698357
37	0x3edb4ada	0.42830545
38	0xbe53bba5	-0.2067705
39	0x3ebfa9a4	0.37434113
40	0x3e86906f	0.2628207
41	0x3e3e9d39	0.18614663
42	0xbe9325ed	-0.28739873
43	0x3eeaebe8	0.45883107
44	0x3cb2e399	0.021837043
45	0xbf2dc7c9	-0.6788297
46	0xbe37155a	-0.17879239
47	0x3e0bc2b9	0.136485
48	0x3f831b2d	1.0242668
49	0xbe6f6fb3	-0.23382454
50	0xbe22f316	-0.15913042
51	0xbb5cad16	-0.0033672503
52	0x3e7187f5	0.2358702
53	0xbda30a0d	-0.079609014
54	0x3ed6e280	0.4196968
55	0x3e4b9e36	0.19884571
56	0xbcfbfa9a	-0.030759145
57	0xbe6e73ea	-0.23286405
58	0x3ef95f92	0.48705727
59	0xbed3688a	-0.41290694
60	0x3e7c6ad5	0.24650128
61	0xbdf54503	-0.119760536
62	0x3eecbfef	0.46240184
63	0xbd6ded97	-0.05808791
64	0xbbf82d04	-0.0075737257
65	0x3ea8087f	0.32818982
66	0xbe1b6468	-0.1517502
67	0xbe5257b8	-0.20541275
68	0x3e8170ab	0.2528127
69	0xbf1b5454	-0.6067555
70	0xbf2a5289	-0.6653219
71	0x3e59f1c9	0.2128364
72	0xbd48ecf4	-0.0490541
73	0x3e623940	0.22092152
74	0x3d797c47	0.060909536
75	0xbe3c2fb6	-0.18377575
76	0x3d80ca02	0.0628853
77	0xbec1697a	-0.37775785
78	0xbccc3914	-0.02492956
79	0xbf61e014	-0.8823254
80	0xbe8a918b	-0.27064165
81	0xbe7b2216	-0.24524722
82	0xbecd796d	-0.40131703
83	0xbd91bab9	-0.07115693
84	0xbf33ca74	-0.70230794
85	0x3dd290aa	0.10281499
86	0xbe89fd87	-0.2695124
87	0xbe37cb82	-0.17948726
88	0x3e1eab5a	0.15495053
89	0xbe2294f2	-0.1587713
90	0xbe4f66e6	-0.20254096
91	0xbd3d0b0c	-0.046153113
92	0x3e704fd4	0.23467952
93	0xbec2a1ed	-0.38014165
94	0x3d5c9b64	0.05385913
95	0xbd1ee410	-0.038791716
96	0x3eb9a49b	0.36258397
97	0xbdf431a9	-0.119235344
98	0xbdb15f0d	-0.086607076
99	0xbe5680c2	-0.20947555
100	0x3e391e87	0.18078052
101	0x3e2cf933	0.16891937
102	0x3f62644a	0.8843428
103	0x3e07d003	0.13262944
104	0x3e5cacec	0.2155034
105	0xbd03e5db	-0.03220163
106	0x3c24a2a0	0.010048538
107	0x3ea3b0ab	0.31970724
108	0x3ee34b3a	0.4439333
109	0xbe7024d9	-0.23451556
110	0x3c717978	0.014738433
111	0xbe3406b2	-0.17580679
112	0x3e8ca44a	0.27469093
113	0xbeb36b57	-0.3504283
114	0xbefe7dcf	-0.4970536
115	0x3eba1847	0.36346647
116	0xbe030df7	-0.12798296
117	0x3e202c86	0.15641984
118	0x3ce58dc7	0.028021706
119	0x3db10a1b	0.086445056
120	0x3c8f7037	0.017509563
121	0x3d82b427	0.063820176
122	0x3eac6c28	0.33676267
123	0x3e37b06b	0.17938392
124	0xbe100aa3	-0.14066558
125	0x3f2a62b8	0.6655688
126	0xbe1d4ab5	-0.1536053
127	0x3e67c261	0.22632743
128	0xbe841a09	-0.25801113
129	0x3e77b9ad	0.24191923
130	0x3e2678c0	0.16257
131	0xbf217d79	-0.6308208
132	0x3ea27e26	0.3173687
133	0x3ef3ac0f	0.47592208
134	0xbf0a2f07	-0.5397801
135	0xbf19f1e7	-0.6013474
136	0xbe57bcf1	-0.21068169
137	0x3f33e09a	0.7026459
138	0xbf594e3b	-0.84884995
139	0x3f108a0f	0.5646066
140	0x3d8be62a	0.0683101
141	0xbe127778	-0.14303386
142	0xbdaa4d55	-0.08315531
143	0xbf2f217d	-0.68410474
144	0x3db0ab7e	0.086264595
145	0xbeb7af81	-0.35876086
146	0xbf2ae444	-0.66754556
147	0xbd4f8e56	-0.05067285
148	0xbf1957c6	-0.59899557
149	0x3f290dfd	0.6603697
150	0x3dec4b6f	0.11537825
151	0x3f24c4fa	0.6436306
152	0x3e80bbb5	0.2514321
153	0x3f047d6b	0.5175387
154	0xbf3c4ac1	-0.73551565
155	0x3f0f4542	0.55965054
156	0x3dd988d7	0.10621803
157	0xbebfddee	-0.37474006
158	0xbf61c47f	-0.88190454
159	0xbe1a77bd	-0.15084739
160	0x3ef8b022	0.4857188
161	0xbea6f3b7	-0.32607815
162	0x3da07b98	0.07836074
163	0x3f12e53f	0.5738105
164	0xbf1eec5d	-0.6207941
165	0x3e93c9f8	0.28865027
166	0x3e6cf6c1	0.23141004
167	0x3ea55fcb	0.32299647
168	0x3eb33b82	0.35006338
169	0xbdb7d0f1	-0.08975399
170	0xbbb32e73	-0.0054681837
171	0xbd8ed03a	-0.0697331
172	0x3e7f71b5	0.2494572
173	0x3deb73d3	0.11496701
174	0x3e6d6c58	0.23185861
175	0x3eb472e1	0.35243896
176	0xbf6009f1	-0.8751517
177	0x3e4daa1e	0.20084426
178	0x3efc39aa	0.49262744
179	0x3c86680c	0.016407035
180	0xbf4a86e9	-0.79112107
181	0x3ce1f62c	0.027583204
182	0x3e104d81	0.14092065
183	0x3dd38eb8	0.10329956
184	0x3eb981fa	0.36231977
185	0xbddf9634	-0.10917321
186	0xbe597ec2	-0.2123976
187	0xbe99ae84	-0.30015957
188	0x3f13979a	0.576532
189	0xbe9b701e	-0.30358976
190	0x3ec0b8ec	0.37641084
191	0xbe62d966	-0.22153243
192	0xbe14f95f	-0.14548253
193	0x3e5858a6	0.21127567
194	0x3db606c4	0.08888009
195	0x3d480691	0.048834387
196	0xbe5c48ed	-0.21512194
197	0x3e5e9a79	0.21738614
198	0x3c43df85	0.011955147
199	0xbf397112	-0.72438157
200	0xbed9aa8d	-0.42512932
201	0x3e73ca80	0.23807716
202	0xbe087726	-0.13326702
203	0x3eef5dcf	0.46751258
204	0x3c81b211	0.015831979
205	0xbea82f1f	-0.3284845
206	0x3e296ae8	0.16544688
207	0xbe85f59f	-0.26163957
208	0xbe828981	-0.25495532
209	0x3ec791f3	0.38978538
210	0x3ea69c76	0.32541245
211	0x3d7853e7	0.06062689
212	0xbf1098fd	-0.5648344
213	0xbe90c42d	-0.2827467
214	0xbf15a87a	-0.584602
215	0x3f04a826	0.51819074
216	0xbd7e5bf5	-0.062099416
217	0xbef11a49	-0.47090366
218	0x3eed16a1	0.46306327
219	0x3df91c8d	0.12163649
220	0xbe843e14	-0.25828612
221	0xbd8fbeae	-0.07018791
222	0x3f22f159	0.6364952
223	0xbf397796	-0.724481
224	0xbebbc2bd	-0.3667201
225	0xbef64195	-0.4809691
226	0xbe0773c5	-0.13227756
227	0xbe968dff	-0.2940521
228	0xbe418810	-0.1889956
229	0x3f5ffdcf	0.87496656
230	0xbf57cce5	-0.8429702
231	0xbf267413	-0.65020865
232	0x3e0aec57	0.13566719
233	0x3e14bf8e	0.14526197
234	0xbd807ac5	-0.062734164
235	0x3d8c9de2	0.06866051
236	0x3eaf5c39	0.34250048
237	0xbeeddfff	-0.46459958
238	0x3b96ad93	0.0045983284
239	0x3f782b51	0.96941096
240	0x3f2123cf	0.62945265
241	0xbea21731	-0.3165832
242	0xbdc10c7a	-0.09426208
243	0x3e9f9a4d	0.3117241
244	0x3e90b1d7	0.2826068
245	0xbd5efe73	-0.05444188
246	0x3ec0e207	0.37672445
247	0x3d2a82dd	0.041628707
248	0xbd5c11a4	-0.05372776
249	0xbe96adda	-0.29429513
250	0x3ea22412	0.31668144
251	0xbeddb6c7	-0.4330351
252	0x3e8d043a	0.27542287
253	0x3dbf52f2	0.093419924
254	0xbebf11d4	-0.3731829
255	0x3ebd0fe5	0.3692619

lstm.weight_ih_l1 f4 [256, 64]
0	0xbe079476	-0.13240227
1	0xbf354b0c	-0.7081764
2	0xbe4a7d81	-0.19774438
3	0x3ea1c924	0.3159877
4	0x3ea448d9	0.32086828
5	0x3e4c69f5	0.19962294
6	0x3e57bd64	0.2106834
7	0xbf03447c	-0.51276374
8	0x3bdccf52	0.0067385817
9	0xbf8f6d39	-1.1205207
10	0xbefa80f9	-0.48926523
11	0xbece3f09	-0.40282467
12	0xbe3ff227	-0.18744718
13	0xbf40bd39	-0.7528873
14	0xbf883ead	-1.0644127
15	0x3cc6532a	0.024209578
16	0xbeb56db8	-0.3543527
17	0x3d0ced20	0.034405828
18	0x3e0aac6f	0.1354234
19	0xbf1e1818	-0.61755514
20	0xbe4dfd1b	-0.20116083
21	0x3f207427	0.62677234
22	0xbbd0a0f3	-0.006366843
23	0x3c823bf8	0.015897736
24	0x3f2f5410	0.68487644
25	0xbee80674	-0.45317423
26	0xbe981840	-0.29706
27	0xbe813f0f	-0.25243422
28	0x3e928ee2	0.28624636
29	0xbec65bb4	-0.3874184
30	0xbf7a61a6	-0.9780525
31	0x3ee01713	0.43767604
32	0xbe27cd53	-0.16386919
33	0x3cc83f32	0.024444196
34	0xbd629d87	-0.05532601
35	0x3df2df9f	0.118590586
36	0xbec02cc4	-0.37534153
37	0xbd812348	-0.063055575
38	0x3e176e70	0.14788222
39	0x3e55c6cb	0.20876615
40	0xbeaa6274	-0.3327824
41	0x3f857dfa	1.042907
42	0x3e144987	0.14481173
43	0x3eeef6c0	0.4667263
44	0xbeaf0ee5	-0.3419105
45	0xbb66b785	-0.00352046
46	0x3f06e185	0.52687865
47	0xbeb84414	-0.3598944
48	0xbe831a8f	-0.256062
49	0xbe50e907	-0.20401393
50	0xbf434d73	-0.76290053
51	0xbf64824f	-0.89261335
52	0x3d8119af	0.06303727
53	0xbf840188	-1.0312967
54	0x3f64e999	0.8941894
55	0xbe741dfe	-0.23839566
56	0xbefe41b6	-0.49659508
57	0x3dc06a17	0.09395235
58	0xbe4947ab	-0.19656245
59	0x3ebfc620	0.37455845
60	0x3ed745d7	0.4204547
61	0xbe25deba	-0.16198245
62	0xbf3c6d8b	-0.7360465
63	0x3b3e8f2a	0.0029077032
64	0x3e7e17a9	0.24813713
65	0xbead32b5	-0.3382775
66	0xbb8b4f25	-0.004251378
67	0xbe86696b	-0.26252303
68	0xbe01839b	-0.1264786
69	0xbeb606d2	-0.35552078
70	0x3eec1804	0.46112072
71	0xbf043cd5	-0.5165532
72	0x3e21975e	0.15780398
73	0xbebce405	-0.36892715
74	0x3ee12e8c	0.43980825
75	0xbec62e74	-0.38707316
76	0x3e449375	0.19196875
77	0x3d5d133e	0.05397343
78	0xbf32c861	-0.69837004
79	0x3ed8d5d8	0.4235065
80	0x3f1439f5	0.57900935
81	0xbe6f00b1	-0.23340108
82	0xbf0ce623	-0.5503866
83	0x3e3b672c	0.18301076
84	0x3e9a30e3	0.30115423
85	0xbe935cb9	-0.2878168
86	0x3efe09a2	0.49616724
87	0xbeca4106	-0.39502734
88	0x3d9097db	0.07060214
89	0x3e5e86a0	0.21731043
90	0xbef5a586	-0.47977847
91	0xbe36f073	-0.17865162
92	0xbd5f7aba	-0.0545604
93	0x3e9d3ca0	0.30710316
94	0x3f293161	0.6609097
95	0x3ef7b586	0.4838068
96	0x3ecab95c	0.39594543
97	0xbeb85d18	-0.36008525
98	0xbee1e65a	-0.44121057
99	0x3f23d5fd	0.63998395
100	0xbf50c06d	-0.8154362
101	0x3c6f7e3c	0.014617499
102	0xbe17b9f2	-0.14817026
103	0xbe45de9b	-0.19323198
104	0xbea2e3a0	-0.3181429
105	0x3f4036c1	0.7508355
106	0x3e8dfb44	0.27730763
107	0x3e989808	0.2980349
108	0x3de67e8a	0.11254604
109	0xbec094bf	-0.37613484
110	0xbe76df0b	-0.24108522
111	0xbefcd4f6	-0.49381226
112	0x3f34a2c3	0.70560855
113	0x3f40c647	0.7530255
114	0xbcfd5e9d	-0.030928904
115	0xbf717d62	-0.94331944
116	0x3f54116e	0.82839096
117	0xbf00801e	-0.5019549
118	0x3d927228	0.0715068
119	0x3e69989e	0.22812125
120	0x3e883253	0.26600894
121	0xbdc6aa47	-0.097004466
122	0xbe508532	-0.2036331
123	0x3eb4c78d	0.35308495
124	0xbd9cac1f	-0.07650017
125	0x3cc77594	0.024348058
126	0x3f27663a	0.6539036
127	0x3f4f6d90	0.81026554
128	0xbe6137cb	-0.2199394
129	0xbf07b5c3	-0.5301172
130	0x3ff999dc	1.9500079
131	0xbd85d8e6	-0.06535511
132	0xbe728d07	-0.2368661
133	0x3f245e61	0.6420651
134	0xbf002049	-0.50049263
135	0xbf2621d2	-0.64895356
136	0x3e0d5c00	0.13804626
137	0x3e3e9f15	0.18615372
138	0x3ee93b4f	0.4555306
139	0xbb710b8a	-0.003678056
140	0xbc80c98d	-0.015721107
141	0xbeac23bb	-0.3362101
142	0xbf8e6577	-1.1124715
143	0xbe7c5297	-0.2464088
144	0x3e4a2b9d	0.197432
145	0xbd6ff33e	-0.058581583
146	0xbf433259	-0.762487
147	0xbe7ef530	-0.24898219
148	0x3e8b0f3c	0.2716006
149	0xbde32e1c	-0.11092779
150	0x3e3f4bde	0.18681285
151	0xbdc2325c	-0.094822615
152	0x3f1e1378	0.61748457
153	0x3e995e50	0.29954767
154	0x3f8f3699	1.1188537
155	0xbd535076	-0.051590405
156	0x3e03bd8f	0.1286528
157	0x3f9fb03d	1.2475659
158	0xbfe0ffc5	-1.7578055
159	0xbe3dec38	-0.18547142
160	0x3e473788	0.19454777
161	0xbe54910e	-0.20758459
162	0xbf50acb1	-0.81513506
163	0x3e152529	0.14564957
164	0xbeaf14b2	-0.34195477
165	0x3eb7aaee	0.35872597
166	0x3f30dc36	0.69086015
167	0xbe8f1f45	-0.27953544
168	0x3fb86480	1.440567
169	0x3f1baf87	0.6081471
170	0xbe4da433	-0.20082168
171	0xbed8441c	-0.42239463
172	0x3d8e6a4e	0.0695387
173	0xbd7b859b	-0.061406713
174	0x3d12b800	0.035820007
175	0xbb86abe5	-0.004109847
176	0xbed6fbed	-0.4198908
177	0xbf9b2c1f	-1.212284
178	0x3d0eed7c	0.03489445
179	0xbe8acf15	-0.27111116
180	0xbdf19029	-0.117950745
181	0xbfd0aa5f	-1.6301993
182	0xbf963767	-1.1735657
183	0xbec7e6df	-0.39043328
184	0x3f8f6669	1.1203128
185	0xbf489366	-0.7834991
186	0xbfb0779d	-1.3786503
187	0x3e408f4b	0.18804662
188	0x3f47e0e4	0.7807753
189	0x3ce69f60	0.028152168
190	0x3e310115	0.17285569
191	0x3f93e733	1.1554931
192	0xbf11c670	-0.56943417
193	0xbf5ab1bb	-0.85427445
194	0x3f3ffb59	0.749929
195	0xbefd327b	-0.49452576
196	0x3ee3f454	0.44522345
197	0xbe0b0246	-0.13575086
198	0xbef49deb	-0.47776732
199	0xbeb068e1	-0.34455016
200	0x3e6ecb5d	0.23319764
201	0x3f4580c4	0.77149606
202	0xbea14c42	-0.31503493
203	0x3ec7ce16	0.3902442
204	0x3c71c75e	0.0147570055
205	0xbdbb2dcf	-0.09139597
206	0xbf1a1079	-0.60181385
207	0xbcf9a16e	-0.030472483
208	0xbed9e960	-0.42560863
209	0xbf3227ed	-0.6959217
210	0xbf11fc5c	-0.57025695
211	0xbea7f56b	-0.32804427
212	0xbe0c4e94	-0.1370185
213	0xbf1eb99c	-0.6200197
214	0xbe873c08	-0.26412988
215	0x3f26f61c	0.65219283
216	0xbeeca25d	-0.46217623
217	0x3f0beb1f	0.5465564
218	0xbf0abdd9	-0.54195935
219	0xbe26c055	-0.16284306
220	0xbd2452d6	-0.04011806
221	0xbe377030	-0.1791389
222	0x3eb9c29d	0.3628129
223	0x3e09ce07	0.134575
224	0x3ed52f5f	0.41637704
225	0xbec307bd	-0.3809184
226	0x3f2e51cc	0.6809356
227	0x3f06ac2f	0.5260648
228	0xbfea9e85	-1.8329626
229	0x3e0c5441	0.13704015
230	0xbdb2cfa2	-0.08731009
231	0xbea5e557	-0.32401535
232	0x3c9c3434	0.019067861
233	0x3fc8397b	1.5642542
234	0x3ea75fa1	0.32690147
235	0xbef7b99a	-0.4838379
236	0xbcdc8642	-0.026919488
237	0xbd8a3643	-0.06748631
238	0x3ec8f47c	0.39249027
239	0x3e9abd85	0.30222717
240	0xbefc0d1e	-0.49228758
241	0x3eb1c336	0.34719247
242	0x3f02d57c	0.51107
243	0x3f6aa73e	0.9166144
244	0x3e46a26b	0.19397895
245	0xbfb4a272	-1.4112074
246	0x3f89e60f	1.0773333
247	0x3e78e8b3	0.24307518
248	0x3f176ace	0.59147346
249	0xbe676ca2	-0.22600034
250	0xbf158e26	-0.58420026
251	0xbe97368c	-0.29533803
252	0xbebfb820	-0.37445164
253	0xbd967713	-0.0734693
254	0x3e454194	0.19263297
255	0xbf3fb881	-0.74890906

lstm.weight_hh_l1 f4 [256, 64]
0	0xbf10860d	-0.56454545
1	0x3edf19ce	0.43574375
2	0x3e6fdc6d	0.2342393
3	0xbf311061	-0.6916562
4	0xbe05a652	-0.13051727
5	0xc02a9470	-2.66531
6	0x3f2d6500	0.6773224
7	0x3d508ceb	0.05091564
8	0x3f042aaf	0.5162763
9	0x3f7b4d50	0.98164845
10	0x3e4ead34	0.20183259
11	0x3e948d1d	0.2901391
12	0xbfa66c72	-1.3001845
13	0xbe97cdfb	-0.29649338
14	0xbf63e2d7	-0.89018005
15	0xbeb09918	-0.344918
16	0x3fd59aaf	1.6687831
17	0x3eeb9c58	0.46017718
18	0xbe014030	-0.12622142
19	0xbef88310	-0.48537493
20	0x3eff2e4f	0.49840018
21	0xbf495c21	-0.786562
22	0x3e44e99a	0.19229737
23	0x3b3e93f5	0.0029079888
24	0xbe54d367	-0.20783769
25	0xbdcef935	-0.10106126
26	0xbfc7a59d	-1.5597416
27	0x3f2ee004	0.6831057
28	0xbf32bb7b	-0.6981732
29	0x3e8d5c17	0.2760932
30	0xbec961a4	-0.39332306
31	0x3fb7ffc0	1.4374924
32	0x3f822c94	1.0169854
33	0x3ea899bb	0.32929787
34	0x3eef4565	0.4673263
35	0xbf2cb46e	-0.67462814
36	0xbfa9a414	-1.3253198
37	0xbf899133	-1.0747436
38	0xbe9ea7fc	-0.30987537
39	0x3f20bf79	0.62792164
40	0x3eba6843	0.3640767
41	0x3d953c85	0.07286934
42	0xc002f139	-2.045973
43	0x3f442448	0.7661786
44	0xbea9d43a	-0.3316973
45	0xbf501d8a	-0.81295073
46	0xbe8a7150	-0.27039576
47	0xbe1e2767	-0.15444718
48	0x3f1b7540	0.60725784
49	0x3e19dff1	0.15026833
50	0xbeb19c7e	-0.34689707
51	0x3e0a0e95	0.13482125
52	0x3d67e245	0.05661227
53	0xbfdab996	-1.7087886
54	0xbe86df81	-0.26342395
55	0xbf789c7b	-0.9711377
56	0x3e9adabf	0.30245015
57	0xbd9a983b	-0.07548567
58	0x3f6c4e56	0.9230703
59	0xbf5b5044	-0.8566935
60	0x3fbd34d1	1.4781743
61	0xbe24fdcb	-0.1611244
62	0xbf9dc929	-1.2327014
63	0x40004d22	2.0047078
64	0x3e6f464a	0.23366657
65	0xbf31c4a6	-0.69440687
66	0xbf592085	-0.84815246
67	0x3da25703	0.079267524
68	0xbd28844c	-0.041141793
69	0x3f0f979c	0.5609071
70	0x3f23b5b9	0.6394916
71	0xbf301807	-0.6878666
72	0xbf06ba72	-0.5262824
73	0x3e80b3d1	0.2513719
74	0x3f7e10ae	0.992442
75	0xbef0343e	-0.46914858
76	0xbf235b49	-0.63811165
77	0xbf91d2d2	-1.1392462
78	0xc012b457	-2.292257
79	0xbff27f0a	-1.8945019
80	0xbdf2a9b2	-0.11848773
81	0xbcd60cc4	-0.026129134
82	0x3e54dd4a	0.2078754
83	0x3efd06d1	0.49419263
84	0x3e3537ce	0.17697069
85	0xbd1dd314	-0.038531378
86	0xbe7b1295	-0.24518807
87	0xbf2cd796	-0.6751646
88	0x3e0a0ece	0.1348221
89	0x3f11c832	0.569461
90	0x3ba34cd0	0.004983522
91	0xbf443d87	-0.76656383
92	0x3fe3a364	1.7784238
93	0xbf9ce851	-1.2258397
94	0xbec7be76	-0.39012498
95	0xbfde4647	-1.7365197
96	0xbf61d4a4	-0.8821509
97	0x3fda91fa	1.7075799
98	0x3e7ec985	0.24881561
99	0xbefdf543	-0.49601182
100	0x3e23ab1f	0.15983246
101	0x3f09bf33	0.5380737
102	0x3e3c2ee3	0.18377261
103	0xbf251efe	-0.64500415
104	0xbeaa04fe	-0.33206934
105	0xbf8b69ba	-1.089164
106	0xbf67faa3	-0.90616816
107	0x3eb14819	0.3462532
108	0xbd513988	-0.051080257
109	0x3f1ee6cb	0.6207091
110	0xbdb8f1a6	-0.09030466
111	0xbf4ca022	-0.79931843
112	0xbf8ce6c7	-1.1007928
113	0x3e5c3d47	0.2150775
114	0xbf0202fa	-0.5078579
115	0x3fcd95a0	1.6061287
116	0xbf4031e4	-0.7507613
117	0x3f9faa91	1.2473928
118	0xbe39bf4d	-0.18139382
119	0xbfdb2372	-1.7120192
120	0x3f2335da	0.63754046
121	0xbcd8e009	-0.026474016
122	0x3ed0a194	0.40748274
123	0x3f3de87c	0.7418287
124	0x3e568d39	0.2095231
125	0x3f6f2e7d	0.9343031
126	0xbf12c9cb	-0.5733916
127	0xbed0d4d6	-0.4078738
128	0xbf36aa72	-0.7135383
129	0x3eae2171	0.3400989
130	0xbfbb21b4	-1.461966
131	0x3f97958a	1.1842511
132	0x3fdf6fc3	1.7455982
133	0x3eda74bc	0.42667186
134	0x3f3563c1	0.7085534
135	0xbfb44726	-1.4084213
136	0xbf5594e5	-0.8343032
137	0x3dfbed3e	0.1230111
138	0x3fe1ab8e	1.7630479
139	0xbf0e77f8	-0.5565181
140	0x3da9c2a6	0.08289079
141	0xbf876a48	-1.057931
142	0xbf107cf7	-0.5644068
143	0xbf4bdaa6	-0.79630506
144	0x3e846ef9	0.25865915
145	0xbe850b94	-0.25985396
146	0xbf893a33	-1.0720886
147	0xbf40f35e	-0.7537135
148	0x3f9facc7	1.2474602
149	0xbfbcb648	-1.4743128
150	0x3f2bd9cd	0.6712921
151	0xbffc14e3	-1.9693874
152	0xbf48a496	-0.7837614
153	0x3e3a6bc9	0.1820518
154	0xbe4d3a2c	-0.20041722
155	0xbff04391	-1.877062
156	0x3f0e8508	0.5567174
157	0xbda6b87b	-0.081406556
158	0x3fd01d8a	1.6259015
159	0xbe57489d	-0.21023794
160	0x3fa0f175	1.2573687
161	0xc02f21b0	-2.7364311
162	0x3f05213c	0.52003837
163	0xbf30258a	-0.6880728
164	0x3d9628e9	0.07332022
165	0x3f4ed1f6	0.80789125
166	0x3fec983d	1.848396
167	0x3de84b39	0.113424726
168	0xbf046a6b	-0.5172488
169	0xbebe6d16	-0.371926
170	0x3f0e690d	0.55629045
171	0xbf496c03	-0.7868044
172	0xbe9fb147	-0.3118994
173	0xbea5de13	-0.32395992
174	0xbe21ef64	-0.15813977
175	0x3e84a933	0.2591034
176	0xbf94457f	-1.1583709
177	0xbff53e6d	-1.9159676
178	0xbf117624	-0.56820893
179	0x3edec371	0.43508485
180	0xbf441ef4	-0.7660973
181	0x3f560acb	0.8361022
182	0x3f3c1066	0.7346252
183	0x3f258e90	0.6467066
184	0x3f2377bb	0.6385457
185	0x3e1c9519	0.15291251
186	0x3d6a7e8d	0.057249594
187	0x3f850ca6	1.0394485
188	0xbdd6d294	-0.10489383
189	0xbfb93625	-1.4469649
190	0xbe2a905d	-0.16656633
191	0xbd8bd0b3	-0.068269156
192	0xbf607e35	-0.87692577
193	0x3f12e9c1	0.5738793
194	0x3e3e9d4d	0.18614693
195	0xc035c392	-2.8400617
196	0xbe8b7f2c	-0.27245462
197	0xbd6fa55e	-0.058507316
198	0x4007f647	2.1244066
199	0x3e8d5cfa	0.27609998
200	0x3fffda58	1.9988508
201	0x3f3a0ba9	0.7267404
202	0x3f8e035f	1.1094779
203	0xbf971458	-1.1803083
204	0x3f53b0e1	0.8269177
205	0xbe0dd7b3	-0.13851814
206	0x3de5e4c9	0.11225278
207	0x3eb3692a	0.3504117
208	0xbe7b1001	-0.24517824
209	0x3cb236c8	0.021754637
210	0x3f4a8b35	0.79118663
211	0xbeb6cd4f	-0.35703513
212	0x3ec40255	0.3828303
213	0x3e302b6d	0.17204066
214	0xbf0f3f0b	-0.5595557
215	0xbeed794b	-0.46381602
216	0xbe8c5df5	-0.27415434
217	0x3ebeefc8	0.37292314
218	0xc024a2de	-2.5724406
219	0x3e771d27	0.24132214
220	0xbf92af6a	-1.1459782
221	0x3ef55e0b	0.47923312
222	0xbf791faf	-0.9731397
223	0x3f9398e7	1.1531037
224	0xc0318ef3	-2.77435
225	0xbffa2039	-1.9541084
226	0x3e41da77	0.18930994
227	0x3fb22a24	1.391911
228	0xbfa7be9a	-1.3105042
229	0xbe033288	-0.12812245
230	0xbf8e82be	-1.1133649
231	0xbf8d7fc2	-1.1054614
232	0x4009f6bf	2.1556852
233	0x3fefc1be	1.8731
234	0xbe962c6d	-0.2933077
235	0xbfb36e0c	-1.4017959
236	0xbd926f96	-0.071501896
237	0xbf4e172d	-0.80504113
238	0x3ee43235	0.44569555
239	0x3f41bdc5	0.7568019
240	0x3f3112d4	0.69169354
241	0xbe787540	-0.24263477
242	0xbe92d44f	-0.28677604
243	0x3f81cdbf	1.0140914
244	0x3ca0c954	0.01962725
245	0xbf110989	-0.56655174
246	0xbf1a018a	-0.601586
247	0xbf8bc455	-1.0919291
248	0x3f54b6f5	0.8309167
249	0x3f5fc498	0.87409353
250	0x3efcd4ca	0.49381095
251	0xbeb3d43d	-0.35122862
252	0xbf01f052	-0.50757325
253	0x3f98b2f4	1.1929612
254	0xbf026164	-0.50929856
255	0xbf994e1d	-1.1976963

lstm.bias_ih_l1 f4 [256]
0	0x3eb5fa9e	0.35542768
1	0xbe823463	-0.25430593
2	0xbea30fd9	-0.31848028
3	0x3e477039	0.19476403
4	0xbd344eb0	-0.044020355
5	0xbe3ab9d5	-0.18234952
6	0xbd6a2f75	-0.057174165
7	0x3e4ff6e9	0.20309032
8	0x3c1e48cf	0.009660914
9	0x3d9dd064	0.07705763
10	0xbb8a69f0	-0.0042240545
11	0x3edd13a3	0.43179044
12	0x3dcfe7ab	0.10151609
13	0xbd607fb2	-0.05480928
14	0x3d578b68	0.052623183
15	0x3ef784e3	0.48343572
16	0xbe4b0eff	-0.1982994
17	0xbe5812d9	-0.2110094
18	0xbd88171d	-0.066450335
19	0xbdd1c951	-0.10243476
20	0x3e11f7fd	0.14254756
21	0x3c92c19a	0.017914582
22	0xbd9a4aea	-0.0753382
23	0xbea93a07	-0.33052084
24	0x3eb24390	0.3481717
25	0x3e8de9b4	0.27717364
26	0xbdbbaac3	-0.091634296
27	0xbdc8e724	-0.098097116
28	0x3e86fa1d	0.26362696
29	0x3ee426e2	0.44560915
30	0x3e330ce9	0.17485394
31	0x3ec6c1ff	0.38819882
32	0x3e1404bc	0.14454931
33	0x3e9bcd80	0.30430222
34	0xbd930f4a	-0.071806505
35	0x3cbbbd24	0.022917338
36	0x3e6f5d75	0.23375495
37	0x3f3342ca	0.7002379
38	0xbebfaf51	-0.37438443
39	0xbe3fd0d4	-0.18732005
40	0xbeb052c6	-0.3443815
41	0x3e89df5f	0.2692823
42	0x3ec05147	0.3756201
43	0x3eb39d27	0.35080835
44	0xbe493ffd	-0.19653316
45	0xbe3ad35c	-0.1824469
46	0x3c5eeb92	0.013605969
47	0x3e8f0c03	0.27938852
48	0x3ebb7635	0.36613622
49	0xbb8090ec	-0.003923526
50	0xbd5a6671	-0.053320352
51	0xbd5e7e7c	-0.054319844
52	0x3ec1eccc	0.37875974
53	0x3e862122	0.26197153
54	0x3da26eb4	0.07931271
55	0x3d384159	0.044984195
56	0xbe312709	-0.17300047
57	0x3e5a3bb7	0.21311842
58	0x3e87b36c	0.26504076
59	0xbe0fa6ae	-0.14028427
60	0x3f00726a	0.5017458
61	0x3d1fed7e	0.03904485
62	0x3e5a051c	0.21291012
63	0x3de468a3	0.1115277
64	0xbe68245d	-0.22670121
65	0x3e09bc69	0.13450779
66	0xbd273802	-0.040824898
67	0xbd4d117c	-0.050065503
68	0xbf0ab818	-0.54187155
69	0xbe962732	-0.2932678
70	0xbebec05e	-0.3725614
71	0xbe4357b7	-0.1907643
72	0xbe2c666b	-0.16835944
73	0xbd15cd8e	-0.036572985
74	0xbeb2fd47	-0.3495886
75	0x3e06c3cf	0.13160633
76	0xbd811963	-0.0630367
77	0x3e07f72a	0.1327788
78	0xbe1700a9	-0.14746346
79	0x3ea2ed4f	0.31821677
80	0x3e86665f	0.26249978
81	0xbdc07b3e	-0.093985066
82	0xbef6e4ae	-0.48221344
83	0xbe1e411b	-0.15454523
84	0xbe794327	-0.24342023
85	0xbe1d65d2	-0.15370873
86	0x3e457706	0.19283685
87	0x3e2103cc	0.15724105
88	0xbe3fd019	-0.18731727
89	0xbe29a570	-0.16567016
90	0x3dac7d0c	0.08422288
91	0x3bb92187	0.0056497487
92	0xbde2be92	-0.11071505
93	0x3ea2d183	0.3180047
94	0x3d1b2408	0.03787616
95	0x3e30f551	0.17281081
96	0xbd5006f2	-0.050787874
97	0xbc8402fe	-0.016114708
98	0xbdfd49c1	-0.12367583
99	0xbebb4faa	-0.36584216
100	0x3ef3ff58	0.4765575
101	0x3f000029	0.50000244
102	0x3dd34c04	0.10317233
103	0x3d561f20	0.052275777
104	0x3dd1bdaf	0.102412574
105	0xbca921af	-0.020645944
106	0x3d5f603d	0.05453514
107	0x3efbd4a9	0.49185684
108	0x3d9745d7	0.07386368
109	0xbf13f464	-0.57794785
110	0x3cae539e	0.021280106
111	0x3e231860	0.15927267
112	0x3ec23c14	0.3793646
113	0xbe155cab	-0.14586131
114	0xbe0bb0b1	-0.13641621
115	0x3d7f9b7e	0.06240415
116	0x3e8788e3	0.26471624
117	0xbebbd871	-0.3668857
118	0x3d64fbe5	0.055904288
119	0xbce6f100	-0.02819109
120	0x3d6a4e7f	0.057203766
121	0xbd207b0d	-0.03917985
122	0x3cfb910a	0.030708808
123	0x3e31c275	0.17359336
124	0x3eebb95b	0.46039852
125	0x3e5572a3	0.20844512
126	0xbe4393ca	-0.19099346
127	0x3ef90169	0.48633888
128	0xbdf315b7	-0.11869376
129	0x3ddd4174	0.108035
130	0xbe5d2f6f	-0.21600126
131	0xbeef7994	-0.46772444
132	0x3dba45b8	0.09095329
133	0x3e0c1b70	0.13682342
134	0xbd20b04d	-0.039230634
135	0x3ea37d3a	0.31931478
136	0x3e2931f9	0.1652297
137	0xbe579bc0	-0.21055508
138	0x3e57e089	0.21081747
139	0x3d82db47	0.0638948
140	0xbebc7b55	-0.36812845
141	0xbe074d42	-0.13213065
142	0x3e0fdf04	0.14049917
143	0xbde4a7a3	-0.11164787
144	0x3d10c5ac	0.035344765
145	0xbd2530e7	-0.04032984
146	0xbeb0f6d3	-0.34563312
147	0xbe034fbe	-0.12823388
148	0xbd237f76	-0.039916478
149	0x3e27f16d	0.1640069
150	0xbd8315fa	-0.06400676
151	0x3dd5586d	0.104172565
152	0xbe9c3385	-0.30508056
153	0xbe722f5c	-0.23650879
154	0x3ea149e9	0.315017
155	0x3e528088	0.20556843
156	0x3e2a61ba	0.16638842
157	0xbea608d9	-0.32428625
158	0x3da6ee48	0.08150917
159	0xbd80bd4e	-0.06286107
160	0x3e84f326	0.25966758
161	0xbd2d0c6f	-0.042248186
162	0x3eaeebb3	0.341642
163	0xbda28e0f	-0.07937252
164	0xbf2f73e6	-0.6853622
165	0x3e907e3a	0.28221303
166	0xbf100da5	-0.5627082
167	0xbe116a01	-0.14200594
168	0x3c4b88db	0.012422766
169	0x3e27c286	0.16382799
170	0x3ddc18ed	0.10746942
171	0xbe87ecc8	-0.26547837
172	0x3e54b491	0.20772006
173	0xbc1d7109	-0.009609469
174	0xbd267743	-0.04064108
175	0x3f2d5430	0.67706585
176	0xbe3f4dfc	-0.18682092
177	0x3e0ff9b9	0.14060105
178	0x3c3a6273	0.011376011
179	0xbe149d32	-0.1451309
180	0x3f180b82	0.5939256
181	0x3e3d17ab	0.1846606
182	0xbe341b31	-0.17588498
183	0xbda75d35	-0.08172075
184	0x3de83fa5	0.11340264
185	0x3dfc86cb	0.12330397
186	0x3efb3259	0.4906185
187	0xbe92d815	-0.28680483
188	0xbe0dde9c	-0.1385445
189	0x3e1eada1	0.15495922
190	0x3d1cf39f	0.038318273
191	0xbed8304d	-0.4222435
192	0xbda1cb2b	-0.07900079
193	0x3d440fdb	0.047866683
194	0xbea002ca	-0.31252128
195	0xbd8c7e95	-0.06860081
196	0x3d1d09fe	0.038339607
197	0x3d3fec75	0.046856362
198	0xbc365af4	-0.011130083
199	0x3ebddfaf	0.3708472
200	0xbec84c3a	-0.39120656
201	0x3cefa474	0.029253222
202	0x3c1871cc	0.009304475
203	0x3e91b854	0.28460944
204	0x3d3f36a7	0.04668298
205	0x3d80ed41	0.062952526
206	0xbf06fed7	-0.52732605
207	0xbe593596	-0.21211848
208	0xbd6dfc13	-0.058101725
209	0x3c69f03b	0.014278467
210	0xbee4023d	-0.44532958
211	0xbdf3926a	-0.11893161
212	0xbefd9c0b	-0.49533114
213	0xbea11bf0	-0.31466627
214	0xbed43799	-0.41448668
215	0xbf1699d8	-0.58828497
216	0xbe324b33	-0.17411499
217	0xbc004e4a	-0.007831166
218	0x3e3dc53c	0.1853227
219	0x3ea2d4aa	0.31802875
220	0xbe428894	-0.18997413
221	0x3e845035	0.25842443
222	0xbdab9e8b	-0.08379849
223	0xbe3b5bb4	-0.182967
224	0xbee91bc8	-0.45529008
225	0x3e324baa	0.17411676
226	0x3e906c46	0.28207606
227	0x3eb13e8d	0.34618035
228	0x3c1f3d69	0.009719231
229	0xbd8336d6	-0.064069435
230	0xbcdae979	-0.026722657
231	0x3cdeddac	0.02720531
232	0xbe9c1bef	-0.30490062
233	0xbe25b93b	-0.16183941
234	0x3ca073e5	0.019586513
235	0xbda63b76	-0.0811681
236	0xbd9286c4	-0.07154611
237	0x3e07c43d	0.13258453
238	0xbe4d9d0c	-0.2007944
239	0xbe034586	-0.1281949
240	0x3dc61de4	0.0967367
241	0x3e1bc03f	0.15210055
242	0xbdc8ae13	-0.09798827
243	0x3ee9fff9	0.45703104
244	0xbe9bb90e	-0.30414623
245	0x3ed9eaea	0.42562038
246	0xbd95639e	-0.07294391
247	0x3e02a7f6	0.12759385
248	0xbe4901d1	-0.19629599
249	0xbd4989d5	-0.049203712
250	0x3e108bfc	0.141159
251	0xbd969009	-0.07351691
252	0x3d68be9a	0.056822397
253	0xbe9d8164	-0.3076278
254	0x3f78e815	0.9722913
255	0xbf22c6a7	-0.6358437
