lstm_model.pth (torch, 204393 bytes, 9 tensors)

lstm.weight_ih_l0 f4 [256, 1]
00000000: e414 883c 5484 5d3e a84e bf3d 4b66 3f3d
00000010: ef34 153d d463 993c 560d b73c 8047 b43b
00000020: e683 303e a1bb 193e b77d 37bd b9df 623d
00000030: 94f3 ee3c cd67 793c 9709 fd3d a628 7dbc
00000040: f6fd 02bd 0671 243d f35d 7d3b 4b38 183d
00000050: fcde cabb d168 89bd a299 46bd aade bc3a
00000060: 0d2d 4b3b 7e51 5b3c a5f6 603d 393e c33c
00000070: 1739 553c 5632 813c d3ab 023e c2c9 d73c
00000080: 4ab3 ad3c f3f1 49bd 44b5 053e 2201 cf3c
00000090: 6e3c 343d 1f9f 8b3d 4384 a93c f3c8 993e
000000a0: b235 463d df17 bbbd 8fe4 cb3b 38be 2a3c
000000b0: 8d41 5d3e c88e a23e de24 853c 8e3c d03d
000000c0: 4155 d8bc 240f 353d 9130 c73c 46c1 8dbc
000000d0: 8cf2 8bb9 0a10 e23c 9328 853e d36a 00bd
000000e0: d914 5d3e 2c31 edbc 2411 0f3d 7650 6a3c
000000f0: e8d9 413e 56cd b13c db92 ff3c c99c 3bbd
00000100: d960 bebd fbad 453e 09ae 6f3d da92 4cbe
00000110: d5eb e0bd c75f e83c 2c73 853c 70dc 893d
00000120: 2c5f 203e 8f70 a93d c6e3 243e a3e8 233d
00000130: 126e 7c3d 0892 8e3d 4a57 9c3c d152 293e
00000140: b326 0c3e 9614 143e e8d0 2b3c 754a af3d
00000150: 904c ec3c e3b8 c03c cd63 c8bd 19e8 0f3e
00000160: bc01 9a3c f62f 6f3c a8b0 f63d 15c5 963c
00000170: 9f65 d33d 03ae 90bc b85b 84be 8b28 213d
00000180: 7e31 00be 7d5e 043e bbe0 173e aa05 7f3e
00000190: e6bd 173d e96a 1ebd b3be 453d e99b 413e
000001a0: f548 493c 37e2 9f3d e0a4 c23c de2f 193d
000001b0: e21d a6bd d0a2 913c 85a7 82be 3603 2e3c
000001c0: 981c 4d3d eb4b 433d b99d f03b 4f40 cc3c
000001d0: 9ef5 9c3c 51ec 31be b81f 28be 8a41 033e
000001e0: d965 13be 4b3f e03d 2919 f5ba 8653 92bb
000001f0: d7ba b13d c0ac b13b 3fb4 9e3d 56fc 043e
00000200: 3524 26be a69a 8c3e ef9f 44bc 558c 37be
00000210: b43a 6bbd 7c9c 7dbe d249 273e 1709 97bd
00000220: 519d 2fbe b6f7 30be 7252 ce3d fb6c c33d
00000230: 602b 9fbc f218 ee3d 0a12 893e 6db1 4bbc
00000240: e22d 00be bcf9 8b3c 6a37 473e 292a cfbc
00000250: 46f8 f93d 2011 1bbe ba21 603d f07e b23e
00000260: fa92 66be 72df 373e 71fb 9fbe b9d5 773e
00000270: b36b 4f3c 6406 7d3e 4598 bb3d e616 1c3d
00000280: 77ee 9a3d 4206 01be ec37 8bbd 237c fdbd
00000290: a1d2 b63c db56 babd ce93 6bbd 2385 7fbe
000002a0: 778b e5bd 65cd b2bd 725b 833d cc94 653e
000002b0: 99e6 5fbe c104 3ebe fb18 2b3e afa3 2abe
000002c0: bf5e b3bc ceb6 49be f79c 12be b9c3 d83d
000002d0: 9589 28be 7a45 5fbe a678 1b3e e529 71bd
000002e0: a6a4 403e 047a 4d3e dc99 0dbe 2e6c e53d
000002f0: c484 51be b40e 163e 1562 1d3c 7b85 273d
00000300: 07e3 0f3d 4e14 7c3d 889b 093e e9ee 5e3e
00000310: 03c7 ac3c 15f8 913c d98f 743c 3250 9ebd
00000320: 960b a1bd 7ba6 3f3d 21f6 c73d 1935 2b3d
00000330: d541 603e 742f 223e 3416 a73c e7a2 ea3c
00000340: d361 2b3d e99b 923c 15f0 913c 2fbb bf3d
00000350: 67a3 f43d 6b31 d23c e8d5 b63d 99e1 d73c
00000360: 98c5 753c 8a54 093d 1f03 803c 92ec c63c
00000370: c52e af3c 44cf cd3c e4da 42be cbe7 0d3d
00000380: 3aee 813d 2b0a 453d 5288 123d bf62 913c
00000390: e9a0 753e 068f 053d 5562 273d f285 073d
000003a0: b24c 7f3c 200f 7d3c 091a db3d e213 fc3b
000003b0: 3425 8c3d 2608 5b3d 26c6 1a3d 924c d83d
000003c0: b788 2a3e 4e05 613c 4f24 2a3d 5e8f fc3c
000003d0: 9598 123d 1241 7abe 8b2b e6bd f056 563e
000003e0: a1d6 1b3d 2262 783c 0513 813c fd49 1e3d
000003f0: 02db 433e 7973 db3c 27b6 d93c b9c7 d53d
0.016611524 0.2163251 0.09341174 0.046728414 0.036427435 0.01872436 0.022345226 0.0055016875
0.17237815 0.15012981 -0.044797625 0.05538914 0.029168881 0.015222502 0.12355345 -0.015451586
-0.031980477 0.04014685 0.0038660734 0.03716306 -0.0061911326 -0.06709445 -0.04848636 0.0014409621
0.0031002194 0.0133861285 0.05492272 0.023833381 0.0130141 0.015771072 0.12760858 0.026341323
0.021203656 -0.049303006 0.13057429 0.025269095 0.044002943 0.06817459 0.02069295 0.30036125
0.04839105 -0.091354124 0.0062223147 0.010421328 0.21607037 0.31749558 0.016252931 0.101678
-0.02640784 0.044203892 0.02431515 -0.017304074 -0.00026692858 0.027595539 0.26007518 -0.031351876
0.21589984 -0.028954111 0.034928456 0.01430141 0.18930781 0.021704357 0.031197956 -0.04580382
-0.09295816 0.1930465 0.058515582 -0.19977894 -0.109824814 0.028365983 0.01629027 0.06731498
0.15661305 0.08273422 0.16102514 0.04001678 0.06162841 0.06961447 0.019084591 0.16535498
0.13686638 0.14460978 0.010486819 0.085591234 0.028845102 0.02352566 -0.097846605 0.14053382
0.018799655 0.014598837 0.12045413 0.018404523 0.10322117 -0.0176611 -0.25851226 0.039345305
-0.1251888 0.1292667 0.14831822 0.24904504 0.037046336 -0.038676176 0.048277568 0.18907131
0.012285461 0.07806819 0.02376026 0.037399165 -0.081111684 0.01777783 -0.25518432 0.010620883
0.050076097 0.047679823 0.0073430208 0.024933008 0.019160088 -0.17375304 -0.1641835 0.1281797
-0.1439432 0.10949572 -0.0018699515 -0.004465523 0.08678215 0.0054222047 0.07749223 0.12986884
-0.1622475 0.27461737 -0.012001022 -0.17924626 -0.05742903 -0.24766725 0.16336754 -0.073747806
-0.17149855 -0.17281994 0.10074319 0.09542271 -0.019429862 0.11625852 0.26771575 -0.012432438
-0.12517503 0.017086856 0.19454733 -0.025288658 0.122055575 -0.15143251 0.054719664 0.3486247
-0.22517005 0.17956331 -0.31246522 0.24202622 0.012659955 0.24709469 0.091599025 0.038107775
0.07565015 -0.12600043 -0.067977756 -0.12377193 0.022317233 -0.090985976 -0.057514004 -0.24953131
-0.112082414 -0.08730582 0.06413926 0.22420043 -0.2186531 -0.18556501 0.16708748 -0.16664003
-0.021895764 -0.1969864 -0.1431769 0.10584206 -0.16458733 -0.21803847 0.15182742 -0.058877844
0.18812808 0.20066077 -0.13828224 0.11202274 -0.20460802 0.14654046 0.009605904 0.04089878
0.03512862 0.0615428 0.13438237 0.21770824 0.02109099 0.01781849 0.014926874 -0.0773014
-0.07863538 0.046789628 0.09763742 0.041798685 0.21900113 0.15838414 0.02039633 0.028642131
0.04184134 0.01789661 0.017814675 0.09361874 0.11945229 0.02565833 0.08927518 0.02635269
0.015000723 0.03352789 0.015626488 0.024282727 0.021384606 0.025123246 -0.19028813 0.034644883
0.06344266 0.0481054 0.035774536 0.017747281 0.23987164 0.0326071 0.04086526 0.033086725
0.01558225 0.015445501 0.10698325 0.0076928 0.068430334 0.053474568 0.037786625 0.1056148
0.16653715 0.013734175 0.041538533 0.030830082 0.035790045 -0.24438885 -0.11238774 0.20931602
0.038046483 0.015160115 0.01575614 0.03864478 0.19126514 0.02678846 0.026576115 0.10438485

lstm.weight_hh_l0 f4 [256, 64]
00000000: 2577 94bd 7ac0 833e 47d8 2c3d 1c7c 51bc
00000010: 544f aebd 74d4 f7bd a917 94bc 5d8e 3bbe
00000020: 4395 1cbe 7529 65be 3ac1 573e 1c49 533d
00000030: 424c 4f3c 7160 2e3e 9325 e23d f5fb 70bd
00000040: bb74 bebd 9a52 ea3d 8a20 ddbb 0cba 0cbd
00000050: 26aa bc3e 16f2 ebbd 3747 623d b839 2a3e
00000060: 331c e6bd 4844 353c 1bc9 c1be fb08 073e
00000070: 924d b53d 0e45 b63c 6afc 6bbd 1efb 3f3d
00000080: 5754 2c3d d8a3 d7bc 180f ff3d 46ea 67be
00000090: a832 083e b4a6 0cbd f292 edbd 8084 c5bd
000000a0: 2ea1 17bd 1608 e0bd 5e77 4abe 621e 673e
000000b0: ab41 0fbc caf5 383e b9b8 d1bc a39c 40bc
000000c0: 81a8 b5bc 4846 5bbe b2b8 e3bd a875 373d
000000d0: 7c34 11be 19c5 493e d0e2 89be 8347 45bd
000000e0: 541c 42bd bac5 b53c ceda acbd 1a2b 99bd
000000f0: 8627 c1bd 6f0d f53d c429 893e 9235 1b3e
00000100: 7bae 82bc 5567 fc3d 1e49 ee3d 7539 2ebe
00000110: e34a cabc 8858 61be dbe8 8dbc 1784 15bd
00000120: d77a e13b 28d0 aebd 41a9 ea3c 4086 36bd
00000130: e0e5 a83d 86e2 a13d 855d 8d3e 2fd6 92bc
00000140: 7376 94bd ac93 023c 30b8 ebbd 8302 a9bd
00000150: d748 9d3d 598e ffbc 440c f0bc b751 813d
00000160: f012 d23d 5e2e 9fbd 4a47 2abe ef52 41bd
00000170: bf50 43bd 9af5 b2bb 90eb 90bc 6066 a1bd
00000180: c185 dabc 8be3 f43c 2a0e 9bbc 89a7 a33d
00000190: 3f88 5abe a86f 77be 8c49 c1bd 91bb e3bd
000001a0: 3153 6bbe a5bd 993d 0e89 cd3d 3740 65bc
000001b0: e446 61be 9bcd 12bd 95e0 de3d f14d d7bd
000001c0: d9fe 34bc fbbd 0bbe 34eb 85bd cbbe 24bb
000001d0: a08b e4bc 27bb 203e 7a7e 38bd 3a77 163d
000001e0: ea6c 6d3e f527 ee3d 490f 973d 0a1a 27be
000001f0: 1f1a 8ebe a562 c63d 641d 26be 6232 58bc
00000200: 0225 b73d d2dd 36bc 25a4 55bd 3316 e73d
00000210: e785 0d3e 7362 b1bd 9986 ccbd 7a4c 79bd
00000220: a207 f43d 035e 163e b906 6ebe 4c70 bcbd
00000230: a269 3b3d b564 e3bd 32b8 81bd 236b e4bb
00000240: 5340 df3b a541 7a3c c3dc 3a3d ba91 643c
00000250: bf0c 8f3b 1f14 5ebd 3440 35bd 40e5 00bb
00000260: 25cd 1e3d 91d6 c33c fb34 f2bd c52b 573c
00000270: 9f02 62bb 0580 b1bc 8b15 54bd 1747 aa3d
00000280: 57ab dcbd 64fa d03d 2311 7c3d cab6 c63c
00000290: 98b1 313d a6cd 843e ccf7 e33d 1cfc 17bd
000002a0: 39a5 06be 1176 363e 8b26 3b3d 3f6d d83d
000002b0: ed2c b63d 0512 2bbd 26e4 49be 4424 aabb
000002c0: 7670 0f3d 5bee de3d dbb9 313d 5cbe 3abd
000002d0: 2566 5c3d 7abd 873d 6cf4 49be 2cc7 2cbd
000002e0: ff9c 093d 0f3e 4dbc 6a82 603d 7d21 69bc
000002f0: c33f 1d3d c914 633d 9525 233d e887 833d
00000300: d528 11bb b937 a93e 5771 913c 9049 aabd
00000310: 21b9 d43c 3365 f0bd 39cc a23d 4c08 97be
00000320: d403 60be c695 b8be 84bb c83d bb63 9f3d
00000330: c7b3 2ebe 6314 1b3e fcc8 7c3e 1813 35be
00000340: e8b9 31be 9e00 263e c4ac 87bd c37c 60bd
00000350: beb6 5a3e a540 85be 3df6 5f3e 1392 963e
00000360: e9e6 cbbd 25e9 293e ae41 3bbe c39a 1e3e
00000370: 2035 0d3e 3b39 033e 6f5e 37be fdc4 3d3e
00000380: 30bf 463d e22e 2bbe 8c8d 153d bc6a 23be
00000390: 9f9c 4d3e ba5f 79bd bbb0 96be c9a9 6dbe
000003a0: 7604 43be 0e66 36be 73c6 9fbd 6d77 743e
000003b0: e5dd 67be 3fba d0bc 86d7 833d 6cf8 e3bc
000003c0: 1d9c 91be e640 8bbe ef17 8dbe 6b32 b93e
000003d0: 4d90 e1bd 27fd 733d 49a2 3dbe f989 90be
000003e0: 6208 c23d 96b5 873e 34d9 cdbd d382 103d
000003f0: 6257 54be 7559 70bc f7d2 a23d f74b 7b3e
-0.072492875 0.25732785 0.042198446 -0.012785938 -0.085112244 -0.12101069 -0.018077688 -0.18316026
-0.15291314 -0.22379096 0.21069804 0.051583394 0.012652459 0.17028977 0.11042323 -0.058834035
-0.09299608 0.11441536 -0.0067482637 -0.034357116 0.36848563 -0.115207836 0.055243697 0.1662358
-0.11235847 0.011063643 -0.37848744 0.1318702 0.08852686 0.022249725 -0.057613768 0.046870343
0.04207262 -0.026323244 0.12454051 -0.22647962 0.13300574 -0.034338668 -0.11600293 -0.09644413
-0.037018947 -0.10939042 -0.19772097 0.22570184 -0.008743684 0.18062511 -0.025600778 -0.011756095
-0.022175075 -0.21413529 -0.11119212 0.04478994 -0.14180177 0.19704093 -0.26930857 -0.048163902
-0.047390297 0.02218901 -0.08440171 -0.07478924 -0.094313666 0.11965453 0.26789677 0.15157154
-0.01595234 0.123243965 0.1163504 -0.17014106 -0.024693912 -0.22006428 -0.017322948 -0.036502924
0.0068810987 -0.085357964 0.02864516 -0.044561625 0.0824697 0.07904534 0.27610412 -0.017924396
-0.07249155 0.007969778 -0.1150974 -0.08252432 0.07679909 -0.031195806 -0.029302724 0.06314414
0.10257518 -0.07772516 -0.16628757 -0.047198232 -0.047684427 -0.005461407 -0.01769045 -0.078808546
-0.026675107 0.029893657 -0.018927652 0.07990939 -0.21341036 -0.24163687 -0.09437856 -0.1111976
-0.22980954 0.07506875 0.10035907 -0.013992361 -0.21999699 -0.035840612 0.108826794 -0.10512913
-0.011047089 -0.1364669 -0.06539002 -0.0025138136 -0.02789861 0.15696393 -0.045042492 0.036734797
0.23186079 0.11628715 0.07375962 -0.16318527 -0.27754304 0.09686784 -0.16222149 -0.013195606
0.089426056 -0.0111612845 -0.052158494 0.11283531 0.13820611 -0.08661356 -0.0998661 -0.06086395
0.11915518 0.146843 -0.23244752 -0.092011064 0.045755036 -0.11103193 -0.063339606 -0.0069707795
0.006813088 0.01527444 0.04562069 0.01395076 0.004365533 -0.054218408 -0.044250682 -0.0019667894
0.03876986 0.023906024 -0.118265115 0.013132994 -0.0034486426 -0.02166749 -0.051778357 0.083143406
-0.10774868 0.10204008 0.06153978 0.024257082 0.043382257 0.25938147 0.11131248 -0.037105665
-0.13148965 0.17818476 0.045691054 0.10567712 0.08895288 -0.04176523 -0.19715938 -0.0051923115
0.03501936 0.108853064 0.043390136 -0.045591697 0.05380835 0.06627937 -0.19722146 -0.042182133
0.03359699 -0.012527003 0.054811873 -0.014229176 0.038390886 0.055439744 0.039830763 0.064224064
-0.0022149582 0.33050326 0.01775424 -0.08314812 0.025967183 -0.11738052 0.07949109 -0.29498518
-0.2187646 -0.36051768 0.09801391 0.07782694 -0.17060767 0.15144496 0.24686044 -0.17683065
-0.17356074 0.16211173 -0.06624749 -0.054806482 0.21358773 -0.26025882 0.21871276 0.2940832
-0.09956152 0.16592844 -0.18286774 0.15488724 0.13789797 0.128148 -0.17907117 0.18532176
0.048522174 -0.16717103 0.036511943 -0.15958685 0.20079277 -0.060882308 -0.2943171 -0.23209299
-0.1904467 -0.17812368 -0.07801523 0.23873682 -0.2264324 -0.025479434 0.06437592 -0.027828418
-0.28439417 -0.2719795 -0.27557322 0.36171278 -0.11013851 0.059567597 -0.18518938 -0.28230265
0.09474255 0.26505727 -0.10051194 0.035281014 -0.20736459 -0.014669766 0.079503946 0.24540697

lstm.bias_ih_l0 f4 [256]
00000000: 156b 713e 7f89 263d b275 053c d9a5 713e
00000010: aca6 81bd 0371 103c b179 a33d 4f15 cdbd
00000020: c9da 4ebc 6c83 ba3c 6b6a 223e d410 f3bd
00000030: 1491 10bd e649 a03d 7abc 863e 5ed9 b0bd
00000040: 8015 efbd 389d 1ebe a389 3c3e f539 4e3e
00000050: b3e9 243e e636 743d 785c 95bd a3ff f3bb
00000060: c268 8c3d 0b2d 153e 33cc 143e b1ac 103e
00000070: b9ed 25be a2bf e13d 2fb1 56be 870f 95bc
00000080: 42f6 1e3d 344d 92bc 5b3f dbbc f68a a53d
00000090: 4041 4abd 165a 6cbd 657b 35bd 743a 41bd
000000a0: e036 d93d 1b1d 0bbd 5cd6 28bd 9e35 f2bb
000000b0: 8e47 fd3c a2e2 d33d 25c8 e5b9 3388 7e3e
000000c0: eedd 803d 8ced e43d 2c9d a53d a411 7fbc
000000d0: 8e5c c2bd ccaa 023e b1b6 5b3e a2d2 aabd
000000e0: fc4e 503e 4257 683d f671 063e f6d5 adbd
000000f0: 76ce d13d 2874 353d 0629 d63b 5097 9fbd
00000100: 5d63 a23d 9b31 edbd 3638 5bbd 5317 373c
00000110: fa3d 593e 4ba2 5dbd f9ed 793d b8b6 bc3d
00000120: 4831 903d 3ad2 983b 2e5e f73c d167 2a3d
00000130: 08cf ba3d 72ab 563b 6d2a 283e 82fe 1e3d
00000140: cd70 7a3d 0002 a33d c09c dbbc a480 59bd
00000150: 7d51 583d 13cf 8b3d d477 203e 6aa8 9fbd
00000160: 3f7c 08bd 467e b13d b24e b23d f747 bbbc
00000170: cb1d 4d3e 03a2 acbc 83c8 5f3e 5111 2c3e
00000180: 8ffc 103d 787e 093e 4054 44bd 8a39 b53d
00000190: 3bb1 2a3c fdce 303e b4a7 973c 7a0e 01be
000001a0: 68ec c2bc 7a48 0b3e 4fe9 8b3d b5f8 5ebd
000001b0: d09c 123d 7786 b83c 2f3c 12bc 4756 8cbd
000001c0: 7900 c03d 4a5b c5bd 7712 153b 949d c7bc
000001d0: 75c0 703c 3dae a73c 68f4 813e e0fa c93d
000001e0: 3d70 803d ea25 d1bc 4851 ee3b 04a6 153e
000001f0: d948 f2bb 1955 91bd fcb7 b63d 2293 9bbd
00000200: 0ae1 de3d 7085 9bbd 7bee 0b3e 73b6 253d
00000210: 4ff6 b53d 1f99 9cbc be49 1dbe 4df4 93bb
00000220: 463d 80bd 55ba afbd 056e 50bd 1d26 053d
00000230: e869 e43c 2e0f 8abc 55bf b4bd 45b9 533d
00000240: b266 7fbc 04cc a0bd 2a15 debd cc77 cf3d
00000250: b377 2cbd bec3 adbd 0846 473d dbf6 943d
00000260: a790 af3d 868b e9bd b005 9e3d ac07 a6bd
00000270: acc7 18bd e1e0 6d3c 643f d8bd b521 8c3d
00000280: ec0c 48bd f178 bb3c fa35 d03c bf2c ae3d
00000290: 0b9a a7bc de05 103d 8bd1 9dbc 2a1e bb3d
000002a0: 5e4a 99bd d721 b13c 02ed c73b 6ebc 9dbd
000002b0: cec6 66bc 68f8 063e 7e91 25be bb93 10bc
000002c0: 84a9 f4bd d5cf dabc 443d 31bd d6a9 b4bd
000002d0: 05f8 d23d cb3a 153e f26d 4bbe 7787 e53d
000002e0: 4d1e 3ebe cbdf 89bc 71e3 553e 0c43 42be
000002f0: fc37 98bd 0706 d2bd c7f8 60bd f49b 77bd
00000300: a862 0b3e 91c6 553e bd68 143e cfd4 2e3e
00000310: b0f2 023e 1572 083d 6f72 8a3d 9af1 3e3d
00000320: 0b31 a23c 7144 323e 69d1 afbd 430f 3e3d
00000330: 8087 8cbb 69ee 413e d2c6 c23d efee 683c
00000340: 166a 8dbd ca2f 3abd f16b e13d 1a86 f2bd
00000350: 4add 373e 423d a4bd ae33 183d d961 f9bd
00000360: 2f54 03bd 0e06 26bd e35d 613e 1fed 8a3e
00000370: 6f6e b63c bca4 253e a970 ca3d 82c6 a5bd
00000380: 1dfa 3a3e 8ad0 19be 6936 a3bd c013 67bd
00000390: 3604 75ba 5070 e0bd cf20 f4bd ca36 253e
000003a0: e31b 073e b14d f33c ec8a 243e 8086 2d3e
000003b0: 67fc 89bb 18d7 333d 5dfe 8d3b 86c8 413e
000003c0: 522c 14bc 9fd4 193e 6252 efbd d0d8 063e
000003d0: ec76 cb3d 9ebf 443e fa01 753e 1bf4 f9bd
000003e0: 9265 a33e ace3 d43d e514 bfbb 9d39 443d
000003f0: 7d71 e7bc aa68 c93d 7976 113e 2cfd 1c3e
0.23576005 0.04065847 0.0081457365 0.23598422 -0.06330618 0.008816007 0.07982195 -0.1001383
-0.012625405 0.022767745 0.15860908 -0.11868444 -0.035294607 0.07826595 0.2631567 -0.086352095
-0.11674023 -0.15489662 0.18411879 0.20139296 0.16104774 0.059622668 -0.07293028 -0.0074462458
0.068559185 0.14567964 0.14531021 0.14128377 -0.16203965 0.11022879 -0.20966028 -0.01819588
0.03880907 -0.017859079 -0.026763609 0.08083145 -0.049378633 -0.0577031 -0.04430713 -0.047174886
0.1060617 -0.033963304 -0.041220054 -0.0073916456 0.030917909 0.10345961 -0.00043827403 0.24856643
0.0629233 0.11178121 0.08086619 -0.015568171 -0.0949031 0.12760466 0.2145641 -0.08340956
0.2034263 0.05672384 0.1312941 -0.084880754 0.102444574 0.04430023 0.006535652 -0.077925324
0.07929108 -0.11581727 -0.053520404 0.0111749945 0.21215048 -0.054109853 0.061017964 0.09214538
0.0704065 0.004663733 0.030196276 0.041602913 0.09121519 0.0032755998 0.16422434 0.038816936
0.06114273 0.07959366 -0.026808143 -0.053101197 0.05281209 0.06826606 0.15670711 -0.07795794
-0.033321615 0.08666663 0.08706416 -0.022861464 0.20030896 -0.021073347 0.21853833 0.1680348
0.03539711 0.1342715 -0.04793191 0.08848865 0.010418232 0.1726646 0.018512584 -0.12603179
-0.023794368 0.13601866 0.068316095 -0.054436404 0.03579408 0.022525055 -0.008925482 -0.068523936
0.0937509 -0.09636553 0.0022746602 -0.024367131 0.014694323 0.020468825 0.2538178 0.09862304
0.06271408 -0.025530774 0.007272873 0.14614111 -0.007393938 -0.07096309 0.08921811 -0.07596423
0.108827665 -0.075938106 0.13665192 0.0404572 0.0888487 -0.019115983 -0.15360162 -0.004515207
-0.06261687 -0.08580462 -0.050886173 0.03250705 0.027882531 -0.016852941 -0.08825556 0.05169036
-0.015588449 -0.07851413 -0.108438805 0.10130271 -0.04210634 -0.084846005 0.04865077 0.072736464
0.08572512 -0.11403565 0.077159286 -0.08106932 -0.037299797 0.014518947 -0.10558966 0.068423666
-0.04884045 0.022884818 0.025416363 0.085046284 -0.020459196 0.035161845 -0.019264957 0.09136613
-0.074848875 0.021622581 0.0061012516 -0.07701956 -0.014085485 0.13180697 -0.16168782 -0.008824284
-0.11946395 -0.02671043 -0.043271318 -0.08821456 0.10301212 0.14573209 -0.1986616 0.112074785
-0.18566246 -0.016830346 0.20887543 -0.18970889 -0.07432553 -0.10255056 -0.054924753 -0.060451463
0.13611853 0.20876528 0.1449308 0.17073368 0.1278789 0.033311922 0.06760108 0.046617128
0.019798776 0.17408921 -0.08584864 0.046401273 -0.004288614 0.18938603 0.09510578 0.014217122
-0.06905 -0.04545573 0.11006916 -0.11841984 0.17955509 -0.080194965 0.03715866 -0.12176866
-0.032062706 -0.040533118 0.22008471 0.27134034 0.022269456 0.16176122 0.098847695 -0.08094503
0.18259473 -0.15020958 -0.07969362 -0.05641532 -0.0009346636 -0.10958922 -0.1192032 0.16134182
0.13194232 0.029700132 0.1606862 0.16945839 -0.004210997 0.0439063 0.004333301 0.1892415
-0.00904377 0.15022515 -0.11685635 0.13168645 0.09934792 0.19213721 0.23926535 -0.122047625
0.3191343 0.103949875 -0.0058313482 0.047906507 -0.028252358 0.09834416 0.1420535 0.15330952

lstm.bias_hh_l0 f4 [256]
00000000: cba6 643e d99d 803d a9e4 b63d bd8c 983e
00000010: 17ba ecbd dd48 343c 1640 4c3e 93e6 04ba
00000020: b373 87bd 5268 e6bd c13a 223e 5a02 00be
00000030: 6b16 1fbe 37b2 88bd 5dac b03e 96ac 603d
00000040: 8b9e a7bc afa3 a7bd b575 df3d 9546 693d
00000050: 9c60 d23d e9c9 9e39 780d 4b3d eead c3bd
00000060: 2160 e13d 0e3f c43c a035 a43d b7a1 a23d
00000070: 6dcc 9bbd 0720 073d bc8f 673c b09a a9bd
00000080: a85f 3c3e 552e 523d 3156 043d 6ccc e63d
00000090: 453f d1bd 9f02 643d 02f3 de3d f083 913c
000000a0: 7bc2 033e c28e 443d 3a75 5b3d 7d6b c83d
000000b0: 3ed1 c03c cab5 edbb 1571 5a3d 9af6 753e
000000c0: 6f0c 4fbc 764e 123e 5d1b b5bd 8db8 413d
000000d0: 9d53 1ebd 011c 3d3e 08ea a03e 98d0 81bd
000000e0: 74d3 193e a2ab 043d 70f3 c5bb 6991 133e
000000f0: 3e2a 2dbc fbcd bd3d b2ee 1e3c bef8 3abd
00000100: c473 1e3e 66ce 8f3d 81dc 35bd b753 e13d
00000110: 914d 6abc 46d4 4d3d f3b3 d53d a774 d83c
00000120: ae71 15bd d953 253d 9c78 dcbc a12f 35bc
00000130: acc7 5c3d 9ca9 24be 812f ca3d 007c 263d
00000140: 370f cf3c 24e0 fdbc 7178 c93d a8d9 86bd
00000150: efbc 11bd c388 fa3d 1c49 903d ba8f a73d
00000160: a09c 143e e84b 893d cd46 7c3e bfd9 e43d
00000170: 4071 4a3e e1ee 36bd fb6a 493e d4d4 133e
00000180: 707a 5c3e 40a6 d03c c340 273c 3cbe 933d
00000190: 1943 293d 43b7 073e a545 dd3d 8496 3abe
000001a0: 645e ba3d 9446 32bc 5148 043d 071a ee3c
000001b0: 2d8a b23c f6e8 423d c7a9 2a3e 6fc9 e7bc
000001c0: 79dd 213d cb66 eb3d 7966 433d c906 65bb
000001d0: 5a8e a33d 7598 31bc d481 0a3d e53a 1f3d
000001e0: af5c 443c adfa 003d eb95 183d 5e94 34bd
000001f0: ca56 05bc 6313 993d fa04 343d dcf2 cc3d
00000200: 959f 3a3e 37a8 15bd aa96 fd3d f324 3c3c
00000210: 0a9f 1a3e 4f35 e53c 11d6 17bb 2eb5 15be
00000220: 290f b53c aa06 e8bc 6707 263b 2a15 2fbe
00000230: 2724 af3d 27e3 f4bc ac22 ddbd 0820 c3bc
00000240: f39f e23d e524 d6bd d834 25be 8dc5 a83c
00000250: 5d5c d63d cd0e d6bc 82f1 b63d 9cbf bc3d
00000260: 039a 153e 8ad3 00be 3abb 3dbd b96d 2ebe
00000270: 3d47 2fbd fdc3 23be e075 e4bd abae ecbc
00000280: 7830 9ebd 8a66 0cbe 0d98 053e 4891 123e
00000290: cda0 89ba bcf0 a53d e372 383d da11 8ebc
000002a0: 7570 febd 8c2b 283e 0aa5 8f3d 6390 0fbe
000002b0: 24f0 e3bd ee30 eb3d 243b ab3c a33c 423d
000002c0: 622e 60bd 0679 70bd e920 fa3d 57c4 09bd
000002d0: e823 6cbd 0471 403e 137e 03be 400e 4f3d
000002e0: 1503 98bc 8455 dbbd 4900 1a3e 0b26 19be
000002f0: cadc 99bd 48f0 b3bd 1e18 663d 2366 113e
00000300: 2847 7fbc fd3f 6c3e 2d24 c2ba cdfc f13d
00000310: 2d15 96bd 4f83 a13c cc1b 8f3d 548e 173d
00000320: 2f6b 8cbc 56b5 8d3d 0ef8 f0bd 7378 85bc
00000330: 096f 48bc 0e6c 303e 6e35 9a3e 2143 ec3d
00000340: 3b27 da3d 39c7 cabd 6f20 2e3e 4ac6 12be
00000350: 3aea bb3d 8379 88bd c0de 013e 15a7 763c
00000360: c71d d93d 3c83 e43d dcb2 083e 47a1 703e
00000370: 68d8 7e3b 7b1e 8ebc 64e4 853d 48c5 ce3c
00000380: 72d4 213e 8fc2 323d 80fc cb3d 4cde 0e3e
00000390: a9b4 203d 382e 0bbd acbc 0a3d 5f56 683e
000003a0: e604 fa3b 5495 a7bd ed36 b73d 6cb0 a13d
000003b0: 78b3 3b3d d50a 853e 8a22 2b3e 9632 2f3e
000003c0: 2dcc 22bd 8d96 6fbd e7c8 533d e130 6dbc
000003d0: fe64 b3bd db53 993d 44f0 fe3d 5f2b 5f3d
000003e0: 6d1e ae3e 489f c9bd cada 173e 683d 433b
000003f0: f5b0 803d 6d4d e33d 7a33 d2bd a41e 073d
0.22329251 0.06280107 0.08930332 0.29794875 -0.11558931 0.0110037 0.19946322 -0.00050697586
-0.06613865 -0.11250366 0.15842725 -0.12500897 -0.15535896 -0.06674617 0.34506503 0.05485209
-0.020461341 -0.08185517 0.10911123 0.056952078 0.10272333 0.00030286543 0.04957339 -0.09554659
0.11004663 0.023955848 0.08018041 0.07941001 -0.076073505 0.032989528 0.01413339 -0.082814574
0.18395865 0.051313717 0.03230876 0.11269459 -0.10217146 0.055666562 0.10886194 0.017763108
0.12867157 0.047987707 0.053578593 0.09786127 0.023537274 -0.007254337 0.0533305 0.24019852
-0.012637242 0.14287743 -0.0884311 0.047295142 -0.03865396 0.18467714 0.31428552 -0.06338614
0.15022069 0.032390244 -0.006040983 0.14410938 -0.010569153 0.09267803 0.009700464 -0.045647375
0.15473849 0.07021789 -0.044399742 0.110022955 -0.01430072 0.050251268 0.10434713 0.026422812
-0.036485367 0.040363166 -0.02691298 -0.011058719 0.05390136 -0.16080326 0.09872342 0.0406456
0.02527581 -0.030990668 0.098374255 -0.065844834 -0.03558057 0.122331165 0.070451945 0.081817105
0.14512873 0.06703931 0.24636383 0.11174344 0.19769764 -0.044661406 0.19669716 0.14436656
0.21531081 0.0254699 0.0102083115 0.07214019 0.041323755 0.13253503 0.10804299 -0.1822148
0.09100035 -0.010881085 0.03229553 0.029065145 0.021794403 0.04758545 0.16666327 -0.028294293
0.039517853 0.114942156 0.047705147 -0.0034946671 0.07986136 -0.010839571 0.03381522 0.038874526
0.011984988 0.031489063 0.037252348 -0.044086806 -0.008138368 0.07474401 0.04395006 0.10007259
0.18224938 -0.036537375 0.123822525 0.011483419 0.15099731 0.027979521 -0.0023168365 -0.14619896
0.022101955 -0.02832349 0.0025334002 -0.17097917 0.085518174 -0.02989347 -0.10797629 -0.023818985
0.11065664 -0.10456256 -0.1613344 0.020602012 0.10466836 -0.026130104 0.08932783 0.09216234
0.14609532 -0.12580696 -0.04632113 -0.17034043 -0.042792547 -0.15992732 -0.11155295 -0.028891882
-0.077240884 -0.1371099 0.13046284 0.14313233 -0.0010500193 0.08102557 0.04503144 -0.017342497
-0.12423793 0.16422862 0.070139006 -0.14019923 -0.111297876 0.11483942 0.020902224 0.04742111
-0.054731734 -0.058709167 0.12213308 -0.03363451 -0.05765143 0.18793112 -0.12841062 0.0505507
-0.018556157 -0.1070967 0.15039171 -0.14955918 -0.07512815 -0.087860644 0.056175344 0.14199118
-0.01558093 0.23071285 -0.0014811807 0.11815796 -0.07328258 0.019715933 0.06987724 0.03700097
-0.017140953 0.06919353 -0.11766063 -0.016292786 -0.012233504 0.1722872 0.3011889 0.11536241
0.10652014 -0.0990128 0.1700456 -0.14333454 0.091755345 -0.066638015 0.12682629 0.015054484
0.10601383 0.111578435 0.1334948 0.23499022 0.0038886312 -0.017348519 0.06537703 0.025240555
0.15803698 0.043642577 0.0996027 0.13951987 0.03923479 -0.033979625 0.033871338 0.22689198
0.0076299785 -0.08182779 0.08946023 0.07894978 0.04582545 0.25984827 0.16712394 0.17109141
-0.0397455 -0.058493186 0.051705267 -0.014476986 -0.08759497 0.07486697 0.12448171 0.05448472
0.34007588 -0.098448336 0.14829555 0.002979124 0.06283752 0.11098752 -0.102637246 0.032988206

lstm.weight_ih_l1 f4 [256, 64]
00000000: ea5f b1bd ad53 273c 9ed5 5dbd b8e0 87be
00000010: 569a 85bd fc25 3b3b a229 1a3e b9d6 bdbb
00000020: 4729 873d 9b64 8ebd a94c d43d b41f 123e
00000030: eac6 c4bd d97b 813d b0f3 ab3d bfdc db3d
00000040: fcd3 fbbd 0e60 933d 2003 793d 50bf 413d
00000050: c786 3e3d 653f f5bb d9d6 6d3d d779 a93d
00000060: 0b82 08be 0534 c3bc fdb8 5bbd 4581 a33e
00000070: 86c1 e73d a33f a6bc e1e9 303e ab90 ef3d
00000080: e386 ff3d 164c cc3c f280 96bd 3fa0 cbbc
00000090: cc30 863a 25b1 aabc 7c6b 5fbd b4d2 00be
000000a0: 85eb 83bc fc7f ecbd 93c6 bdbd 6573 e63d
000000b0: 9f3a aebd 8292 2dbe 302d 613e 621d 2bbe
000000c0: 086a 50bd fb5a ffbd baef b73d 00d7 1a3e
000000d0: 82eb e9bd a2b8 35be e813 543e f303 0d3d
000000e0: 3166 733e 03a4 52bd 4587 4abe d813 003e
000000f0: 34ec 25bd 180e 8ebd 9584 8bbc 0ff6 c73d
00000100: aa7f aabb 4a50 553d f1a1 e13b 5890 823c
00000110: 01be 113d 3be0 a8bd 3670 0dbd 540e 743d
00000120: e439 cb3d ae78 623e 7b88 59bd aa37 40bd
00000130: 88cf 1a3d 5b46 573d 5d2a e53c 873a 82bd
00000140: d243 703d d901 11bd 6d89 c1bd fc05 46bd
00000150: dc37 8c3d 7fef dfbd 77f2 43bd 558c 983d
00000160: 4eec 5ebc 40c9 8fbd aaf0 68bd b792 39be
00000170: cd91 273d d0f3 81bb b0a7 82bc e335 0b3c
00000180: 1637 823d 156d a1bd 2a14 45be 50d5 b5bd
00000190: 11b5 aebd 9b38 6abd 0618 a5bd 7220 4c3e
000001a0: 8165 973d 6d62 e43d 14cc af3c f91e a83d
000001b0: ec93 153c cdda 243e 7b05 423b 4ade af3d
000001c0: 9844 7ebd 4914 fdbc 9b00 ea3c df61 313d
000001d0: ace8 9b3d 1dd5 313d 4a50 21be 3a08 89bd
000001e0: 069e 2bbe 067d b6bd eaad debc 53d4 993d
000001f0: d825 3ebd 4632 30bd ad63 27bd 39d1 083e
00000200: 165f f7bb 7f2d b2bc 4158 00be db2e 8cbc
00000210: cd87 93bd fda8 afbd 0905 e1bc 4808 173e
00000220: 794d 1b3e f55d 8dbd 67be 613c e57d bc3d
00000230: 30ed a4bc 6090 a63c 31a6 2f3c 95c9 f2bd
00000240: ec40 093d 78ed f93d 2354 b63d 4aa3 87bd
00000250: 4004 f33d bea9 263d ba38 3dbe 193b 23bd
00000260: 7471 55bc 1847 9cbd c5af f6bd 8d0e 46bd
00000270: 275c f83d e3d0 a83d c0f3 8cbc c7bd d73d
00000280: f265 ffbd 66cc fbbd 751c 2dbe e688 8ebb
00000290: 2359 18bd acd4 e2bc f4d0 babd c879 1ebe
000002a0: a249 9d3d 61ac c13c 7b45 0a3d e765 d33b
000002b0: 28d4 b03d 9915 713d 7fce b6bc 174f 19be
000002c0: 1a5d 3a3d 91c8 a63d c563 d13c d6a5 d0bc
000002d0: 058c 5ebd 9887 013e b83e b8be 43bf bf3d
000002e0: b5ce 523e eb57 adbd 0ea9 22bd e230 b03d
000002f0: d06b d2bd 9ba7 bc3d 5718 743e b4be d03d
00000300: 5f86 dabd b49a c8bd b1e9 4dbd 85fa 8dbe
00000310: f06d 8abe bb28 f0bc 2c54 603e 3855 a43d
00000320: 7389 f83d dd02 fa3d d217 623c 3bc2 6b3d
00000330: 76e2 c83d 8ac7 9cbd b9d2 aa3d 7831 be3d
00000340: 471a 01bd 3ff6 3fbd 4c80 c93d a571 003e
00000350: d579 3ebe 4ca6 b03d a581 3abd c14e d13c
00000360: 7f02 30be d0d1 b13d f16d 31bc a71c b03e
00000370: 88c3 5f3d 0894 213e 87ee 443e 8bc2 babd
00000380: c9cf 643e bc44 a3bc 1026 4dbe a620 fe3d
00000390: fad2 79bd de7a 0bbd dd3f 1abd a8b7 b5bd
000003a0: 262d 9dbd beb5 00bd 258c 0a3d fbd4 033e
000003b0: c053 2bbe 32f0 82be 29fa 413e 7a5c 13be
000003c0: 6566 203d 43a1 88bd 91b4 85bd 6805 f9bd
000003d0: 25e3 9d3c 7ff8 4fbe 98bb c33e 30ca 8bbd
000003e0: 1e3c f93e f604 0fbd 6113 81be 2a7e 0d3e
000003f0: d171 88bd ce42 7f3d 0009 6abd db6e 993d
-0.08660872 0.010212821 -0.0541588 -0.26538634 -0.06523578 0.0028556576 0.15054944 -0.005793419
0.0659967 -0.06952783 0.10366184 0.14269906 -0.09608252 0.0632245 0.08396089 0.10735463
-0.12296292 0.07196055 0.060793996 0.04730159 0.046515252 -0.007484364 0.058066223 0.08275192
-0.13330857 -0.023828516 -0.053643215 0.31934562 0.113162085 -0.020294016 0.17276718 0.11697515
0.124768995 0.024938624 -0.07348813 -0.024856685 0.0010237931 -0.020836422 -0.054545864 -0.12580377
-0.016103515 -0.115478486 -0.09266391 0.112524785 -0.08507275 -0.1695042 0.21989894 -0.16710427
-0.05088237 -0.12468525 0.08981271 0.15121078 -0.11421873 -0.17746213 0.20710719 0.034427594
0.23769452 -0.051425945 -0.19778164 0.1250757 -0.040508464 -0.06936282 -0.017030993 0.09763729
-0.005203207 0.052078523 0.00688576 0.01593797 0.035581592 -0.082458936 -0.03453084 0.059583977
0.09923151 0.22116348 -0.053108674 -0.046928085 0.037795573 0.05255733 0.027974302 -0.063588195
0.05865843 -0.035402153 -0.0945004 -0.04834555 0.06846592 -0.10934352 -0.047838654 0.07448641
-0.013606144 -0.07020807 -0.05687014 -0.18122374 0.04091053 -0.0039658323 -0.0159491 0.008496734
0.06358163 -0.07882134 -0.19245973 -0.08878577 -0.085306294 -0.05718289 -0.08061223 0.19934252
0.07392407 0.11151586 0.021459617 0.082090326 0.009129506 0.16099091 0.0029605317 0.0858732
-0.062077135 -0.030893462 0.028564742 0.043306228 0.07612738 0.04341613 -0.15753284 -0.06691022
-0.167595 -0.08910565 -0.027182538 0.07511201 -0.04642281 -0.043016694 -0.040866543 0.13361062
-0.007549177 -0.02175021 -0.12533666 -0.017112186 -0.07203636 -0.08577154 -0.027468221 0.14749253
0.15166272 -0.069026865 0.013778306 0.092037 -0.020132631 0.020332515 0.010720775 -0.11854855
0.03350918 0.12203497 0.089027666 -0.06622942 0.11866045 0.040689223 -0.1847867 -0.03985128
-0.013027538 -0.076307476 -0.12045244 -0.04835372 0.12126952 0.08242967 -0.017206073 0.10534244
-0.124706164 -0.12294845 -0.16905387 -0.0043498157 -0.037194382 -0.0276893 -0.09121886 -0.15476143
0.0768006 0.023641767 0.033757668 0.0064513567 0.086342156 0.058858488 -0.022315262 -0.14971577
0.045498945 0.08143724 0.02556027 -0.025469702 -0.05433275 0.12649381 -0.3598535 0.09362652
0.20586665 -0.08464035 -0.039712004 0.08603074 -0.1027447 0.09211656 0.2383741 0.10192624
-0.106701605 -0.09795132 -0.050271694 -0.27730194 -0.27037 -0.029316297 0.21907109 0.08024067
0.12135591 0.122075774 0.0137996245 0.05755828 0.09808819 -0.076552466 0.083409734 0.09286779
-0.0315192 -0.046865698 0.09838924 0.12543352 -0.18601163 0.086254686 -0.045533795 0.025550248
-0.17188452 0.08682597 -0.010829435 0.3439686 0.054629833 0.15779126 0.19231616 -0.091191374
0.22344889 -0.019930236 -0.20034051 0.12408571 -0.06099222 -0.034052722 -0.03765856 -0.0887292
-0.07674627 -0.031423323 0.03382506 0.12874214 -0.16731167 -0.2557388 0.18943085 -0.14390746
0.03916015 -0.06671383 -0.06528581 -0.12159234 0.01927335 -0.20309637 0.3822906 -0.068256736
0.48678678 -0.03491684 -0.25210097 0.13817659 -0.06662334 0.06231957 -0.05713749 0.07491847

lstm.weight_hh_l1 f4 [256, 64]
00000000: 8c70 843d 67ca a3bd a4b0 98bb dc20 e5bc
00000010: a6b5 61bd cc16 5dbd 18b0 8c3d 58a9 853c
00000020: d2e8 81bb 1644 c83d e869 92bd 2a73 5e3c
00000030: e49d ca3d 4c93 c13d d902 0f3e 02f2 c73c
00000040: 1e8b f03d 32a3 a6bd 06c6 43bd f847 7ebd
00000050: c03d 07be 5341 b7bd 9e6a 66bd 20d4 d13d
00000060: 5ad8 b33b 250e e03d a235 823d 8cd2 85bd
00000070: a0ce 093e a6c3 6fbc 4b49 4cbc 330f 52bd
00000080: 3cf9 c53d 95dc 1abd 4e2d 47bd 1be9 83bd
00000090: f232 1b3d d2b2 b13d 5c64 8cbb 4d42 013d
000000a0: bae0 aebd 8a45 5f3d f37b ce3b be67 393d
000000b0: 875e b13c 19c9 b33d 8f16 b33d 9f7a c73d
000000c0: f89f a83d 8d47 c4bd 36e2 b43b 7e2a f2bd
000000d0: 99c5 01be 6113 f83d 5b19 f8bc 4e67 edbc
000000e0: 5b4c 19bd 6023 b93d 82ab 7a3d 91ab 203d
000000f0: 47a1 273d dfb0 e13d 396f f93d c81b 0cba
00000100: 009c 573d a70a 9d3c 2efa ae3d d5b4 d7bd
00000110: bd23 47ba 3d3e 8b3d 9f3c f33d a112 f93d
00000120: 8d5a 1cbd e117 d33c 0c6c 7b3d 8be5 b8bb
00000130: 2420 ddbd e90d 9cbd e809 203c 332e c2bc
00000140: 80c2 a5bd 69b8 e83d 4d1d 143e f6e3 c43d
00000150: ce1c 90bd b5fe ff3c b021 7a3b 54a7 afbd
00000160: 86b1 b1bd 2eb9 123e 60d7 e93d 8d3d 3e3a
00000170: 7252 bc3c fc32 843d 13a7 823d 1ac3 2abd
00000180: d338 033d a517 0c3e df43 e0bd e361 29bd
00000190: 88df c83c 2c1f 04be b03a 03be 9f96 b53d
000001a0: d08e b6bd 9af9 743d 9db4 173d 821e 17bd
000001b0: ad54 883d 92a3 cb3d 4778 c53d 9eab bb3d
000001c0: 1ac1 09be 1922 613d e8af 8bbd 9e6a b5bd
000001d0: 28e5 723c 2c4a f93d 34ad 2f3d 089b 3c3b
000001e0: 084f e13d 9794 6c3d 615c 61bc 7ac3 b43c
000001f0: 2df7 cd3d 3186 d13c e0d8 8abc dbc1 2ebd
00000200: a6c5 083d 17b0 d63c 3f28 ef3d ffb3 82bc
00000210: 9e9f 343a c8f4 213e 3b32 debc dbad 77bd
00000220: 8189 d43d 393a 1d3e b30c 583b a3e7 cb3c
00000230: b29c 81be dc44 b93d e0fe 36bd 0eeb 08bc
00000240: 6762 3a3d e55a aabb e6db 813d 90a1 df3d
00000250: 09e7 6abd 864e 9a3d 9eb3 a7bd 891c 08be
00000260: 0ea4 093e ccab 053b d10f 46bd 88ca 903d
00000270: 06dc c0bd 1110 9ebd 3e36 11bd 2b10 9d3d
00000280: ff13 adbd 8cd6 bc3d 88d3 e63d ada8 b6bd
00000290: 5b88 67bc 468f a43d 13e7 bb3c 285e 97bd
000002a0: 6704 683d b3e8 1abe fea0 a33d 3c1d 67bc
000002b0: a3a5 943d cf94 33bd ea89 eb3d 108d 033d
000002c0: 6382 8abd 5243 2abd 245c d2bd 5d4c 9fbc
000002d0: 3c8a e4bd 981f 743b 6397 993d 47f4 d73c
000002e0: 406a dd3d 887c 2ebd b8c9 553c 510e fc3c
000002f0: 22a6 23bd 51a3 513e f60e 1a3d d0e8 c13c
00000300: 4bcc 0e3e 502b bd3d 5baf d8bd 788c 23bd
00000310: dfc7 07bd ad50 0dbc 988b fa3d 63f2 ba3d
00000320: dc72 243c db5c 5a3c 5f63 0a3e 0120 833d
00000330: 635d abbd ed1c c03c 9b1d 21bd 32a3 f33d
00000340: f1c4 b8bd f84d 32bd 80c2 cdbc 7982 0b3e
00000350: 9bdd c13c 58f2 4d3d c90c 133e 2c68 b63d
00000360: 9f1a 123e 0804 af3d 446b 653d d062 a9bd
00000370: 7bda c9bd 2c72 923d cace b93c a705 d33d
00000380: 694a cfb8 9748 93bc 8643 9c3d f2e1 dfbd
00000390: 9935 f13d bfda 50bd ff99 a7bd 8d42 fa3c
000003a0: d07b 963c 39a5 2a3d 477e 85bc 979a 26bd
000003b0: f5b1 cc3d 1974 dcbd 9281 b53a b446 e53d
000003c0: 760b e3bd ba53 9fbd fff7 143d 848a e8bb
000003d0: 3878 83bd e45d 043d f6fc 0cbe 6b9f a1bd
000003e0: 9d4c 2fbc 062b da3a e725 07bd f220 44bb
000003f0: 1723 bfba f91c 78bd f4e0 573d 7818 3ebd
0.06466779 -0.079975896 -0.004659729 -0.02796977 -0.055104874 -0.05397682 0.06869525 0.016316101
-0.003964522 0.09778611 -0.07149106 0.013577262 0.098933965 0.09451923 0.1396593 0.02440739
0.117452845 -0.08136596 -0.04779627 -0.062080353 -0.1320715 -0.089480065 -0.05625402 0.10245538
0.0054884376 0.10940198 0.06357886 -0.06534299 0.13457727 -0.014634049 -0.012468646 -0.051284026
0.09666678 -0.03780802 -0.04862719 -0.06440946 0.037890382 0.086766854 -0.0042844247 0.03155737
-0.08538957 0.054509677 0.006301397 0.045264952 0.02165152 0.08778591 0.08744537 0.09740185
0.082336366 -0.0958396 0.0055201305 -0.11824511 -0.12673034 0.12113071 -0.030285528 -0.028979924
-0.037426334 0.0903995 0.06119872 0.03922612 0.04092529 0.110200636 0.12179417 -0.0005344716
0.052639008 0.019170118 0.08543812 -0.10532538 -0.0007596573 0.067989804 0.11876797 0.12161756
-0.038172293 0.025768222 0.06138234 -0.005642598 -0.10797146 -0.07619841 0.009767987 -0.02370367
-0.080937386 0.113632984 0.14464302 0.096137926 -0.07036744 0.031249383 0.0038167052 -0.08576837
-0.08676438 0.14328453 0.11418033 0.00072570966 0.022988532 0.06455037 0.06379523 -0.04168997
0.032036614 0.13680895 -0.109504454 -0.041353118 0.02452065 -0.12902516 -0.12815356 0.08866619
-0.08913958 0.05980835 0.03703748 -0.03689433 0.066567756 0.09943308 0.09642082 0.09163593
-0.13452569 0.05496416 -0.06820661 -0.08858226 0.014825143 0.1217235 0.04288979 0.002877893
0.11001402 0.057758894 -0.013754935 0.022065867 0.10056911 0.025576683 -0.016949117 -0.042665344
0.033391617 0.026207013 0.11677598 -0.01595497 0.000689024 0.15816033 -0.027123561 -0.060468536
0.10377789 0.15354241 0.0032966554 0.024890726 -0.25314862 0.09046337 -0.04467666 -0.008356823
0.045504 -0.0051988238 0.063407704 0.109194875 -0.05734924 0.075345084 -0.08188556 -0.13292135
0.13441488 0.0020396588 -0.048354927 0.0706988 -0.09416966 -0.07717908 -0.03545212 0.076690994
-0.084510796 0.09220609 0.11270815 -0.08918891 -0.014131631 0.0803514 0.022937333 -0.07391006
0.056644823 -0.1512783 0.07989691 -0.014106091 0.07258155 -0.043843087 0.115009144 0.03211695
-0.067631505 -0.041568108 -0.10271481 -0.019445593 -0.111591786 0.0037250277 0.07499578 0.026361598
0.10811281 -0.04259923 0.013048582 0.030768545 -0.03995336 0.20472457 0.037611924 0.023670584
0.13945119 0.09236777 -0.105803214 -0.039928883 -0.033149596 -0.008625192 0.12233657 0.09128263
0.01003715 0.0133278025 0.1351447 0.06402589 -0.083674215 0.023451293 -0.039334875 0.118963614
-0.090219386 -0.043531388 -0.025117159 0.1362399 0.02366524 0.050279945 0.14360346 0.08906588
0.14267968 0.08545691 0.0560105 -0.082708 -0.09856125 0.07150683 0.022681613 0.103038125
-9.884389e-05 -0.01797895 0.076300666 -0.109317675 0.11777801 -0.050989863 -0.08183669 0.030549312
0.018369585 0.041661475 -0.016295565 -0.040674772 0.0999488 -0.10764331 0.0013847819 0.11195126
-0.110861704 -0.077796414 0.03636932 -0.0070965905 -0.06419414 0.032316104 -0.13768372 -0.07891735
-0.010699418 0.0016644902 -0.03299513 -0.0029926863 -0.0014582601 -0.060574505 0.052704766 -0.046410054

lstm.bias_ih_l1 f4 [256]
00000000: cf29 b33c d2d4 103d 96e5 bcbd 37a2 f5bd
00000010: 86a3 16bc f541 b03d b87c 16bd 0bc5 af3c
00000020: 962f 023d 1071 a0bc 660b 153c d1ec b4bc
00000030: e9bb d2bd db8c a33d 1066 093e d49c 04bd
00000040: a2d4 b6b9 ef2c a83d e4e5 36bd 5ad5 c2bd
00000050: b9d9 043e 06ce 693b 6a1f 913d 1c96 c83d
00000060: a5a4 16bc 8170 11bd a3f1 98bc 4e0f 063d
00000070: e0cb 0abe a574 8bbd 9bfe 743d 8403 91bd
00000080: 9ba3 8fbd 0837 68bd 30b9 e23d 8b34 a2bd
00000090: 8ed6 74bd 44ec 8fbd 07a3 7cbd 7c88 04bd
000000a0: fbe8 66bc d525 c7bd bd60 f43d 1d35 cc3c
000000b0: 46cd b3bc a78d 513d 5159 c33d 1613 9c3d
000000c0: f3cb 993c ceef 4abd 5d3e eebd 2fc9 84bd
000000d0: 1a51 4c3d c166 a4bd 6e42 813d bba9 0cbd
000000e0: b20d 663c dc1c b6bd 6242 84bd d8a3 34bd
000000f0: e5f1 cc3d 1f46 3a3d ec9a 2b3d 3ffb f83c
00000100: 1ad1 173e 0bc2 a83d bd1a 493d 333b 103e
00000110: 7f24 a03d c0d7 ffbd 0228 bdbc f647 bdbd
00000120: 6c91 1d3b ef21 033e e218 89bd 1c20 663c
00000130: 4637 0b3d 765f ff3d 4e3c 83bd 13b7 8ebd
00000140: 4052 42bd eb03 a13d 833f 0f3d 32a0 b4bd
00000150: 3dbc a4bc 3ee1 91bd 1098 cc3d 95d4 d5ba
00000160: e323 783d d4f6 b0bd f29b 343d fa67 89bd
00000170: 2bd8 32bd 8edf 853d 8d2a 8bbd 6280 cc3d
00000180: 007d 90bb 12b4 b33c 8f1e 9b3d cb83 ac3d
00000190: b50d ee3b d24e 83bd ba4f cebc b824 8abd
000001a0: e31b e03d 4dc6 053d 7e51 d2bb 17c6 95bd
000001b0: 542e fa3c b3ed b43d e1b9 8abd 41bc 08bd
000001c0: df0f f03c e814 c33d b6db 5b3d 7c42 723c
000001d0: a0ff 653d d8bd e13d dbab b3bd e31b ab3d
000001e0: 8d65 483c cfa7 94bc 3bbb de3d 8464 d23d
000001f0: 280e a3bd 2890 dfbb d1b9 f43d e690 113e
00000200: e4e3 653d 3fb6 81bd 0f60 763d 9f8b dcba
00000210: d675 123e df76 d33d bfbc fc3d c018 e83d
00000220: 2620 993d 389c 5ebd caf4 cd3d dd2b e3bd
00000230: 553f 7abd 141c 60bd e5c9 c93d b40b 5d3c
00000240: ec08 143e d750 0b3e b79a 7dbd a2bc 033e
00000250: ca01 f9bc 6ea7 a53d eb3f c13d b0df f1ba
00000260: 9270 ae3d 28db 863d 452a 693c 5c1e febd
00000270: ba1b a8bd d98a 1ebe 6c28 1fbd c564 ef3a
00000280: 7e4c 1b3d 5fa9 94bd 64c3 9f3d 5589 c43d
00000290: 703f 32bd e2b7 3dbd 5e57 61bd 35e3 523d
000002a0: 85c6 913d 5968 e5bc 1d7c 793c 1314 b7bd
000002b0: cc18 63bd 20bc 92bd 8c4a 673d 761d 9a3d
000002c0: 5d95 b5bc 19e3 033e 1bcc ffbd 370b 3d3d
000002d0: d8f1 27bc a008 8a3c a4bd d0bd 0785 81bc
000002e0: 371c e3bb 86f9 163e a174 50bd d9f9 2d3d
000002f0: fd44 d63d 81b5 043e 7734 ccbd 7c2c 4a3d
00000300: be22 823d d62f a43d 7ff5 2f3e d8fb cf3d
00000310: 2490 213e a004 81bd b862 2e3e 64cb c63d
00000320: 9680 7fbd 7065 753d 3049 233e 776a 503c
00000330: 0de8 073e b56a 8d3d 10e6 0bbb 5259 eb3d
00000340: ce80 66bb 7728 223e 21ce 953d 65e5 c8bc
00000350: 7c90 853c 62a3 3d3d f263 28bc 7730 5e3c
00000360: a556 043e d5b5 123e 6d11 72bd 675a 263e
00000370: 97a2 083e 3415 283e 0b9b 173e f334 2e3e
00000380: 1e51 c8bc 7d3b 00bd d223 fdbb 36ab f4bc
00000390: 1485 b53d 891b 9f3d 1150 f43b 3fe8 4ebd
000003a0: 1a5d 34bd 598a 8bbd 3c1e 2c3c 59eb 9dbd
000003b0: 6d99 833d ecb5 c23d f025 c03d ecc3 1d3e
000003c0: 9d72 133e 0957 22bd 8be7 e6bc 0148 4cbd
000003d0: ceb9 103d fa66 e23d 123a 34bd 5b52 af3c
000003e0: d674 273e 2378 ddbc 7ba7 82bd ca09 263e
000003f0: 72f9 67bd 9769 b0bb 37af 383d 1bec 71bd
0.021870522 0.03535921 -0.092234775 -0.11993831 -0.00919426 0.0860633 -0.036740035 0.021456262
0.031783663 -0.019585162 0.009096956 -0.02208558 -0.10289747 0.079858504 0.1341784 -0.032376125
-0.0003487217 0.082116954 -0.044652835 -0.0951335 0.1297368 0.0035675778 0.0708607 0.09794256
-0.009194528 -0.035507683 -0.018669909 0.03272944 -0.13554335 -0.068093576 0.059813123 -0.07080749
-0.07013627 -0.056693107 0.11070478 -0.07920178 -0.059774928 -0.07027486 -0.061678912 -0.032356724
-0.014093633 -0.09724013 0.11932514 0.02492767 -0.021948468 0.05116048 0.0953852 0.07620828
0.018774008 -0.0495451 -0.116329886 -0.06483685 0.049882032 -0.08027411 0.063114986 -0.034341555
0.014041351 -0.08892223 -0.06457974 -0.044101566 0.10007075 0.04547703 0.041895792 0.030393241
0.1482586 0.08240136 0.049097765 0.14085083 0.07819461 -0.12492323 -0.023090366 -0.09242241
0.0024042977 0.12805913 -0.06694199 0.014045741 0.03398826 0.124693796 -0.064079866 -0.069685124
-0.04744172 0.078620754 0.03497268 -0.08819617 -0.02010929 -0.0712304 0.09989941 -0.0016313965
0.0605811 -0.08640829 0.044094034 -0.06709285 -0.043663185 0.0653678 -0.06795225 0.099854246
-0.0044094324 0.02193645 0.07574188 0.08423575 0.0072648176 -0.06411518 -0.025184501 -0.06745285
0.10942819 0.032659817 -0.006418406 -0.07313173 0.03053967 0.088344 -0.06773735 -0.033382658
0.029304443 0.09525472 0.05367633 0.014786359 0.056151986 0.11022538 -0.08773013 0.08354928
0.012231243 -0.018146424 0.10875555 0.10273078 -0.079616845 -0.0068226047 0.11949504 0.1421543
0.056125537 -0.06333589 0.060150202 -0.0016826278 0.14302763 0.10325407 0.12340688 0.11332846
0.07476835 -0.0543482 0.100564554 -0.11092351 -0.061095554 -0.054714277 0.098529615 0.01349156
0.14456528 0.13605057 -0.061915126 0.12864926 -0.03039636 0.08088575 0.094360195 -0.0018453505
0.08517565 0.065847695 0.014231269 -0.12408134 -0.082084134 -0.15482654 -0.03885691 0.0018264285
0.037914746 -0.072588675 0.0780094 0.095965065 -0.04351753 -0.046317942 -0.05501496 0.051486213
0.07117943 -0.028003858 0.015227345 -0.08939376 -0.05544357 -0.07164788 0.056467578 0.075251505
-0.022165949 0.128796 -0.12490102 0.046153273 -0.010250531 0.016849816 -0.10192421 -0.015810503
-0.0069308537 0.14743623 -0.050892476 0.0424746 0.10462377 0.12959863 -0.099709444 0.04935883
0.06354283 0.080169365 0.17183493 0.10155457 0.15777642 -0.0629971 0.17029846 0.097067624
-0.06237849 0.05991119 0.15945888 0.012720696 0.13272114 0.069051184 -0.0021346845 0.11491646
-0.0035171988 0.15835749 0.073147066 -0.024523446 0.016304247 0.046298392 -0.010277735 0.01356136
0.12923677 0.14327176 -0.05909865 0.16245423 0.13343273 0.16414338 0.14805238 0.17012386
-0.024452742 -0.031306732 -0.0077252174 -0.029866796 0.08863273 0.07768924 0.0074558337 -0.050514456
-0.0440341 -0.06813497 0.010505255 -0.07710905 0.06425748 0.09507355 0.09382236 0.1540677
0.1439919 -0.039633784 -0.02818658 -0.049873356 0.035333447 0.110547975 -0.044000693 0.021401575
0.16353163 -0.027034825 -0.063796006 0.16214672 -0.056634374 -0.005383681 0.045088973 -0.05906306

lstm.bias_hh_l1 f4 [256]
00000000: 3a86 d5bd 77ac c2bc d233 bf3b 0996 943d
00000010: a25a 85bc 6ece 003c dc6a 20bd d68f 893d
00000020: c566 ee3d ddcb c93d 53fa b43d 6236 623d
00000030: b318 663d f311 863d 2358 7ebc 017e 733d
00000040: 8ab3 8f3d b141 8abc 0f25 903d 0339 5d3c
00000050: 0aae 2fbd 936b d33d 8f83 45bd af8a 163d
00000060: 2c31 a5bd 9b6d 85bc e122 ea3d 6c98 35bc
00000070: c69d dabd 6bd2 983c d70f f9bc 49fe 00bd
00000080: 78e6 1c3c 9b17 cfbc e11e 9abd da9d ecbc
00000090: 2916 863d 92d3 e33d 4373 e33d a6c5 513d
000000a0: c585 0e3d 87cf ea3d 27cd ad3c 69c6 093e
000000b0: 11a6 c93d f35a 0ebd e070 0fbd 23f5 76ba
000000c0: 5867 bcbd be58 6abd 4dad 5dbd ecfb f93d
000000d0: 3dc3 29bc d66d 5a3c d012 493d 7ebc a7bd
000000e0: 6d7f 153e 0af3 c83d 0774 b4bd e2b3 7fbd
000000f0: aff0 913d 76df 453d ddd2 fb3d eb74 2fbd
00000100: 2cf8 98bd 87ea 953d 76af 013d fc2c ab3c
00000110: 1b13 58bd 27a6 2b3d 4d5b dbbd ce78 e1bd
00000120: b330 6bbc 1602 eb3d 211f 09bd 115e 0dbb
00000130: 5055 b4bd 528d 80bd 10c0 61bd 548a c13b
00000140: b8fc 153d 1489 cd3d 4b36 60bc f6b3 aebd
00000150: e81b 9a3d b1e1 763d ac93 c5bd 726f e83c
00000160: ce65 d53d ec40 b2bc 7b4b 143e b65b cabc
00000170: 64c2 633c b2b7 813d d94f a23c 3a04 dc3d
00000180: f544 96bd 64fb 933d c08c 1fbd f1ff e43d
00000190: 9fff 26bd 6dfb f03d 7df2 133e b798 d33b
000001a0: 3fd8 89bd 5948 2abd f14b 503d eb0b c2bd
000001b0: 8494 d63d d575 d6bd 77b1 a6bd 0309 b13d
000001c0: 667d 0a3e 2744 323d 8ff2 673c 3d55 7dbd
000001d0: 65fa b3bd 9802 9bbd 4f90 413c 2f8e ab3d
000001e0: 14f0 9b3d 311c d2bd 3c8b 29bc ea4f 8b3d
000001f0: b4f1 26bd 1f62 e33c 663e 8d3d 1ca5 093c
00000200: 938c b83d 2227 99bb 6807 04bd 93f6 7ebc
00000210: d088 053e bbc4 c23d 6397 993d 39bb eb3d
00000220: beb8 e73d ef80 333d 5047 c83d b995 0f3d
00000230: 4138 2c3d 0a56 ce3d 7302 17bd b625 6639
00000240: 9530 5b3d ac7f c93d 4f06 cfbd c413 233b
00000250: 3d30 213d ad22 23bd 6fb7 da3d 028c 663b
00000260: 553e 0f3d f8ad 7fbd 8200 243d 6948 15be
00000270: ce85 a13d 3481 f0bd 5be0 84bd abdf 5f3d
00000280: 6223 5fbd fe9c 013e 477f 26bd ad7f d23d
00000290: a2f7 b93d c5f6 90bd cb12 05be b99f f63d
000002a0: 7f0f cc3d 4cb5 62bd c98d a2bd 930b e33d
000002b0: 5520 e63c b4eb a13d 2c11 d53d d468 44bb
000002c0: 9994 203d d8a2 b43b 6d4e 88bc 5c23 9cbd
000002d0: 207d 19bc dd7e 72bd 64b4 9f3c 1b5e a13b
000002e0: a5b6 0e3e 3116 c7bd b982 d83c 2939 7c3d
000002f0: 544b 2c3d db42 ef3d 0b36 823d 41e7 dcbd
00000300: a402 073d cc98 253d c688 a0bc 8a0f 983d
00000310: 9490 84bc 1064 1d3c 97f3 0b3e 2223 253e
00000320: 6623 763d 1200 193e a6c7 323e 719a 293c
00000330: 333e ad39 0653 78bd 3383 1d3e e2c0 1c3e
00000340: fd42 4a3c c60b a53d 1a89 08bd 582e ed3c
00000350: c419 33bd 429f a43d 12f8 1c3d 59ea 923d
00000360: 59a3 b13d 9299 f13c 9ded 74bd 0ef7 fcbc
00000370: 7f6c bf3d 743f 313e d96d 1f3e 4c32 293d
00000380: 2614 113d 6eb1 f3bc 654a 673d c611 b33d
00000390: 4195 59bd 3ecc f23d 58cb 893d 567a 263e
000003a0: 285d 203e 58b8 213d 009d 0c3d 30b6 13bb
000003b0: 76ac 173e a893 973c 58df c13b 04b4 273e
000003c0: 7d7c 873c 6ad6 c63d 9578 93bd b10f 3a3c
000003d0: a761 50bd af72 ff3d bf8b c03b b1df 9b3d
000003e0: 384b 9ebc f025 323e e9e0 983d a63b 8dbd
000003f0: b62a 333d 13b3 c93d f7d3 1abd eadc 06bc
-0.10425992 -0.023763878 0.005835035 0.072551794 -0.016278569 0.007861717 -0.03916441 0.06716888
0.116406955 0.09853337 0.08836808 0.055227645 0.0561759 0.06546392 -0.015523943 0.05944634
0.07016666 -0.016877027 0.07038318 0.013502362 -0.042890586 0.103232525 -0.048221167 0.036753353
-0.080660194 -0.016287616 0.11432434 -0.0110837035 -0.10674624 0.018655023 -0.03040306 -0.031492505
0.009576432 -0.02527981 -0.07525421 -0.028883863 0.065471955 0.11124338 0.11105969 0.051213883
0.03479554 0.11465364 0.021215988 0.13454594 0.09846128 -0.034754705 -0.035019755 -0.00094206835
-0.09199399 -0.057213537 -0.05412035 0.122062534 -0.01036149 0.013331851 0.049090207 -0.08190249
0.1459939 0.09811981 -0.08811193 -0.06242741 0.07125985 0.048308812 0.12296078 -0.04283611
-0.0746921 0.07320123 0.031661473 0.020895474 -0.052752595 0.041906502 -0.107107736 -0.1100937
-0.0143548725 0.11475007 -0.033476952 -0.002157096 -0.088053346 -0.06276955 -0.055114806 0.0059063826
0.036617965 0.10035911 -0.013684819 -0.085304186 0.07524854 0.06027383 -0.09647307 0.028373454
0.10419808 -0.021759473 0.14481919 -0.024701934 0.013901327 0.06333865 0.019813465 0.10742994
-0.07337371 0.07225683 -0.03895259 0.111816294 -0.040771123 0.11766706 0.1444797 0.006457414
-0.06730699 -0.041572902 0.050853673 -0.094749294 0.10477546 -0.104716934 -0.081393175 0.08644297
0.13524398 0.043522026 0.014156952 -0.061848868 -0.08787993 -0.07568854 0.011814191 0.08376729
0.07614151 -0.10259283 -0.0103481375 0.06802352 -0.04075785 0.027756749 0.06896667 0.008401182
0.090111874 -0.0046738544 -0.032233626 -0.015561718 0.13040471 0.095101796 0.07499578 0.11510319
0.11314534 0.043824133 0.09779227 0.035054896 0.042045835 0.100750044 -0.03686757 0.00021948558
0.05351313 0.098388046 -0.10108625 0.0024883607 0.039352644 -0.03982799 0.106795184 0.0035178666
0.034971554 -0.06242177 0.040039547 -0.14578404 0.07886849 -0.117433935 -0.06488105 0.054656666
-0.054477103 0.12657544 -0.040648725 0.102782585 0.09080435 -0.070783176 -0.1299545 0.120421834
0.09963893 -0.05534868 -0.079371996 0.11086192 0.028091589 0.07906285 0.10403666 -0.002996971
0.039204214 0.0055125766 -0.016638959 -0.07623932 -0.009368211 -0.059203018 0.019495197 0.0049245483
0.13936861 -0.097210295 0.02642952 0.06157795 0.042064026 0.116826735 0.06357964 -0.10786296
0.032961503 0.04042892 -0.019596469 0.07424839 -0.016182221 0.009606376 0.13667141 0.16126683
0.060092352 0.14941433 0.17458972 0.010351763 0.00033043473 -0.060626052 0.1538208 0.15307954
0.012345073 0.08058886 -0.033333875 0.028952762 -0.043725744 0.080381885 0.038322516 0.071736045
0.08673734 0.029492173 -0.05979692 -0.030879524 0.09346866 0.17309362 0.15569247 0.041307732
0.035419606 -0.029747691 0.056467433 0.087436244 -0.053120855 0.11855362 0.06728238 0.16257605
0.15660536 0.039482445 0.034329414 -0.0022539012 0.14811882 0.018503025 0.005916517 0.16377264
0.016538853 0.09708865 -0.072007336 0.01135628 -0.05087438 0.12473046 0.005876034 0.07611025
-0.019322976 0.17397285 0.07464773 -0.06896143 0.043741904 0.09848609 -0.0377998 -0.008231381
