lstm_model_1000.pth (torch, 204428 bytes, 9 tensors)

lstm.weight_ih_l0 f4 [256, 1]
0	0x3e3574af	0.17720293
1	0x3e980b01	0.29695895
2	0x3ee27b21	0.44234565
3	0x3f0850c9	0.5324827
4	0x3ed8c1af	0.4233527
5	0x3fa1b1e4	1.2632413
6	0xbe55faaa	-0.20896402
7	0x3e18afd7	0.14910828
8	0x3f084d5e	0.5324305
9	0x3e321c14	0.17393523
10	0x3f03b99f	0.5145511
11	0x3f8ebc0e	1.115114
12	0xbd6b17ca	-0.057395734
13	0x3f43c664	0.76474595
14	0x3d956c0e	0.072960004
15	0x3f6d139f	0.92608064
16	0x3e70661a	0.23476449
17	0x3eef335e	0.46718878
18	0x3f6dc9aa	0.9288584
19	0x3f6ebfbd	0.9326132
20	0x3ef98c8a	0.48740035
21	0x3ed27267	0.41102907
22	0x3e8ef20f	0.2791905
23	0x40278652	2.6175733
24	0xbee940e9	-0.45557335
25	0x3eeddc43	0.4645711
26	0x3eee00e2	0.4648505
27	0x3f300209	0.68753105
28	0x3ea5a978	0.32355857
29	0xbe887574	-0.2665211
30	0x3f04aa50	0.51822376
31	0x3f422a9b	0.7584626
32	0x3ef45b9b	0.4772614
33	0x3e93fd99	0.28904417
34	0xbe64a780	-0.22329521
35	0x3f6ec134	0.93263555
36	0x3f25067f	0.6446304
37	0x3f8908e7	1.0705842
38	0xbe4cc42b	-0.19996707
39	0x3e9427ab	0.28936514
40	0xbecf6b0f	-0.40511367
41	0x3f00fb92	0.50383866
42	0x3f6645ad	0.89950067
43	0xbf154c0f	-0.5831918
44	0x3f89e557	1.0773114
45	0x3ea7b3d8	0.32754397
46	0x3ea68daa	0.32529956
47	0x3fae1851	1.3601171
48	0x3f4c6d50	0.798543
49	0x3ef12930	0.47101736
50	0x3f0e37b8	0.5555377
51	0xbeb7f3d5	-0.35928217
52	0x3f9efc0d	1.242067
53	0xbe6bd82b	-0.2303168
54	0x3e88ab3c	0.2669314
55	0x3f122b7b	0.57097596
56	0x3ed4ccc7	0.41562483
57	0x3e014de7	0.12627374
58	0x3e20797b	0.15671341
59	0x3b830fd3	0.003999689
60	0x3e98721e	0.29774565
61	0x3f7c4b42	0.98552334
62	0xbf1ca63c	-0.61191154
63	0xbe00e950	-0.12589002
64	0x3ea7edde	0.32798666
65	0x3ef56500	0.4792862
66	0x3eb54437	0.35403606
67	0xbe20951b	-0.15681879
68	0x3e9527d9	0.29131964
69	0xbeb2cd0b	-0.3492206
70	0x3e5fab80	0.21842766
71	0xbe6c43af	-0.23072694
72	0x3edd16b9	0.431814
73	0xbe90c39e	-0.28274244
74	0xbeade629	-0.3396466
75	0xbe05863f	-0.13039492
76	0x3c91381f	0.017726956
77	0xbd8b18a7	-0.067918114
78	0x3dfbf438	0.123024404
79	0xbe410420	-0.1884923
80	0x3ccb79e2	0.024838392
81	0x3f18e9e6	0.597319
82	0xbe33bfa8	-0.1755358
83	0xbe84c78e	-0.25933498
84	0x3f4b120a	0.793244
85	0xbe91b406	-0.2845766
86	0x3dee1062	0.116242185
87	0xbf295baa	-0.66155493
88	0x3ead21c1	0.33814815
89	0x3e87ae7a	0.26500303
90	0xbec935f5	-0.39298978
91	0xbf1caa19	-0.6119705
92	0xbdd5dc88	-0.104424536
93	0x3e0a6ebb	0.13518803
94	0xbee0656f	-0.43827388
95	0xbdcf160c	-0.10111627
96	0xbe76b5af	-0.24092744
97	0x3f04dc97	0.51899093
98	0xbe5972f8	-0.21235263
99	0x3dea2401	0.114326485
100	0xbe84fa4f	-0.2597222
101	0xbf8b3be2	-1.087765
102	0xbda5ef2a	-0.081022575
103	0x3f049813	0.51794547
104	0xbea54ab1	-0.32283548
105	0xbf810aa9	-1.0081378
106	0xbdeda780	-0.11604214
107	0x3ecaec8a	0.3963359
108	0xbee3ae8b	-0.44469103
109	0xbcd427b2	-0.025897834
110	0xbf0ae97f	-0.54262537
111	0xbebb749d	-0.36612406
112	0xbeaca905	-0.33722702
113	0x3efa5aef	0.48897502
114	0x3dbd1f9d	0.092345454
115	0x3de44b69	0.11147196
116	0xbf049c21	-0.51800734
117	0xbf15e846	-0.58557546
118	0x3dbb9002	0.09158327
119	0x3e14bacc	0.14524382
120	0x3e30b163	0.17255168
121	0x3e4560ac	0.19275159
122	0xbe9493fe	-0.2901916
123	0x3d1b5010	0.03791815
124	0xbe3b7a2c	-0.18308324
125	0xbe791c5b	-0.24327223
126	0x3eca0388	0.3945582
127	0x3ea57daf	0.3232245
128	0x3e1b19cc	0.1514656
129	0xbf0dbc03	-0.5536501
130	0x3f28bead	0.6591595
131	0x3f08c34b	0.53422993
132	0x3eaf4214	0.342301
133	0xbe884d17	-0.26621315
134	0x3f1dcd26	0.61641157
135	0x3f04738d	0.51738816
136	0xbeb9c8b9	-0.36285952
137	0xbec68d7a	-0.38779813
138	0x3edb8557	0.42875168
139	0xbf18e7b6	-0.5972856
140	0xbedd7cf3	-0.4325939
141	0xbdb2d986	-0.087328956
142	0x3ee2784c	0.44232404
143	0x3e8c76b1	0.27434304
144	0xbe9d909e	-0.30774397
145	0xbe4df8cb	-0.20114438
146	0x3ed9375e	0.42425054
147	0x3e5b8685	0.21438034
148	0xbedad07d	-0.4273719
149	0x3eacda4e	0.33760303
150	0xbe88eb32	-0.2674194
151	0xbee92243	-0.45533952
152	0x3e13d4ad	0.14436598
153	0xbe9282b7	-0.28615353
154	0x3f18d96e	0.5970677
155	0xbfa76698	-1.3078184
156	0xbf2035da	-0.6258217
157	0x3ef4369a	0.47697908
158	0x3e448e12	0.1919482
159	0x3e6ac02a	0.22924867
160	0xbe0c13b8	-0.13679397
161	0x3e008d70	0.12553954
162	0x3d1af5a0	0.037831903
163	0xbecf82fd	-0.40529624
164	0x3df17033	0.117889784
165	0xc01db58d	-2.464206
166	0xbe244b07	-0.16044246
167	0x3e7db4d7	0.24776016
168	0x3e9cdc9f	0.3063707
169	0xbdb4c0cb	-0.08825835
170	0x3f6476ec	0.8924396
171	0x3ca5937c	0.020211928
172	0xc002c671	-2.043362
173	0x3dbb1caf	0.0913633
174	0xbe9e5f2e	-0.3093199
175	0xbf553ada	-0.83292925
176	0x3ed09142	0.40735823
177	0xbf1cb2db	-0.6121041
178	0xbf1884e7	-0.5957779
179	0x3f191dad	0.59810907
180	0x3ed643b9	0.41848543
181	0xbeb0273d	-0.34404936
182	0x3d7a8560	0.061162353
183	0xbe8f610c	-0.28003728
184	0xbe084ff1	-0.13311745
185	0xbf2a1847	-0.66443294
186	0xbf6f94e7	-0.9358658
187	0xbef9918c	-0.48743856
188	0xbe2613ec	-0.16218537
189	0x3ec32027	0.38110468
190	0xbf6aff81	-0.9179612
191	0xbb267d23	-0.0025404177
192	0x3e14fade	0.14548823
193	0xbe733d8e	-0.2375395
194	0xbd953b62	-0.07286717
195	0x3f0adef1	0.5424643
196	0x3e0e7189	0.13910498
197	0x3fd2350f	1.6422442
198	0x3ec8ad75	0.39194837
199	0x4000b2f4	2.0109224
200	0x3ed27506	0.41104907
201	0x3f24f9e0	0.6444378
202	0x3eed01f5	0.46290556
203	0x3f9c43b6	1.2208164
204	0x3e4f5628	0.2024771
205	0x3f03a1b4	0.51418614
206	0xbe197338	-0.14985359
207	0x3f591845	0.8480266
208	0x3ee2a41f	0.4426584
209	0x3e85a365	0.26101223
210	0x3f6cd940	0.92519
211	0x3f61598f	0.8802728
212	0x3e6eac17	0.23307835
213	0x3e212dc5	0.15740116
214	0xba82672e	-0.0009948963
215	0x4046e4d3	3.1077163
216	0x3ee1ea31	0.44123986
217	0x400c66f5	2.193784
218	0xbdb54902	-0.08851816
219	0x3ef93252	0.48671204
220	0x3efb33dc	0.49063003
221	0x3e8e1ea1	0.27757743
222	0xbe48f83d	-0.19625945
223	0x3e92bdc0	0.28660393
224	0x3f1beb78	0.6090617
225	0x3edfe68c	0.4373058
226	0x3e0cbc86	0.13743791
227	0x3f0e8b38	0.5568118
228	0x3d29f5c8	0.04149416
229	0x3d987794	0.07444683
230	0x3e82c158	0.25538135
231	0x3e0bbe79	0.13646878
232	0x3e1d0ac1	0.15336134
233	0x3d45f8c5	0.04833295
234	0x3ebbcc98	0.3667953
235	0xbdd40bb2	-0.10353793
236	0x3f025e60	0.50925255
237	0x3ebc5950	0.3678689
238	0x3ee64866	0.4497711
239	0x3e67f7e3	0.22653155
240	0xbe178b9e	-0.14799353
241	0x3e53e93d	0.20694442
242	0x3eecf341	0.46279338
243	0x3e357fb5	0.17724498
244	0x3fa6389f	1.2986029
245	0x3ec486ae	0.38384002
246	0xbe60abe3	-0.2194057
247	0x3eab28bf	0.33429524
248	0x3e08016d	0.13281794
249	0xbd533d49	-0.051572118
250	0x3eb12eab	0.34605917
251	0x3e105adc	0.1409716
252	0x3f00dfda	0.5034157
253	0x3ecd01f3	0.4004055
254	0x3eac9b94	0.33712447
255	0x3a319fe8	0.0006775842

lstm.weight_hh_l0 f4 [256, 64]
0	0x3f8a59d1	1.080866
1	0xbe50734e	-0.20356485
2	0xbe27d84e	-0.16391107
3	0xbf17548d	-0.5911339
4	0x3e7145cc	0.23561782
5	0x3e27af43	0.16375451
6	0x3d5fa350	0.054599106
7	0x3f3be591	0.73397166
8	0xbe8f3e30	-0.27977133
9	0xbdb3b0ac	-0.08773932
10	0x3f1ec89d	0.6202486
11	0xbf30f5f3	-0.6912529
12	0xbfc0363d	-1.5016552
13	0x3f284bc1	0.6574059
14	0x3d941c8a	0.07232006
15	0xbe73542c	-0.23762578
16	0x3ee53065	0.44763485
17	0x3ebfe989	0.3748286
18	0x3ee4da87	0.44697973
19	0x3d9c2bab	0.076255165
20	0x3f4f22fc	0.80912757
21	0xbe251b7a	-0.16123763
22	0x3f24d24f	0.64383405
23	0xbe982c0e	-0.2972111
24	0xbecbdd7e	-0.39817423
25	0x3e8e845f	0.27835366
26	0x3e092c98	0.13395917
27	0xbdb7c930	-0.0897392
28	0xbf3c9c53	-0.7367603
29	0xbe453759	-0.19259395
30	0x3eccb644	0.39982808
31	0x3ec909fd	0.39265433
32	0xbf50ddce	-0.8158845
33	0xbe8ed1d7	-0.2789447
34	0xbe73d277	-0.23810755
35	0xbf7d4fc5	-0.98949844
36	0x3ea42899	0.32062224
37	0xbe721d22	-0.23643926
38	0x3f247c7c	0.6425245
39	0xbf30f110	-0.6911783
40	0x3f7bce23	0.98361415
41	0x3f519285	0.81864196
42	0x3e891a3b	0.26777825
43	0x3a5f6e83	0.00085232424
44	0x3e40f9ee	0.1884534
45	0x3ec95db1	0.39329293
46	0xbefe8202	-0.49708563
47	0x3dc3b6f7	0.09556382
48	0xbd864820	-0.065567255
49	0x3f146487	0.5796589
50	0xbe53be02	-0.20677951
51	0x3f318b8c	0.69353557
52	0x3fa3832f	1.2774409
53	0xbe495d36	-0.19664463
54	0x3f200be1	0.62518126
55	0x3f334dfe	0.7004088
56	0x3e7fca6b	0.2497956
57	0xbe9f667a	-0.3113287
58	0xbf2712ec	-0.6526325
59	0x3e68a33e	0.22718522
60	0xbf65c118	-0.8974776
61	0x3eaaf28f	0.33388183
62	0xbc891db5	-0.016737798
63	0xbf168de9	-0.5881029
64	0xbf360e61	-0.7111569
65	0xbf873ab9	-1.0564796
66	0x3f209c02	0.6273805
67	0x3dc3c3ff	0.09558868
68	0x3eff5b20	0.4987421
69	0x3f3bf068	0.73413706
70	0xbe8c20d2	-0.2736879
71	0x3ef94918	0.4868858
72	0x3d5caa15	0.05387314
73	0x3a541bfe	0.00080913294
74	0x3e5cf890	0.21579194
75	0xbe358e9b	-0.17730181
76	0xbe98d418	-0.29849315
77	0xc00c9e41	-2.197159
78	0x3ef95c2e	0.4870314
79	0xbf35fe5f	-0.71091264
80	0xbe632514	-0.22182113
81	0xbf9c0f21	-1.2192117
82	0x3f17bc9f	0.5927219
83	0x3f00b298	0.5027251
84	0xbf9cec1d	-1.2259556
85	0x3f85c729	1.0451404
86	0xbf0678e5	-0.5252822
87	0xbe21bb3d	-0.15794082
88	0xbf88a4af	-1.0675257
89	0xbf80d043	-1.0063556
90	0x3eeb3c95	0.45944658
91	0xbeb3f8ff	-0.35150906
92	0xbfc836e7	-1.5641755
93	0x3f30fdca	0.6913725
94	0xbe4c6727	-0.19961224
95	0xbe6d1790	-0.2315352
96	0xbd45b850	-0.048271477
97	0xbf46139d	-0.7737368
98	0x3f38fc35	0.7225984
99	0xbd8fa432	-0.0701374
100	0xbf31f634	-0.695163
101	0x3d4abac0	0.049494505
102	0xbf0a1d01	-0.53950506
103	0x3e91580c	0.28387487
104	0x3ef29084	0.47375882
105	0xbf3d1605	-0.73861724
106	0x3f338d9f	0.7013797
107	0xbcf6287e	-0.030048605
108	0xbe45a48d	-0.19301052
109	0x3f54bfae	0.8310498
110	0xbe628ced	-0.22124071
111	0x3f28773a	0.65806925
112	0x3ec99375	0.39370313
113	0xbf883c5f	-1.0643424
114	0x3eb38630	0.35063314
115	0xbf1884a5	-0.595774
116	0x3eaf9b51	0.34298185
117	0xbecabfae	-0.39599365
118	0xbf8716b4	-1.0553803
119	0xbe2b504d	-0.16729851
120	0x3e9563c1	0.2917767
121	0xbf56659d	-0.837488
122	0x3ca361e0	0.019944131
123	0x3f46303e	0.7741736
124	0xbe095d8a	-0.13414589
125	0x3f0e70ac	0.55640674
126	0xbe8eceb4	-0.27892077
127	0xbea53a07	-0.32270834
128	0xbf449d80	-0.76802826
129	0xbfbd7e3e	-1.4804151
130	0x3f88dd04	1.0692449
131	0x3d8526f7	0.065015726
132	0x3eb18382	0.34670645
133	0x3f53cdf8	0.8273616
134	0x3f359aef	0.70939535
135	0xbf0de11d	-0.5542162
136	0xbe5c21ee	-0.21497318
137	0x3da21ea2	0.07915999
138	0x3e1f8d23	0.15581183
139	0xbf075433	-0.5286285
140	0xbedd144f	-0.43179557
141	0xbf712696	-0.941995
142	0x3ee4535b	0.44594845
143	0xbebd1ce8	-0.36936116
144	0x3d9c1aae	0.07622276
145	0xbf886207	-1.0654916
146	0x3da4003b	0.080078565
147	0x3f904d6c	1.1273627
148	0xbd5a1149	-0.05323914
149	0xbeb0d321	-0.3453608
150	0xbce990b4	-0.028511383
151	0xbef2c0ad	-0.47412625
152	0xbea4ef44	-0.32213795
153	0x3dd5005b	0.104004584
154	0xbe2d931d	-0.1695065
155	0xbf51d779	-0.8196941
156	0xbf8230c9	-1.0171138
157	0x3fa2e91d	1.272739
158	0x3d3f6810	0.0467301
159	0x3f302b24	0.6881583
160	0x3e321b8f	0.17393325
161	0x3dd841ec	0.105594486
162	0x3df115ad	0.117717125
163	0x3ebdb3b4	0.37051165
164	0xbec9d7a8	-0.39422345
165	0xbed0e0da	-0.40796548
166	0x3ed9ce60	0.42540264
167	0x3e5486be	0.20754525
168	0xbf023db5	-0.5087541
169	0x3e5b6156	0.2142385
170	0x3f91fdf5	1.1405627
171	0x3f685d69	0.9076753
172	0xbe0baae0	-0.13639402
173	0x3d656bbb	0.056010943
174	0xbf242daa	-0.6413218
175	0xbe8a8328	-0.2705319
176	0x3c8e1fc8	0.017349139
177	0xbf1828e9	-0.59437424
178	0x3e916947	0.28400633
179	0x3d8daf77	0.06918233
180	0x3ecd159f	0.40055558
181	0x3dca0b1f	0.098654024
182	0xbf3a7887	-0.7284016
183	0xbe3e2f06	-0.18572626
184	0x3e340160	0.1757865
185	0xbe725970	-0.2366693
186	0xbf2cdfb4	-0.67528844
187	0x3e1d693b	0.15372173
188	0xbe983fc6	-0.29736155
189	0x3f5a453f	0.8526191
190	0xbf830378	-1.0235434
191	0xbe90e026	-0.28296012
192	0xbeeb0482	-0.45901877
193	0xbf0c8d49	-0.54903084
194	0xbe17a399	-0.14808501
195	0x3e4f9282	0.20270732
196	0x3e4dd3f7	0.2010039
197	0xbeb65eae	-0.3561911
198	0x3f5742c4	0.8408625
199	0xbe7d0f64	-0.24712902
200	0xbf3e7ac8	-0.744061
201	0xbfd65568	-1.6744814
202	0x3e995ab1	0.29952005
203	0xbf38d4cb	-0.72199696
204	0x3e8f5bd2	0.2799974
205	0x3ea4eb35	0.322107
206	0x3ef2087d	0.472721
207	0xbf536175	-0.8257058
208	0x3ca23d79	0.019804703
209	0xbf769f63	-0.96336955
210	0xbe483178	-0.19550121
211	0xbd5bc4ad	-0.05365436
212	0xbfaba273	-1.340895
213	0x3f89a4ee	1.0753458
214	0xbed3c414	-0.41360533
215	0xbf8ed3c4	-1.1158376
216	0xbe9ab128	-0.30213284
217	0xbeda4c9c	-0.42636573
218	0x3f0828d9	0.5318733
219	0xbe516370	-0.20448089
220	0xbe1aba32	-0.1511009
221	0x3f1b5e08	0.60690355
222	0xbf84b455	-1.0367533
223	0x3ed71260	0.42006207
224	0xbe45d442	-0.19319251
225	0xbeb96a9a	-0.36214143
226	0x3e1a205a	0.15051404
227	0x3dbd0b4d	0.09230671
228	0x3df99b84	0.121878654
229	0xbf01c1cd	-0.5068634
230	0xbeadaa05	-0.33918777
231	0x3e50ad88	0.20378697
232	0x3e79a4b5	0.24379237
233	0xbf8e013a	-1.1094124
234	0x3f030fe6	0.51196134
235	0xbecb73ac	-0.39736688
236	0xbd880130	-0.066408515
237	0x3e8dc43e	0.27688783
238	0xbec81ffd	-0.39086905
239	0xbf551243	-0.8323099
240	0x3f08908e	0.5334557
241	0xbfa5efd7	-1.2963818
242	0x3dee6bbe	0.11641644
243	0xbda78e4a	-0.08181436
244	0xbeccb681	-0.3998299
245	0x3f1caf98	0.61205435
246	0xbf1c92c0	-0.6116142
247	0xbe09a595	-0.13442071
248	0x3f5f02b9	0.8711353
249	0xbfaa2898	-1.3293638
250	0xbf08f19d	-0.5349367
251	0x3f61ac57	0.88153595
252	0x3f294caa	0.66132605
253	0xbc2a3ea2	-0.010390909
254	0x3cd8f516	0.026484054
255	0xbeb26c41	-0.34848216

lstm.bias_ih_l0 f4 [256]
0	0xbebe963b	-0.37223992
1	0xbed81b45	-0.42208305
2	0xbeb174c6	-0.34659404
3	0xbe905714	-0.28191435
4	0x3e377473	0.17915516
5	0xbdff0c7f	-0.12453555
6	0x3e654a09	0.22391523
7	0x3e941690	0.28923464
8	0xbe9da518	-0.3079002
9	0x3f868b3f	1.0511245
10	0x3e219d88	0.1578275
11	0x3e9b1beb	0.30294737
12	0x3e2e14d3	0.17000131
13	0xbec4e748	-0.38457704
14	0xbd79190f	-0.060814913
15	0xbe79b478	-0.2438525
16	0xbc172767	-0.009225703
17	0xbe1f1576	-0.1553553
18	0xbe1e0438	-0.15431297
19	0x3c091699	0.008367204
20	0xbe469fa0	-0.1939683
21	0xbedc0281	-0.4297066
22	0xbf0a19c7	-0.53945583
23	0x3f6064a3	0.8765356
24	0x3f49e749	0.7886854
25	0xbea1552d	-0.31510296
26	0x3edb2328	0.4280026
27	0x3d887298	0.06662482
28	0xbee03bd4	-0.43795645
29	0x3e5fc47b	0.21852295
30	0x3eeaed1b	0.45884022
31	0xbeac0f31	-0.3360534
32	0x3dfb2678	0.12263197
33	0xbe882f92	-0.26598793
34	0xbdc083d7	-0.094001465
35	0xbeaa9ec9	-0.33324268
36	0x3e2ab6f1	0.16671349
37	0x3ee69d31	0.45041803
38	0xbe5c5e18	-0.21520269
39	0x3eb7ffb1	0.35937265
40	0x3e9ccee0	0.30626583
41	0x3cdcba60	0.02694434
42	0xbd9425c0	-0.07233763
43	0x3f2b139d	0.668268
44	0x3ced843f	0.028993724
45	0xbf06f64f	-0.5271959
46	0xbe9af0d6	-0.30261868
47	0x3e43bce7	0.1911503
48	0x3f78f765	0.97252494
49	0xbe2778d8	-0.16354692
50	0xbe28c14b	-0.16479985
51	0x3abd6b1d	0.0014451478
52	0x3e847766	0.25872344
53	0xbceeb2f7	-0.029138071
54	0x3e9cfa82	0.30659872
55	0x3e72039e	0.23634192
56	0xbdf1266a	-0.11774905
57	0xbe9aa8b6	-0.3020684
58	0x3f0efb92	0.55852616
59	0xbedd108b	-0.43176684
60	0x3ead3e70	0.338367
61	0xbd90d74a	-0.07072313
62	0x3ea3d4ec	0.31998384
63	0xbd1e5019	-0.038650606
64	0x3d111cba	0.035427786
65	0x3e1e5562	0.15462258
66	0xbe8ed5e9	-0.27897575
67	0xbe292cda	-0.16521016
68	0x3e01e667	0.12685548
69	0xbf0b0259	-0.5430046
70	0xbf2f2af0	-0.6842489
71	0x3e40fa23	0.1884542
72	0x3d16d765	0.03682651
73	0x3d4461c9	0.047944818
74	0x3d0418ec	0.03225033
75	0xbe1b9112	-0.15192059
76	0x3e576f40	0.21038532
77	0xbf0374ca	-0.5135008
78	0x3d27bebe	0.04095339
79	0xbf59a08f	-0.8501062
80	0xbe908e6e	-0.28233665
81	0xbec22713	-0.37920436
82	0xbeb04fef	-0.34435984
83	0x3c4b154b	0.012395213
84	0xbf02e888	-0.51136065
85	0x3d50eca4	0.051006928
86	0xbe899af1	-0.26876023
87	0xbe87d60e	-0.26530498
88	0x3ea240ce	0.31690067
89	0xbe113a1e	-0.14182326
90	0xbe05eb52	-0.13078049
91	0xbdb7f50d	-0.089822866
92	0x3e8ed1ce	0.27894443
93	0xbf09a87b	-0.53772706
94	0x3e716b44	0.23576075
95	0xbd457c2f	-0.048214134
96	0x3e9f01ee	0.3105616
97	0xbd6fedd2	-0.058576412
98	0x3d9993a1	0.07498861
99	0xbe13349e	-0.1437554
100	0x3e319460	0.17341757
101	0x3d9d0d4c	0.07668552
102	0x3f83e85e	1.0305288
103	0x3e2a21a7	0.166144
104	0x3e403232	0.18769148
105	0x3c9b21fc	0.018937103
106	0xbd2e38a5	-0.04253449
107	0x3ed0642b	0.40701422
108	0x3efb377c	0.4906577
109	0xbedb6091	-0.42847112
110	0x3e54610c	0.20740145
111	0xbeccc807	-0.3999636
112	0x3edc795d	0.43061343
113	0xbe437338	-0.19086921
114	0xbeea3f3c	-0.4575137
115	0x3eed75f0	0.46379042
116	0xbddcb7c6	-0.107772395
117	0x3e65bfa0	0.2243638
118	0xbd4c35bb	-0.04985593
119	0x3e1a7859	0.15084971
120	0xbe246ab9	-0.16056336
121	0x3d42686b	0.047462862
122	0x3f03f791	0.5154963
123	0x3e5d805f	0.21631001
124	0xbe48a7ff	-0.19595335
125	0x3f3c952f	0.73665136
126	0xbe3c50c8	-0.1839019
127	0x3e753dc4	0.23949343
128	0xbe1db11d	-0.15399595
129	0x3cfcc04a	0.03085341
130	0x3e3ec651	0.18630339
131	0xbf0e2136	-0.55519426
132	0x3ec4d800	0.38446045
133	0x3ed56796	0.41680592
134	0xbedd4d24	-0.43222916
135	0xbf1207fc	-0.57043433
136	0xbe546c7d	-0.2074451
137	0x3f36e216	0.7143873
138	0xbf3782cd	-0.7168396
139	0x3f07b610	0.5301218
140	0xbe00f908	-0.12594998
141	0xbe19d4ec	-0.1502263
142	0xbe33546e	-0.17512676
143	0xbf2d8396	-0.6777891
144	0x3e43ff4e	0.1914036
145	0xbe1d7b0d	-0.15378971
146	0xbf2b2c10	-0.6686411
147	0x3d0bb3ac	0.034106895
148	0xbed4aee2	-0.41539675
149	0x3f06b688	0.5262227
150	0x3eac2f97	0.33630058
151	0x3f101a09	0.56289726
152	0x3e4866f8	0.1957053
153	0x3f0fbd2f	0.56148046
154	0xbf2768e8	-0.6539445
155	0x3eefab2f	0.4681029
156	0x3dee6472	0.11640252
157	0xbeb16630	-0.34648275
158	0xbf3a48f5	-0.72767574
159	0xbe08adb1	-0.13347508
160	0x3ecd9573	0.40153083
161	0xbe996616	-0.29960698
162	0x3da3de62	0.080014005
163	0x3ef7ddd0	0.48411417
164	0xbf29dcdc	-0.6635263
165	0x3e8561d3	0.26051196
166	0x3e8582d3	0.26076373
167	0x3df7d8a6	0.12101869
168	0x3e8eb695	0.27873674
169	0xbe7276f5	-0.23678191
170	0xbc75b94f	-0.014997794
171	0xbdb5b449	-0.08872277
172	0x3ddb1fe1	0.1069944
173	0x3eb509ab	0.3535894
174	0x3d79e865	0.061012644
175	0x3e9302a6	0.28712958
176	0xbf39695e	-0.724264
177	0x3e0a4c19	0.13505591
178	0x3f103d74	0.5634377
179	0x3e6e3572	0.23262575
180	0xbf32591a	-0.6966721
181	0xbcd0eb22	-0.025502745
182	0x3e400fed	0.18756075
183	0x3e2de2dd	0.16981073
184	0x3eb2f17d	0.34949866
185	0xbe867253	-0.26259097
186	0xbe6e3a2d	-0.2326438
187	0xbd8f60e9	-0.07000906
188	0x3ec4f233	0.38466033
189	0xbe977242	-0.2957936
190	0x3edefa5d	0.43550387
191	0xbe4da8a2	-0.2008386
192	0xbd5196ae	-0.05116909
193	0x3e41e3a0	0.18934488
194	0x3db32d34	0.08748856
195	0x3d37c7e6	0.044868372
196	0xbe4f7443	-0.20259194
197	0x3e0d8279	0.13819303
198	0x3e1580ee	0.14599964
199	0xbf1f5256	-0.6223501
200	0xbeb401d0	-0.35157633
201	0x3e558857	0.20852791
202	0xbe586862	-0.21133569
203	0x3f09ee86	0.5387958
204	0x3e2f6e97	0.1713203
205	0xbedeb1a8	-0.43494916
206	0x3e460310	0.19337106
207	0xbdb6ebce	-0.08931695
208	0xbe437233	-0.19086532
209	0x3ec5a8e7	0.38605425
210	0x3e6d0c42	0.23149207
211	0xbc6de95d	-0.01452097
212	0xbee64604	-0.44975293
213	0xbf060d8a	-0.5236441
214	0xbf298e3c	-0.6623266
215	0x3f28fff4	0.66015553
216	0x3de8767d	0.11350725
217	0xbea4decd	-0.32201234
218	0x3ea95ba1	0.3307772
219	0x3df6613f	0.12030267
220	0xbe4a3dde	-0.19750163
221	0x3dd63cbb	0.10460802
222	0x3eeb561c	0.45964134
223	0xbf5990b5	-0.8498643
224	0xbeb9c3f9	-0.36282328
225	0xbee93d7b	-0.45554718
226	0xbe0ab1cc	-0.13544387
227	0xbe471ef7	-0.19445406
228	0xbea26e79	-0.3172491
229	0x3f7368ae	0.95081604
230	0xbf554806	-0.83313024
231	0xbf299f5e	-0.662588
232	0x3e18352b	0.14864032
233	0x3dba4294	0.0909473
234	0xbe5fbe7b	-0.21850006
235	0xbd68b74e	-0.056815438
236	0x3e4a7a41	0.19773199
237	0xbe891fb3	-0.26781997
238	0xbd6ad400	-0.057331085
239	0x3f68786d	0.90808755
240	0x3ef8f3a8	0.48623395
241	0xbec432a8	-0.38319898
242	0x3c9291b3	0.01789174
243	0x3ea6f06b	0.326053
244	0x3e8e88dd	0.27838793
245	0x3c84fcfc	0.016233914
246	0x3e9cf76d	0.3065752
247	0x3d99f2b0	0.07516992
248	0xbd4ac9b4	-0.049508765
249	0xbf04afe8	-0.5183091
250	0x3e541d0e	0.20714208
251	0xbeaaccfe	-0.33359522
252	0x3ea9a0be	0.3313045
253	0x3ea1673f	0.31524083
254	0xbecfda64	-0.40596306
255	0x3e726d62	0.23674539

lstm.bias_hh_l0 f4 [256]
0	0xbebb502a	-0.36584598
1	0xbeaa70c8	-0.3328917
2	0xbeb3f662	-0.35148913
3	0xbde4746a	-0.11155017
4	0x3e757bd0	0.23973012
5	0xbe68f021	-0.22747852
6	0x3e44604f	0.19177364
7	0x3eb7c1da	0.35890085
8	0xbeb17fe3	-0.34667882
9	0x3f547a1b	0.8299882
10	0x3c0d855c	0.008637752
11	0x3eb936aa	0.36174518
12	0x3e3daef8	0.18523777
13	0xbe876380	-0.264431
14	0xbd6ed211	-0.058305804
15	0xbdc5b81d	-0.096542574
16	0xbc0ca655	-0.0085845785
17	0xbdf87484	-0.121315986
18	0xbd73c07e	-0.059509747
19	0xbcb163e9	-0.021654086
20	0xbdd4285a	-0.10359259
21	0xbe80d84b	-0.25165018
22	0xbf10116f	-0.562766
23	0x3f53637f	0.82573694
24	0x3f7a904a	0.9787642
25	0xbe89e9f4	-0.26936305
26	0x3eb85af0	0.3600688
27	0x3e28764d	0.16451378
28	0xbef4414f	-0.47706077
29	0x3e5fe441	0.21864416
30	0x3eb38408	0.3506167
31	0xbefba2e3	-0.4914771
32	0x3db2e3ec	0.08734879
33	0xbea28f7b	-0.31750092
34	0xbe0084b6	-0.12550625
35	0xbe68ea11	-0.22745539
36	0xbcdd1156	-0.026985805
37	0x3ecf46e0	0.4048376
38	0xbe67edf4	-0.22649366
39	0x3ece0f63	0.40246114
40	0x3e7a518e	0.24445173
41	0x3e38d11f	0.18048523
42	0xbe82d4ce	-0.25552982
43	0x3eec1b06	0.46114367
44	0x3d013e13	0.03155334
45	0xbf2a7146	-0.6657909
46	0xbe23515f	-0.1594901
47	0x3e13f59d	0.14449163
48	0x3f80897e	1.0041959
49	0xbe4836b6	-0.1955212
50	0xbe359c57	-0.1773542
51	0x3c27c29f	0.010239272
52	0x3e665b34	0.22495729
53	0xbd66784f	-0.05626708
54	0x3edd4579	0.43217066
55	0x3e4050f2	0.18780878
56	0xbc57a39e	-0.013161568
57	0xbe6e3b83	-0.2326489
58	0x3f035f97	0.51317734
59	0xbec98815	-0.39361635
60	0x3e89638b	0.26833758
61	0xbdba3d13	-0.0909368
62	0x3ef48cf4	0.4776379
63	0xbd6af6f7	-0.05736443
64	0x3aebf562	0.0018002207
65	0x3ea0b19d	0.31385508
66	0xbe09d1f9	-0.13459004
67	0xbe5af81b	-0.21383707
68	0x3e7340a3	0.23755126
69	0xbf18f61f	-0.5975055
70	0xbf24a3b7	-0.6431231
71	0x3e55ed06	0.20891199
72	0xbc1dec76	-0.009638896
73	0x3e5fa863	0.21841578
74	0x3d3379f4	0.043817475
75	0xbe39c013	-0.18139677
76	0x3bee8400	0.007278919
77	0xbec6d0b7	-0.38831112
78	0xbd08e5f5	-0.03342243
79	0xbf5c2261	-0.8598996
80	0xbe9719ab	-0.2951177
81	0xbe548034	-0.2075203
82	0xbed5ac48	-0.41733003
83	0xbdcc575a	-0.099775985
84	0xbf314c3a	-0.6925694
85	0x3dc27480	0.09494877
86	0xbe992480	-0.2991066
87	0xbe3446ca	-0.17605129
88	0x3e223b14	0.15842849
89	0xbe1802ce	-0.1484482
90	0xbe41e9d0	-0.18936849
91	0xbd1e65f6	-0.038671456
92	0x3e704ace	0.23466036
93	0xbeba084c	-0.36334455
94	0x3d0363ab	0.032077473
95	0xbbb66d74	-0.005567247
96	0x3eb46ca1	0.35239127
97	0xbe1a0d41	-0.15044118
98	0xbd8a4cb3	-0.067529105
99	0xbe40d944	-0.1883288
100	0x3e53b21c	0.20673412
101	0x3e416aac	0.18888348
102	0x3f5e2f72	0.86791146
103	0x3e02bf6b	0.12768333
104	0x3e6e5f20	0.23278475
105	0xbd0f6980	-0.035012722
106	0x3d39fa32	0.04540462
107	0x3e973cc0	0.29538536
108	0x3ef20e2c	0.47276437
109	0xbe6deecb	-0.23235624
110	0x3d826535	0.0636696
111	0xbe216868	-0.15762484
112	0x3e8dbc7d	0.27682868
113	0xbead2f3b	-0.33825096
114	0xbefeda02	-0.49775702
115	0x3eb25db2	0.3483711
116	0xbdff4131	-0.12463606
117	0x3e3d0c04	0.18461615
118	0x3d4a4f1b	0.049391847
119	0x3dc2b25e	0.09506677
120	0x3d179f55	0.037017185
121	0x3dae4b81	0.08510495
122	0x3eb4d5a0	0.35319233
123	0x3e4f434a	0.20240512
124	0xbe160e9f	-0.14654015
125	0x3f3465f7	0.70468086
126	0xbe1107ea	-0.14163175
127	0x3e7d23a1	0.24720623
128	0xbe714ffb	-0.23565666
129	0x3e506952	0.20352677
130	0x3e1533c1	0.14570524
131	0xbf2682f8	-0.6504359
132	0x3e97bbb8	0.29635406
133	0x3ee6917e	0.45032877
134	0xbf099b7b	-0.5375287
135	0xbf166470	-0.58747005
136	0xbe580c20	-0.21098375
137	0x3f30879f	0.6895694
138	0xbf5e46b1	-0.86826617
139	0x3f0dc9f0	0.5538626
140	0x3d9492fb	0.07254597
141	0xbe29ccd1	-0.16582038
142	0xbdbd2a9c	-0.09236643
143	0xbf2a962f	-0.6663541
144	0x3ddf458c	0.10901937
145	0xbeb3b182	-0.35096365
146	0xbf2a1421	-0.66436964
147	0xbdad284f	-0.08454954
148	0xbf174f8c	-0.59105754
149	0x3f2561d5	0.64602405
150	0x3e0cbeaf	0.13744615
151	0x3f2a5c6f	0.6654729
152	0x3e634e07	0.22197734
153	0x3f0f93a7	0.56084675
154	0xbf47a2ed	-0.7798298
155	0x3f0f0d5b	0.55879754
156	0x3db50e32	0.08840598
157	0xbec498ce	-0.3839783
158	0xbf63e8c5	-0.89027053
159	0xbe0254a4	-0.127276
160	0x3f0129df	0.50454515
161	0xbeabdac2	-0.33565336
162	0x3dc41af3	0.09575453
163	0x3f1af622	0.6053182
164	0xbf24d5ec	-0.6438892
165	0x3e8bafed	0.27282658
166	0x3e588145	0.21143062
167	0x3e971500	0.2950821
168	0x3eb41bb6	0.35177392
169	0xbd98730e	-0.0744382
170	0xbc808392	-0.015687738
171	0xbd5d78ba	-0.054070212
172	0x3e8653d2	0.26235825
173	0x3dfe7db2	0.12426318
174	0x3e6a7ef5	0.22899993
175	0x3ec21f31	0.37914422
176	0xbf5ebd7f	-0.870079
177	0x3e6c2302	0.2306023
178	0x3ef7a1de	0.48365682
179	0x3cd3c7f5	0.025852183
180	0xbf42cf5f	-0.76097673
181	0xbcd315db	-0.025767257
182	0x3e21611f	0.15759705
183	0x3d956966	0.07295494
184	0x3ec4fcea	0.38474208
185	0xbdb2c385	-0.08728699
186	0xbe6cc6d9	-0.2312273
187	0xbe8ba4eb	-0.2727426
188	0x3f15ea13	0.58560294
189	0xbeafb4f7	-0.34317753
190	0x3eb1c656	0.3472163
191	0xbe46015a	-0.19336453
192	0xbe0303fe	-0.12794492
193	0x3e73247c	0.23744386
194	0x3d8a8071	0.067627795
195	0x3d12b1f3	0.035814237
196	0xbe55026e	-0.20801708
197	0x3e6522b1	0.22376515
198	0xbc93bef9	-0.018035399
199	0xbf3242d9	-0.6963325
200	0xbed59322	-0.41713816
201	0x3e834db2	0.25645214
202	0xbe219b0c	-0.15781802
203	0x3eea243b	0.45730767
204	0x3cb4491c	0.022007518
205	0xbea42926	-0.32062644
206	0x3e1603df	0.14649914
207	0xbe79b9d0	-0.24387288
208	0xbe89ce98	-0.2691543
209	0x3ec2b5f0	0.38029432
210	0x3eab475f	0.3345289
211	0x3d58d5da	0.05293832
212	0xbf021af2	-0.50822365
213	0xbe9e7a37	-0.30952618
214	0xbf1f6415	-0.6226209
215	0x3f05435b	0.520559
216	0xbd4c5ada	-0.04989133
217	0xbef49354	-0.47768652
218	0x3eee8854	0.46588385
219	0x3e062cc4	0.13103014
220	0xbe7ea303	-0.24866872
221	0xbda5407c	-0.0806894
222	0x3f198486	0.5996784
223	0xbf37c2a3	-0.7178137
224	0xbec19163	-0.37806234
225	0xbf03f5c0	-0.5154686
226	0xbdd4f785	-0.10398773
227	0xbe973525	-0.29532734
228	0xbe5e162b	-0.21688144
229	0x3f66ce68	0.901587
230	0xbf4cf9bd	-0.8006857
231	0xbf256d4f	-0.64619917
232	0x3dd37f13	0.10326972
233	0x3e35442b	0.17701785
234	0xbd78e907	-0.060769107
235	0x3ca6e09a	0.02037077
236	0x3eaf0d37	0.3418977
237	0xbee865d1	-0.4539018
238	0x3c896a1a	0.016774226
239	0x3f79587f	0.9740066
240	0x3f1c9006	0.6115726
241	0xbe9ab2d8	-0.30214572
242	0xbdc84558	-0.09778851
243	0x3ea4e0f4	0.32202876
244	0x3e8f2314	0.2795645
245	0xbd59e5d5	-0.0531977
246	0x3ec06926	0.37580222
247	0xbcbf8f6a	-0.023383815
248	0xbd112519	-0.03543577
249	0xbe963430	-0.2933669
250	0x3eaa291d	0.33234492
251	0xbed3fa04	-0.41401684
252	0x3e946df0	0.28990126
253	0x3de8f92e	0.11375652
254	0xbebd427a	-0.3696478
255	0x3eb20719	0.3477104

lstm.weight_ih_l1 f4 [256, 64]
0	0xbdea89de	-0.11452077
1	0xbf3077e9	-0.6893297
2	0xbe4afc83	-0.19822888
3	0x3eadcce4	0.33945382
4	0x3e9d46d9	0.30718115
5	0x3e372962	0.1788688
6	0x3e621f61	0.22082283
7	0xbefc1c8d	-0.49240533
8	0xbb22fda1	-0.0024870413
9	0xbf901894	-1.1257501
10	0xbef1e282	-0.47243124
11	0xbedaa548	-0.42704225
12	0xbe25c04a	-0.16186634
13	0xbf413644	-0.7547343
14	0xbf85646f	-1.0421275
15	0x3d4f1e54	0.050566033
16	0xbec30ce7	-0.3809578
17	0x3d58ed9b	0.052960973
18	0x3e146891	0.14493014
19	0xbf2167b3	-0.6304886
20	0xbe4401bf	-0.19141291
21	0x3f224542	0.6338693
22	0xbcdf4c2a	-0.027257998
23	0x397c3299	0.00024051442
24	0x3f2f9de7	0.68600315
25	0xbee5cb06	-0.44881457
26	0xbe9a7eb2	-0.30174786
27	0xbe830dc1	-0.2559643
28	0x3e91952d	0.28434125
29	0xbecfd7d1	-0.40594342
30	0xbf731ca0	-0.94965553
31	0x3ecfafa6	0.40563697
32	0xbe487566	-0.19576034
33	0x3c60d1c5	0.013721888
34	0xbd74cedc	-0.05976759
35	0x3dedbfcb	0.11608847
36	0xbec7e3c6	-0.39040965
37	0xbda69bfd	-0.08135221
38	0x3e1e87f6	0.15481552
39	0x3e69233c	0.22767347
40	0xbead0543	-0.33793077
41	0x3f847169	1.034711
42	0x3e0de55c	0.13857025
43	0x3efa66d9	0.48906592
44	0xbea67fba	-0.32519323
45	0xbccf1c7a	-0.025282133
46	0x3f11a3a0	0.56890297
47	0xbebd415c	-0.36963928
48	0xbe760be7	-0.24027978
49	0xbe690dcd	-0.22759171
50	0xbf3f90d9	-0.74830395
51	0xbf66374e	-0.8992814
52	0x3d90e71b	0.0707533
53	0xbf8362cc	-1.0264525
54	0x3f69d1cf	0.9133577
55	0xbe6ad4a8	-0.22932684
56	0xbf0537c1	-0.520382
57	0x3e0649c0	0.13114071
58	0xbe2ce26f	-0.16883253
59	0x3ebb65b9	0.36601046
60	0x3eca58fb	0.39521012
61	0xbe275b4d	-0.16343422
62	0xbf3d4f20	-0.7394886
63	0x3c9b34e2	0.018946115
64	0x3e80cd6b	0.2515672
65	0xbeaa789b	-0.3329514
66	0xbc0824c1	-0.008309544
67	0xbe81487f	-0.25250623
68	0xbe08aa27	-0.13346158
69	0xbeb8a83a	-0.36065847
70	0x3eee0ba4	0.46493256
71	0xbf021abc	-0.50822043
72	0x3e1f8447	0.15577804
73	0xbec0af1f	-0.37633607
74	0x3ef138ba	0.4711359
75	0xbec5aa5b	-0.38606533
76	0x3e484d7e	0.19560811
77	0x3d579245	0.052629728
78	0xbf323f34	-0.6962769
79	0x3ed93734	0.4242493
80	0x3f18aba5	0.5963691
81	0xbe786d90	-0.24260545
82	0xbf0dacc6	-0.55341756
83	0x3e35c380	0.17750359
84	0x3e95f344	0.2928716
85	0xbe9169b5	-0.2840096
86	0x3f044230	0.51663494
87	0xbec9264c	-0.3928703
88	0x3d94c417	0.07263964
89	0x3e5d3892	0.21603611
90	0xbef36b55	-0.47542825
91	0xbe4085d4	-0.18801051
92	0xbd75ee0d	-0.060041476
93	0x3e9bb750	0.30413294
94	0x3f2be7ab	0.6715037
95	0x3ef908dd	0.48639575
96	0x3ec9f9be	0.3944835
97	0xbeb9f0e3	-0.36316594
98	0xbee011d9	-0.43763617
99	0x3f24ba40	0.64346695
100	0xbf50d52f	-0.8157529
101	0x3b1f23ee	0.002428289
102	0xbe215975	-0.15756781
103	0xbe4bbfae	-0.19897339
104	0xbea23780	-0.31682968
105	0x3f41e1ab	0.75734967
106	0x3e8d0be4	0.27548134
107	0x3e9a6ee9	0.30162743
108	0x3df34a25	0.11879376
109	0xbec316cc	-0.3810333
110	0xbe74f07f	-0.23919867
111	0xbeff29a1	-0.49836448
112	0x3f35a7cb	0.70959157
113	0x3f43219c	0.7622316
114	0xbd111773	-0.035422754
115	0xbf72684d	-0.946904
116	0x3f5b7833	0.85730284
117	0xbf011059	-0.5041557
118	0x3d38de56	0.04513391
119	0x3e7b30ba	0.24530306
120	0x3e8ba055	0.2727076
121	0xbdcfc199	-0.10144348
122	0xbe458cee	-0.19292042
123	0x3eb1eebd	0.34752455
124	0xbda796a7	-0.081830315
125	0x3cfe6491	0.031053813
126	0x3f29e5a2	0.66366017
127	0x3f4f28e6	0.8092178
128	0xbe859149	-0.26087406
129	0xbf10c7da	-0.5655495
130	0x3ff7bcd3	1.93545
131	0xbd52b54b	-0.051442426
132	0xbe8353da	-0.2564991
133	0x3f2a7308	0.66581774
134	0xbf016a20	-0.5055256
135	0xbf1e258c	-0.6177604
136	0x3e0a17f3	0.13485698
137	0x3e4330ee	0.19061634
138	0x3ef5915a	0.47962457
139	0x3c0af863	0.008482072
140	0xbd73f376	-0.059558354
141	0xbe976539	-0.29569414
142	0xbf8cbbc0	-1.0994797
143	0xbe978e07	-0.29600546
144	0x3e78f14e	0.243108
145	0xbd9ac4e1	-0.07557083
146	0xbf377db2	-0.7167617
147	0xbe61c66f	-0.22048353
148	0x3e84d21c	0.2594155
149	0xbd9f70a1	-0.07785154
150	0x3e68dac5	0.22739704
151	0xbddee0e9	-0.10882742
152	0x3f1bf055	0.6091359
153	0x3e930604	0.28715527
154	0x3f90f227	1.1323899
155	0xbd66e2a7	-0.056368496
156	0x3e13a41d	0.14418073
157	0x3fa3d518	1.2799406
158	0xbfdbef07	-1.718232
159	0xbe21f18f	-0.15814804
160	0x3e398d2c	0.18120259
161	0xbe224b9e	-0.15849158
162	0xbf4e558e	-0.80599296
163	0x3e09a608	0.13442242
164	0xbeb40853	-0.351626
165	0x3ebb7842	0.36615187
166	0x3f3e2544	0.7427561
167	0xbea9e72c	-0.33184183
168	0x3fb622b5	1.4229342
169	0x3f2002b4	0.62504125
170	0xbe597a72	-0.21238115
171	0xbef06c91	-0.4695783
172	0x3d9b24cc	0.07575378
173	0xbd8b302e	-0.06796299
174	0x3d8e925c	0.069615096
175	0x3b463785	0.0030245495
176	0xbed61029	-0.41809204
177	0xbf9764e0	-1.182766
178	0x3b162fd3	0.002291669
179	0xbe918354	-0.28420508
180	0xbe20a17a	-0.15686598
181	0xbfd42dd2	-1.6576483
182	0xbf8fb971	-1.1228467
183	0xbeab8ba1	-0.33504966
184	0x3f90d836	1.1315982
185	0xbf4785a2	-0.7793828
186	0xbfaebe4e	-1.3651826
187	0x3e626b4c	0.22111243
188	0x3f3ca777	0.7369303
189	0x3d1a9550	0.03774005
190	0x3e6210ad	0.22076674
191	0x3f9679d9	1.1755935
192	0xbf0c52a6	-0.5481361
193	0xbf5982f5	-0.8496545
194	0x3f41d191	0.757104
195	0xbef5567e	-0.4791755
196	0x3ee10727	0.4395077
197	0xbe2037de	-0.15646312
198	0xbef7c05c	-0.48388946
199	0xbebe8d4d	-0.3721718
200	0x3e4ff1fe	0.20307156
201	0x3f465d0a	0.77485716
202	0xbeb3459d	-0.35014048
203	0x3ec0ab18	0.37630534
204	0x3ced9cbb	0.029005399
205	0xbdfc489a	-0.12318535
206	0xbf1ef457	-0.62091583
207	0xbbd7d637	-0.0065868157
208	0xbee3b232	-0.4447189
209	0xbf2d1cb2	-0.6762191
210	0xbf143284	-0.5788958
211	0xbeb030d8	-0.34412265
212	0xbdf9dc4a	-0.1220022
213	0xbf1c63c4	-0.6108973
214	0xbe8ff28a	-0.2811473
215	0x3f2a810b	0.66603154
216	0xbef4227a	-0.47682554
217	0x3f03821f	0.51370424
218	0xbf0a2e2b	-0.53976697
219	0xbe3205d3	-0.17385034
220	0xbcd94d8a	-0.026526231
221	0xbe145fe6	-0.14489707
222	0x3ebe08b2	0.3711601
223	0x3ddd2a04	0.107990295
224	0x3edc349f	0.43008897
225	0xbecaafa3	-0.39587125
226	0x3f304e0a	0.6886908
227	0x3f02e447	0.51129574
228	0xbfe907a5	-1.8205458
229	0x3e0a67c1	0.13516141
230	0xbdc94925	-0.09828404
231	0xbe9f2893	-0.31085643
232	0x3b884607	0.0041587385
233	0x3fc7e133	1.56156
234	0x3ea8351b	0.32853016
235	0xbeff0460	-0.49808025
236	0xbd509528	-0.050923496
237	0xbd9c02e9	-0.076177426
238	0x3eccf290	0.4002881
239	0x3e984db3	0.2974678
240	0xbf087388	-0.53301287
241	0x3ea3207a	0.31860715
242	0x3f075b5f	0.52873796
243	0x3f759e58	0.9594474
244	0x3e41442c	0.18873662
245	0xbfb07956	-1.3787029
246	0x3f87c35d	1.0606495
247	0x3e5d423a	0.21607295
248	0x3f1b7c3b	0.60736436
249	0xbe78ff13	-0.24316053
250	0xbf18f7d5	-0.5975316
251	0xbe9a5bbc	-0.30148113
252	0xbec094c3	-0.37613496
253	0xbdcb781f	-0.09935021
254	0x3e682134	0.22668916
255	0xbf35e2b2	-0.71049035

lstm.weight_hh_l1 f4 [256, 64]
0	0xbf08b379	-0.53398854
1	0x3ee2f4a3	0.44327268
2	0x3e801ad6	0.25020474
3	0xbf2cf274	-0.67557454
4	0xbde12bde	-0.10994695
5	0xc02c3142	-2.6905065
6	0x3f279655	0.65463763
7	0x3d324387	0.04352143
8	0x3f0ac516	0.5420698
9	0x3f80e22b	1.0069021
10	0x3e38fd6c	0.18065423
11	0x3e980cbb	0.29697213
12	0xbfa9a979	-1.3254844
13	0xbe91c2fd	-0.28469077
14	0xbf606776	-0.8765787
15	0xbea0e0e4	-0.31421578
16	0x3fd6b5f4	1.6774278
17	0x3eeaa340	0.45827675
18	0xbe296632	-0.1654289
19	0xbefafd17	-0.49021217
20	0x3efb9767	0.49138948
21	0xbf504440	-0.8135414
22	0x3e21d0f8	0.15802372
23	0x3bdb095e	0.0066844663
24	0xbe613652	-0.21993378
25	0xbda2be7e	-0.0794649
26	0xbfc60b61	-1.5472223
27	0x3f2c394a	0.67274916
28	0xbf36a41b	-0.71344155
29	0x3e9524ba	0.29129583
30	0xbed6e94d	-0.4197487
31	0x3fba4b2e	1.4554193
32	0x3f851d21	1.0399514
33	0x3e922947	0.28547117
34	0x3ee30b55	0.44344583
35	0xbf2f3730	-0.68443584
36	0xbfa5403c	-1.2910228
37	0xbf8a53f5	-1.0806872
38	0xbe9601c2	-0.29298216
39	0x3f226098	0.6342864
40	0x3ebf3706	0.37346667
41	0x3d93cd61	0.07216907
42	0xc001f9a7	-2.0308626
43	0x3f4d62ad	0.8022869
44	0xbea9be39	-0.3315294
45	0xbf4ffa7a	-0.8124157
46	0xbe923f60	-0.28563976
47	0xbe296f04	-0.16546255
48	0x3f183dc7	0.59469265
49	0x3e038fce	0.12847826
50	0xbeb66670	-0.3562503
51	0x3e045436	0.12922749
52	0x3d3bae77	0.04582068
53	0xbfda5213	-1.7056297
54	0xbe81fd81	-0.2538872
55	0xbf77e6c8	-0.9683652
56	0x3e90d12b	0.28284582
57	0xbd8d5f8f	-0.06902992
58	0x3f6930f8	0.91090345
59	0xbf5848d3	-0.8448612
60	0x3fbebe64	1.4901853
61	0xbe401939	-0.18759622
62	0xbf9f6f40	-1.2455826
63	0x3ffe9d8d	1.9891831
64	0x3e799b89	0.24375738
65	0xbf2e7b0d	-0.6815651
66	0xbf5e6f24	-0.8688834
67	0x3d95bc04	0.07311252
68	0xbce6202d	-0.028091514
69	0x3f0f9336	0.56084
70	0x3f1d93b7	0.6155352
71	0xbf3208e8	-0.6954484
72	0xbf031e4d	-0.5121811
73	0x3e82ea9a	0.25569612
74	0x3f7bfae2	0.9842969
75	0xbeeb1e51	-0.45921567
76	0xbf286f8e	-0.6579522
77	0xbf918aff	-1.1370543
78	0xc0130228	-2.2970066
79	0xbfef9518	-1.8717375
80	0xbde90a7e	-0.11378954
81	0xbca52a10	-0.020161659
82	0x3e3c5de5	0.18395193
83	0x3ef8dcc7	0.4860594
84	0x3e3129aa	0.1730105
85	0xbd95da34	-0.073170096
86	0xbe7de556	-0.24794516
87	0xbf2b2f45	-0.66869
88	0x3d9be1a5	0.07611398
89	0x3f0c5957	0.5482382
90	0x398efc36	0.00027272262
91	0xbf463a98	-0.77433157
92	0x3fe3a9ca	1.778619
93	0xbf9e5958	-1.2371016
94	0xbec835cb	-0.3910354
95	0xbfdc2395	-1.7198359
96	0xbf60b93b	-0.8778264
97	0x3fdcc3a8	1.724721
98	0x3e7aa3a8	0.24476492
99	0xbef7ed2d	-0.48423138
100	0x3e20d203	0.15705113
101	0x3f069539	0.52571446
102	0x3e4ebb02	0.20188525
103	0xbf22114e	-0.63307655
104	0xbea79c39	-0.32736376
105	0xbf8c1a55	-1.0945536
106	0xbf68807c	-0.9082105
107	0x3eb0a778	0.3450277
108	0xbd422619	-0.047399614
109	0x3f1b9e29	0.6078821
110	0xbdc224fc	-0.094797105
111	0xbf4dd8b4	-0.8040879
112	0xbf8ad9a9	-1.0847675
113	0x3e5fdbff	0.21861266
114	0xbf029401	-0.51007086
115	0x3fcdd9dd	1.6082112
116	0xbf3ef989	-0.7459951
117	0x3f9ed8cd	1.2409912
118	0xbe50e4d0	-0.20399785
119	0xbfdc4c5a	-1.7210801
120	0x3f22a156	0.6352743
121	0xbd1d5c26	-0.038417958
122	0x3ece4d02	0.40293127
123	0x3f3d0e96	0.7385038
124	0x3e61bf69	0.22045673
125	0x3f6e4285	0.9307025
126	0xbf124ed0	-0.5715151
127	0xbeda8aa4	-0.426839
128	0xbf2e192d	-0.68007165
129	0x3ea77153	0.32703647
130	0xbfbf6d3e	-1.4955213
131	0x3f935101	1.1509095
132	0x3fdce3c9	1.7257015
133	0x3ee729ba	0.45149022
134	0x3f29e181	0.66359717
135	0xbfb95e7d	-1.448196
136	0xbf54f603	-0.83187884
137	0x3ddbb44d	0.10727749
138	0x3fdef8cd	1.7419678
139	0xbf0f750a	-0.5603796
140	0x3ddc92d0	0.1077019
141	0xbf866d32	-1.0502074
142	0xbf1baef9	-0.6081386
143	0xbf4859bd	-0.7826193
144	0x3e93ad5a	0.28843194
145	0xbe8977ea	-0.268493
146	0xbf86360d	-1.0485245
147	0xbf377951	-0.7166949
148	0x3fa2780b	1.2692884
149	0xbfc1b6a4	-1.5133862
150	0x3f30b9f2	0.6903373
151	0xbff7003c	-1.9296947
152	0xbf52dee3	-0.8237135
153	0x3e12bef0	0.1433065
154	0xbe517008	-0.20452893
155	0xbff11d0e	-1.8836992
156	0x3f116e1c	0.5680864
157	0xbdd09dee	-0.10186373
158	0x3fcaf5f0	1.5856304
159	0xbe6cecbe	-0.23137185
160	0x3fa1e18c	1.2646956
161	0xc02f6bfe	-2.7409663
162	0x3f08e092	0.5346767
163	0xbf3098cd	-0.68983155
164	0x3d8d82d7	0.06909721
165	0x3f4cf246	0.8005718
166	0x3ff00237	1.8750676
167	0x3deaaca0	0.11458707
168	0xbf092d68	-0.5358491
169	0xbeb1f27c	-0.34755313
170	0x3f115186	0.5676502
171	0xbf3d74ae	-0.74006164
172	0xbe93c505	-0.2886125
173	0xbeb5ea4d	-0.3553032
174	0xbdfe8e63	-0.12429502
175	0x3e89d440	0.26919746
176	0xbf906a5c	-1.1282458
177	0xbff4c7cd	-1.9123474
178	0xbf127df8	-0.57223463
179	0x3edf785c	0.43646514
180	0xbf42e69f	-0.7613315
181	0x3f508345	0.814503
182	0x3f32ae52	0.6979724
183	0x3f2c95ef	0.6741628
184	0x3f266bdd	0.65008336
185	0x3e06c20f	0.13159965
186	0x3d802088	0.06256205
187	0x3f839a8a	1.0281537
188	0xbd6aaf71	-0.05729622
189	0xbfbaec5c	-1.4603381
190	0xbe09c6da	-0.13454762
191	0xbdb1a694	-0.086743504
192	0xbf64229b	-0.89115304
193	0x3f131957	0.5746054
194	0x3e60ecc3	0.21965317
195	0xc0368c41	-2.8523104
196	0xbe869747	-0.2628729
197	0xbd458457	-0.048221912
198	0x40091c7b	2.1423633
199	0x3e972d95	0.29526964
200	0x3ffc4ac0	1.9710312
201	0x3f32c55d	0.698324
202	0x3f92463b	1.1427683
203	0xbf958759	-1.168193
204	0x3f53a988	0.8268056
205	0xbe18a74e	-0.14907572
206	0x3e098d47	0.134328
207	0x3eb9db76	0.36300248
208	0xbe93887f	-0.28815076
209	0x3d10dff9	0.035369847
210	0x3f5823b4	0.8442948
211	0xbeb74688	-0.35796
212	0x3ec63b2c	0.3871702
213	0x3e54fcec	0.20799607
214	0xbf0a177c	-0.53942084
215	0xbef6252d	-0.48075238
216	0xbe8198b0	-0.25311804
217	0x3ebc7b60	0.36812878
218	0xc023d30c	-2.5597563
219	0x3e77a136	0.24182591
220	0xbf92b94c	-1.1462798
221	0x3eefb99d	0.468213
222	0xbf702f6a	-0.9382235
223	0x3f8f7dd7	1.1210278
224	0xc0318733	-2.773877
225	0xbff8c979	-1.9436485
226	0x3e4841ba	0.19556323
227	0x3fb18c55	1.3870951
228	0xbfa705cc	-1.3048644
229	0xbe02d196	-0.12775263
230	0xbf89f0ca	-1.0776608
231	0xbf920498	-1.1407652
232	0x400940c0	2.144577
233	0x3feff4ec	1.8746619
234	0xbe7e1bd3	-0.24815302
235	0xbfb5fb38	-1.4217291
236	0xbdd5a746	-0.104322955
237	0xbf48fc0c	-0.78509593
238	0x3edf13d4	0.43569815
239	0x3f3f4fba	0.7473103
240	0x3f2a6e66	0.66574705
241	0xbe7f32b4	-0.24921685
242	0xbe972ca7	-0.29526255
243	0x3f83a871	1.0285779
244	0x39ba9fd8	0.00035595777
245	0xbf14ce7d	-0.58127576
246	0xbf177fa4	-0.5917914
247	0xbf8fd846	-1.1237876
248	0x3f542530	0.82869244
249	0x3f686737	0.90782493
250	0x3effd044	0.49963582
251	0xbeadda3d	-0.33955565
252	0xbf06dee9	-0.52683884
253	0x3f981c9d	1.1883732
254	0xbf02e4bd	-0.51130277
255	0xbf9ae847	-1.2102135

lstm.bias_ih_l1 f4 [256]
0	0x3eaf76a8	0.34270215
1	0xbe84d202	-0.25941473
2	0xbea04c23	-0.31308088
3	0x3e36e763	0.17861705
4	0xbd726f5f	-0.059188243
5	0xbe42d6c4	-0.19027239
6	0xbd2a15af	-0.041524585
7	0x3e47bc3e	0.19505402
8	0x3c0a0c69	0.00842581
9	0x3de57d66	0.112055585
10	0x3ca0a7ce	0.019611266
11	0x3eeb4340	0.45949745
12	0x3d7e181e	0.06203472
13	0xbd92232a	-0.07135613
14	0x3d4e95e8	0.05043593
15	0x3f0997e4	0.5374739
16	0xbe19fd98	-0.15038145
17	0xbe4a261c	-0.197411
18	0xbd48d60a	-0.04903225
19	0xbd94c2e0	-0.07263732
20	0x3e23a40c	0.15980548
21	0x3bf47872	0.0074606473
22	0xbdbf4cfd	-0.09340856
23	0xbea66958	-0.32502246
24	0x3eadb19e	0.33924574
25	0x3e89252f	0.2678618
26	0xbd491908	-0.049096137
27	0xbdc2fe5f	-0.09521174
28	0x3e9776b2	0.29582745
29	0x3ee38797	0.44439384
30	0x3e153650	0.145715
31	0x3ed1d360	0.4098158
32	0x3e11580d	0.14193745
33	0x3e9eac5a	0.3099087
34	0xbdaeb7bb	-0.085311376
35	0xbc6cf8a4	-0.014463577
36	0x3e55cd9e	0.20879218
37	0x3f30539f	0.68877596
38	0xbeba19b8	-0.36347747
39	0xbe454ff0	-0.19268775
40	0xbea712b3	-0.32631454
41	0x3e84aafe	0.25911707
42	0x3ebeae94	0.37242568
43	0x3ebc183b	0.36737236
44	0xbe5731a2	-0.21015027
45	0xbe157f31	-0.14599301
46	0x3d37bd79	0.04485843
47	0x3e8d4228	0.27589536
48	0x3eb44131	0.35205987
49	0xbd2e954a	-0.042622842
50	0xbd67ce96	-0.0565935
51	0xbd8a69a9	-0.06758434
52	0x3ebba70f	0.36650893
53	0x3e8c04c5	0.2734739
54	0x3d899ab2	0.06718959
55	0x3da35827	0.07975798
56	0xbe32c773	-0.17458896
57	0x3e7f2ad9	0.24918689
58	0x3e6f9574	0.23396856
59	0xbe072f34	-0.132016
60	0x3f0a4e26	0.54025495
61	0x3d034508	0.032048255
62	0x3e7b453c	0.2453813
63	0x3dfd9639	0.12382168
64	0xbe4897a2	-0.19589093
65	0x3e0680a7	0.13135014
66	0xba1ae675	-0.00059089746
67	0xbbee24f0	-0.007267587
68	0xbf0ee75c	-0.55821776
69	0xbe9c7017	-0.30554268
70	0xbec437da	-0.3832386
71	0xbe345732	-0.17611387
72	0xbe0e84db	-0.13917868
73	0xbcef2194	-0.029190816
74	0xbeb84ca4	-0.35995972
75	0x3e28c3b7	0.1648091
76	0xbdb6b249	-0.08920724
77	0x3ddc8123	0.107668184
78	0xbe12807f	-0.1430683
79	0x3e9fdc05	0.3122255
80	0x3e8f2dac	0.27964532
81	0xbdbd9b0d	-0.09258089
82	0xbee50bcb	-0.4473556
83	0xbe0dbaee	-0.1384084
84	0xbe73fa4d	-0.23825951
85	0xbe2a19fc	-0.16611475
86	0x3e4ebf39	0.20190133
87	0x3e250efa	0.16118994
88	0xbe41cd8a	-0.18926063
89	0xbe260fcd	-0.16216965
90	0x3dc506c8	0.09620434
91	0x3c360e66	0.011111831
92	0xbdd7ca7b	-0.10536667
93	0x3e9a0e34	0.3008896
94	0x3cc275f2	0.023737881
95	0x3e1bc3ce	0.15211412
96	0xbd138238	-0.03601286
97	0xbcd66b11	-0.0261741
98	0xbe102f23	-0.14080481
99	0xbebffa84	-0.37495816
100	0x3edb1a5f	0.42793557
101	0x3ef1884f	0.47174308
102	0x3dc10feb	0.09426864
103	0x3dacb55e	0.084330305
104	0x3de0d973	0.10978975
105	0xbca23c95	-0.019804278
106	0x3cce4933	0.025181388
107	0x3efc93f8	0.4933164
108	0x3d5a94a7	0.053364422
109	0xbf101fa0	-0.56298256
110	0x3d7637d4	0.060111836
111	0x3de11dda	0.10992022
112	0x3eadc091	0.3393598
113	0xbe2e1431	-0.1699989
114	0xbdffb1cd	-0.12485085
115	0x3d127c9b	0.035763364
116	0x3e87fb49	0.26558903
117	0xbea9a90f	-0.33136794
118	0x3d0135a0	0.03154528
119	0xbbee144c	-0.007265603
120	0x3d7e7e54	0.062132195
121	0xbcec7731	-0.028865429
122	0x3cdb0114	0.026733913
123	0x3e5e1b75	0.21690162
124	0x3eec997d	0.46210852
125	0x3e49f767	0.19723283
126	0xbe67e11a	-0.22644463
127	0x3efede41	0.4977894
128	0xbdbaa1b9	-0.091128774
129	0x3de5a4d9	0.11213083
130	0xbe58819d	-0.21143194
131	0xbee81f02	-0.45336157
132	0x3dafa887	0.08577066
133	0x3daf78bf	0.08567952
134	0xbd05329f	-0.03251898
135	0x3ea9c125	0.3315517
136	0x3e1f70d5	0.15570386
137	0xbe748349	-0.23878206
138	0x3e48b519	0.19600333
139	0x3dc586a2	0.0964482
140	0xbec4b216	-0.3841712
141	0xbdbc291e	-0.0918753
142	0x3e0f4d4b	0.13994329
143	0xbd8a915c	-0.06766006
144	0x3d3be5af	0.04587334
145	0xbcf7a7cf	-0.030231385
146	0xbeb83671	-0.35979035
147	0xbe04abdb	-0.12956183
148	0xbd1a0ee7	-0.03761187
149	0x3e2b247d	0.16713138
150	0xbd5a30c9	-0.05326918
151	0x3dba6930	0.09102094
152	0xbeac99a5	-0.3371097
153	0xbe552ebd	-0.2081861
154	0x3e8ba6c8	0.27275681
155	0x3e37650f	0.17909645
156	0x3e281e9b	0.16417925
157	0xbe9de9e0	-0.30842495
158	0x3daa4499	0.08313865
159	0xbc970a8a	-0.018437643
160	0x3e7fa64d	0.24965782
161	0xbd4a73e5	-0.049426932
162	0x3ea3db35	0.3200318
163	0xbda10235	-0.07861749
164	0xbf21c18a	-0.6318594
165	0x3e81d720	0.2535944
166	0xbf02f10e	-0.5114907
167	0xbdfc3c4d	-0.12316189
168	0x3cd68b6d	0.02618953
169	0x3e3ee017	0.18640171
170	0x3dd57ba5	0.10423974
171	0xbe91bccf	-0.28464362
172	0x3e3dcf72	0.18536165
173	0xbc986645	-0.018603453
174	0xbd04556e	-0.032308035
175	0x3f2714f5	0.6526635
176	0xbe726905	-0.23672874
177	0x3dff71d1	0.12472881
178	0x3c8efeca	0.017455477
179	0xbe27008c	-0.16308802
180	0x3f182188	0.59426165
181	0x3e4675e2	0.19380906
182	0xbe0dd904	-0.13852316
183	0xbd893967	-0.06700402
184	0x3dc0e71a	0.09419079
185	0x3de77a05	0.1130257
186	0x3ef9de86	0.48802584
187	0xbe9599df	-0.29218957
188	0xbdcf13f8	-0.101112306
189	0x3dfe003f	0.12402391
190	0x3daa593f	0.083178036
191	0xbed9f5e7	-0.4257042
192	0xbdbb91a6	-0.091586396
193	0x3d3b0f9b	0.04566918
194	0xbe8c0475	-0.2734715
195	0xbdb00571	-0.08594788
196	0x3cd557e8	0.026042894
197	0x3dac5bd9	0.08415956
198	0x3d2a7cbd	0.041622866
199	0x3ec2f76e	0.380794
200	0xbebcc4c7	-0.3686888
201	0x3d17f839	0.037101958
202	0x3baa1172	0.005190068
203	0x3e9c8275	0.3056828
204	0x3d5ba044	0.053619638
205	0x3d30b174	0.043137982
206	0xbf04d748	-0.51890993
207	0xbe4b7c20	-0.19871569
208	0xbcf8657c	-0.030321829
209	0xbd0b4fe1	-0.034011725
210	0xbeccf712	-0.4003225
211	0xbdf0b297	-0.11752813
212	0xbef61e0c	-0.480698
213	0xbe9fe053	-0.31225833
214	0xbee4f528	-0.4471829
215	0xbf131d82	-0.574669
216	0xbe1ed39d	-0.15510412
217	0x3a0255fb	0.00049719185
218	0x3e6c454e	0.23073313
219	0x3ea36696	0.31914204
220	0xbe5005b2	-0.20314673
221	0x3e66ac23	0.22526602
222	0xbe00276c	-0.12515038
223	0xbe3e7803	-0.18600468
224	0xbeef4f59	-0.46740225
225	0x3e2856f9	0.16439427
226	0x3e8b077a	0.27154142
227	0x3ea86f95	0.3289763
228	0x39718950	0.00023034704
229	0xbdae87c5	-0.0852199
230	0xbd53ef26	-0.05174174
231	0x3b9f1c68	0.004855681
232	0xbe922ac3	-0.2854825
233	0xbe2f1512	-0.17097881
234	0x3c572166	0.013130521
235	0xbda55d5d	-0.08074448
236	0xbd479471	-0.04872555
237	0x3e2f8f6f	0.1714456
238	0xbe488811	-0.19583155
239	0xbe2378ff	-0.15964125
240	0x3dbbc52e	0.091684684
241	0x3defe601	0.11713792
242	0xbdb6427f	-0.08899402
243	0x3ed89b36	0.42305917
244	0xbe9981b2	-0.29981762
245	0x3ed9ec27	0.42562982
246	0xbdce5d42	-0.10076381
247	0x3e3c1261	0.18366386
248	0xbe3a3a78	-0.18186367
249	0xbc488450	-0.012238577
250	0x3e015b3e	0.12632462
251	0xbcb82f00	-0.022483349
252	0x3db2fd2f	0.08739697
253	0xbea6fa0f	-0.32612655
254	0x3f7365ab	0.9507701
255	0xbf1812f6	-0.5940393
