param1/lstm_model_99000.pth (torch, 204435 bytes, 9 tensors)

lstm.weight_ih_l0 f4 [256, 1]
000000 52 ac 18 3f 09 cb c8 3f 91 e3 48 3f 10 d1 44 3f
       0.5963794 1.5686961 0.7847224 0.76881504
000010 25 71 4f 3f a3 f2 2e bf ff 80 12 bf 3e 38 4b 3f
       0.8103202 -0.68338984 -0.5722808 0.79382694
000020 57 22 fd be ba 48 e4 3d d0 87 3f bf 06 02 d0 3f
       -0.49440262 0.11146684 -0.7481661 1.6250618
000030 07 64 82 3d c9 4b 82 bf 9c 5f c1 3f 56 da 0d 3f
       0.06366735 -1.0179378 1.5107303 0.5541128
000040 09 85 a2 3e 13 e4 14 40 fc 10 1c 3f be 57 3b 3f
       0.31742123 2.3264205 0.60963416 0.7318076
000050 28 1f bb 3f c9 66 8a bf 50 fc 72 3e 76 c2 e1 3e
       1.4618883 -1.0812618 0.23729062 0.44093674
000060 5a 66 9d ba 18 cf b8 3e b7 91 0f 3f d1 cf 29 3f
       -0.0012008653 0.360955 0.5608172 0.6633273
000070 e9 4f bd bd ad 44 80 bf f7 53 c8 be f3 13 90 3f
       -0.09243757 -1.0020958 -0.3912656 1.1256088
000080 f5 7a a5 3f b9 e0 41 40 63 94 9a be 8e b5 17 3f
       1.2928149 3.029341 -0.30191335 0.59261405
000090 fe ee e8 3f 10 8d 70 be 3d 93 01 bf b3 2e 96 3f
       1.8197935 -0.23491311 -0.5061529 1.1733001
0000a0 cb 73 34 40 c4 91 87 bf 2b fe 40 bf 7a f3 c6 3e
       2.8195674 -1.0591359 -0.7538783 0.38857633
0000b0 4c 16 0d 3f fd 85 c3 3c a2 bf 95 3e 3e 6f be 3d
       0.5511215 0.023867602 0.29247767 0.092985615
0000c0 83 52 08 40 d9 68 92 bf df 0f dc 3f 18 59 5c 3e
       2.130036 -1.1438247 1.7192343 0.21518362
0000d0 19 c3 2b 3e 13 59 f2 be 8a 9b 41 be 21 9b 4b 3f
       0.16773643 -0.47333583 -0.1890699 0.7953358
0000e0 c6 e9 0c 3f f4 b7 40 3f d0 bd 1a 3f 4d 1f 90 bf
       0.5504421 0.7528069 0.6044588 -1.1259552
0000f0 2a 6c 5e 3d 00 23 3a 3d 0a 87 6b 3e d8 8e 66 3f
       0.054302372 0.045443535 0.23000732 0.9006171
000100 c2 3f a0 bf 1c be 82 3d 0f 18 6a 3f 31 bd 9c 3f
       -1.2519457 0.06383917 0.9144296 1.2245237
000110 fc 28 52 3f c1 c5 13 40 0d 80 c4 3f d3 bd bb 3e
       0.8209379 2.308945 1.5351578 0.36668262
000120 2c dd c9 bf 64 06 a0 3d 54 42 13 3f 09 44 a0 3f
       -1.5770621 0.07813719 0.57523084 1.2520763
000130 fa df d9 3e 32 c8 d1 3e 35 45 9a 3f f2 bd 30 3f
       0.42553693 0.4097305 1.205237 0.69039834
000140 a7 9d f3 3e e1 20 a4 3f 7a 88 81 3f 8a 6e b4 3d
       0.47581217 1.2822534 1.0119774 0.08810146
000150 38 c6 3a 3f c3 17 18 bf 0e a3 e5 be d2 d5 1f bf
       0.7295871 -0.5941126 -0.44850963 -0.6243564
000160 1c 02 c5 3e 4f 3b 0a 3f 3f 02 5a 3e 67 97 2a be
       0.38478172 0.5399675 0.2128992 -0.16659318
000170 4f 2d 98 bf b9 93 4f be 21 36 2f 3f b5 33 0b c0
       -1.1888827 -0.20271195 0.6844197 -2.175031
000180 a8 1f 08 3f d6 fd a9 3e 96 b7 75 3f 86 fb ee 3f
       0.53173304 0.33201474 0.95983255 1.8670509
000190 0d 36 9d 3d 50 25 83 3f 6c 02 83 bb 27 ec 38 bf
       0.07676325 1.0245762 -0.0039980914 -0.7223534
0001a0 f7 6f 04 3d 5e cd 3e 3e 3f 0e 31 bf 45 3c 58 3f
       0.03233334 0.18633029 -0.6916236 0.84466964
0001b0 4f 97 14 be 07 5c 45 3f 7c 1a a7 3e d5 48 41 bf
       -0.14510845 0.7709355 0.32637393 -0.7550176
0001c0 b6 d9 64 3f ad 64 be 3e 31 43 6b be 01 90 35 c0
       0.893947 0.37186185 -0.2297485 -2.8369143
0001d0 ef ad c8 3e 25 7a 75 3f ba 97 9c 3f 07 e1 64 3f
       0.391952 0.958895 1.2233803 0.89405864
0001e0 38 ec d3 3b e3 99 18 3f 14 dc 2c 3f 3c 37 80 bf
       0.0064673685 0.5960981 0.6752331 -1.0016856
0001f0 2f e3 ad 3e 07 29 7f 3e fc 2d 86 bd 77 98 89 3c
       0.3396239 0.24917994 -0.065517396 0.016796334
000200 26 c8 c7 3f 11 9a b5 be 07 f2 04 40 28 85 83 bf
       1.5607955 -0.35469106 2.0772722 -1.0275011
000210 1a 04 e1 bf 9c d1 2e bf d8 d5 49 bd 3b 27 1d 3f
       -1.7579377 -0.6828859 -0.049276203 0.61387986
000220 b2 4c fa 40 58 a2 6b bf 73 9e fb bf 1d 7f b0 bf
       7.821862 -0.9204459 -1.965773 -1.3788792
000230 e9 a8 9a bf ae 92 80 be e5 7c 92 bf a1 af 20 bf
       -1.2082797 -0.25111908 -1.1444365 -0.6276799
000240 00 b7 be 3f 57 00 1e c0 28 94 1b bf 28 f9 6b 3f
       1.4899597 -2.4687707 -0.60772943 0.9217706
000250 4d f1 06 40 45 cd a4 3d 72 a0 06 c0 4a 21 89 3f
       2.1084778 0.080469646 -2.1035428 1.0713284
000260 93 59 d7 3f a5 cd c4 bf 78 7c 39 bf ad 82 15 bf
       1.6824211 -1.5375258 -0.7245555 -0.5840252
000270 6c 13 9a 3f ec fc 96 bf a8 e9 96 3c f5 3e 5d 40
       1.2037177 -1.1795936 0.018421963 3.4569676
000280 9b c6 b6 3e ee b5 22 c0 2b 15 84 c0 2d 8a 0f 3f
       0.356984 -2.542354 -4.127584 0.56070215
000290 7e e2 0e c0 b7 12 60 bf 02 39 01 3f 44 4c 17 3f
       -2.232574 -0.87528557 0.5047761 0.5910075
0002a0 fb 14 39 40 bc 43 13 bf 93 9a a6 bf e6 9d fb bf
       2.8919055 -0.5752523 -1.3015922 -1.9657562
0002b0 91 98 d3 3f 23 a6 33 bf 33 82 af 3f c4 06 67 c0
       1.6530935 -0.7017538 1.3711609 -3.609788
0002c0 c5 5d 26 c0 50 e1 ca 3c 33 87 3a 3f 82 29 76 c0
       -2.5994732 0.02476564 0.7286255 -3.8462834
0002d0 fb 6b a7 3f 3e b3 d2 3e 83 cf 3d be 90 db 98 bf
       1.3079828 0.41152376 -0.1853619 -1.1942005
0002e0 7a 38 b1 bf 96 fb 85 bf 66 d3 5e bf af 4b ac bf
       -1.384536 -1.0467403 -0.8704132 -1.3460597
0002f0 8d cd 10 c0 57 c3 a7 be 95 1f e4 3f 4c d9 65 bf
       -2.2625458 -0.3276622 1.7822138 -0.89784694
000300 91 e4 04 bf 8c ff da 3e 80 32 5d 40 48 c9 41 3f
       -0.51911265 0.42773092 3.4562073 0.75697756
000310 b3 3b 62 40 ff 6e 97 3b 5d ca db be db cf 87 3e
       3.5348938 0.004621386 -0.42927828 0.2652577
000320 60 1b fe bd d4 5e b4 3d 87 c0 b7 be d9 ef 03 3f
       -0.12407565 0.088071495 -0.35889074 0.51537853
000330 91 51 60 40 4a 4b ea 3d 64 b5 0c 40 11 2f a6 3e
       3.5049784 0.114401415 2.1985712 0.32457784
000340 ac 4e 97 3f 1e 17 3d 40 5f 90 33 3f 42 f7 fa 3d
       1.1820884 2.954536 0.7014217 0.12254192
000350 41 17 99 3f fd ac db be ce 05 62 bf c0 13 77 bd
       1.1960222 -0.42905417 -0.8829011 -0.06032157
000360 c2 49 ec 3f 4b b7 19 40 20 b7 88 be df 2a 9e 3f
       1.8460009 2.4018123 -0.26702213 1.2356833
000370 ec 05 9d bf 10 85 7a be e8 73 13 be b0 d9 d1 be
       -1.2267432 -0.24464822 -0.14399683 -0.40986395
000380 5a 9d 8c 3f 17 b2 85 40 21 93 61 3f 8b 60 40 bf
       1.098552 4.1779895 0.88115126 -0.7514731
000390 e0 9e 1f 40 11 0b fd 3e b1 13 c3 be 14 48 0b 3e
       2.494072 0.49422505 -0.3810096 0.13601714
0003a0 04 1b 4e 40 bb 7f 0b 3f 5e 53 c5 bf 33 42 a4 3f
       3.220399 0.54491776 -1.5416067 1.2832702
0003b0 82 14 56 3f 6c 8c ae 3f 75 da 31 3d 2d 99 e6 3d
       0.8362504 1.3636603 0.043421227 0.11259685
0003c0 e9 73 81 40 73 db af be ea d4 98 be 3e 9c 63 bf
       4.045399 -0.34347114 -0.2984994 -0.8891028
0003d0 54 34 fd bc 70 cc 8b bf 8d 82 eb bd 05 eb fe 3f
       -0.030908741 -1.0921764 -0.1149951 1.9915472
0003e0 66 b8 b2 3f 70 97 0d 40 e3 06 c7 3e e4 04 9f bf
       1.3962524 2.212368 0.38872442 -1.2423368
0003f0 85 b6 c9 3e 54 b2 d2 3e f2 d0 51 3f 45 1e 4b 3f
       0.39397064 0.4115168 0.8195945 0.7934306

lstm.weight_hh_l0 f4 [256, 64]
000000 4f a7 47 3d e1 1d 2f 3f 2f 6a 11 bd f0 fd 37 3e
       0.048743542 0.68404967 -0.035501655 0.17967963
000010 38 a4 92 be 36 bc 50 be de 35 ac 3e ca 4a 43 3c
       -0.28640914 -0.20384297 0.33634847 0.011919687
000020 ff 0b 9b 3f e8 99 56 3e 70 d3 05 bf ca f7 23 3f
       1.2113036 0.20957148 -0.52275753 0.6404997
000030 12 b2 0b 3d d5 3f 45 3f f5 55 46 bf 6f a6 72 bc
       0.034105368 0.77050525 -0.7747491 -0.014810189
000040 62 51 1c 3e 9a d1 9a bd fb f2 45 bd 65 e4 32 3f
       0.1526542 -0.075595096 -0.048327427 0.6987975
000050 1f 0a 28 3f 56 e5 fb 3d 3a 01 4d be f9 08 bf be
       0.65640444 0.12299602 -0.20019999 -0.37311533
000060 7c 50 44 be 44 82 84 3e 08 0f 8e 3c 91 b4 69 bf
       -0.19171327 0.25880635 0.017341152 -0.9129115
000070 c5 9f 15 3d aa b9 58 be ff 83 18 3d e7 5a fa 3e
       0.03652932 -0.21164575 0.037235256 0.48897478
000080 f8 d0 df 3e 67 bb f5 be 37 c5 59 be b1 af bf 3e
       0.43714118 -0.4799454 -0.21266638 0.3743873
000090 3e 84 07 be 9f 7b 84 bf 70 54 bb 3e 09 64 31 bf
       -0.1323404 -1.0350226 0.36587858 -0.69293267
0000a0 5b 2a 44 3d d9 d6 a2 be 70 93 1c 3d dd a2 0e bf
       0.047891956 -0.3180454 0.038226545 -0.5571726
0000b0 6a 5a 79 3e db e6 8d 3e e4 50 fb 3e 70 2c 0e bf
       0.24350896 0.2771519 0.49085152 -0.55536556
0000c0 8c 74 e4 be 2a 04 c4 bd 45 90 5c bd f9 c7 92 bd
       -0.44620168 -0.09571107 -0.053848524 -0.07167048
0000d0 04 ea 3b 3f a7 6b 82 3f 44 7b d4 3b 67 84 8b bd
       0.73403955 1.0189103 0.006484421 -0.06812363
0000e0 d8 13 b5 bf 07 41 25 bf f9 5b eb 3e bb f2 dd 3e
       -1.4146681 -0.6455235 0.45968607 0.4334925
0000f0 bc 2d 48 be d5 47 2c 3e 11 4d 0d bd f9 1a 1d be
       -0.19548696 0.16824277 -0.034497324 -0.1534232
000100 af ad 48 3f a1 32 e8 bf 64 6e e3 3e 15 47 dc 3e
       0.7839002 -1.8140451 0.4442016 0.4302298
000110 a3 16 92 be ec b0 34 be 00 24 a6 be 59 65 bd 3d
       -0.28532895 -0.17645615 -0.3244934 0.09247846
000120 57 95 2f 3f eb ac d8 bd fa c3 e7 be ca 0b 2b 3e
       0.6858725 -0.105798565 -0.45266706 0.16703716
000130 e0 dd 68 3e 09 3f bf bf 69 46 e6 3e 5c 41 ff be
       0.22740889 -1.4941112 0.44975594 -0.49854553
000140 8b 7d 47 3f ca a7 a4 bf 38 88 27 3b 6c 3a 24 3f
       0.7792594 -1.2863705 0.002556337 0.64151645
000150 c1 95 9e bd 18 c3 fc bd cc b0 d6 3f c3 11 6c 3f
       -0.07743407 -0.12341899 1.6772704 0.922146
000160 af ae cb 3e 85 dd b6 be 60 82 33 3e 49 23 91 3f
       0.3978171 -0.3571588 0.17530203 1.1338893
000170 18 d0 a9 be f4 d8 24 bf 4a cd 0d 3f 4d 4b 89 3f
       -0.33166575 -0.64393544 0.5539137 1.0726105
000180 b0 7d 0b be 8e 1f a6 bf 2f 42 1f 3e 3b ae ab 3e
       -0.13622165 -1.297838 0.15552591 0.33531365
000190 ec 90 bf bf c3 76 d0 3c 5a 1e 97 3f 35 84 2f bf
       -1.4966102 0.025447255 1.1806138 -0.68561107
0001a0 25 c5 8e 3f 97 74 fd 3e d9 9a 0f bf 8f 3e 89 bf
       1.1153914 0.49503013 -0.56095654 -1.0722216
0001b0 bd 84 de bc 60 58 1e bf 1c 4b 01 3f 86 f0 9d 3c
       -0.027162904 -0.618536 0.5050523 0.01927973
0001c0 3e 64 01 c0 bd ab 36 bf af 4f 45 3d c2 59 ae be
       -2.0217433 -0.713558 0.048171695 -0.34052855
0001d0 91 68 67 3e d8 1f 6e bf 8e dc ce be fb cc 04 bf
       0.22598483 -0.9301734 -0.40402645 -0.51875275
0001e0 a4 c6 1b 3f 65 cf 27 3e 3d 02 9d be e6 4b 4d bf
       0.60849977 0.16387708 -0.3066577 -0.80193937
0001f0 8b b6 21 bf 99 30 82 be 49 18 a0 3d b3 49 ba bf
       -0.63169163 -0.25427702 0.07817132 -1.4553741
000200 30 31 86 bf 92 24 b0 3f 76 a0 84 3e d7 d8 8d 3e
       -1.0483761 1.376116 0.25903672 0.27704498
000210 5c fd 80 bf c2 12 c1 3d 9f 1c b3 be 4a a5 6b be
       -1.0077319 0.09427406 -0.34982774 -0.23012272
000220 09 8c 87 3f bc 46 03 bf 6b 0d 33 bd f4 0e fc bd
       1.058961 -0.5127981 -0.04371397 -0.123075396
000230 8d 9a 62 bf e3 5f 88 bf b2 c7 a6 be df 54 81 be
       -0.88517076 -1.0654262 -0.3257423 -0.25260064
000240 89 b8 d0 3f ea fb c2 bf 0d e3 58 bf 63 31 d9 3e
       1.6306316 -1.5233128 -0.8472145 0.42420492
000250 a1 5f f7 3d 9e cc fb bd 7c 4f f5 be 4c 00 59 bf
       0.12078787 -0.12294887 -0.47912204 -0.8476608
000260 17 bd 0e bf 11 f8 a4 bf e9 8a 16 3e 20 93 e3 bc
       -0.5575728 -1.2888204 0.14701428 -0.027780116
000270 ee f4 1c bf 43 77 63 bf 29 3e 2a 3f 40 2d 0a 3f
       -0.61311233 -0.88853854 0.665011 0.53975296
000280 c2 32 c1 be 72 99 5a be 33 1f 2c 3f 0a c2 51 3e
       -0.37734038 -0.21347597 0.67235106 0.20484176
000290 55 e0 70 3f 37 ee 40 3f 0c 70 f2 3e f3 20 71 3f
       0.94092304 0.75363487 0.4735111 0.941909
0002a0 ae 31 24 3f b3 da 84 3f 82 f6 c6 3e 3d 53 03 bf
       0.64138305 1.0379242 0.38859946 -0.51298887
0002b0 a1 a5 1e bd 8c 7b d1 3e be 3a 3a 3f 9f fd c6 3e
       -0.038732175 0.4091457 0.72745883 0.38865373
0002c0 59 72 2d be 9d b3 64 bf 32 93 6f 3f 9e 3b 38 3f
       -0.16938151 -0.8933657 0.9358398 0.7196597
0002d0 fd 00 c2 3e 2c 1f 3a 3e cf b0 f5 bf c4 e6 50 3f
       0.3789138 0.18175954 -1.9194583 0.8160212
0002e0 12 6a 9a bf 96 68 7e bf 88 39 d7 3e 85 ca 08 3f
       -1.206362 -0.99378335 0.4203608 0.5343402
0002f0 a3 06 a6 bf 8b 28 e0 be 83 d3 02 3f 2f f5 2a bf
       -1.2970775 -0.43780932 0.5110399 -0.6678037
000300 2f 96 84 be 91 8b 23 3f 93 b2 05 bf 91 a1 de be
       -0.2589583 0.63884836 -0.5222561 -0.4348264
000310 11 7c 65 bf 53 f6 a5 3e 74 cf 44 bd eb c3 a0 3e
       -0.89642435 0.32414493 -0.048049405 0.31399474
000320 eb 9a 4d 3e f0 22 c2 be 15 a0 85 3e c9 a9 72 bf
       0.20078628 -0.3791728 0.26098695 -0.9479032
000330 a6 dc 06 3f d5 5e f3 be 13 49 b8 3e 7b d8 c7 be
       0.5268043 -0.4753329 0.3599325 -0.3903235
000340 e8 d9 64 3e 1b e2 bd bd 34 e8 9f bc dc 99 ba 3e
       0.2234875 -0.09271642 -0.019519903 0.3644551
000350 5a 17 6e 3f be 6a 95 ba f3 25 d1 3e 37 75 f5 3d
       0.9300438 -0.001139961 0.40849265 0.119852476
000360 34 46 82 3e 08 ee 14 be 0b 92 2c bf e9 54 3d 3f
       0.25444186 -0.14543927 -0.67410344 0.7395769
000370 af a8 e1 3d e1 b6 23 bf b3 cc 0c be ea 77 0e 3f
       0.11018502 -0.63950926 -0.13749962 0.55651724
000380 0b ce 1d 3e c3 7f 2f bf 20 36 c0 bb de 36 6f be
       0.1541063 -0.68554324 -0.005865827 -0.23360774
000390 70 0b c2 be 24 9e 94 3e 51 58 fb be 31 6f c2 3e
       -0.3789935 0.29026902 -0.49090818 0.37975457
0003a0 2e 15 14 3f 71 43 5d 3f 62 c0 d4 3e ce 0d 1c 3f
       0.5784482 0.8643103 0.41553026 0.60958564
0003b0 af ce 2a 3f 32 70 59 be 10 38 95 be eb 2f a1 3e
       0.66721624 -0.21234205 -0.29144335 0.3148187
0003c0 5d 9c 37 be 64 49 a6 be 26 42 8b 3f d6 52 80 be
       -0.17930742 -0.32477868 1.0879562 -0.250632
0003d0 2d f5 1a 3e 9f 27 1b bf ac 89 c3 bf fa f4 de 3f
       0.1513259 -0.6060733 -1.5276389 1.7418511
0003e0 e9 31 95 bd f8 bd 03 3e df d5 b0 bd 6a 56 2d bf
       -0.0728491 0.12865436 -0.08634543 -0.6770998
0003f0 f9 40 13 be 55 11 52 3e 6a a1 91 be 78 98 82 bf
       -0.14380254 0.20514424 -0.28443462 -1.020278

lstm.bias_ih_l0 f4 [256]
000000 0f a1 e7 3d ca fb 04 bf 05 d1 51 3d 12 21 75 be
       0.11310016 -0.519467 0.051224727 -0.23938397
000010 f2 66 41 3e e8 a2 4a be 08 8e 18 bd cc 22 45 be
       0.18886927 -0.19788706 -0.037244827 -0.19251555
000020 71 84 ba 3f 1f 3b 8d bd 21 8e 05 3e 3b 88 9a 3e
       1.4571668 -0.06896042 0.13042499 0.3018206
000030 eb 91 b8 be 8c 7c 24 bf 10 b1 b1 bd ac f3 09 bf
       -0.36048827 -0.64252543 -0.0867635 -0.5388744
000040 3e af 38 bd 0f b7 ac 3c 59 c8 2a bd 2f e0 f7 bd
       -0.045089 0.021083383 -0.041694973 -0.121033065
000050 33 de c7 3e f3 ca 55 be b7 f6 b4 be f4 dc 08 be
       0.39036712 -0.208782 -0.35344478 -0.13365537
000060 c8 9a ff 3e 8c df ab 3e cc a3 af bd 9e 6a e3 bd
       0.49922776 0.3356899 -0.08576164 -0.1110432
000070 a3 7d 2b 3f a9 9e 1a be 72 66 1f bc e8 98 32 3f
       0.6698858 -0.15099587 -0.009729015 0.69764566
000080 6d f6 8d be 24 f4 03 3f 0a e3 f1 be 97 7f d2 be
       -0.2772707 0.51544404 -0.4724353 -0.41112968
000090 23 74 f0 3e a8 e3 a9 be 6a 7f 8f bd 4f c1 25 be
       0.46963605 -0.331815 -0.07006724 -0.16187023
0000a0 cd 7e 94 3f 41 e7 38 bd 95 2e 22 3b a5 67 9f 3d
       1.1601197 -0.045142416 0.0024747003 0.077834405
0000b0 f9 3b 89 3d 36 20 88 3e 81 d7 0d bd 5c 68 b4 3e
       0.06700892 0.26587075 -0.03462935 0.3523587
0000c0 eb 99 53 3f 26 33 5a be c1 5e 6e 3d c4 64 07 3f
       0.82656735 -0.21308574 0.058195833 0.5288813
0000d0 fe e6 54 be d9 75 4a be 3f 9f ae be 08 12 9c be
       -0.20791242 -0.19771518 -0.3410587 -0.30482507
0000e0 6b 04 f9 bb 00 fa 8a be 5f 36 aa bc 6c 2a a4 be
       -0.0075994036 -0.2714386 -0.02077788 -0.32063615
0000f0 82 9a 85 bd 8e af db be 8b 77 af be d8 4e 43 be
       -0.06523611 -0.42907375 -0.34270892 -0.19073045
000100 35 65 0b bc 83 dd a0 be e7 42 82 be 88 fd 8c 3e
       -0.008508016 -0.31419 -0.25441667 0.2753718
000110 d9 2a af be eb 4a 65 3f a0 53 1f 3f 9a 18 8d be
       -0.34212378 0.8956744 0.62236977 -0.27557832
000120 cf 10 80 3b 75 32 13 bd 1d 4d 37 3e 4c b2 96 3d
       0.0039082537 -0.03593679 0.1790051 0.07358226
000130 5f f4 00 3e 2d 2f cb be 60 b3 14 3e 77 e5 86 be
       0.1259322 -0.3968443 0.14521551 -0.26346943
000140 62 f8 0e be 9f 12 50 be 8c af c9 3e 9f 90 8a 3e
       -0.13961938 -0.20319603 0.39391744 0.27063462
000150 63 8d 40 3c dd eb 8e 3e df 68 88 be 85 6b bc be
       0.011752459 0.27914324 -0.2664251 -0.3680078
000160 f8 c5 d0 be f6 2e 7f 3d 7c b3 37 3e 1e 3f bd be
       -0.40776038 0.062300645 0.17939562 -0.36962217
000170 75 7d d8 3e df f0 fa bd a4 c3 aa 3e a5 13 1d bf
       0.42283216 -0.12252974 0.33352387 -0.613581
000180 96 27 9b be b4 c0 1b be 0a 30 da 3a f9 68 90 be
       -0.3030364 -0.15210229 0.0016646397 -0.28205088
000190 77 d9 91 3d 6e e9 90 be c5 81 a9 be 15 d2 0d be
       0.07121556 -0.28303093 -0.3310682 -0.13849671
0001a0 2c 3f 88 be f6 37 0c bf a1 3e bf be 3c 8f 96 3d
       -0.26610696 -0.5477289 -0.3735247 0.073515385
0001b0 a7 8c c8 3e 5f 9e ba 3e b5 09 9d be 03 20 86 be
       0.3916981 0.36448953 -0.30671468 -0.26196298
0001c0 dc 0a 96 be 1d 73 be 3e 53 29 49 be 40 8c 45 bd
       -0.2930516 0.371972 -0.1964467 -0.048229456
0001d0 3b 7b f9 bd 92 05 9f 3d 7c 08 57 3d 6a 3e 7c be
       -0.121817075 0.07764734 0.052498326 -0.24633184
0001e0 a9 3f 71 3e a6 1a 6a bd ef 42 88 3e fa bf 98 be
       0.2355944 -0.05715432 0.26613566 -0.29833966
0001f0 3f 98 9a be a6 1f 9e 3e 47 0c ae be cc 08 86 bd
       -0.3019428 0.3088352 -0.33993742 -0.065446466
000200 e7 46 45 bc 93 8c 74 be 74 97 0f 3e ed ca 2c 3d
       -0.01204083 -0.2388175 0.14022619 0.042185713
000210 21 be 87 bd 36 73 ed 3d 64 00 ae bd 46 82 93 3c
       -0.06628061 0.1159424 -0.08496168 0.018006455
000220 9b cc 94 be b7 6b bc be 81 3d 30 bd 57 fa 6c 3e
       -0.29062352 -0.3680093 -0.043027405 0.23142372
000230 2a b4 e5 bc 91 d5 1b 3e 52 2a 08 3e 62 f3 5b 3e
       -0.02804001 0.15218188 0.13297394 0.21479562
000240 a5 45 d6 be ae ce 7b 3c 8c 8a 8e be f9 b5 1f be
       -0.4185001 0.0153691005 -0.27840078 -0.15596761
000250 03 3f f6 3d a2 d1 92 be b2 8e 59 ba b2 89 2f 3d
       0.12023737 -0.28675562 -0.00082991563 0.042855926
000260 c7 21 37 3e 79 23 8b bd 80 38 e4 bc 63 54 54 bd
       0.17883979 -0.06793875 -0.027858973 -0.05183829
000270 fa 4f 0c be b5 39 b6 bc 7d e7 04 3e cb 96 7c be
       -0.13702384 -0.022244314 0.12978931 -0.24666898
000280 24 e3 d4 bd 88 8a 86 3e 20 9d d6 bd 27 bd 8a 3e
       -0.10394886 0.26277566 -0.10479188 0.27097437
000290 87 07 dc 3d 79 01 81 3e 3b c3 40 3e 57 3e 94 3d
       0.10743623 0.25196436 0.18824475 0.07238453
0002a0 16 21 b6 be 50 30 c6 3c c4 df c6 bd 7f 47 bd 3d
       -0.35572118 0.02419296 -0.09710649 0.092421524
0002b0 e4 a7 16 be d5 19 3b 3e 56 2f 87 be c0 ba 07 3e
       -0.14712483 0.18271573 -0.26403302 0.13254833
0002c0 cd 8a 89 3e fc 7f 0a 3e a9 db 0d be b5 80 29 3e
       0.2686371 0.13525385 -0.13853325 0.16553004
0002d0 e6 a2 3a be 44 23 05 be ed 63 e0 3e 88 6b c0 3c
       -0.18226203 -0.13001734 0.43826237 0.023488775
0002e0 17 eb 71 3d 81 85 45 3e 93 43 ae be ab 19 89 bd
       0.05906209 0.19289209 -0.3403593 -0.06694349
0002f0 35 fc 9e 3e cb 45 10 3e cc 2a 30 bd 5f e1 32 be
       0.31051794 0.14089124 -0.043009564 -0.17468785
000300 7f a0 13 3e 89 3d b4 3e a7 c9 08 be c3 4e a4 be
       0.14416693 0.35203198 -0.13358174 -0.3209134
000310 f1 5b 5f 3e 18 78 c5 bd 6b 6a 02 3e 3a dc bc be
       0.21812417 -0.09642047 0.12735908 -0.3688677
000320 82 f1 bb 3f ed dd 41 bf 6c ee 87 3e b8 32 4f 3e
       1.4683077 -0.75729257 0.2654909 0.20234191
000330 d3 c4 b0 be b2 ef d3 be 7e d8 ae be 5c 80 f3 bd
       -0.34525165 -0.4139381 -0.34149545 -0.11889717
000340 eb f3 52 bd 6f 2d 11 be 10 c6 cb be 33 d7 71 be
       -0.05150215 -0.14177488 -0.39799547 -0.23617248
000350 13 23 8c 3e 07 fc 39 be 7f cf 54 be 5c 1d 43 be
       0.2737051 -0.18162547 -0.20782278 -0.19054168
000360 2d 55 59 3f ec c4 2d 3b ca 23 1c bf 97 b2 7e 3d
       0.8489559 0.002651508 -0.6099211 0.062182035
000370 c8 a2 73 be 07 f5 64 3e 67 4b 04 3f 93 50 8d 3f
       -0.23792565 0.22359096 0.51677555 1.1040214
000380 bc 0f c6 be de 0d 49 3f ef 09 1d 3d b5 d1 22 3e
       -0.3868388 0.78536785 0.03833955 0.1590031
000390 4a 6a ec 3e 00 1f c4 bd 29 02 8f be ec b5 c3 bd
       0.46174842 -0.09576225 -0.27931336 -0.09556183
0003a0 76 3f 8d 3f b3 4d 01 bf c0 f2 ea be 53 ca 09 be
       1.1034992 -0.50509185 -0.4588833 -0.13456087
0003b0 7e 12 7e 3e 67 02 4d 3e 50 df 04 3c 38 95 ad 3e
       0.24811742 0.20020448 0.0081098825 0.33902907
0003c0 0d fa 91 3f b8 e3 08 bf f1 cf b8 3d 4a 2b 3f 3f
       1.1404434 -0.5347247 0.09024037 0.7467543
0003d0 fa d4 d8 3e 0f 29 83 be ab 87 02 bf 9e 26 c0 be
       0.42349988 -0.25617263 -0.5098826 -0.37529463
0003e0 dc b7 74 3d b5 9f db be 73 6b 4e bc 34 d8 c3 be
       0.059745654 -0.42895284 -0.01259886 -0.38250887
0003f0 42 f6 71 3e b1 b6 48 be 99 1b 23 3e f1 df 61 3e
       0.23629096 -0.19600941 0.15928496 0.22058083

lstm.bias_hh_l0 f4 [256]
000000 e0 2d f1 bb 5b 65 d2 be 5b a6 ae 3c 00 0b 6c be
       -0.007360205 -0.41092953 0.021319559 -0.23051071
000010 58 08 92 3e 2c 66 1c be 1f 94 b4 bd fb f7 39 be
       0.2852199 -0.1527335 -0.08817314 -0.18161003
000020 49 ad aa 3f 0f 2b 50 bd 6c a1 85 3e ff df 9b 3d
       1.3334132 -0.050822314 0.26099718 0.07611083
000030 aa bb 12 be 80 d7 0c bf 1b 6b 67 be a3 3b 13 bf
       -0.143294 -0.55016327 -0.22599451 -0.57512873
000040 78 bc 60 be 46 aa 00 bd a4 07 9c 3d 15 3b 86 be
       -0.21946895 -0.031412385 0.07618645 -0.2621695
000050 cd 65 e5 3e 22 15 9c bd 67 6a cb be 90 2d 90 bd
       0.4480423 -0.07621218 -0.39729616 -0.0703994
000060 8d 88 05 3f 42 b8 15 3e 7e be ec ba 63 43 19 3c
       0.52161485 0.1462107 -0.0018062142 0.009354445
000070 40 5f 03 3f f0 fc 55 be b9 ae 96 3d ba 1f 10 3f
       0.51317215 -0.20897269 0.073575445 0.5629841
000080 be 3b 2d be 1b 94 eb 3e 87 72 ea be 4c f4 b0 be
       -0.16917321 0.46011433 -0.45790502 -0.34561384
000090 7c ef b5 3e f6 5d ca be 0b c2 d7 b9 79 73 89 bd
       0.35534275 -0.39524812 -0.0004115257 -0.06711478
0000a0 e0 58 99 3f aa 24 1b 3d 5a fd 88 3c 72 d4 44 bd
       1.1980247 0.037876762 0.01672237 -0.048054166
0000b0 a1 ff 48 bd 5e 1a 5f 3e b2 66 2d bd b0 24 a9 3e
       -0.04907191 0.21787402 -0.042334266 0.33035803
0000c0 75 ec 3e 3f c3 32 2a be ab 54 ac 3d dc b8 0e 3f
       0.74579555 -0.16620927 0.08414587 0.55750823
0000d0 56 2f e4 be 81 e6 ac be a8 01 f0 be 74 39 cf be
       -0.44567364 -0.3376961 -0.46876264 -0.4047352
0000e0 3e 70 28 be f5 be e9 be e2 fe ae 3d 29 26 d4 be
       -0.16449067 -0.456535 0.08544709 -0.41435364
0000f0 7c 3c 93 bd 3d 7e d7 be b2 8b 21 be 43 38 71 be
       -0.07189271 -0.420885 -0.15775946 -0.23556618
000100 4e 17 1c 3e 3c 71 84 be 58 37 9c be df 72 c9 3d
       0.15243265 -0.2586764 -0.30510974 0.09836363
000110 0c 9f 44 be b7 64 61 3f f0 64 df 3e 93 92 ca bd
       -0.19201297 0.88044304 0.43631697 -0.09891238
000120 0d aa ae bd d6 4c 97 b9 81 5f 9d 3d 7a eb 39 3e
       -0.08528528 -0.00028858212 0.076842315 0.18156233
000130 ce be 9f 3e 03 10 9b be 86 88 82 3e 81 aa 4b be
       0.3120026 -0.30285653 0.25494784 -0.19889261
000140 c2 19 83 be 71 ef 72 be 70 a6 d4 3e 1e 46 b0 3d
       -0.2560559 -0.23724152 0.41533232 0.08607124
000150 38 71 9d 3d 6d 0f 25 3e 53 38 fa bd 9c 27 c5 be
       0.076876104 0.16119166 -0.12217774 -0.38506782
000160 5b 52 e0 be 99 f9 1d 3d fb 3d 6d 3d 8d 7d dc be
       -0.43812832 0.038568113 0.057920437 -0.43064538
000170 ae 4a 02 3f 72 09 75 be fc de e8 3d 1c 5b fc be
       0.508952 -0.23929384 0.11370656 -0.4928826
000180 6d 07 8a be 55 0f 82 3d 71 0d 5d 3d 6d 5a 81 bd
       -0.2695879 0.063505806 0.053967897 -0.063160755
000190 d0 cc 94 bb 7d dc a4 be 1a ca a8 be 6a 38 27 be
       -0.004541017 -0.3219947 -0.3296669 -0.16330114
0001a0 99 7e 6a be fa cb 24 bf 07 50 57 be aa 19 57 3e
       -0.22899856 -0.64373744 -0.21026622 0.21005884
0001b0 16 29 ca 3e d0 e1 8a 3e be 2a 83 be f2 56 73 be
       0.3948447 0.27125406 -0.25618547 -0.23763636
0001c0 d5 e0 16 be 1b 4f a2 3e ea 7d 46 be f2 7e f1 bc
       -0.14734204 0.31700978 -0.1938397 -0.029479478
0001d0 73 ea 18 be 85 fb 3a 3d d2 7c e0 bd 0a 35 67 be
       -0.14933185 0.045650024 -0.109613076 -0.22578827
0001e0 b4 9c 79 3e 5f 01 0a be 06 e8 84 3e 43 01 72 be
       0.24376184 -0.13477086 0.2595827 -0.23633294
0001f0 b4 80 80 be 7a 10 8d 3e 7c 98 70 be ea 68 42 3d
       -0.25098193 0.27551633 -0.23495668 0.047463335
000200 38 ba 38 3d ca 86 b4 bd c1 6e ac bc 28 52 fd 3d
       0.045099467 -0.088147715 -0.021048905 0.12369186
000210 9e d0 46 3d 02 ea 9b 3e 00 23 ce bd 2b 0e 08 3e
       0.048538797 0.3045197 -0.100652695 0.13286655
000220 8e 7a 95 be c5 3a dc be 73 33 13 3e 2f 28 86 3e
       -0.29195064 -0.43013588 0.14375095 0.26202533
000230 1e 5c 0f 3d d2 36 23 3e 72 b3 0d 3e 7f 44 9d 3e
       0.03499996 0.15938881 0.13837984 0.3071632
000240 f0 50 4b be 46 a1 aa 3d 8f 33 8a be 8a a0 e0 bd
       -0.19855094 0.08331542 -0.2699246 -0.109681204
000250 a0 3e 8b 3e a1 32 59 be e6 78 78 bd 6c 1a 19 3e
       0.27196217 -0.2121072 -0.060662173 0.14951485
000260 2f ce 3f 3e 0e 5e 07 3d e7 38 67 3d 96 3b 9a bb
       0.18730997 0.033048682 0.05645075 -0.00470681
000270 ce 11 f7 bd 12 d0 5e be 41 f5 24 3e 43 8f c7 be
       -0.12063943 -0.2175906 0.16109182 -0.38976488
000280 03 6e 27 be d9 2c e0 3d aa 67 95 bd 59 33 e4 3d
       -0.1635056 0.10946054 -0.07295163 0.11142606
000290 9f 90 8b 3d f6 da 60 3e 04 5b 5d 3e be ba de 3d
       0.06814694 0.21958527 0.21616751 0.10875462
0002a0 cc 82 43 be e9 44 98 3d 74 fa 08 be 47 be 39 3d
       -0.19092864 0.074350186 -0.1337679 0.04534748
0002b0 fd 61 23 be 84 9e 50 3d 33 5e 93 be 70 6d f5 3d
       -0.15955348 0.050932422 -0.28782806 0.11983764
0002c0 63 1d fd 3d e0 28 0c 3e 68 3c 04 be 61 c7 a1 3e
       0.12359121 0.13687468 -0.12913668 0.31597427
0002d0 69 0f 2a be 94 74 83 be 8d 54 b5 3e 7f f7 48 3d
       -0.16607441 -0.2567488 0.3541607 0.049064156
0002e0 5e f1 5c 3e 35 0e a2 3d 77 1d be be 22 e3 30 be
       0.2157645 0.07912866 -0.37131855 -0.17274144
0002f0 a7 d2 da 3d a1 65 8e 3d d3 98 06 be d7 ad 73 be
       0.1068471 0.06952978 -0.13144235 -0.23796783
000300 a9 ef 57 3e e0 09 83 3e 45 57 41 bd 88 63 dc be
       0.21087517 0.25593472 -0.047202367 -0.43044686
000310 52 ea ff 3d 13 09 d2 bd 5d 77 95 bd 59 e9 d3 be
       0.12495865 -0.10255637 -0.07298157 -0.41388968
000320 c2 9d b7 3f b3 6d 29 bf 20 9d 66 3e 13 6a ac 3e
       1.4345019 -0.6618301 0.22520876 0.33674678
000330 34 85 c6 be e6 be dc be 14 9c 75 be ac 40 ec bd
       -0.387735 -0.43114394 -0.2398532 -0.11535773
000340 fb c6 42 bd b2 cd bc bd 34 2f 9c be 88 34 66 be
       -0.047553044 -0.09218921 -0.30504763 -0.22480977
000350 cf 95 cf 3e 25 c6 aa be 85 28 88 be 55 a5 47 be
       0.40543982 -0.33354297 -0.26593414 -0.19496663
000360 8f 94 46 3f b7 d0 37 3d c6 38 e7 be a1 b1 1e 3e
       0.7757043 0.04487678 -0.45160502 0.15497448
000370 e6 a1 2f be 69 49 4d 3e 09 f1 03 3f 2c f4 8d 3f
       -0.17151603 0.20047535 0.51539665 1.109014
000380 d9 88 f5 be 08 1c 20 3f f3 d1 39 3e 2a 28 90 3d
       -0.4795597 0.6254277 0.18146496 0.07038911
000390 1a d8 f4 3e b3 38 4d be 4d 76 c6 be 96 77 20 be
       0.47821122 -0.2004116 -0.3876213 -0.15670618
0003a0 7f 28 8d 3f 99 68 af be 82 0f af be 78 2d db bd
       1.1027983 -0.3425949 -0.3419152 -0.10702032
0003b0 f9 9f 93 3e 8c ae 58 3e 0d 1a 0c bd af 65 f0 3e
       0.28832987 0.21160334 -0.03420453 0.46952578
0003c0 a2 e9 87 3f ab f6 ed be 2a 73 e4 3d 2d e2 32 3f
       1.0618174 -0.46477255 0.11154778 0.69876367
0003d0 c7 69 65 3e a6 6e 3c be 3b 5d a8 be ba 63 96 be
       0.22403632 -0.18401584 -0.3288363 -0.2937296
0003e0 ea 36 2a 3e 1b f6 02 bf df b8 a4 bd 42 15 41 be
       0.1662251 -0.5115678 -0.08043074 -0.18855765
0003f0 2b 2d 79 3e 03 0c 16 be 58 d8 47 bd 16 2c 40 3e
       0.24333636 -0.1465302 -0.048790306 0.18766817

lstm.weight_ih_l1 f4 [256, 64]
000000 ee f2 5b 3f 1b c8 d5 bf 61 98 08 3f e1 d2 e5 be
       0.85917556 -1.6701692 0.5335751 -0.4488745
000010 7b 79 97 3f a9 89 41 3f 0e 39 6b bf 8b 15 3f 3e
       1.1833948 0.7560068 -0.91883934 0.18660562
000020 05 ec 35 bf 39 f9 c9 bf 00 ad b3 3b a1 3c 2f bf
       -0.7106326 -1.5779182 0.0054832697 -0.6845189
000030 f1 7d 56 3f f4 97 81 3e 2f 34 af be c0 75 31 3f
       0.8378592 0.25311244 -0.342195 0.693203
000040 ad 41 22 3f 14 fd b6 be b6 3c 98 bf 96 ac 47 bf
       0.63381463 -0.35739958 -1.1893528 -0.7799772
000050 fb a7 ad 3f d8 bd 94 3e 01 30 8a 3f 6a b0 3f bf
       1.3566889 0.2905109 1.07959 -0.7487856
000060 0a d6 c0 3f 4a 48 3a 3f 79 50 6c be 30 2e ac be
       1.506532 0.72766554 -0.23077573 -0.33628988
000070 ab 3f 1d 3e 50 4a 5c 3e b1 46 55 3e 48 43 df bc
       0.15356319 0.21512723 0.20827748 -0.027253762
000080 8c c6 0f 3f 5c 48 0c be c4 16 c1 bf 7b 3e 1d be
       0.56162333 -0.13699478 -1.5085073 -0.15355866
000090 58 11 9a 3f 89 82 25 be 30 98 4c bf a9 b1 2f c0
       1.2036543 -0.16163076 -0.7991972 -2.7452185
0000a0 f5 ca af 3e 86 04 bb bf b3 ac 86 3e ce d8 b2 3d
       0.3433453 -1.4610755 0.26303634 0.087327585
0000b0 7f 84 e1 3e e5 41 99 be b2 1d 24 bf ed 74 96 bf
       0.440464 -0.29933086 -0.6410781 -1.1754433
0000c0 a6 85 81 3e ee dd 81 3d ef f1 7e bf 40 6d ed 3f
       0.25297278 0.06341158 -0.9958791 1.8548965
0000d0 71 46 d3 3d 55 1f 76 be e1 8c 98 bf 57 2f ae be
       0.1031617 -0.2403539 -1.1917993 -0.34020492
0000e0 f9 fe 06 c0 95 d1 10 3f bb 4d ec 3e 7d 7c d4 be
       -2.1093123 0.56569797 0.46153054 -0.41501227
0000f0 9c c8 7c 3e 74 d0 be bf b9 fe b5 be 72 05 e9 3f
       0.24685901 -1.4907365 -0.355459 1.8204787
000100 f3 10 6a be 9b e4 ec 3d a5 c8 2d bf 15 40 ba be
       -0.22858028 0.115670405 -0.67884284 -0.36377016
000110 7f 0f be 3e 19 93 00 3f 60 76 cc bd 9d 2c d1 3e
       0.37121198 0.50224453 -0.09983516 0.4085435
000120 a9 1b 58 c0 41 0f 2d bf d7 b0 16 3f 86 44 3b bf
       -3.3766882 -0.676014 0.58863586 -0.73151433
000130 e1 a9 cd 3b 5c e3 6c bf c0 73 8d 3f 7a 83 0b bf
       0.0062763547 -0.9253442 1.1050949 -0.5449749
000140 b4 2e 86 3d d7 99 f8 3f 56 99 49 be 8b 9c 20 bf
       0.06551877 1.9421948 -0.196874 -0.62738866
000150 bb 12 20 bd 22 3b 39 bf 21 e0 59 3f ce 40 6e 3f
       -0.039080363 -0.72355855 0.8510762 0.93067634
000160 37 f5 a7 3e 4b 1c b4 3e 54 58 8a be c7 92 bb be
       0.32804272 0.35177836 -0.27020514 -0.3663542
000170 87 70 80 3d 86 c9 e9 3e 4f 19 8d be 2f 71 6d bf
       0.06271463 0.45661563 -0.2755837 -0.9275083
000180 bf 32 b3 bd 8c 3e d3 3f 85 9a 4c 3f 69 3d 8d bf
       -0.087499134 1.6503463 0.7992328 -1.1034366
000190 de 67 15 bf db 17 ab be 37 10 9d bf 4b 18 3c bf
       -0.58361614 -0.33416638 -1.2270573 -0.7347457
0001a0 0a ba 28 bf a9 11 36 bf 9a 9f 0d 3f 63 65 47 be
       -0.65908873 -0.711207 0.5532166 -0.1947227
0001b0 a2 96 91 be 97 7b d1 be 97 8a cf be 08 05 83 3e
       -0.28435236 -0.40914604 -0.40535423 0.25589776
0001c0 03 d5 50 3f 4e ef 58 3c 7a e5 9f 3e b0 db fa 3f
       0.8157503 0.013240648 0.31229764 1.9598293
0001d0 b3 71 47 bf 70 0b b7 3d ea 75 75 3f b3 1b 94 bf
       -0.77907866 0.089377284 0.9588305 -1.1570953
0001e0 d4 c2 29 3f a4 a7 cf be e5 f8 7e bf bb 68 4d be
       0.6631291 -0.40557587 -0.9959853 -0.20059483
0001f0 97 7e 9b be df 76 91 bd 0e 9a 27 3f 27 67 5c bf
       -0.30370018 -0.07102751 0.65469444 -0.860949
000200 03 a6 03 3f 48 7c 11 3e e6 de f0 3e da a0 53 bf
       0.5142519 0.14207566 0.47045058 -0.82667315
000210 74 b5 b8 3f 59 88 4d bf 5b e7 89 bf af 69 41 3f
       1.4430375 -0.80286175 -1.0773729 0.75551885
000220 cd 71 68 bf 6a 7c a2 3f 70 ac 97 be cf 63 bf be
       -0.90798646 1.2694218 -0.29623747 -0.37380835
000230 00 21 cb be cf 25 cc 3e 82 d5 b5 be f8 ae 7b be
       -0.39673615 0.39872596 -0.35514456 -0.24578464
000240 59 06 35 bd 02 5e 1b bf e4 2c 1c bf b6 25 f7 3e
       -0.044195507 -0.6069032 -0.61006 0.4827096
000250 6a dc 54 3d 08 22 a2 be 91 41 24 bf 6f d5 28 3f
       0.051968016 -0.3166659 -0.64162546 0.65950674
000260 69 71 aa 3e c2 32 92 3f 08 71 3a be e7 81 a8 3d
       0.3328965 1.142174 -0.1820718 0.08227902
000270 8c 22 bb be ff 12 42 3b d2 10 55 bd 50 d5 71 be
       -0.36549795 0.0029613373 -0.052017994 -0.23616529
000280 ed 1c 18 3d fe a1 52 be 1a 3c bf be 6f 7e dd be
       0.03713696 -0.20569608 -0.3735054 -0.43260524
000290 93 03 2a 3e dd 2a 03 3f 15 95 0e 3f 30 51 1b 3f
       0.16602926 0.5123728 0.5569623 0.6067076
0002a0 ae 69 cb 3e 0c 39 75 bd 7a 38 0d bd 26 4d 86 bf
       0.39729065 -0.059868857 -0.03447769 -1.0492294
0002b0 9d 26 e0 bd c5 83 41 be 34 5a 1b 3f 5e a5 2a bf
       -0.10944865 -0.18897922 0.60684514 -0.6665858
0002c0 82 d5 34 be 46 e8 88 be 4b bf 02 bf b4 81 15 3f
       -0.17659572 -0.2673971 -0.5107314 0.58401036
0002d0 dc 06 11 3d 58 90 96 3c 88 5f 8f bf 5d cb 07 3f
       0.035406932 0.018379375 -1.1201029 0.5304468
0002e0 de b9 07 3f b5 da 00 3f b1 00 e5 3e 9f d1 3a be
       0.53017986 0.5033372 0.4472709 -0.18244027
0002f0 8c 8b c8 be 7a d4 d4 be f5 9c ec 3e b5 1a 27 bf
       -0.39168966 -0.41568357 0.462135 -0.65275127
000300 2a c3 43 bf 30 de 09 3d c1 86 77 bf 2e b4 2d 3d
       -0.7646967 0.03365916 -0.96689993 0.04240816
000310 1c e5 9d be a5 4a 75 3e 56 23 62 3d 38 fa ba be
       -0.3083886 0.23954256 0.05520948 -0.36519027
000320 96 40 1c bf a9 03 9b bd 8e 98 78 3d 06 75 ee be
       -0.6103605 -0.075690575 0.060692362 -0.46573657
000330 ff ec 19 be 00 b0 0b bf ea 51 cb 3e a6 8e 29 bf
       -0.15031813 -0.5456543 0.39710933 -0.6623329
000340 ad a0 6d be bb 2a 29 be d1 33 03 bf c9 d8 98 be
       -0.23205824 -0.16520207 -0.5125094 -0.29852894
000350 6a 65 7c be 56 29 df bd 72 75 42 bd 80 f8 b3 bf
       -0.24648061 -0.10896556 -0.047475286 -1.4060211
000360 0b 53 c3 be ff ed 26 bf ef 9f bb bd 0e 95 a2 bf
       -0.38149294 -0.65206903 -0.09161364 -1.2701738
000370 ae ff 9d bf bd 16 eb 3e 75 fb e3 3e 51 10 7e 3e
       -1.2343652 0.45915785 0.44527784 0.24810912
000380 40 55 02 3f 2c 9b 01 3f 62 c2 83 bf 19 13 58 3d
       0.5091133 0.506274 -1.0293696 0.052752588
000390 b6 4a fd bd 18 9c 3b bd 86 42 99 be b7 e7 a0 3f
       -0.123677656 -0.04580316 -0.29933566 1.2570714
0003a0 8c bd 2c 3d d8 fe 23 3d ad 3d bc be 63 7c 81 be
       0.042172953 0.04003796 -0.36765805 -0.25290212
0003b0 43 21 a2 be 09 99 ba be f2 80 27 3d 63 63 27 3e
       -0.31666002 -0.36444882 0.040894456 0.16346507
0003c0 6d d0 b6 3e cf 28 8a 3e 6d df d7 be e0 2e 26 3f
       0.3570589 0.2698426 -0.42162648 0.64915276
0003d0 18 7a 55 bf f1 de da be af 2e 0d bf b3 69 80 3f
       -0.83389425 -0.42748216 -0.5514936 1.0032257
0003e0 98 b5 cd be e6 71 49 3e 4b 8c 17 bf 61 ef b7 bf
       -0.40177608 0.19672355 -0.59198445 -1.4369928
0003f0 6c d0 9d 3e bd 3e e3 3e 9e 1f 5b 3f e0 73 9d 3f
       0.30823076 0.44383803 0.8559512 1.2300987

lstm.weight_hh_l1 f4 [256, 64]
000000 c9 27 59 c0 2b 1f 9a 3e 78 1b 38 bf 29 d6 4d 3f
       -3.3930533 0.30101904 -0.71916914 0.8040491
000010 06 fc 89 bf 09 88 06 c0 56 24 ee 3d a6 49 82 bf
       -1.0780036 -2.102053 0.11628024 -1.0178726
000020 1f ae 45 bf 39 d3 92 3e a2 73 1d 3f 4c 30 31 c0
       -0.7721881 0.28676775 0.61504567 -2.7685728
000030 c7 fe 2d c0 6a bc 9f 3b f3 b1 58 3e 12 8f 5f 40
       -2.7186754 0.0048747556 0.21161632 3.4931073
000040 b9 d9 fb bf ab a2 9e be 8d 20 1e bf ee 49 22 3d
       -1.9675819 -0.3098348 -0.6176842 0.039621286
000050 56 05 72 be 26 6e ba bf c6 d4 43 c0 31 9c 72 bf
       -0.23634848 -1.4564865 -3.0598617 -0.9476958
000060 ad d7 0c c0 aa ac ef bf f1 bc 63 be cc 99 f1 3f
       -2.2006638 -1.8724568 -0.22240044 1.887506
000070 bd 56 17 3c 27 46 82 bf 20 02 1b 40 76 c6 17 bf
       0.009236989 -1.0177659 2.4220047 -0.592872
000080 b2 48 b5 bf 0f e3 fb be 82 8e c1 bf 86 29 80 be
       -1.416281 -0.4919667 -1.5121615 -0.2503168
000090 d3 ce d5 bd 7e c3 82 3e 22 96 6e bf 74 22 4a bf
       -0.10439839 0.25539774 -0.93197834 -0.7895882
0000a0 81 16 b9 bf 30 cc 3e be b9 51 e3 3f de 46 78 bd
       -1.4459993 -0.18632579 1.7759315 -0.06061446
0000b0 a0 7c 0e 40 d9 af 28 3e ce 3b 87 3f 26 f0 be be
       2.2263565 0.1647333 1.0565126 -0.37292594
0000c0 8f 11 15 3f c8 93 0b bf 31 0f 10 be 35 89 99 bf
       0.5822992 -0.5452237 -0.14068295 -1.1994997
0000d0 c8 db 0b bf 1f 46 7e bf ba aa d0 bd b2 0b 0a 3f
       -0.54632235 -0.99325746 -0.101888135 0.53924096
0000e0 ca 9c 65 bf 9d ec 3d bf 27 53 4f bf e2 8a 9e be
       -0.89692366 -0.7418917 -0.80986255 -0.30965334
0000f0 53 92 ae bf 13 20 e4 3e 8a 47 83 be 62 6a 2c bc
       -1.3638405 0.4455572 -0.25640517 -0.0105234105
000100 c7 0d 93 3f 54 1a 84 be f8 68 7b 3f 25 7c 0d be
       1.148858 -0.25801337 0.98207045 -0.13816889
000110 60 76 9b bf 6e 4a ce 3f de 3e 3c bf 16 b8 52 bf
       -1.21455 1.6116464 -0.7353343 -0.8231214
000120 a9 20 0b bf bd ac 4d 3f 9d 4f 4d 3f c9 3e 86 bf
       -0.5434671 0.803417 0.80199605 -1.048791
000130 00 b0 1f bd 8c e7 50 3f 6a 2e 1f bf d7 ce 78 bf
       -0.038986206 0.8160331 -0.621802 -0.9719061
000140 c1 44 11 40 1a ef f9 be ce d7 ea bf a7 ac 48 3f
       2.2698214 -0.48815233 -1.8347108 0.78388447
000150 77 b6 2f bd de 40 19 c0 06 14 aa 3f 04 25 40 bd
       -0.04289862 -2.3945842 1.3287361 -0.0469103
000160 97 4c 54 bf bb 03 cc 3f 91 1e c9 bf 98 e9 2d bf
       -0.82929367 1.5938638 -1.5712453 -0.6793456
000170 a3 0f 29 3e b7 df 0f 3f c6 ba 5d be 69 6a 23 3f
       0.16509871 0.56200737 -0.2165328 0.63834244
000180 a2 ea 07 3f 0f 35 29 bf d7 98 db 3e 63 71 8e 3e
       0.53092396 -0.66096586 0.42890045 0.27820882
000190 32 79 c9 3e 59 cb 9d 3f 40 1e 84 3f 06 94 47 3f
       0.39350277 1.2327682 1.0321732 0.7796024
0001a0 67 1e b1 bf 89 93 ab bf b3 a6 06 bf d5 84 0d bf
       -1.3837403 -1.3404399 -0.5259811 -0.5528081
0001b0 d8 aa 79 bf 00 56 ab 3d cf 58 37 bf 44 10 3c 3d
       -0.9752631 0.083660126 -0.71619886 0.04591395
0001c0 74 0f 25 3f 72 f0 14 be 85 f0 b4 bf 9b 47 b8 3e
       0.64476705 -0.14544848 -1.4135901 0.3599213
0001d0 02 c4 18 3f dc d7 8b be 56 08 92 be de 90 98 be
       0.59674084 -0.27313125 -0.28521985 -0.29798025
0001e0 ae 84 b5 bf a8 9a b7 3e 7c 83 2a bc bd 0a fa 3d
       -1.4181116 0.3586018 -0.010407325 0.122090794
0001f0 3c 32 95 3d 97 99 ed 3e c0 3b 88 bf a6 32 d6 3d
       0.07284972 0.46406242 -1.0643234 0.10458879
000200 76 a5 c6 bf 9e 63 57 c0 ed b5 df bf 5d 5d 1c c0
       -1.5519245 -3.3654552 -1.7477394 -2.4431984
000210 03 53 fc bd e3 8e d3 3e 1c 17 6c 3f 70 33 8a 3f
       -0.12320521 0.4131995 0.9222276 1.0796947
000220 99 c5 e4 bf a1 15 fe bf 47 de a0 be 76 84 ed bf
       -1.7872802 -1.9850351 -0.31419584 -1.8556049
000230 68 9b 16 c0 b2 02 c1 bf f8 89 78 c0 69 d9 1a 40
       -2.3532352 -1.5078948 -3.883421 2.4195197
000240 d5 f1 b1 3f a5 18 98 ba c1 8e 9d 3e 90 9d e2 3f
       1.3901926 -0.0011604024 0.30772975 1.7704334
000250 f3 69 90 bf 29 74 18 bf 6a 6f f1 3f 40 56 81 3f
       -1.1282333 -0.59552246 1.8862126 1.0104446
000260 e2 58 4d 40 83 a3 8a 3f 14 f8 03 c0 de 6a 48 3f
       3.20855 1.083115 -2.0620165 0.78288066
000270 72 55 5f bf 28 37 81 3d 87 ff d8 be e0 34 80 3f
       -0.87239754 0.06309348 -0.42382452 1.0016136
000280 96 60 22 40 72 86 f7 3e 3d 92 bf 3b 35 3c 56 bf
       2.5371451 0.4834476 0.0058462904 -0.8368562
000290 67 ea 78 3e b6 6c 32 be af 2c 4f bf 29 fa 85 3f
       0.24308167 -0.17424282 -0.80927557 1.0466968
0002a0 26 b1 da bf 3c 34 c3 bf c0 f4 05 40 a1 71 2a 3f
       -1.7085311 -1.5250316 2.0930634 0.66579634
0002b0 38 2e 68 3f be 71 a1 bf fc 16 55 3f 49 e9 21 bf
       0.90695524 -1.2612836 0.83238196 -0.6324659
0002c0 d9 d4 63 bf f7 a0 0d 3e 82 07 27 c0 6a 97 9d c0
       -0.88996655 0.13830934 -2.6098332 -4.924733
0002d0 86 2b e5 be 4f 41 3f be 4a b3 83 3e d0 a8 91 3e
       -0.44759768 -0.18677257 0.25722724 0.28449106
0002e0 4a a4 8a 40 3c 21 b8 bf ed 96 47 3f c4 85 15 bf
       4.332555 -1.4385142 0.7796467 -0.58407235
0002f0 eb 70 e5 3f 13 ce ba 3f 5c da e9 be 76 e3 95 3f
       1.7925085 1.4594139 -0.45674407 1.171004
000300 80 c4 40 3f a2 c2 8c bf c5 12 d1 bf 79 b2 43 bf
       0.75299835 -1.0996897 -1.6333853 -0.764442
000310 3f 74 24 bf 1b 70 af bd f1 89 b0 3f fa da 0e c0
       -0.6423988 -0.08566304 1.3792096 -2.2321153
000320 92 88 49 bf d9 ab 49 3f 1d 8c 7b be 0a 91 3b 40
       -0.78724015 0.78777844 -0.24565168 2.9307275
000330 7c ea 0b bf 22 eb 59 3f 68 01 01 bf 0d bf 55 3e
       -0.5465467 0.8512441 -0.5039277 0.20873661
000340 c6 f1 da bd c4 51 9c bf 9b 19 9d be 4b 77 ee 3f
       -0.10690646 -1.2212453 -0.30683598 1.8630155
000350 c3 02 c2 3f 70 6c 00 bf 52 09 53 be 3c af 55 3e
       1.5157093 -0.5016546 -0.20609024 0.20867628
000360 f3 de 52 3f 9c 31 9d 3f 9d 4f 88 bf 27 f7 41 bf
       0.82371444 1.2280765 -1.0649296 -0.7576775
000370 65 20 3f be 10 22 b2 bf da 54 e4 3d ce 9f 0c 3f
       -0.18664701 -1.3916645 0.11148997 0.5493134
000380 4e 59 86 3e e4 b0 bc bf f6 58 a6 3e 60 24 1b bf
       0.2624001 -1.4741483 0.32489747 -0.6060238
000390 88 08 03 3e cb 27 81 be 06 84 07 40 b1 21 62 3f
       0.12796223 -0.25225672 2.117433 0.8833266
0003a0 c9 10 6f bf d2 96 8e bd 5a 93 24 bf 4c 45 0f c0
       -0.9338499 -0.069623604 -0.6428734 -2.2386045
0003b0 82 9e 85 3f 0a 1b 14 be a9 c7 35 3f 2d f9 90 be
       1.0438998 -0.1446344 0.7100778 -0.28315106
0003c0 ad a4 22 3d f6 2d 48 3f a3 b2 98 3f 9c b0 bc be
       0.03970783 0.7819513 1.1929516 -0.36853492
0003d0 7a 53 b7 3e ad 7b ee 3e cc 17 48 be 01 cb 84 3f
       0.35805875 0.46578732 -0.19540328 1.0374452
0003e0 4d 71 90 bf bd 31 50 3f 5f 0e aa 3f 9b 80 73 3f
       -1.1284577 0.81325895 1.3285636 0.9511811
0003f0 cd 0f 02 c0 1d 62 67 bf 42 50 c4 bf a0 ae 0d 3d
       -2.0322144 -0.90384084 -1.5336993 0.034590364

lstm.bias_ih_l1 f4 [256]
000000 be 13 41 bd bd d1 ea bd 26 a8 88 3e bb 9d 59 3e
       -0.04713797 -0.11465786 0.26690787 0.21251576
000010 fc 76 07 3f 5f 87 23 be e9 26 60 bd b1 23 9e be
       0.5291593 -0.15969609 -0.054724608 -0.30886605
000020 da 54 e8 bd 52 3e 8e 3d 43 4a d6 be 3f 14 c1 be
       -0.11344309 0.069454804 -0.41853532 -0.3771076
000030 65 82 43 bd c1 9c 65 3e 50 39 7d bd 76 74 86 3e
       -0.047731776 0.22423078 -0.061822236 0.26260728
000040 52 1d c9 be ba d4 49 3e fa 84 e6 be 5a 05 84 3e
       -0.39280182 0.19710055 -0.45023328 0.25785333
000050 8d 23 80 be 9b ee 7d 3e 31 61 1c bd 01 95 80 3e
       -0.25027123 0.24798052 -0.038178626 0.2511368
000060 c8 b7 6c 3e 9f ac 0b 3e 0e 98 a3 3e c4 cb 39 bd
       0.23116982 0.13640068 0.31951946 -0.04536034
000070 c4 d3 e3 3e a6 71 9a 3d 59 ae 26 be 65 0f a5 3e
       0.44497502 0.07541208 -0.16277446 0.32238308
000080 d9 4b d3 3e 22 b9 dd 3e 89 9e bb 3e 71 1b 5b 3e
       0.41268805 0.43305308 0.3664439 0.21397187
000090 fb 45 65 3f 8d 85 c8 3e 0a 29 5a 3e ef c1 7f 3e
       0.89559907 0.3916439 0.21304718 0.24976324
0000a0 9d 06 79 3e 61 b1 15 3e 86 5c d6 3d 2c bb f7 3d
       0.24318929 0.14618446 0.10466866 0.12096247
0000b0 88 f2 a1 3d 1e 63 27 be 09 c8 b0 3e e1 27 fc be
       0.07907587 -0.16346404 0.34527615 -0.49249175
0000c0 f1 71 95 3e aa 1e 22 3e 59 5b 26 3c 02 61 ee be
       0.29188493 0.1583201 0.010153615 -0.46558386
0000d0 d0 ec 30 bd d9 61 46 be d7 7f b0 3e 89 95 01 3e
       -0.043194592 -0.19373263 0.34472534 0.126547
0000e0 7f 69 e2 3d a6 78 5a be be 44 fa 3d 40 c7 8b 3d
       0.11055278 -0.21335086 0.12220143 0.06825113
0000f0 3b 11 0b 3e a8 16 c3 3e 78 f6 94 3e f2 64 12 3f
       0.13580792 0.38103223 0.2909429 0.5718528
000100 47 ab c6 3e 99 67 8b be 11 7f 94 3e 7e 8f a3 3e
       0.3880255 -0.27227476 0.29003194 0.31945413
000110 b8 c2 ac 3e 1d 18 81 3e 76 83 96 bd cb bf 2a 3c
       0.3374231 0.2521371 -0.07349293 0.010421704
000120 69 8e c1 3d e4 9d 9d bd d3 c4 e9 3d 46 e4 9f be
       0.09450991 -0.07696131 0.11414494 -0.31228846
000130 67 41 3f be 85 d5 d3 3d 96 cb f6 bd 72 d2 e8 3e
       -0.18677293 0.1034346 -0.1205055 0.45473057
000140 98 f9 65 be a7 47 d2 3e b4 89 7a be 94 07 ff 3d
       -0.22458494 0.4107029 -0.24466592 0.12452617
000150 1a 1b eb bd 25 9a 51 be d4 fa 5a bb 02 c2 d2 be
       -0.114797786 -0.20468958 -0.0033413665 -0.4116364
000160 20 94 13 3e f0 13 b8 be 17 a7 3d 3e 61 b4 d2 3e
       0.14411974 -0.3595271 0.18520771 0.41153243
000170 b9 50 b8 3d 96 38 3e bc 2a 96 b5 3e 88 f0 5a bd
       0.089997716 -0.011610171 0.3546613 -0.053452045
000180 44 88 a3 3e 22 d0 92 bd 73 34 06 3f 2c fd ba 3e
       0.319399 -0.071686044 0.5242378 0.3652128
000190 fa e7 14 3f cf 53 94 3e 01 4f f4 bd 72 8f 9c be
       0.5816647 0.2897019 -0.11929131 -0.3057819
0001a0 1c 94 3b 3f 5d ea 2c be da d3 ea 3d 07 7f a7 3e
       0.7327287 -0.16886277 0.11466189 0.32714102
0001b0 88 df 07 3f 89 4c 6b 3e 28 a7 cc 3e ce f9 91 3f
       0.53075457 0.22978415 0.3997128 1.1404359
0001c0 9c 0e ca 3e 4e 9f d0 3e 77 23 0e 3f e5 2d 4c be
       0.3946427 0.4074654 0.55522865 -0.19939382
0001d0 02 bc 1a 3f c1 32 f9 3d e0 2e 11 3f 11 ab d9 3d
       0.6044313 0.12167884 0.5671215 0.106283315
0001e0 cd ea 2c bb f0 bf 9f 3e 32 7f a2 3d 06 68 d0 3e
       -0.002638507 0.31201124 0.07934417 0.40704364
0001f0 c9 1d 8d bd 18 3a bb 3e b3 b3 2d 3e 23 fd 02 3f
       -0.06890447 0.3656776 0.16963081 0.51167506
000200 94 90 86 3e a8 31 80 3d 65 2c 27 bf 21 75 1e be
       0.2628218 0.06259471 -0.65302116 -0.15474369
000210 64 86 58 be 39 b9 9b bd 84 34 2c 3d 5f 80 9b bd
       -0.21145016 -0.07603688 0.04204227 -0.07592844
000220 12 b5 3a 3e 0f f6 3f 3c 9b 6b 84 be 2a 7e 78 3d
       0.18233135 0.01171638 -0.25863346 0.060667194
000230 1d 3f 02 be 67 e3 9c be 19 35 07 bf af f8 a1 bd
       -0.12719388 -0.30642244 -0.52815396 -0.07908761
000240 3c 71 38 3d 51 4e d1 3e 01 be b7 be 0b 1b 8b be
       0.045029864 0.40880063 -0.3588715 -0.2716907
000250 80 b9 4e 3e 75 10 02 be 8a 4d a1 bd 7e 85 45 3e
       0.2018795 -0.1270159 -0.078761175 0.19289204
000260 c8 a3 9c 3e 52 91 8f 3e b4 e8 dc bd 32 74 8c bd
       0.30593705 0.28040558 -0.10786572 -0.068581
000270 ee 86 a4 be b8 34 2d be 11 a4 14 3e d9 9d 58 3e
       -0.32134193 -0.16914642 0.14515711 0.21153964
000280 a9 84 c3 3e 88 81 06 be c5 2a d6 bc 42 51 ee 3d
       0.3818715 -0.1313535 -0.026143441 0.116365924
000290 01 30 a6 bd 67 a1 35 3f 6e 3b ac 3d 77 a4 19 be
       -0.08114625 0.70949405 0.08409773 -0.15004145
0002a0 5a f2 86 be 26 7f 93 3e 51 7c d8 be e8 24 a8 be
       -0.26356775 0.28807944 -0.42282346 -0.32840657
0002b0 22 5e 42 3e fb 38 56 bd 59 ca 44 ba 41 b9 84 be
       0.18981221 -0.052300435 -0.0007506959 -0.25922588
0002c0 a4 67 bd be b0 0b b2 3e 4a a9 20 3e d8 3d a9 3e
       -0.36993134 0.34774542 0.15689579 0.33054996
0002d0 ff 44 6a 3e 4e 2e 03 be 79 c4 82 3e 37 47 cf be
       0.22877882 -0.12810633 0.25540522 -0.4048402
0002e0 d8 a1 fd be b3 7b 09 3d a5 67 6f 3e 55 e4 f7 3e
       -0.4953754 0.033565234 0.23379381 0.4841639
0002f0 b5 71 2d be 00 91 99 3d c5 0b 5e 3e 81 f8 8c 3c
       -0.16937907 0.0749836 0.21684177 0.01720834
000300 30 34 42 3e ee a3 6f bd 2a af b9 3e cc 2d ec 3e
       0.1896522 -0.058505945 0.36266452 0.4612869
000310 74 7d 0b 3f f4 ac 1c 3e 1a d1 9f 3e 28 06 ee 3e
       0.544883 0.15300351 0.3121422 0.46489072
000320 94 ee 00 3f fb 77 c8 3e 6b a2 c8 3e 79 ea 1b 3f
       0.5036404 0.39154038 0.39186415 0.6090465
000330 53 d1 f1 3e 92 51 11 3f 10 d6 a1 3e 4b 97 12 3f
       0.47230014 0.5676509 0.3160863 0.57262105
000340 94 63 39 3e e8 db 01 3e d3 b8 80 be 44 c3 2d 3f
       0.18104392 0.12681544 -0.2514101 0.67876077
000350 f7 ad cc 3d f3 9b ab bd 79 26 a0 3e ca 8a 6a 3e
       0.09994119 -0.08379354 0.31279352 0.22904506
000360 b1 1b f7 3d b8 4f a4 3e f2 41 aa 3e 0f a1 0e 3f
       0.120658286 0.3209207 0.33253437 0.55714506
000370 b2 16 fe 3d 55 36 93 3e 60 18 2d be 5d 52 ba 3e
       0.124066725 0.2875239 -0.1690383 0.36390963
000380 19 0a 14 3f 7a 8b 99 3f 97 f2 66 3f 41 36 89 3e
       0.5782791 1.199569 0.9021391 0.26799205
000390 4a 12 de 3e 5d 10 c0 3e bb 93 b5 bd 20 72 93 3e
       0.43373328 0.37512484 -0.08866068 0.28798008
0003a0 3c 5b b6 3e 94 3a 28 3e 48 32 7e 3e dd 62 a5 3e
       0.3561648 0.16428596 0.24823868 0.3230199
0003b0 32 da b9 3d 25 b9 0c 3f 14 d0 8f 3e a0 0c 17 3e
       0.090748206 0.5497001 0.2808844 0.1475091
0003c0 54 da b7 3e 63 d7 6a 3e 24 0a f1 3e b3 13 e0 3d
       0.3590876 0.22933726 0.4707805 0.10941257
0003d0 9a e5 6d 3f 2f 1e b8 3d f5 c5 f7 3e ed ce 28 be
       0.9292847 0.08990132 0.48393217 -0.16485186
0003e0 ce ff b2 3e 82 39 d0 3d 03 b4 d8 3e a3 a0 dc 3e
       0.34960788 0.10167219 0.42324838 0.43091306
0003f0 21 db 39 bc 39 03 8e 3e 80 f1 7b 3e 20 6b eb 3e
       -0.011343748 0.27736834 0.24603844 0.45980167
