param1/lstm_model_96000.pth (torch, 204435 bytes, 9 tensors)

lstm.weight_ih_l0 f4 [256, 1]
000000 f3 3c 38 3f bd 86 b5 3f 63 b5 52 3f 7b 9f 41 3f
       0.71968 1.4181744 0.82308024 0.7563397
000010 0c d5 48 3f e9 43 28 bf 2a 12 1d bf 6e 1b 4f 3f
       0.78450084 -0.6572862 -0.6135584 0.8090123
000020 b8 11 f7 be 26 fc 5e 3e 49 fd 3a bf 92 23 d1 3f
       -0.48255706 0.21775874 -0.7304273 1.633898
000030 16 33 d9 3d 38 84 82 bf cd cd bc 3f 58 e5 1a 3f
       0.10605447 -1.01966 1.4750305 0.605062
000040 49 f9 70 3e b0 13 1f 40 b6 1b 1c 3f de ad 30 3f
       0.23532595 2.4855766 0.60979784 0.690153
000050 35 d7 be 3f 41 93 8b bf 9d 68 9a 3e 22 08 ab 3e
       1.4909426 -1.0904313 0.3015794 0.33404642
000060 93 f9 79 bc 34 c4 b0 3e bc 0e 18 3f 7f d3 1d 3f
       -0.015257257 0.3452469 0.5939748 0.6165084
000070 a1 f6 42 be 9e dd 86 bf 75 c6 9f be 7e 33 a2 3f
       -0.19039394 -1.0536382 -0.31206098 1.2671964
000080 02 3f a0 3f 7b 99 3f 40 11 b3 55 be b9 ff 1a 3f
       1.2519228 2.9937427 -0.2086909 0.6054645
000090 bc 4a f4 3f 01 04 5c be 40 84 0b bf 83 04 9e 3f
       1.9085307 -0.21485902 -0.5449867 1.2345127
0000a0 7a 48 36 40 12 2f 7d bf b5 2d 40 bf 37 60 ab 3e
       2.8481736 -0.9889995 -0.75069743 0.33471844
0000b0 76 8e 27 3f 39 32 e2 3b 59 2c 43 3e 30 5f 2f 3e
       0.65451753 0.0069029597 0.19059886 0.17126155
0000c0 15 96 0d 40 db bc 9f bf 24 cb e6 3f 15 c7 5c 3e
       2.2122853 -1.2479509 1.8030744 0.21560319
0000d0 b0 95 40 3e 78 39 e7 be 4e f1 6c be f4 a2 48 3f
       0.18807101 -0.45161033 -0.23138925 0.78373647
0000e0 bf 34 00 3f 5d 75 2f 3f 1c d2 12 3f da b6 8a bf
       0.50080484 0.6853846 0.5735185 -1.0837052
0000f0 3e 74 9f 3d 4d 90 9e 3d 3d 20 36 3e 71 a3 67 3f
       0.07785843 0.07742367 0.17785735 0.90483767
000100 81 6b 93 bf 17 c4 30 3d c4 99 5a 3f 9b ed a6 3f
       -1.1517183 0.043155756 0.8539088 1.3041261
000110 8b 94 67 3f 3b 3b 15 40 fc e5 be 3f 69 89 bc 3e
       0.90461034 2.3317401 1.4913936 0.36823586
000120 2d 83 c7 bf 58 7a f4 3d e9 19 17 3f b7 e1 a4 3f
       -1.5586907 0.11937398 0.5902391 1.2881383
000130 87 2a ea 3e 50 2b 9a 3e a0 ce 9a 3f bd f2 34 3f
       0.4573557 0.3011117 1.2094307 0.7068289
000140 48 fd d9 3e de c9 aa 3f 9c 6a 78 3f 25 6e 10 3e
       0.4257605 1.3342855 0.97037673 0.14104517
000150 98 5b 47 3f 22 b9 0a bf ab a2 20 bf 16 9d 10 bf
       0.77874136 -0.5418874 -0.6274821 -0.56489694
000160 f4 fb bd 3e dd 24 10 3f 6d ed 6b 3e ea cc 3f be
       0.37106287 0.5630625 0.2303979 -0.18730512
000170 74 bd 96 bf 4a 83 32 be 39 e2 33 3f 68 bf 04 c0
       -1.1776567 -0.17432895 0.70267063 -2.0741825
000180 d3 62 0d 3f 51 81 b3 3e 43 29 7b 3f 52 84 f4 3f
       0.5522892 0.35059598 0.98109835 1.9102881
000190 b5 16 af 3d fb 6b 84 3f c1 31 9f 3d da de 40 bf
       0.08549253 1.0345453 0.07773162 -0.75340044
0001a0 83 d1 46 3c 76 2a 82 3e 79 3c 3e bf 32 eb 55 3f
       0.012134912 0.2542302 -0.74311024 0.83562005
0001b0 ca 53 1d be 52 ef 3d 3f 66 84 a9 3e 54 bb 27 bf
       -0.15363994 0.741933 0.33108824 -0.65520215
0001c0 6c 55 6d 3f 65 f2 82 3e 4d e0 55 be c4 70 31 c0
       0.9270847 0.25575557 -0.20886345 -2.7725077
0001d0 6e 15 c7 3e c7 a1 6d 3f af 0d a3 3f ee 05 7c 3f
       0.38883537 0.9282498 1.2738551 0.9844655
0001e0 d8 3a af 3d 5f f8 16 3f 29 02 23 3f 2b c5 75 bf
       0.085561454 0.58972734 0.6367517 -0.9600398
0001f0 01 99 c3 3e ad 6c 97 3e f0 a2 04 be e9 a3 76 3d
       0.3820267 0.295751 -0.1295278 0.06021491
000200 dd 80 c5 3f 6a c7 7e be 17 be ff 3f 0f 2d 87 bf
       1.5429951 -0.24880758 1.9979886 -1.0560626
000210 ac 33 dd bf 42 a2 1a bf ff 7d ac bd 4d bd 3b 3f
       -1.7281394 -0.60403836 -0.08422469 0.73335725
000220 a4 19 fb 40 6e d9 78 bf 44 03 fc bf 5a 2c b3 bf
       7.84688 -0.9720677 -1.9688497 -1.399791
000230 f3 b0 aa bf c5 27 9a be 11 8e 8c bf 8c b0 25 bf
       -1.3335251 -0.30108467 -1.0980855 -0.64722514
000240 0f 11 ae 3f 5c 5a 22 c0 08 29 13 bf 34 98 67 3f
       1.3598956 -2.536765 -0.57484484 0.9046662
000250 c0 3c 03 40 37 76 ad 3d e9 4d 07 c0 9b a2 7d 3f
       2.050583 0.08469813 -2.1141303 0.9907624
000260 da 01 d9 3f d2 36 c6 bf 1c 28 2b bf 43 ff 02 bf
       1.695369 -1.548548 -0.6685808 -0.5117075
000270 ff 92 95 3f e8 e7 8b bf e2 b6 98 3d 64 16 60 40
       1.1685485 -1.0930147 0.07456757 3.5013666
000280 db ee c2 3e 0d 11 25 c0 d0 a2 84 c0 a9 7b 0c 3f
       0.38072857 -2.5791657 -4.1448746 0.5487619
000290 ff 80 09 c0 19 ef 71 bf 95 f6 d9 3e b6 a1 0c 3f
       -2.1484983 -0.9450546 0.4257094 0.5493425
0002a0 65 9e 3a 40 e3 52 21 bf 70 51 a0 bf 28 46 f4 bf
       2.9159176 -0.630171 -1.2524853 -1.908391
0002b0 8d fb d3 3f 6e 80 25 bf 9c c1 a7 3f 7b f1 64 c0
       1.6561142 -0.64649093 1.310596 -3.5772388
0002c0 6f bd 26 c0 7f 4d aa bb 7a aa 49 3f dc a2 79 c0
       -2.605312 -0.0051972265 0.7877575 -3.9005651
0002d0 6a 71 a8 3f 7b 80 f2 3e 3c cc 3c be ce 77 8a bf
       1.3159611 0.47363648 -0.18437284 -1.0817811
0002e0 40 98 b1 bf 13 d5 84 bf a2 05 59 bf 44 9f b3 bf
       -1.3874588 -1.0377525 -0.8477422 -1.4032979
0002f0 ab 7f 10 c0 21 39 c4 be 0e e1 e4 3f a2 04 71 bf
       -2.2577922 -0.38324836 1.7881181 -0.94147694
000300 53 c3 f2 be 45 56 db 3e 2a c5 5b 40 a9 79 4c 3f
       -0.47414646 0.42839256 3.433909 0.7987314
000310 7c cd 61 40 e7 f7 0a bc 6b 6e ed be 2b 37 78 3e
       3.5281668 -0.008481956 -0.46373305 0.24239795
000320 1d 02 f2 bd 65 71 cb 3d 63 1f b0 be 00 63 0b 3f
       -0.11816809 0.09933738 -0.34398946 0.54447937
000330 3a a2 62 40 56 95 bd 3d 68 cc 0a 40 f2 17 bd 3e
       3.5411515 0.09256999 2.168726 0.3693233
000340 e2 8c 89 3f 7c 15 3e 40 3c 18 2f 3f e2 92 e4 3d
       1.0746119 2.9700613 0.68396354 0.11160828
000350 96 34 9d 3f 67 dc ca be 35 4c 4e bf c4 f6 e9 bd
       1.2281673 -0.3962128 -0.8058503 -0.1142402
000360 82 c5 ea 3f bc fd 19 40 38 58 9c be 97 db 93 3f
       1.8341525 2.4061117 -0.30536056 1.1551389
000370 3d 75 95 bf 7b 53 33 be 96 9c 00 bd c4 c0 9b be
       -1.1676403 -0.17512314 -0.031399332 -0.30420506
000380 a3 14 8f 3f 4a 1c 84 40 e7 6e 6b 3f 91 56 3b bf
       1.1178173 4.1284533 0.919661 -0.73178965
000390 08 27 20 40 ef 1a f7 3e c9 21 d6 be 36 e7 24 3e
       2.5023823 0.48262736 -0.4182265 0.16103825
0003a0 c2 55 59 40 d6 03 07 3f 9b 41 be bf 93 2b 9d 3f
       3.3958592 0.5274023 -1.4863771 1.2278923
0003b0 0f a2 5e 3f 55 7b aa 3f 76 c1 44 bd b8 8e 0c 3e
       0.8696603 1.3318888 -0.04803606 0.13726318
0003c0 45 03 7b 40 fb c3 e1 be f7 ab 61 be 56 ca 4e bf
       3.9220746 -0.44094834 -0.22038256 -0.8077749
0003d0 14 6a 00 bc e8 fd 87 bf cf c5 75 bd 83 72 01 40
       -0.007837791 -1.0624361 -0.060003098 2.0226142
0003e0 82 c5 ad 3f 36 d0 0c 40 c3 ca ce 3e 83 9a 96 bf
       1.35759 2.2002082 0.4038907 -1.1765903
0003f0 ba 6b ad 3e bf 63 ee 3e 33 1f 43 3f cf f0 42 3f
       0.3387125 0.46560475 0.7621948 0.76148695

lstm.weight_hh_l0 f4 [256, 64]
000000 c4 08 6e 3d a9 d0 4e 3f 7b e3 2a be 44 9f cf 3d
       0.05811383 0.8078714 -0.1668834 0.101377994
000010 c8 1f a0 be 46 6d 1d be 99 9f 41 3e da 0c 62 3d
       -0.31274247 -0.15373716 0.18908538 0.055188037
000020 a1 82 8e 3f 6e d4 de 3c 9d 85 e6 be fb 5c 14 3f
       1.1133615 0.027200904 -0.45023814 0.57954377
000030 7e c0 77 3d 13 ae 5f 3f d5 82 47 bf ac df 9b ba
       0.06048631 0.8737499 -0.7793401 -0.0011892221
000040 c6 3c 94 3d a5 a3 ee bd 2d 04 b3 bd a6 51 25 3f
       0.07238154 -0.116523065 -0.08741031 0.6457771
000050 28 49 2a 3f 1b 8e 74 3e 45 05 17 be 11 4a 95 be
       0.6651788 0.23882334 -0.14748104 -0.2915807
000060 02 93 0d be f6 31 c9 3e 62 2d aa 3d ca 1f 74 bf
       -0.1382561 0.3929593 0.08309437 -0.95361006
000070 14 b5 93 bd 31 83 82 be 74 97 ac 3d 52 ed cb 3e
       -0.07212272 -0.25490716 0.08427325 0.398295
000080 19 8e a9 3e af 69 ef be 0a ba 32 be 36 f9 a2 3e
       0.33116224 -0.46760318 -0.17453781 0.31830758
000090 b9 08 f6 bd 3c fc 71 bf b9 83 84 3e 55 73 31 bf
       -0.120133825 -0.94525504 0.25881746 -0.6931661
0000a0 89 9f 84 bd 63 0f c2 be 7b f6 2c 3e ff 23 ec be
       -0.064757414 -0.37902364 0.168909 -0.46121213
0000b0 b9 11 52 3e 1d b7 a8 3e 9f e4 d6 3e fa ef 17 bf
       0.20514573 0.32952204 0.419713 -0.5935055
0000c0 cb 5c e3 be e5 31 b3 bc 3e aa a4 3d 5a aa 2e bd
       -0.44406733 -0.021874378 0.080402836 -0.04264293
0000d0 6b be 21 3f 9c b9 5f 3f 69 46 d2 3c cf e0 42 bd
       0.6318118 0.8739259 0.02566834 -0.047577675
0000e0 dc 70 aa bf 4d 51 28 bf a8 50 d5 3e c6 11 c0 3e
       -1.3315692 -0.65749055 0.41663098 0.3751356
0000f0 c7 3e 8e be 70 d9 a5 3d e8 cf 8d bd d7 84 43 be
       -0.2778227 0.080981135 -0.069244206 -0.19093643
000100 a4 07 50 3f bf 69 d4 bf 3f b3 d5 3e ae 54 e5 3e
       0.8126166 -1.6594771 0.41738316 0.44791168
000110 62 e3 72 be 32 e6 0f be ad 70 dc be 2d 38 28 3e
       -0.23719552 -0.14052656 -0.43054715 0.1642768
000120 9d ea 10 3f 63 5e 60 bd 3f 01 ba be a4 ca 82 3d
       0.5660799 -0.054777514 -0.36329076 0.06386307
000130 9e f6 af 3e 3d 2d c3 bf 01 91 0c 3f ba 27 0c bf
       0.3436784 -1.5248181 0.5490876 -0.5474812
000140 09 82 46 3f d9 a3 af bf 42 b1 fe bb 7c 73 3d 3f
       0.7754217 -1.3721877 -0.0077725956 0.7400434
000150 91 71 30 be a3 e1 0f be bc ad d8 3f f3 5c 78 3f
       -0.17230822 -0.14050917 1.692802 0.9701683
000160 fd c2 a7 3e 79 54 dc be 20 1c 86 3e 4e e5 8c 3f
       0.32765952 -0.43033198 0.26193333 1.1007478
000170 58 34 d6 be a8 6f 1f bf b2 e7 07 3f 85 4b 90 3f
       -0.4183681 -0.6227975 0.53087914 1.1273047
000180 55 22 6f be 9c 5a a6 bf 43 34 62 3e 49 93 a5 3e
       -0.2335294 -1.2996402 0.22090249 0.32338932
000190 c9 51 b8 bf a7 6b cd 3d 21 5e 8d 3f 9f bd 22 bf
       -1.4399959 0.10030299 1.1044351 -0.6357059
0001a0 ee 94 8c 3f a3 62 02 3f 71 11 11 bf 44 bd 88 bf
       1.098295 0.5093176 -0.5666724 -1.0682759
0001b0 73 e2 1b bd 2b 8d 2a bf 5a 74 eb 3e 09 a5 02 3d
       -0.038057756 -0.66621655 0.45987207 0.03189567
0001c0 72 41 05 c0 37 4a 2e bf ef 22 00 3e 61 c3 a0 be
       -2.0821195 -0.6808199 0.12513326 -0.31399062
0001d0 8d 21 18 3e 0e 4e 6e bf 3f 54 dc be 33 c1 f2 be
       0.14856549 -0.9308785 -0.43033025 -0.47413024
0001e0 54 e9 17 3f 9f e5 a8 3d 69 5c c4 be 02 00 4f bf
       0.59340405 0.08246922 -0.38351753 -0.80859387
0001f0 ab bf 1a bf 86 bc 94 be 82 16 4d 3d 05 ae ba bf
       -0.6044871 -0.29050082 0.050070293 -1.4584357
000200 ea c7 94 bf 58 47 a2 3f ab 10 83 3e 7d f4 a8 3e
       -1.1623509 1.2678022 0.25598654 0.3299903
000210 ba 90 85 bf 0c 15 37 3e bc 0f ab be 5a 0f 94 be
       -1.0434792 0.17879122 -0.33410442 -0.28917962
000220 d2 43 8b 3f bb 3a fb be cb be d1 bc 85 04 f8 bd
       1.0880072 -0.49068245 -0.025603672 -0.12110237
000230 18 ec 6d bf a3 92 85 bf cf 37 c8 be c5 80 58 be
       -0.92938375 -1.0435375 -0.3910508 -0.21142872
000240 3d c8 c7 3f a2 85 c1 bf 95 30 5d bf ad b1 c8 3e
       1.5607983 -1.5118906 -0.86402255 0.39198056
000250 6c 2b 04 3e 60 3a bb bd 41 8a ed be 68 b6 5a bf
       0.12907189 -0.091419935 -0.46394542 -0.8543458
000260 cb db 13 bf e1 e4 a2 bf 3f 3b 01 3e 4b f8 81 3d
       -0.5775725 -1.2726098 0.12620257 0.06346186
000270 71 f3 25 bf 35 97 52 bf 02 ca 1c 3f 88 73 ef 3e
       -0.6482459 -0.82261974 0.6124574 0.4676783
000280 11 80 b1 be 05 31 40 be 13 30 34 3f db 9d 68 3e
       -0.3466802 -0.187687 0.70385855 0.22716467
000290 3f cb 66 3f ef 60 40 3f fc 4b 05 3f 63 36 69 3f
       0.9015388 0.7514791 0.5206907 0.9109861
0002a0 a3 bc 31 3f 94 a8 83 3f a7 78 cc 3e 6e 13 24 bf
       0.6942846 1.0285821 0.399358 -0.6409215
0002b0 df 45 e5 3d b3 81 f3 3e 37 9d 35 3f 90 30 d6 3e
       0.111949675 0.4755989 0.70943016 0.41833925
0002c0 36 d9 05 be 86 da 50 bf 1f 95 68 3f 32 48 36 3f
       -0.1307114 -0.8158344 0.9085254 0.7120391
0002d0 ab f2 d5 3e d8 1a 03 3e 30 59 f6 bf a5 92 3e 3f
       0.41786703 0.12803209 -1.9245968 0.7444251
0002e0 91 16 93 bf 21 b7 73 bf 33 8d c9 3e 46 5c e6 3e
       -1.1491262 -0.9520131 0.3936554 0.44992274
0002f0 08 ab a1 bf 99 b1 e9 be 72 f0 15 3f a5 6f 2f bf
       -1.263032 -0.4564331 0.58570015 -0.6852973
000300 1e 06 87 be 61 3d 21 3f 16 d1 11 bf 6f 32 0a bf
       -0.26371855 0.6298428 -0.56959665 -0.53983206
000310 43 79 6a bf 68 d0 97 3e a6 ed 39 3c 67 fb b7 3e
       -0.9159128 0.2965119 0.011348164 0.35933992
000320 e9 b3 26 3e bc 4b 9d be 9c 36 93 3e d7 83 68 bf
       0.16279568 -0.30721843 0.287526 -0.9082617
000330 d4 fb fd 3e 84 0f be be b5 a8 c8 3e 75 61 f6 be
       0.49606192 -0.37121212 0.39191213 -0.4812123
000340 4d 11 39 3e 29 81 33 be bb 75 a1 3d 5d 65 d6 3e
       0.18073006 -0.1752974 0.078837834 0.4187421
000350 ba 47 6b 3f 06 ba 9f bd 81 28 fd 3e 9b 26 57 3d
       0.9190632 -0.07799153 0.49444965 0.05252705
000360 89 37 84 3e ab 96 f7 bd 71 2b 23 bf fb d6 24 3f
       0.2582362 -0.120892845 -0.6373816 0.64390534
000370 0c 78 ca 3d 56 f7 1f bf f2 6b 09 bd b3 23 01 3f
       0.098861784 -0.6248678 -0.03355021 0.504451
000380 14 90 04 3d 19 51 25 bf f9 51 df bd 78 9f 88 be
       0.032363966 -0.6457687 -0.10904307 -0.26684165
000390 bd 76 c1 be 05 c4 a2 3e bb 42 d9 be 64 cf c7 3e
       -0.37785903 0.31790176 -0.42433724 0.39025414
0003a0 f7 45 07 3f 1b 3e 59 3f cd b5 bc 3e 48 48 45 3f
       0.5284113 0.8486039 0.36857453 0.7706342
0003b0 ce 93 30 3f 04 d3 81 be 9f d4 b5 be 9c e2 b2 3e
       0.6897553 -0.25356305 -0.3551378 0.34938514
0003c0 b0 25 19 be a6 53 b5 be e3 ef 7f 3f d8 08 52 be
       -0.14955783 -0.3541538 0.99975413 -0.20511186
0003d0 8e 8e 25 3e b2 5f 04 bf 66 6b be bf a9 24 e3 3f
       0.16167662 -0.5170852 -1.4876525 1.7745563
0003e0 0f 0b 23 be d0 db 14 3e 9b d4 e5 bd 60 c4 1e bf
       -0.15922187 0.14536977 -0.11222192 -0.62018394
0003f0 cc 29 ec bd 1b 5c 0e 3e f6 b0 87 be 3b a0 8f bf
       -0.115314096 0.13902323 -0.26502198 -1.1220773

lstm.bias_ih_l0 f4 [256]
000000 d2 20 60 3e 0a 24 15 bf 2c e0 97 3d 65 ed 6d be
       0.2188752 -0.58258116 0.07415804 -0.2323509
000010 7d 93 27 3e 60 83 94 be e8 36 a2 bd 41 78 4e be
       0.16364856 -0.2900648 -0.07920629 -0.2016306
000020 ea 4c bb 3f d3 8e 01 3d 55 60 06 3e e0 ae 80 3e
       1.4632847 0.03163035 0.13122685 0.2513342
000030 ce b2 94 be dc 86 37 bf 2a 0a 00 be 5e 0f 05 bf
       -0.29042667 -0.71690154 -0.12503877 -0.51976573
000040 f4 a8 6b bd ba ec fa 3d bf cc ef bd 35 c7 11 be
       -0.057534173 0.12252183 -0.11708974 -0.14236148
000050 c7 c9 c2 3e 8d 43 69 be f2 d4 78 be 84 ac 7d be
       0.3804457 -0.22779675 -0.24299982 -0.2477284
000060 71 d1 11 3f 4b 53 9c 3e e4 52 6c bd 38 62 ba bd
       0.5696021 0.30532297 -0.05769624 -0.09100765
000070 45 0a 27 3f 56 d9 30 be c3 51 95 bd 6a da 3d 3f
       0.65250045 -0.17270407 -0.072909854 0.741614
000080 ac e6 9e be 3d 2b 07 3f 96 ae be be 9e f1 c4 be
       -0.31035364 0.5280035 -0.37242573 -0.3846559
000090 8d ea 05 3f 6d fe 9a be f8 7c 8b bd f1 75 0f be
       0.5231102 -0.30272236 -0.06810945 -0.14009835
0000a0 c9 bb 8b 3f 4c 94 d8 bc 56 7a 76 bd c8 f1 ca 3d
       1.0916682 -0.026437901 -0.060175262 0.09909397
0000b0 1e 2f e1 3d 8e 86 80 3e 99 0b 56 bd 74 95 d3 3e
       0.10995315 0.25102657 -0.052257154 0.4132496
0000c0 5c 9f 66 3f ab a5 8a be fb 6f 94 3d 02 18 16 3f
       0.90086913 -0.2707952 0.07247921 0.58630383
0000d0 69 26 f9 bd 3a b8 1e be 01 1b c3 be dd 17 c3 be
       -0.12165529 -0.15499964 -0.3810654 -0.38104144
0000e0 eb f6 90 3d 4c 6f 81 be ea 5e a7 bd de 37 80 be
       0.07078346 -0.25280225 -0.081724 -0.25042623
0000f0 f9 85 17 bd 82 85 ef be 97 49 c7 be ef 7c 6e be
       -0.036993 -0.46781546 -0.38923332 -0.23289846
000100 65 4d 1a 3d eb 6a 8b be 64 91 64 be 15 a5 9a 3e
       0.037671465 -0.2723001 -0.22321087 0.30204073
000110 89 40 81 be 1e 47 6b 3f 92 14 0e 3f 80 13 50 be
       -0.2524455 0.9190539 0.5550014 -0.20319939
000120 57 3a 88 3d d7 b8 fa 3c 73 a2 52 3e 63 09 39 bb
       0.066517524 0.030605717 0.20569782 -0.0028234355
000130 d3 b7 18 3e d1 42 c5 be 5d ae 1d 3e 10 7f a7 be
       0.14913873 -0.3852754 0.15398546 -0.32714128
000140 92 06 b7 bd 9b 63 de bd 96 e0 c8 3e fb 49 9f 3e
       -0.089368 -0.10858842 0.39233845 0.3111113
000150 44 10 b5 3c 4d bf 93 3e 87 38 97 be 66 cc 9a be
       0.022102483 0.28856888 -0.29535314 -0.3023407
000160 26 76 c2 be e5 13 05 3e 78 20 7d 3e fb 09 99 be
       -0.37980765 0.1299587 0.24719417 -0.29890427
000170 e3 09 a8 3e 32 6d da bd 72 69 a3 3e 11 fb 06 bf
       0.32820043 -0.106653586 0.31916386 -0.52726847
000180 02 05 88 be 73 00 09 be 93 d8 f0 bc 11 3b 9c be
       -0.2656632 -0.13379078 -0.029400146 -0.30513814
000190 37 1d ca 3d 21 eb 6a be fe 61 af be ca 7c 36 be
       0.098688535 -0.22941257 -0.3425445 -0.17821041
0001a0 c2 41 5c be ad 42 ed be dd 19 d3 be 6e 8d 97 3d
       -0.2150946 -0.46339932 -0.4123067 0.074000224
0001b0 ca 9b be 3e 87 04 c9 3e 55 f4 a1 be fa 49 4d be
       0.37228233 0.39261267 -0.31631723 -0.20047751
0001c0 3f c2 35 be c2 78 b9 3e 4a 4d 23 be 1b f0 ce 3c
       -0.1774988 0.36224943 -0.15947452 0.025260976
0001d0 77 0b 3d bd b3 15 d2 3d ce bf 96 3d 14 91 4c be
       -0.04615351 0.10258045 0.073608026 -0.19977218
0001e0 06 05 b0 3e 82 d4 ef 3c 71 db 4d 3e a1 35 5e be
       0.34378833 0.029276136 0.20103242 -0.21700145
0001f0 c3 6e 9a be 08 8c bf 3e 6e 7e dd be 4c 76 97 bc
       -0.3016263 0.37411523 -0.4326052 -0.018489026
000200 39 2b 58 bd 33 6a 35 be 1e 3b c2 3d 9d b4 56 3d
       -0.052775595 -0.17716293 0.09483932 0.05241834
000210 03 be c2 bd 3f eb 02 3e 39 b9 26 be 9f 30 c3 3d
       -0.09508898 0.12785052 -0.16281594 0.09530758
000220 90 b2 88 be da 7d d0 be 01 4c 44 bd 32 0a 61 3e
       -0.26698732 -0.40721017 -0.047924045 0.21976545
000230 a0 bf c0 bd 2e 22 21 3e e9 5c 35 3e d6 47 30 3e
       -0.094115496 0.15735695 0.17711224 0.17214903
000240 62 b2 ee be 07 83 49 bc 38 7c 98 be 29 c8 61 be
       -0.4662047 -0.012299306 -0.2978227 -0.22049011
000250 4e 8b 78 3d d4 83 72 be 06 15 52 bd 4f 1a 26 bc
       0.060679726 -0.23683101 -0.05128958 -0.010138108
000260 a1 d3 26 3e 98 cc c2 bd c4 1a df bc c7 75 b8 bc
       0.16291668 -0.095116794 -0.027234443 -0.022517098
000270 22 8f 00 be 3d 71 16 3d 61 c0 da 3d 7c 68 48 be
       -0.12554601 0.036729086 0.106812246 -0.19571108
000280 84 05 0a be d5 5c 69 3e 69 11 dc bd de 22 86 3e
       -0.13478667 0.22789319 -0.10745508 0.26198477
000290 5e f2 11 3e 82 2e 53 3e df bb 1a 3e 88 a3 4b 3d
       0.14252612 0.2062321 0.1511073 0.049716502
0002a0 c4 65 b2 be 0c c8 8f 3c 42 b8 79 bd 41 e1 27 3e
       -0.34843266 0.017551444 -0.060966738 0.16394521
0002b0 a0 4a 2e be 57 76 7b 3e bb 95 99 be 0d 5d f0 3d
       -0.17020655 0.24556862 -0.29997048 0.11736498
0002c0 93 d1 7e 3e ce f7 32 3e ce 54 bd bd ff 5f ec 3d
       0.24884634 0.17477342 -0.09244691 0.11541747
0002d0 65 fa 40 be c6 51 97 bc c6 94 c3 3e 76 30 cc 3c
       -0.18845518 -0.01847161 0.38199443 0.024925452
0002e0 00 39 57 3d 11 b5 64 3e 76 8a a7 be c6 6c 2d bb
       0.052544594 0.22334696 -0.32722825 -0.002646254
0002f0 8c 81 94 3e e3 98 de 3d 9e 1e c0 bd 00 d7 54 be
       0.29005086 0.108690046 -0.0938084 -0.20785141
000300 ed 35 c8 3d e2 9b 9e 3e 02 5c 04 be 9a 2d 75 be
       0.097759105 0.30978304 -0.12925723 -0.23943177
000310 bd 69 8f 3e 41 55 fa bd 2d 8b 23 3d a5 67 a7 be
       0.2801036 -0.12223292 0.03992765 -0.32696262
000320 2b bb bd 3f 3c 82 41 bf 86 29 86 3e 4c 29 25 3e
       1.4822744 -0.75589347 0.26203555 0.16129035
000330 c6 c7 a4 be ef 84 d8 be 22 b1 98 be 20 bc c1 bd
       -0.32183665 -0.4228892 -0.29822642 -0.0945971
000340 7b d9 d3 bc 11 0d c3 bd b8 9f d1 be 2f 98 74 be
       -0.025860539 -0.095239766 -0.40942168 -0.23886178
000350 f2 03 87 3e 3f 22 05 be 49 3e 0e be c1 69 4c be
       0.26370198 -0.13001345 -0.13890947 -0.19962217
000360 1d c1 58 3f 9d 89 29 bc 6f 61 14 bf b0 35 bc 3d
       0.8466967 -0.010347751 -0.5796117 0.091899276
000370 1f 08 6b be bb b2 95 3e e7 d4 f5 3e f2 f2 95 3f
       -0.22952317 0.29237923 0.48013994 1.1714766
000380 b1 3f c6 be b2 a8 35 3f d7 d7 e2 3c a2 e9 2a 3e
       -0.38720468 0.70960534 0.027690811 0.16690686
000390 b1 17 01 3f 5f 25 c3 bc a0 9c 55 be ae ed d9 bd
       0.50426775 -0.02382153 -0.20860529 -0.10641037
0003a0 d6 4c 94 3f 55 f7 09 bf 83 d9 e0 be 92 65 15 be
       1.1585948 -0.53893024 -0.43915948 -0.14589527
0003b0 44 6a bd 3e a7 10 49 3e 1a e1 9c bd 71 c8 ce 3e
       0.36995137 0.19635259 -0.07660122 0.403873
0003c0 23 5d 8f 3f 02 06 08 bf e3 6e 1c 3e 2d b4 5c 3f
       1.1200298 -0.5313417 0.15276675 0.86212426
0003d0 d1 18 f2 3e f4 1d 4a be de a1 0f bf f4 69 b4 be
       0.47284558 -0.19737989 -0.56106365 -0.35237086
0003e0 fc e6 0f 3e bb 3c c8 be 60 0d 91 bc 77 ed a8 be
       0.14052957 -0.39108834 -0.017706573 -0.3299367
0003f0 4c 32 4d 3e cb 76 4f be 37 8d 33 3e 8f 95 74 3e
       0.20038718 -0.2026016 0.17534338 0.23885177

lstm.bias_hh_l0 f4 [256]
000000 b6 8d c9 3d b5 b5 f2 be ea 42 35 3d 57 d7 64 be
       0.09841482 -0.47404256 0.044253267 -0.2234777
000010 8b 1e 85 3e 45 ca 7a be fc 41 05 be 70 4d 43 be
       0.25999865 -0.24491222 -0.13013452 -0.19072509
000020 c2 75 ab 3f 08 da 4b 3d 74 0a 86 3e 7f ea d1 3c
       1.3395312 0.049768478 0.2617985 0.025624512
000030 a2 fa 95 bd d0 e1 1f bf 40 4e 87 be 51 57 0e bf
       -0.07323195 -0.6245394 -0.26426888 -0.55601984
000040 f2 7a 6d be 2b 6a 8f 3d 22 7e 4f 3a 6a 26 91 be
       -0.23191431 0.07002672 0.00079152186 -0.2834962
000050 59 51 e0 3e 08 06 c3 bd 27 de 92 be 55 e6 3c be
       0.43812063 -0.09522635 -0.28685114 -0.1844724
000060 8c 8c 17 3f 1c 3f ed 3d a9 1d d7 3c e8 c2 f0 3c
       0.5919883 0.11584303 0.02625926 0.029389814
000070 c2 d7 fd 3e ef 37 6c be 38 4c 2a 3c 3c 61 1b 3f
       0.49578673 -0.23068212 0.0103941485 0.6069524
000080 48 1c 4f be f2 01 f2 3e 13 3e b7 be 53 66 a3 be
       -0.20225632 0.4726711 -0.35789546 -0.31914005
000090 70 50 d1 3e bb 78 bb be 11 ab ca 3a 67 b9 39 bd
       0.4088168 -0.36615548 0.0015462359 -0.04534283
0000a0 dc 95 90 3f db c1 67 3d af 1e 3c bd 52 7f db bc
       1.1295733 0.05658136 -0.0459277 -0.02679411
0000b0 77 c8 c8 bb ff e6 4f 3e c4 9a 75 bd c8 51 c8 3e
       -0.006127413 0.20302962 -0.05996205 0.39124894
0000c0 e6 f1 51 3f cf 4a 65 be 3a 95 c9 3d 1a 6c 1d 3f
       0.8200973 -0.22391818 0.09842916 0.61493075
0000d0 a8 05 b8 be 88 07 97 be ed 3e 02 bf 49 3f f6 be
       -0.35941815 -0.29497933 -0.5087727 -0.48095158
0000e0 34 59 b0 bd 48 34 e0 be 12 b6 c8 3c b3 33 b0 be
       -0.08610764 -0.43789887 0.02450088 -0.34414443
0000f0 f0 c9 32 bd 31 54 eb be b6 2f 51 be 4c 33 8e be
       -0.043649614 -0.4596267 -0.20428357 -0.2777351
000100 24 61 4b 3e 4f fd 5d be 0d 3d 8c be a3 08 00 3e
       0.19861275 -0.21678661 -0.27390328 0.12503295
000110 31 94 d1 bd ea 60 67 3f 55 e7 bc 3e 55 5b d9 bc
       -0.102333434 0.90382254 0.36895242 -0.026532808
000120 b1 c2 b9 bc 34 b0 87 3d a6 0a d4 3d 6a 5c d7 3d
       -0.022675844 0.06625405 0.103535935 0.105156735
000130 8c a0 ab 3e a7 23 95 be ff 05 87 3e fe 6e 86 be
       0.33520925 -0.29128763 0.26371762 -0.26256555
000140 61 be 52 be 81 0e 12 be 7a d7 d3 3e 01 96 01 3e
       -0.20580436 -0.14263345 0.41375333 0.12654878
000150 95 a3 b2 3d 43 b6 2e 3e bb bb 1a be 7d 88 a3 be
       0.08722607 0.17061715 -0.15110676 -0.3194007
000160 89 02 d2 be 10 8d d9 3d 6e bc 00 3e 6a 48 b8 be
       -0.4101756 0.10622609 0.1257188 -0.35992748
000170 cc 21 d4 3e ca c7 64 be 61 76 cb 3d aa 29 d0 be
       0.41432035 -0.22341838 0.09934688 -0.40656787
000180 6a c9 6d be a9 8f a7 3d 29 9f bb 3c 06 a3 b0 bd
       -0.23221365 0.08181698 0.022903042 -0.08624844
000190 bc db bb 3c ae 68 89 be 53 aa ae be 20 e3 4f be
       0.022931926 -0.26837677 -0.34114322 -0.20301485
0001a0 0f 42 36 be 63 35 0f bf 4f 06 7f be ca 98 57 3e
       -0.17798637 -0.55940837 -0.2490475 0.21054378
0001b0 39 38 c0 3e f8 47 99 3e 56 15 88 be f3 60 34 be
       0.37542894 0.2993772 -0.26578778 -0.17615108
0001c0 5f 34 02 bd c0 54 9d 3e e1 a1 20 be cf 44 34 3d
       -0.031788226 0.30728722 -0.15686752 0.044010933
0001d0 59 df 96 bd d7 8d 90 3d 3b 41 b5 bd b4 87 37 be
       -0.07366819 0.07058304 -0.08850332 -0.1792286
0001e0 8d 33 b4 3e cd 00 46 bd 93 25 47 3e d9 b6 1e be
       0.3519558 -0.048340607 0.19447927 -0.15499438
0001f0 35 57 80 be dc 7c ae 3e 5e be a7 be bd 5f c1 3d
       -0.25066534 0.34079635 -0.32762426 0.09442089
000200 be 05 8f 3b eb 07 d9 bc 7b 0f 88 bd 90 23 09 3e
       0.004364698 -0.026493033 -0.06643578 0.13392472
000210 67 a1 a1 3c ff 02 a2 3e 87 ca 36 be 48 36 57 3e
       0.019730283 0.3164291 -0.17850696 0.210168
000220 83 60 89 be e8 4c f0 be ca 2f 0e 3e 27 30 80 3e
       -0.26831445 -0.46933675 0.13885418 0.25036737
000230 09 92 fe bc 6f 83 28 3e 08 e6 3a 3e a5 6e 87 3e
       -0.031075494 0.16456388 0.18251812 0.26451603
000240 49 2a 7c be ec ed 63 3d 3c 25 94 be 62 62 32 be
       -0.24625506 0.05564682 -0.28934658 -0.17420343
000250 a6 80 59 3e a5 12 26 be f0 93 e3 bd b9 ac c5 3d
       0.21240482 -0.1621805 -0.11112201 0.09652085
000260 09 80 2f 3e 85 60 c0 3b e2 c7 69 3d 43 a4 c9 3c
       0.17138685 0.005870881 0.05707539 0.024614459
000270 ff 8f df bd b6 6c 22 be f7 6d 0d 3e f6 77 ad be
       -0.10916137 -0.15861782 0.1381148 -0.33880585
000280 fc 01 47 be 33 bc 98 3d 02 dc 9a bd 2b ca d1 3d
       -0.1943435 0.07457771 -0.075614944 0.102436386
000290 43 6e d3 3d 85 06 32 3e a3 53 37 3e 24 4e b0 3d
       0.10323765 0.173853 0.17902999 0.08608654
0002a0 6a 0c 3c be d9 aa 8a 3d 75 f1 c7 bd 31 5a ef 3d
       -0.1836411 0.06770868 -0.09762851 0.116871245
0002b0 b9 04 3b be 15 08 e9 3d 98 c4 a5 be ef 54 d6 3d
       -0.1826352 0.11378495 -0.32376552 0.104654185
0002c0 57 95 d4 3d b1 a0 34 3e 4a 16 aa bd 0a 1f 88 3e
       0.10380047 0.17639424 -0.083050326 0.2658618
0002d0 e8 66 30 be 05 b0 14 be 66 85 98 3e 02 da 4e 3d
       -0.17226756 -0.14520271 0.29789275 0.050500877
0002e0 ca 44 56 3e e9 6c e0 3d 5a 64 b7 be 25 18 de bd
       0.20924678 0.10958273 -0.3581875 -0.10844449
0002f0 54 e8 b0 3d 97 e5 18 3d 56 9d 3a be b6 d1 8a be
       0.08638063 0.03732833 -0.18224081 -0.27113122
000300 1a 6a 28 3e 91 d0 5a 3e ea a0 2f bd 80 ab b2 be
       0.16446725 0.21368624 -0.04287807 -0.3489647
000310 b0 6c 3f 3e 23 73 03 be 4a 43 24 be c4 74 be be
       0.18693805 -0.1283689 -0.16041294 -0.3719846
000320 6b 67 b9 3f 02 12 29 bf 4e 13 63 3e 38 65 97 3e
       1.4484686 -0.660431 0.22175333 0.2956941
000330 27 88 ba be 23 54 e1 be 20 4d 49 be 6f 7c ba bd
       -0.36432 -0.44009504 -0.19658327 -0.09105765
000340 95 7f b3 bc e4 ff 3a bd dc 08 a2 be 80 f5 68 be
       -0.021911422 -0.045654193 -0.31647384 -0.22749901
000350 ae 76 ca 3e 44 59 90 be d2 bf 49 be ba f1 50 be
       0.3954367 -0.28193104 -0.1970208 -0.20404711
000360 7f 00 46 3f cd 91 02 3d e9 b3 d7 be d4 1f 3d 3e
       0.77344507 0.031877328 -0.42129448 0.18469173
000370 42 07 27 be fa dc 89 3e 2c 20 f5 3e 8b 96 96 3f
       -0.16311362 0.26926404 0.47876108 1.1764692
000380 ce b8 f5 be dc b6 0c 3f 66 ea 2e 3e 03 58 a0 3d
       -0.47992557 0.5496652 0.17081603 0.07829287
000390 9e 4e 05 3f 0e 8e 03 be 89 42 a2 be 75 93 2b be
       0.52073085 -0.12847158 -0.31691387 -0.16755469
0003a0 df 35 94 3f af bb c0 be 45 f6 a4 be af 63 f2 bd
       1.157894 -0.3764319 -0.3221914 -0.118354194
0003b0 01 01 d2 3e cc bc 54 3e 0f 8a f3 bd 8d cc 08 3f
       0.4101639 0.20775145 -0.11891567 0.5343712
0003c0 b8 4c 85 3f 66 3b ec be 77 40 32 3e 10 6b 50 3f
       1.0414038 -0.46139067 0.17407404 0.81413364
0003d0 a7 f8 8b 3e 39 3a 00 be 80 91 c2 be 14 a7 8a be
       0.27338144 -0.1252221 -0.38001633 -0.27080595
0003e0 0a f0 7c 3e 4e 89 f2 be e1 2e af bd c0 3f 0b be
       0.24700943 -0.4737038 -0.08553863 -0.13598537
0003f0 43 69 54 3e 24 cc 1c be d2 11 06 bd b4 e1 52 3e
       0.20743279 -0.15312248 -0.03273184 0.20593911

lstm.weight_ih_l1 f4 [256, 64]
000000 86 8a 6a 3f 32 93 d0 bf aa 2f ca 3e 45 dc d9 be
       0.9161762 -1.629492 0.3948949 -0.42550865
000010 f9 aa 97 3f 64 50 35 3f 42 d5 4c bf 69 15 df 3c
       1.1849052 0.7082579 -0.80012906 0.027231889
000020 37 57 41 bf 71 03 c4 bf d8 fa 61 3b 16 79 13 bf
       -0.75523704 -1.531355 0.003448179 -0.5760664
000030 14 1a 50 3f 02 4c 9f 3e db 3d a5 be e0 d5 4d 3f
       0.8128979 0.31112677 -0.32273754 0.8040447
000040 a9 af 23 3f 7a 51 6b be cb ba 84 bf 45 a2 3d bf
       0.6393991 -0.229803 -1.0369505 -0.7407573
000050 6e f7 a9 3f e8 6c e6 3d 8f dc a1 3f b3 f5 64 bf
       1.3278635 0.11251241 1.2645434 -0.8943741
000060 0c 64 b7 3f f1 48 5f 3f e4 7c 31 be 8d 9f 84 be
       1.4327407 0.87220675 -0.17332798 -0.25902978
000070 5f 20 14 3e ea 80 5c 3e e3 30 62 3e f0 ed d3 bd
       0.14465474 0.21533552 0.22088961 -0.10348117
000080 f5 26 23 3f 37 d8 13 be 03 b0 bd bf 68 90 99 be
       0.6373132 -0.14437948 -1.481934 -0.29992986
000090 7c 36 a4 3f 14 1d f0 bd 44 69 21 bf a9 e3 57 c0
       1.2829127 -0.11724296 -0.6305125 -3.3732703
0000a0 22 da c8 3e fd 0a bd bf 9d 0b ae 3e b0 67 15 3d
       0.39228922 -1.4768978 0.33993235 0.036475837
0000b0 52 79 b5 3e d5 ad 9d be 9b b6 0e bf 84 f0 86 bf
       0.35444123 -0.30796686 -0.55747384 -1.054215
0000c0 f7 00 b1 3e 5f 0d 3c 3e df 20 95 bf dd 31 f1 3f
       0.3457105 0.18364476 -1.1650656 1.8843342
0000d0 a6 87 1a 3e 34 08 5c be c1 42 9b bf 99 00 7d be
       0.15090808 -0.21487504 -1.2129747 -0.24707259
0000e0 c8 88 10 c0 c5 de 09 3f 87 57 fc 3e 70 29 9d be
       -2.2583485 0.53855544 0.49285528 -0.30695677
0000f0 2e 39 90 3e af cc bb bf 71 a2 a8 be fb 1e ee 3f
       0.28168625 -1.467184 -0.32936433 1.8603204
000100 1a 57 f3 bd 10 68 8f 3e 4c ae 23 bf 85 f5 f1 be
       -0.11881848 0.2800908 -0.6393783 -0.4725763
000110 78 4f 0b 3f 88 00 08 3f 3c 33 c6 bd c4 eb f6 3e
       0.54418135 0.5312581 -0.09677741 0.4822675
000120 a6 71 68 c0 61 75 1e bf d5 34 39 3f 9d ea 75 bf
       -3.6319366 -0.61897856 0.7234624 -0.96061116
000130 8d 25 33 3e 88 91 68 bf 5f 6a 97 3f 22 94 08 bf
       0.17494793 -0.90847063 1.1829337 -0.5335103
000140 34 5a cc 3d 63 41 ef 3f 87 21 85 be 1a 67 c1 be
       0.099781424 1.869183 -0.26002142 -0.37773973
000150 89 ab 25 bd de 66 2b bf b0 b5 25 3f 0d 2a 83 3f
       -0.04044679 -0.6695384 0.6473036 1.0247208
000160 1b b2 4f 3e 98 e2 b7 3e 0e fc 71 be f4 b8 cc be
       0.20282786 0.35915065 -0.23631307 -0.39984858
000170 f8 39 9e be 48 1c cb 3e da 0d 9c be 2b 22 8e bf
       -0.30903602 0.39670014 -0.30479318 -1.1104177
000180 07 d8 92 bd c7 d7 cc 3f 92 fd 54 3f 16 25 a4 bf
       -0.0717011 1.600335 0.8319942 -1.2823818
000190 98 1c 19 bf 9c 60 9c be 8b 56 b4 bf a4 6f 44 bf
       -0.59809256 -0.30542457 -1.4088911 -0.7673285
0001a0 85 4c 56 bf db 56 61 bf 63 e5 1e 3f ac 7c 9a bd
       -0.8371051 -0.88023156 0.62068766 -0.075433105
0001b0 e8 cd a7 be 6c 31 b4 be 69 f7 52 be b6 23 da 3e
       -0.32774282 -0.35193956 -0.20602192 0.4260537
0001c0 59 9b 52 3f 35 67 1c be 5a f4 ec 3e 68 7b 0b 40
       0.8226829 -0.15273745 0.46280175 2.1794071
0001d0 f6 71 2c bf db 89 93 bc fb 8b 54 3f cc 66 93 bf
       -0.6736139 -0.01801007 0.83026093 -1.1515746
0001e0 d9 e6 18 3f 66 f4 d4 be 06 3b 8e bf 28 65 a3 be
       0.59727246 -0.4159271 -1.1111763 -0.31913114
0001f0 0e 65 c1 be 07 12 26 be 54 f0 f3 3e e1 c0 4d bf
       -0.3777241 -0.16217814 0.47644293 -0.80372435
000200 73 6a 1d 3f 25 4c 85 be da f4 32 3f 15 60 5e bf
       0.61490554 -0.26034656 0.69904864 -0.8686536
000210 e1 30 a6 3f 85 57 58 bf 42 5e 8f bf 79 09 2c 3f
       1.2983667 -0.84508544 -1.120064 0.67201954
000220 7c a1 6b bf 97 a2 8c 3f 76 c6 0b be 8d 32 89 be
       -0.9204328 1.0987118 -0.13649926 -0.2679638
000230 75 f7 00 bf 0d fe a2 3e 2b 05 d1 be c2 55 b1 be
       -0.5037759 0.3183445 -0.40824255 -0.3463574
000240 e2 bb c7 3d fb 37 40 bf 10 0b 05 bf 88 1d e6 3e
       0.09752633 -0.7508542 -0.51970005 0.44944406
000250 70 b6 fd 3c 10 f8 53 be 06 ac 07 bf 80 c7 39 3f
       0.030970782 -0.20700097 -0.5299686 0.7257004
000260 48 a3 ff 3e 3d d3 6c 3f 79 25 61 be 9d d4 6e be
       0.4992926 0.92509824 -0.21986951 -0.23323293
000270 46 90 f3 be 33 66 8a bd 02 09 97 3e 2c 36 9f be
       -0.4757101 -0.06757774 0.2949906 -0.31096017
000280 06 f5 80 be bd 21 a7 be a0 d8 8d be 4e b7 f9 be
       -0.25186938 -0.32642928 -0.27704334 -0.48772663
000290 a8 1c 3a 3e 6a 57 75 3e 4f 1f 48 3f bb 67 78 3f
       0.18174994 0.23959127 0.78172773 0.9703328
0002a0 e3 ad 24 3f 34 b6 8a bd a4 35 33 3d 4d 9d 80 bf
       0.6432783 -0.06773034 0.043752328 -1.0048004
0002b0 7d e7 0c be bc ec e2 bd 35 fd 01 3e 84 c6 20 bf
       -0.13760181 -0.1108031 0.12694247 -0.6280291
0002c0 c4 39 a3 be 19 a1 e8 be f4 b5 db be 69 89 f3 3e
       -0.3188001 -0.45435408 -0.42912257 0.47565773
0002d0 66 49 d7 3d d6 e5 09 be 45 88 67 bf 50 48 86 3f
       0.105120465 -0.13466582 -0.90442306 1.0490818
0002e0 2d 94 79 3e d0 a4 be 3e 82 22 24 3e 3d f5 58 be
       0.24372931 0.37235117 0.16028789 -0.21187301
0002f0 0d 88 36 bf e1 a3 2b bf 13 07 19 3f 1b 2c 83 bf
       -0.71301347 -0.67046934 0.5977642 -1.0247835
000300 f6 41 48 bf a2 ca 72 3d 71 96 8a bf d8 9f b2 3d
       -0.7822565 0.059275277 -1.0827161 0.08721894
000310 af 6a 36 be 52 1a c6 3d 3c 0c fd 3d d4 ae e3 be
       -0.17814134 0.09672989 0.12355849 -0.4446932
000320 a1 a0 1e bf f2 6e b9 bd 21 4a 00 3e 3e 07 00 bf
       -0.6196385 -0.09054364 0.12528278 -0.5001105
000330 ff 61 cc bd 01 d7 15 bf b3 7f eb 3e b1 0b 44 bf
       -0.09979629 -0.58531195 0.45995864 -0.7658034
000340 9a d9 a5 3c 9f ce 9e be 2a c4 e6 be 3b 40 95 be
       0.020245362 -0.31017014 -0.45071536 -0.29150566
000350 d9 1b 8c be 82 5b 01 be 85 c3 56 3d 42 18 b8 bf
       -0.27364996 -0.12632564 0.052432556 -1.4382403
000360 86 3a d6 be e0 36 01 bf 84 84 06 3e 0f c7 a3 bf
       -0.41841525 -0.5047436 0.13136488 -1.2795123
000370 14 ad a4 bf b3 9c f1 3e ad 0b bb 3e 3b c1 2f 3e
       -1.2865319 0.47189865 0.36532345 0.17163555
000380 e4 b4 09 3f 34 eb 14 3f b9 a2 86 bf 71 db 5c bd
       0.5379164 0.5817139 -1.0518409 -0.053920213
000390 14 89 9b bd f7 88 82 3d 4d 53 d9 be d6 7d a1 3f
       -0.07594505 0.0637378 -0.42446366 1.2616527
0003a0 24 b8 05 3e 23 b2 52 3c ac 46 96 be 5a 4a b6 be
       0.13058525 0.012859854 -0.29350793 -0.356036
0003b0 1b b1 92 be bc 9f c8 be db a7 1d 3e 96 80 1f 3e
       -0.28650746 -0.39184368 0.15396063 0.15576395
0003c0 4d a5 64 3e 59 ab 1c 3f 4f 8c 02 bf 4e 87 39 3f
       0.22328682 0.61198956 -0.50995344 0.72472084
0003d0 bc 17 41 bf 36 12 b7 be a2 39 03 bf 0f 56 56 3f
       -0.7542684 -0.3575608 -0.51259816 0.83725065
0003e0 9e 9c c7 be 1f 83 33 3e 9c e2 10 bf 79 84 af bf
       -0.38986677 0.17530487 -0.5659578 -1.3712302
0003f0 20 f7 bc 3e 4b 7a dd 3e ba 32 6c 3f 69 bd a5 3f
       0.3690729 0.43257365 0.922649 1.2948428

lstm.weight_hh_l1 f4 [256, 64]
000000 83 d0 51 c0 4f 64 ac 3e e3 64 1a bf 97 23 37 3f
       -3.2783515 0.3367028 -0.6031019 0.7153868
000010 23 96 7c bf 23 6b 05 c0 dc 54 84 3e 8f bd 8a bf
       -0.9866659 -2.084664 0.25845993 -1.0839099
000020 4e 72 4e bf 40 58 95 3e ee cd 21 3f ea 3a 47 c0
       -0.80643165 0.29168892 0.6320485 -3.1129708
000030 92 32 2e c0 a7 92 5d bd cf 8b 42 3e 6c 08 5a 40
       -2.7218366 -0.054094937 0.18998645 3.406764
000040 43 db f5 bf c0 92 c8 be e7 2c 24 bf b0 2d 46 bc
       -1.9207538 -0.3917446 -0.64131016 -0.012095854
000050 af c7 83 be 3e fb b6 bf fe 2a 4b c0 21 9f 68 bf
       -0.25738284 -1.4295423 -3.174499 -0.9086781
000060 2b 22 06 c0 e0 29 e5 bf 4e 19 63 be b8 c7 ef 3f
       -2.0958354 -1.7903404 -0.22177622 1.8732824
000070 21 f0 ef bc 00 88 83 bf 25 f2 13 40 67 c0 17 bf
       -0.029289307 -1.0275879 2.3116543 -0.5927796
000080 4a cc b2 bf 79 04 19 bf c2 9f ba bf 11 b6 a6 be
       -1.3968594 -0.5977245 -1.4580004 -0.3256078
000090 47 c3 a2 bd 49 51 b0 3e 2a 7f 78 bf 48 e0 83 bf
       -0.079474024 0.34437016 -0.97069037 -1.030282
0000a0 c9 6d c2 bf 9e e7 85 be 6a 62 d2 3f 87 fd d2 3c
       -1.5189754 -0.26153272 1.6436284 0.025755657
0000b0 37 86 09 40 a6 be 5c 3e 1a fe 87 3f b9 e4 ea be
       2.1488168 0.21557102 1.0624421 -0.45877627
0000c0 26 1c 1b 3f f9 6a 05 bf e1 88 46 be c6 49 95 bf
       0.60589826 -0.5211635 -0.19388153 -1.1663139
0000d0 76 8b fd be 40 4b 87 bf c0 ef a6 bd 02 79 22 3f
       -0.49520463 -1.056984 -0.081511974 0.63465893
0000e0 67 83 6f bf a7 11 3d bf 3a d8 40 bf c2 fd 77 be
       -0.9355988 -0.7385506 -0.75329936 -0.24217895
0000f0 fb b2 bc bf e7 9c 0b 3f 81 e6 97 be 2c 47 74 3d
       -1.474212 0.5453629 -0.29668048 0.059638187
000100 19 6e 93 3f a2 67 51 be ef 55 6d 3f d0 25 9a bd
       1.1517974 -0.20449689 0.9270925 -0.075267434
000110 9c da a9 bf 47 83 c1 3f 8e eb 3f bf 69 e5 77 bf
       -1.3269839 1.5118188 -0.749688 -0.9683443
000120 79 bc 1c bf e0 ec 14 3f 5d 0a 27 3f 9e 48 62 bf
       -0.61225086 0.5817394 0.6525019 -0.88392055
000130 ea ab 86 be e3 a5 44 3f 39 a6 18 bf fc 1a 0e bf
       -0.26303035 0.76815623 -0.59628636 -0.55509925
000140 f7 7a 02 40 a2 82 f3 be 18 86 f4 bf 5a a2 20 3f
       2.0387552 -0.47560602 -1.9103422 0.6274773
000150 84 2b 03 3d 56 d0 0d c0 75 70 95 3f a8 fe bb 3d
       0.03202392 -2.2158408 1.1674944 0.09179431
000160 48 71 7b bf 38 d0 c9 3f de 78 cd bf 40 56 16 bf
       -0.9821973 1.5766668 -1.6052511 -0.5872536
000170 88 01 c1 3d b9 c7 f4 3e 7b 4f 6d bc 7a 3a 3d 3f
       0.0942412 0.47808626 -0.014484282 0.73917353
000180 14 c3 f3 3e d5 fb 63 bf 02 25 ed 3e 41 d3 0b 3e
       0.4760977 -0.8905614 0.46317297 0.13654806
000190 f2 5f fc 3e ae 52 a0 3f 61 b0 6a 3f 3f 48 8a 3f
       0.4929195 1.2525232 0.9167538 1.0803298
0001a0 9c ea 8f bf c6 cb a8 bf 24 7a 22 bf b8 c2 0c bf
       -1.1243472 -1.3187187 -0.6346762 -0.5498462
0001b0 56 3f 36 bf 2d 6c 1c 3e e1 14 05 bf f8 5a 5b be
       -0.7119039 0.15275641 -0.51984984 -0.2142142
0001c0 ad 2b 27 3f 47 7e d2 bd 6b 47 af bf 7e f9 ef 3e
       0.6530102 -0.10277992 -1.369367 0.46870035
0001d0 e6 3f f5 3e 90 75 7d be f4 df 95 be 86 db 0b bf
       0.47900313 -0.24751878 -0.29272425 -0.5463184
0001e0 c5 f0 a2 bf a1 de 96 3e 32 71 9a be e0 69 f0 3c
       -1.2729727 0.29466727 -0.30164486 0.02934736
0001f0 ab 19 0e be 2e 2b d7 3e 10 1d 68 bf 37 d5 97 3e
       -0.13876979 0.4202513 -0.90669346 0.29654858
000200 6d 08 b6 bf 23 04 6a c0 b8 c7 bd bf c5 81 fb bf
       -1.4221321 -3.6565025 -1.4826574 -1.9648978
000210 c3 6e b4 bd b8 80 84 3e 10 12 3e 3f 03 9f 88 3f
       -0.088101886 0.25879455 0.7424631 1.0673527
000220 75 3c fa bf 42 1d 01 c0 2b fa cc be a8 a1 d8 bf
       -1.95497 -2.0174108 -0.40034613 -1.6924334
000230 3f 3f 14 c0 3d 25 98 bf 08 13 84 c0 ea bf 03 40
       -2.3163602 -1.1886364 -4.127323 2.0585885
000240 91 57 b4 3f 19 d5 d2 3d b4 42 db 3e 05 47 e0 3f
       1.4089223 0.102945514 0.42824328 1.7521673
000250 b1 dc be bf e1 ee b2 be be 9d a8 3f a8 10 9b 3f
       -1.49111 -0.34947875 1.3173139 1.2114458
000260 5d d7 52 40 3d e3 f6 3e ea 78 c0 bf b5 18 27 3f
       3.2943947 0.48220244 -1.50369 0.65272075
000270 ca 0e 73 bf 85 e9 86 3e 8a b3 ed be 4f 99 8f 3f
       -0.9494444 0.26350036 -0.4642604 1.1218661
000280 cf 53 1d 40 ea 36 56 3e 0f 1a 6f 3e 3f 5c 9f be
       2.4582403 0.20919386 0.23349784 -0.31125066
000290 ec 36 3d 3e 36 38 23 be 4e 2d 58 bf 4f d7 96 3f
       0.18477982 -0.15939412 -0.8444413 1.1784457
0002a0 fb 38 33 bf 5c 67 bf bf 5b 22 09 40 b4 74 e9 3e
       -0.7000882 -1.4953418 2.142722 0.4559685
0002b0 ad 23 3a 3f 97 71 ad bf 07 47 44 3f c1 36 07 bf
       0.72710687 -1.355029 0.7667088 -0.5281792
0002c0 0e 82 81 bf dc e4 2d 3d 0a 23 30 c0 51 e1 8f c0
       -1.0117815 0.042454585 -2.7521386 -4.4962544
0002d0 38 eb d3 be e4 65 c3 bd ad ba e1 3d b2 15 25 3e
       -0.41390395 -0.095409185 0.11021934 0.16121557
0002e0 65 e7 8a 40 70 f7 a8 bf bc f0 43 3f 7b e6 34 bf
       4.3407464 -1.3200512 0.76539207 -0.70664185
0002f0 d0 cb e7 3f 94 38 9a 3f 05 3e ed be 31 5b a1 3f
       1.8109074 1.2048516 -0.4633638 1.2605954
000300 11 b8 59 3f 69 ec 7c bf 93 b1 c3 bf a7 fe 92 be
       0.8504649 -0.98798233 -1.5288566 -0.2870991
000310 10 4e 1b bf 87 dc ae bd 2d cc a9 3f c8 26 06 c0
       -0.6066599 -0.08538156 1.3265435 -2.096117
000320 d9 6d 44 bf dc 53 3e 3f 4c a1 4d be 35 01 31 40
       -0.76730114 0.7434671 -0.20081061 2.7656987
000330 33 c0 12 bf 8d 98 60 3f 2a d9 28 bf b0 20 9b 3e
       -0.5732452 0.87732774 -0.65956366 0.30298376
000340 72 cb 65 be 91 a9 9f bf 50 74 3e bd fd 3f d1 3f
       -0.2244089 -1.2473623 -0.046497643 1.6347653
000350 f2 79 ce 3f 88 91 1f bf 5f 9c d6 be 18 57 83 3e
       1.6130965 -0.6233144 -0.41916177 0.25652385
000360 84 a5 bc 3e 2b e4 88 3f 20 ce 8c bf fe c7 57 bf
       0.36845028 1.0694631 -1.1000404 -0.8428954
000370 7c 5c 16 be ac b8 a7 bf bf c0 b0 3d a3 b5 01 3f
       -0.14683717 -1.3103232 0.086305134 0.5066778
000380 ce 3b a2 3e f0 84 d1 bf 23 d2 ba 3e cd ae 11 bf
       0.31686252 -1.6368694 0.36488447 -0.5690735
000390 f6 56 c7 3d 3b a9 5e be 49 43 06 40 d8 aa 49 3f
       0.09733383 -0.21744244 2.0978568 0.7877631
0003a0 7a f1 7a bf af f5 01 3e 76 4c 2b bf 86 4a 17 c0
       -0.98024714 0.12691377 -0.66913545 -2.3639235
0003b0 d5 39 54 3f 65 d7 1d be a1 9b 0c 3f db af 5e be
       0.82900745 -0.15414198 0.5492497 -0.21746771
0003c0 ae 7c b4 3c b3 af 4f 3f 10 f5 8a 3f 56 99 b2 be
       0.022032108 0.8112747 1.0856037 -0.3488261
0003d0 61 e3 c3 3e 42 41 07 3f 34 fb ac be bb c7 79 3f
       0.38259414 0.5283395 -0.33785403 0.9757039
0003e0 d7 91 7e bf 10 10 45 3f 43 48 a5 3f f9 2b 4c 3f
       -0.99441284 0.76977634 1.2912678 0.79754597
0003f0 87 b3 ff bf 9e 03 6d bf d5 92 d4 bf e6 07 71 3d
       -1.9976662 -0.92583644 -1.660731 0.058845423

lstm.bias_ih_l1 f4 [256]
000000 45 f3 80 bd e0 3a b5 bd 66 34 96 3e 66 40 33 3e
       -0.062964 -0.0884912 0.29336852 0.17505035
000010 36 c2 05 3f b5 ec f8 bd 62 a6 17 3d 15 f6 4e be
       0.5224947 -0.12154523 0.03702391 -0.2021106
000020 db 32 77 bd 63 31 17 3e 3a c8 b5 be 0c f1 d9 be
       -0.060351234 0.14764933 -0.35504323 -0.42566717
000030 d0 49 82 bd 34 b5 72 3e 0e 1c 26 bd ea 58 5f 3e
       -0.06361735 0.23701936 -0.0405541 0.21811262
000040 c5 67 f3 be 18 70 36 3e d2 11 fc be 53 ae 7d 3e
       -0.47540107 0.17816198 -0.49232346 0.2477353
000050 ad f6 12 be 73 96 71 3e 7d 8a a6 bd 4f e1 db 3e
       -0.14351912 0.23592548 -0.08131883 0.42945334
000060 0d 30 5d 3e 7d 68 04 3e 8e 4a ce 3e 53 d6 9d bd
       0.21600361 0.12930484 0.40291256 -0.07706895
000070 e2 e5 db 3e 1e 99 e1 3d 85 d9 7e be 07 60 ba 3e
       0.42948824 0.11015533 -0.24887665 0.36401388
000080 6e 9d c7 3e 7c 61 c9 3e d1 cd b1 3e e8 9c 37 3e
       0.38987297 0.39332187 0.34727338 0.17930949
000090 13 23 54 3f 55 ba 8c 3e 3f 74 84 3e 46 9e 6a 3e
       0.8286602 0.2748591 0.2586994 0.22911939
0000a0 4b 33 91 3e 21 0f 90 3d ec cd a5 3d dd 4f 83 3e
       0.28359446 0.070341356 0.08095917 0.25646868
0000b0 f3 08 67 3d a4 25 32 be f8 bb c4 3e 29 68 fd be
       0.05640502 -0.17397171 0.3842466 -0.4949353
0000c0 86 25 b7 3e 04 f5 c2 3d 01 cf 91 bd f1 98 d9 be
       0.35770816 0.09519389 -0.07119561 -0.42499498
0000d0 be 50 81 3b d5 71 4f be d2 0c ba 3e ba 4f 25 3e
       0.003946393 -0.20258267 0.36337906 0.16143695
0000e0 a2 e0 6e 3d 06 b2 95 be 08 e8 d6 3d 7a f3 30 3e
       0.058319695 -0.29237384 0.10493475 0.17280379
0000f0 88 18 b1 3d 94 5c b7 3e 93 a0 81 3e 82 89 04 3f
       0.08647257 0.3581282 0.2531782 0.5177232
000100 8e ba cf 3e b5 06 94 be 83 35 97 3e 77 50 a3 3e
       0.40572017 -0.28911367 0.29533014 0.31897327
000110 dd 39 78 3e 9b d2 fe 3d c7 0e 16 3d c2 90 58 3d
       0.24240823 0.124425136 0.036635187 0.052872427
000120 5c 1e cc 3d fe 1a 91 bd fb 79 16 3e 4f ff 69 be
       0.09966728 -0.070852265 0.1469497 -0.22851299
000130 9f 26 54 be 53 98 b9 3d a9 71 23 be ab 14 d7 3e
       -0.20717858 0.09062257 -0.15961327 0.42007956
000140 e5 f7 69 be 1c e8 e3 3e 86 59 4d be b4 43 fe 3d
       -0.2284847 0.44513023 -0.20053682 0.12415257
000150 55 a0 57 be 0b 72 ff bd 08 51 66 3d b3 0c db be
       -0.21057256 -0.12472924 0.05622962 -0.42783126
000160 50 30 01 3e c3 d4 9e be 79 4f 79 3e 34 67 9d 3e
       0.12616086 -0.310217 0.24346723 0.307428
000170 f8 03 66 3d 8d 68 40 3c 4e ef 86 3e 4d 82 19 bc
       0.05615613 0.011743677 0.2635445 -0.009369445
000180 64 31 42 3e 46 82 c6 bd b0 cc 0f 3f 57 97 a9 3e
       0.18964154 -0.096928164 0.56171703 0.33123276
000190 ae 16 08 3f 7e 35 aa 3e d5 2d d3 bd 07 85 90 be
       0.53159606 0.33243936 -0.10311476 -0.28226492
0001a0 17 86 34 3f 8d 4c 03 be 55 4a 0b 3e b8 e8 b9 3e
       0.70517105 -0.1282217 0.13602574 0.36310363
0001b0 39 76 07 3f 76 97 7c 3e a2 3c 00 3f 81 6a 92 3f
       0.5291477 0.24667153 0.5009252 1.1438752
0001c0 e7 23 a8 3e 24 e7 b8 3e f9 95 00 3f 71 db e3 bd
       0.3283989 0.36113846 0.5022884 -0.111258395
0001d0 e8 d3 1b 3f 20 a3 27 3e 14 14 f3 3e 6c 78 46 3e
       0.6087022 0.16370821 0.47476256 0.19381875
0001e0 61 fe 3a bd 00 1a a9 3e 1b 1f 0b 3e 59 81 00 3f
       -0.04565275 0.3302765 0.13586085 0.5019737
0001f0 3d ef ac bd 75 0d 9b 3e 68 30 f4 3d 06 f0 d1 3e
       -0.084440686 0.30283704 0.11923295 0.41003436
000200 91 3e 63 3e 01 89 f0 3d ce e0 14 bf 07 86 2d be
       0.22191836 0.117448814 -0.58155525 -0.16945659
000210 1c 95 66 be 64 f3 ff 3c 23 1e e1 3c ad 69 b3 bd
       -0.22517818 0.031243987 0.02748019 -0.087603904
000220 c0 d3 5f 3e 88 8f 7f 3d d7 18 38 be cb b9 b4 3d
       0.2185812 0.06239274 -0.17978226 0.088245
000230 42 8c c5 bd 57 9d af be 52 3d 05 bf cd 86 4b bd
       -0.09645893 -0.34299728 -0.5204669 -0.049689103
000240 f6 64 95 3d 81 75 d0 3e 65 d6 96 be 2a 01 94 be
       0.072946474 0.40714648 -0.29460445 -0.28907138
000250 78 b1 40 3e b6 69 fd bd 06 76 c5 bd a4 12 09 3e
       0.18817699 -0.123736784 -0.09641652 0.13386017
000260 d6 46 81 3e d7 b5 b2 3e e7 04 e7 bd 24 f8 37 bd
       0.25249356 0.34904358 -0.11280232 -0.04491438
000270 e2 03 96 be 3d 62 93 bd 62 bd 19 3e 11 a5 4d 3e
       -0.29299837 -0.07196472 0.1501365 0.20082499
000280 58 b8 ce 3e 40 87 0e be 02 9c 0f 3d bc 1b 36 3e
       0.40375018 -0.13918781 0.03506089 0.17784017
000290 6d 6e f1 bc 2f e7 45 3f 3e 7c f9 3d 97 72 1f be
       -0.0294716 0.77305883 0.121819004 -0.15571056
0002a0 e0 3a a0 be 14 f5 82 3e fe 4f ba be c8 8f 01 bf
       -0.31294918 0.25577605 -0.36389154 -0.5061002
0002b0 0e ea 3d 3e 09 64 f0 39 88 d1 23 bd 10 27 b1 be
       0.18546316 0.000458509 -0.039994746 -0.34600115
0002c0 0f 57 dc be 20 e0 b3 3e 1d 51 bc 3d 40 ba 55 3e
       -0.4303517 0.3513193 0.09195159 0.2087183
0002d0 68 f8 7b 3e 27 3f 2e be 12 5a 7b 3e e6 a8 c6 be
       0.24606478 -0.17016278 0.24546078 -0.38800734
0002e0 f0 21 ff be 39 20 19 3e 1e 9d 99 3e 02 b2 e7 3e
       -0.4983058 0.14953698 0.30002683 0.45252997
0002f0 cc 7f 33 be d2 76 1c 3d 8c 26 33 3e 49 a2 8c bb
       -0.1752922 0.038199253 0.17495173 -0.004291807
000300 86 e1 4f 3e 87 ac 16 be 28 ff c1 3e ee 23 10 3f
       0.20300874 -0.14714251 0.3788998 0.56304824
000310 a4 68 02 3f b9 67 91 3e 7f a3 ae 3e e3 22 de 3e
       0.5094092 0.28399447 0.34109113 0.4338599
000320 b0 25 d8 3e 5c 0b c3 3e d6 a2 bf 3e 3c 7c 1e 3f
       0.42216253 0.38094604 0.3742892 0.61908317
000330 85 b1 d8 3e 43 21 22 3f ee 6b bb 3e 61 23 1d 3f
       0.42322937 0.63332003 0.3660578 0.6138211
000340 15 d6 37 3e 09 cf 55 3e 92 38 88 be 56 d8 1b 3f
       0.1795276 0.20879759 -0.2660566 0.6087698
000350 29 5b 5a 3d e3 d9 9e bd 37 59 84 3e 1b 41 44 3e
       0.053309593 -0.07756402 0.25849316 0.19165461
000360 6c 79 de 3d 7e 3b bc 3e 53 a1 d8 3e 23 b9 0f 3f
       0.10863003 0.3676414 0.4231058 0.5614187
000370 93 47 c4 3d ce 06 ae 3e 0a 50 c1 bd 71 a8 c9 3e
       0.09583964 0.33989567 -0.09439094 0.39386323
000380 fc d5 21 3f d0 77 a7 3f 23 a2 5f 3f b1 90 33 3e
       0.6321714 1.3083439 0.87356776 0.17535664
000390 f2 4e ce 3e 36 5e b4 3e d7 68 0a be ae 53 9e 3e
       0.40294605 0.35228127 -0.13516556 0.30923218
0003a0 6b 9b 8b 3e a7 57 1e 3e 08 1a 68 3e 30 52 9d 3e
       0.27267012 0.15463124 0.2266618 0.30726767
0003b0 63 08 96 3d a7 5e 11 3f 96 0d ba 3e 71 3e 00 3e
       0.073258184 0.56785053 0.3633849 0.1252382
0003c0 fb ac cd 3e cf 51 64 3e 33 ea fc 3e 77 cb 27 3e
       0.40171036 0.22296833 0.4939743 0.1638621
0003d0 27 fd 6a 3f 42 c0 25 3e cb 71 eb 3e c4 f2 ec bd
       0.9179253 0.16186622 0.45985255 -0.11569741
0003e0 48 d8 ba 3e 63 0f b5 3d 7b 85 f1 3e 13 3e ba 3e
       0.36493134 0.088408254 0.4717215 0.36375484
0003f0 26 04 b6 bd ea b7 79 3e d6 08 53 3e 50 73 fe 3e
       -0.0888751 0.24386564 0.2060884 0.4969735
