param1/lstm_model_98000.pth (torch, 204435 bytes, 9 tensors)

lstm.weight_ih_l0 f4 [256, 1]
00000000: 8fd3 243f 23f0 bd3f ea4d 473f 33fb 383f
00000010: 2d93 503f 6ab1 3bbf eac2 17bf 782b 4a3f
00000020: 7179 eebe 093f 3f3e a0d1 33bf 3c24 ce3f
00000030: 7653 dc3d c54f 83bf 8f84 c43f 17ee 1e3f
00000040: 04db a53e d974 1c40 24d0 1a3f 09c9 353f
00000050: d10f c43f 0745 8bbf bd55 5e3e 5439 da3e
00000060: 8d46 bf3c c2be a13e 4d58 103f 99a1 263f
00000070: d34e f6bd 1680 86bf 8e5d b2be c503 a33f
00000080: 9a6f 9e3f 7edc 4240 08cc 81be 84cf 183f
00000090: 6d78 e93f 9d94 41be d4ea f7be a4c2 9b3f
000000a0: c84a 3040 6e3a 84bf bbcb 3abf a52a ba3e
000000b0: e155 173f f2d2 323d 1a64 953e 98c9 163e
000000c0: f7b7 0c40 2e45 9bbf 849d e43f 3a62 763e
000000d0: 81c9 693e dc7c d4be d566 2ebe c574 493f
000000e0: b1da 013f 0402 333f 0af4 103f 64e2 89bf
000000f0: dc52 cb3d d83e 993d d462 7a3e 7288 703f
00000100: e077 98bf cadc ec3c 0bb6 5c3f e9fe a73f
00000110: 1562 623f 3dfc 1140 f6a3 c43f 2052 aa3e
00000120: 23bc c4bf 630d f33d 7ce6 173f 20de a23f
00000130: e9af e53e cede c63e 1839 9e3f 17f1 383f
00000140: c6c2 f33e c1f0 a93f 24d2 793f a657 e03d
00000150: 8440 473f ae45 14bf b5e0 15bf d347 20bf
00000160: 85d7 ae3e 189d 083f 3f3d 763e c195 3fbe
00000170: a395 99bf 46b9 6dbe 8ee4 3b3f bd2f 08c0
00000180: 3a51 0f3f f0ec b03e 1727 7e3f f3a6 f63f
00000190: 458b 793c 4b91 833f 0b70 883d e3eb 42bf
000001a0: f834 143d 78b7 593e 71c5 2cbf 9d3a 553f
000001b0: e265 30be 4e5d 443f 84fb a73e 2619 35bf
000001c0: b122 6c3f 815e 863e 2d2e 76be ecfb 32c0
000001d0: 9c2f cb3e 3151 7b3f 6409 a03f d583 753f
000001e0: 70d7 703d e3a5 113f 50c6 253f c449 80bf
000001f0: ab70 c63e 54e0 863e 1499 c7bd ea98 6c3d
00000200: d2c1 c43f caf9 9dbe 518d ff3f 3374 81bf
00000210: 7d7d dabf c4e7 34bf 9c2a 36bd 6611 2d3f
00000220: a765 fa40 fa11 7abf 4c16 fcbf 749d aabf
00000230: 41f4 a7bf 59aa 5fbe 773c 93bf 5b37 27bf
00000240: 8891 b63f d50a 1ec0 9da7 14bf ffaa 6d3f
00000250: 60a2 0640 4163 7e3d 964b 05c0 4702 833f
00000260: 549b db3f 72e9 c3bf f79d 2cbf 052f 19bf
00000270: fddb 983f 471e 93bf 7b3d 993d 2096 5e40
00000280: 47ec d93e d0f1 22c0 5249 85c0 eef7 153f
00000290: 3835 10c0 c815 6dbf e7e7 0c3f a413 113f
000002a0: c084 3b40 a547 17bf 3441 a2bf 5d8f f6bf
000002b0: e40d ce3f 69d1 26bf 1f57 a83f bca2 69c0
000002c0: e01f 26c0 d23a 4f3d 67d6 403f 2a41 78c0
000002d0: 8bed a33f 3cbd df3e 473a 25be d50a 8dbf
000002e0: 00a7 acbf 125a 81bf 4f55 5abf c471 afbf
000002f0: 7128 12c0 4dc8 bebe 8d92 e73f 0e5b 73bf
00000300: d288 fcbe a19d e23e a21a 5d40 8758 3a3f
00000310: f6c6 6040 e9b9 0cbd 3748 e6be 657c 7e3e
00000320: ee90 d6bd 5e14 a93d 1252 a0be d658 033f
00000330: 49c1 6340 3a1e 0c3e 13c5 0e40 07b2 bc3e
00000340: b8cf 943f 84fd 3c40 cdd3 323f 69ab 003e
00000350: 3980 a13f 4cf4 bdbe f71f 56bf 016a 60bd
00000360: 8315 f13f 4ca9 1740 38d4 a7be c546 993f
00000370: 8067 9bbf 6e18 73be de42 15be ca5f b2be
00000380: b0c5 863f 24a6 8440 9a99 713f 3cf6 2fbf
00000390: 7085 1e40 9035 133f 9270 acbe ab4e 093e
000003a0: ba81 4f40 1099 083f 0ce9 bdbf eea7 a33f
000003b0: 61c3 563f 84fb ad3f 67b8 ff3b 05d8 ca3d
000003c0: cf2e 8040 83d1 b7be 1bc5 6abe f535 5bbf
000003d0: 0f9c 7abc 2cc9 88bf a6db b8bd b0ff ff3f
000003e0: 5554 af3f 46b0 0b40 fb8d d03e f61b a1bf
000003f0: e2a3 c03e 0346 ea3e ddd8 4d3f 52df 4c3f
0.6438531 1.4838909 0.7785326 0.722583 0.8147457 -0.7331759 -0.5928179 0.7897258
-0.46577027 0.1867639 -0.7024174 1.6104808 0.107581064 -1.0258719 1.5352954 0.62082046
0.32393658 2.4446318 0.6047385 0.7100988 1.5317327 -1.088044 0.21712394 0.42621863
0.02334907 0.3159085 0.56384736 0.6509033 -0.12026753 -1.0507839 -0.34837002 1.2735525
1.2377808 3.0447078 -0.25350976 0.59691644 1.8239876 -0.18904348 -0.48421347 1.2168775
2.7545643 -1.0330331 -0.7296712 0.3636066 0.59115416 0.043658204 0.29177934 0.1472534
2.1987283 -1.2130487 1.786057 0.24060908 0.22830774 -0.4150151 -0.17031415 0.786938
0.5072432 0.6992495 0.56622374 -1.0772214 0.099279135 0.074826896 0.24451762 0.939582
-1.1911583 0.028913874 0.86215276 1.3124667 0.8843091 2.2810204 1.5362537 0.3326578
-1.5369915 0.11867788 0.59336066 1.2724037 0.4486077 0.3884186 1.2361174 0.72242874
0.47609538 1.3276597 0.97586274 0.109542176 0.7783282 -0.5791882 -0.58546 -0.62609595
0.34148803 0.53364706 0.24046801 -0.1870947 -1.199879 -0.23215207 0.7339562 -2.1279137
0.55983317 0.3455577 0.99278396 1.9269699 0.015230958 1.0278715 0.066619955 -0.76141185
0.036183327 0.21261394 -0.6748877 0.8329256 -0.17226365 0.7670487 0.3280908 -0.707415
0.92240435 0.26243976 -0.24041052 -2.796626 0.3968476 0.98170763 1.2502866 0.95904285
0.058799207 0.5689375 0.64755726 -1.0022511 0.38757834 0.26343024 -0.09745994 0.057763018
1.5371649 -0.30854636 1.9965001 -1.0113586 -1.7069546 -0.70666146 -0.04447423 0.6760467
7.8249087 -0.9768368 -1.9694304 -1.3329301 -1.3121415 -0.21842326 -1.1502827 -0.6531884
1.4263163 -2.4694111 -0.5806826 0.92839044 2.1036606 0.062106375 -2.0827384 1.023507
1.7156777 -1.5305617 -0.67428535 -0.5983737 1.1942135 -1.1493615 0.074824296 3.477913
0.42563078 -2.546009 -4.1652 0.58581436 -2.2532482 -0.9261136 0.55041355 0.56670594
2.9299774 -0.59093696 -1.2676148 -1.9262501 1.6097989 -0.65163285 1.3151587 -3.6505575
-2.5956955 0.050593205 0.7532715 -3.8789773 1.2806867 0.43699062 -0.16135512 -1.1018931
-1.3488464 -1.0105612 -0.8528642 -1.3706594 -2.2837183 -0.37262192 1.8091599 -0.95060813
-0.49323136 0.44260886 3.4547505 0.7279133 3.5121436 -0.034356985 -0.4497697 0.2485214
-0.10476862 0.08255838 -0.31312615 0.5130743 3.5586722 0.13683406 2.2307785 0.36854574
1.1625891 2.9529734 0.6985443 0.12565388 1.2617255 -0.37100446 -0.83642524 -0.054788593
1.883469 2.369708 -0.32779098 1.1974722 -1.2140961 -0.23739788 -0.14576289 -0.34838706
1.052908 4.145281 0.94375 -0.687351 2.4768944 0.57503605 -0.33679634 0.13408916
3.242293 0.53358555 -1.4836745 1.2785623 0.83891875 1.3592381 0.007803965 0.09904484
4.005714 -0.35902032 -0.22926752 -0.85629207 -0.015295996 -1.0686393 -0.090262696 1.9999905
1.3697611 2.1826339 0.40733323 -1.2586658 0.37625033 0.4575654 0.8040903 0.8002826

lstm.weight_hh_l0 f4 [256, 64]
00000000: 4e58 7f3d 5b4d 403f 1912 eabd 5028 d73d
00000010: 8850 aabe e746 45be 6c4d 7f3e 96b4 6d3d
00000020: 9fd2 943f 9fc1 de3d 49d4 f3be b18b 1c3f
00000030: f354 273d a1cd 593f 5a7e 46bf 116f f7bb
00000040: 5900 a63d 8fe7 babd 1be8 e1bc 11ef 2f3f
00000050: 119e 283f f3fb 613e fd8b fcbd 6f76 b2be
00000060: 42b6 1fbe e427 b93e e66f ad3d 2eb4 70bf
00000070: f81f 0c3c 6337 68be 0784 893d 261d d73e
00000080: 8feb c63e ab42 debe 13ba 69be 9828 ca3e
00000090: 5d1b 28be d70a 83bf 4b1f 7a3e 8930 2fbf
000000a0: 0824 8bb9 5aff a9be 20b6 a23d 30fe fdbe
000000b0: 024d 863e 4b9a a03e 52d7 e13e 3d3d 17bf
000000c0: 24f2 e7be b435 57bd faa9 213d 939b 81bd
000000d0: 040a 2d3f 5d5c 763f d86b 7f3c 80d6 17bd
000000e0: c4e2 adbf 80cb 23bf e9df df3e 55ee c53e
000000f0: e113 58be 6114 d73d 755b 83bc b85b 3cbe
00000100: 1368 603f b039 e0bf bd91 c23e d173 ed3e
00000110: 42a9 69be a853 03be a095 c6be f79d 0c3e
00000120: 6bed 153f 0ea2 b4bd e06f abbe 104c 823d
00000130: b5e5 ab3e e840 c2bf 52c0 023f 03b0 0fbf
00000140: 351e 543f 273b b0bf c0ac 273d bdb3 3a3f
00000150: 45bc 35be 064a 19be e594 d53f 7d57 843f
00000160: 1b14 b33e 4481 c3be f87b 353e 619a 933f
00000170: c7f4 dabe 0eb9 24bf 31f3 003f e7ee 893f
00000180: 8c29 61be cc78 a8bf 88a8 6f3e 7c9f 913e
00000190: 841a b6bf 247d af3d 4999 973f 8d45 37bf
000001a0: bbe3 893f a6f3 fd3e 652d 0cbf bc3f 87bf
000001b0: 0d1f fabc 8c6f 32bf acf2 003f f9a9 b43d
000001c0: a5cc 04c0 e051 39bf 9f3b d63d 09cb abbe
000001d0: 8fa5 1e3e 854b 74bf 9435 d4be 7a03 f4be
000001e0: feb6 043f 638b 8d3d 2e60 aebe 70b0 4bbf
000001f0: 183a 10bf 16e8 86be 824b b03b 3156 b7bf
00000200: 1019 8ebf 9021 ac3f 438d 833e b8e2 9d3e
00000210: 4ca5 7ebf e33b 053e b3d4 b5be cc6d 7dbe
00000220: a34a 853f 79da 04bf 7333 0bbd c774 ccbd
00000230: dc0b 6bbf 1053 88bf 7c96 bebe d0e5 4abe
00000240: ed3b ce3f 79f1 bfbf b578 62bf 6647 d33e
00000250: d35c 083e a01b 98bd 5191 ecbe 25b4 5fbf
00000260: 58bf 1dbf 9fd5 a1bf 467e 403e 74bd 2d3c
00000270: a029 23bf 05b3 59bf 3986 263f eb8d e53e
00000280: 27a4 bcbe c660 2abe 4244 2f3f 1f5f 643e
00000290: 1740 6d3f 39e3 403f e28f ec3e 70e3 723f
000002a0: db2d 253f a9a7 833f 6d99 d93e b41f 19bf
000002b0: 7a9d 1e3d 9bd6 e83e 35d5 313f 01fb d53e
000002c0: 79c1 f5bd 7638 55bf d983 723f 4f45 403f
000002d0: ec64 c63e 76c5 043e c711 f2bf 0738 433f
000002e0: 5565 94bf ccac 7bbf 9f81 d33e 5842 fa3e
000002f0: 6d62 a2bf c4dc e3be 4bb2 0a3f ebe9 2bbf
00000300: fa3c 79be 2461 293f 5bc7 18bf e2eb f4be
00000310: fd20 6bbf af75 a43e 5ed4 53bd be30 b63e
00000320: 53e1 133e 5348 c2be 0e43 933e 8a3f 72bf
00000330: e345 0a3f 3436 c2be 41c4 c93e f14b f8be
00000340: aef3 3e3e db92 24be 5336 ba3d a0d4 cb3e
00000350: 50a2 613f 157b 37bd 2c9b fa3e 14dc 3c3e
00000360: edd3 783e a98d f6bd ae3e 2dbf 745b 2f3f
00000370: 3def e93d daf4 1bbf 603e b0bd b1a4 023f
00000380: 1294 903d 7bae 22bf da17 8bbd eeea 8dbe
00000390: 7e9f bcbe 500a b63e f602 01bf 451b b13e
000003a0: ce48 023f 1d3a 5c3f 2dec d23e 3829 423f
000003b0: c07a 223f f7d8 8dbe 53d2 a8be e27e b73e
000003c0: 0164 15be 0775 b8be ca8f 813f c83b 46be
000003d0: 4717 153e 5427 0dbf 6a7a c1bf d51e e33f
000003e0: bc51 11be 4a97 043e 71db e4bd 3daa 21bf
000003f0: 1045 f5bd bc82 1d3e 7cd3 87be 76f5 8bbf
0.062340073 0.75118035 -0.11429233 0.10505736 -0.33264565 -0.19265328 0.24931878 0.05803355
1.1626776 0.10876774 -0.47622898 0.6115065 0.0408525 0.8507939 -0.7753655 -0.007551082
0.08105535 -0.091261975 -0.027576497 0.6872416 0.6586619 0.22068767 -0.12331388 -0.34855983
-0.1559687 0.36163247 0.084686086 -0.9402493 0.008552544 -0.22677378 0.06714635 0.42014426
0.38851592 -0.4341024 -0.22824888 0.39484096 -0.16416688 -1.0237683 0.24426 -0.68433434
-0.0002653899 -0.3320263 0.07944894 -0.49607992 0.26230627 0.31367716 0.4410959 -0.5907782
-0.45301926 -0.05254145 0.039468743 -0.063285016 0.6759341 0.96234685 0.015589677 -0.037069798
-1.3584828 -0.6398239 0.43725517 0.38658395 -0.21101333 0.10501934 -0.016034821 -0.18394363
0.87658805 -1.7517605 0.38001814 0.46377423 -0.22818473 -0.12824881 -0.3878603 0.13732134
0.58565396 -0.08819972 -0.3348379 0.06362164 0.3357369 -1.5176058 0.5107471 -0.5612795
0.8285859 -1.3768052 0.04093623 0.7293051 -0.177476 -0.14969644 1.6686064 1.0339199
0.34976277 -0.3818456 0.17723072 1.1531488 -0.42764875 -0.6434487 0.5037108 1.0776032
-0.21988505 -1.3161864 0.23404133 0.2844199 -1.4226842 0.085687906 1.1843654 -0.715905
1.0772623 0.49599952 -0.54756767 -1.0566325 -0.030532384 -0.6970146 0.5037029 0.08821482
-2.0749905 -0.72390556 0.104605906 -0.3355334 0.15492843 -0.95427734 -0.41447127 -0.47658902
0.51841724 0.069113515 -0.34057754 -0.795661 -0.56338644 -0.26348943 0.005380095 -1.4323179
-1.1101398 1.3447742 0.25693712 0.30837035 -0.99470973 0.13011126 -0.3551384 -0.24748915
1.0413402 -0.5189586 -0.033984613 -0.09983211 -0.9181497 -1.0650349 -0.37224185 -0.19814229
1.6112038 -1.4995567 -0.88465434 0.4126541 0.1331666 -0.07427144 -0.46204618 -0.87384254
-0.6162009 -1.2643317 0.1879817 0.010604251 -0.6373539 -0.8503879 0.6504856 0.44834837
-0.36843988 -0.16638479 0.6846353 0.22301911 0.9267592 0.75346714 0.46203524 0.9487829
0.64523095 1.0285541 0.42499867 -0.59814 0.0387244 0.4547623 0.69465953 0.41793063
-0.119997926 -0.8328928 0.94732434 0.75105757 0.38748872 0.1296595 -1.8911675 0.76257366
-1.1593424 -0.9831054 0.4130983 0.4887874 -1.2686287 -0.44504368 0.54178303 -0.67153805
-0.24339667 0.6616385 -0.5967919 -0.47836214 -0.9184721 0.32121035 -0.0517162 0.35584062
0.14441423 -0.37945804 0.28762096 -0.946282 0.5401289 -0.3793198 0.39407542 -0.4849544
0.18647644 -0.16071646 0.09092393 0.39810658 0.88138294 -0.044795115 0.48946512 0.18443328
0.24299593 -0.12038738 -0.67673767 0.6849892 0.11422584 -0.6092049 -0.08605647 0.5103255
0.07059492 -0.63547486 -0.06791659 -0.277183 -0.36840433 0.35554743 -0.50395143 0.34591118
0.5089234 0.86026174 0.41195813 0.75844145 0.6346855 -0.27704594 -0.32972965 0.3583899
-0.1458893 -0.36026785 1.0122006 -0.19358742 0.14559661 -0.55138135 -1.5115483 1.7743784
-0.14191335 0.12948337 -0.111746676 -0.6315039 -0.11976063 0.15381902 -0.26528537 -1.0934284

lstm.bias_ih_l0 f4 [256]
00000000: 6c29 3a3e 9231 16bf 970f a33d 2181 87be
00000010: 8b37 353e 6f4a 7ebe 5f16 50bd 1f2f 5bbe
00000020: 3cce b93f b584 a7bb 4dbc ef3d ab03 8b3e
00000030: b074 96be 4f26 24bf f8ad 7cbd 1b45 f8be
00000040: f4fc ef3b 458f cc3d dfd9 e139 8206 15be
00000050: 58e6 df3e 041a 81be b947 aabe d8de 2fbe
00000060: e37f ff3e 3a14 8f3e c8e6 b9bd 64b3 5ebd
00000070: bdc8 2a3f 1af2 63be 66cc 26bb 81b8 383f
00000080: 43da a8be ec40 083f 5860 d6be 364e c4be
00000090: edb4 ee3e 8b2d 91be 9ca6 90bb ca91 ecbd
000000a0: 3bc1 8e3f 7215 9abc 9a45 28bc 7c93 823d
000000b0: d8c3 cf3d 06b2 933e aba5 2dbd d6d0 c03e
000000c0: a072 603f 4533 78be 09e6 893d 6a8b 0a3f
000000d0: 81ba 17be 6e13 22be 83a6 b5be a702 a5be
000000e0: 6779 a1bb 5ed0 96be 999c 83bd a0ab 82be
000000f0: 2817 14bd c07a e7be 1e6f 9dbe 0fee 33be
00000100: d979 af3c a0f3 b7be b5e9 8ebe ddf4 913e
00000110: c40b 9bbe dad2 6c3f c6c1 1c3f 8315 87be
00000120: c1a4 303d b1eb 95b8 de02 403e 30a2 b43c
00000130: d060 f43d 8f68 bebe a1c7 233e f4d0 90be
00000140: 8e52 59bd 61d6 26be 2f58 c43e 2ea6 823e
00000150: 2ab3 fc3c 39ed 813e bf20 9ebe 84b6 b3be
00000160: 154f dabe e187 a13d c955 563e 1d8b afbe
00000170: fe44 bf3e e178 f8bd e4a5 c23e 10b5 10bf
00000180: cd0b 85be 916d 05be 32ae 8bbd 731e 7dbe
00000190: 1816 2b3d 3eef 72be 4a33 91be 020d 11be
000001a0: c92d 84be 8453 04bf 240d bfbe 7d3e 943d
000001b0: 4925 b13e 46c4 cd3e 1d15 a1be 2215 6dbe
000001c0: dd2f 84be 8615 b83e 3f59 40be 5dd4 36bc
000001d0: 57af bfbd 4bae d53d a498 a63d 9283 6cbe
000001e0: 829b 853e 87d6 e9bc c051 8d3e 97af 93be
000001f0: 41e5 91be b3ba ae3e db5f b6be f5e4 cdba
00000200: 3678 8abc dc4e 46be 91c4 fe3d 684f 213d
00000210: efc7 49bd 3df3 ea3d 3587 08be 6a75 4a3d
00000220: f13a 8abe b5cd c4be 193f 39bd 087e 8c3e
00000230: da08 c0bd bfe7 413e e291 073e 69d9 343e
00000240: 1d5e eabe 8de9 a13c abb3 8abe 848f 20be
00000250: 8c17 da3d 6b79 8fbe aada 993c d497 a33b
00000260: ba99 433e 0b37 8abd 9773 b2bc a22b 38bd
00000270: ec7d c2bd 2568 9abb be1d 073e 2f11 73be
00000280: b86a 3ebd 586d 7e3e 572c f9bd 4410 993e
00000290: 1c66 a13d 2443 5e3e e6ef 483e c24a 013d
000002a0: f26f afbe 4ee5 be3c 23f8 9ebd 9e8b 1e3e
000002b0: 774f 5abe a79a 763e 8747 acbe c755 c73d
000002c0: 7814 883e 0524 1c3e 85f1 08be ad8d 093e
000002d0: 1671 5fbe dead 3abd 8eab df3e dc54 9d3d
000002e0: 8a35 a53d 4858 623e f4c7 a7be 1278 50bd
000002f0: 4d6a 903e a5cd b23d 2d79 58bc c177 66be
00000300: 9f02 203e ce19 b03e 6bfc dabd d17b 96be
00000310: 2632 603e d739 c8bd cdc9 c03d 0cab bfbe
00000320: 89d0 b83f b827 3abf 5088 733e e596 353e
00000330: 632b 99be 1a20 cfbe 46f4 a3be 47e1 80bd
00000340: a9e9 a8bc 3e77 24be 3526 c3be cd6d 87be
00000350: 63c6 9f3e dd00 14be c5b3 0bbe b5a8 2fbe
00000360: 1187 533f 0e54 33bd 5c98 15bf 2442 613d
00000370: 0f88 64be 3633 7c3e 169e 043f 7872 8e3f
00000380: 02ec ddbe aff0 4f3f 211f 013d a103 293e
00000390: eca3 dd3e 8504 abbc 6fd3 57be 1b37 a2bd
000003a0: 6e70 903f 4071 04bf 1e74 e1be d5e5 31be
000003b0: d338 9d3e d780 593e 25ad 0bbd e12d ba3e
000003c0: 3806 953f 81c4 01bf 7710 073e 2559 443f
000003d0: 9645 d43e b77e 8abe 6d6c 05bf 5dcc a5be
000003e0: de95 ee3d 3ada dbbe b193 1c3c b010 b9be
000003f0: 6c82 713e dc32 2fbe 9ca5 2f3e 91b9 6d3e
0.18179864 -0.5866939 0.07961958 -0.26465705 0.17696969 -0.24833082 -0.050802585 -0.21404694
1.4516063 -0.0051122555 0.117058374 0.27151236 -0.293859 -0.64120954 -0.061689347 -0.48490223
0.0073238555 0.09988264 0.0004307767 -0.14553264 0.43730426 -0.2521516 -0.33257845 -0.17174852
0.49902257 0.2794512 -0.09077221 -0.0543703 0.6671255 -0.22260323 -0.002545142 0.7215653
-0.3297902 0.5322406 -0.4187038 -0.3834092 0.4662241 -0.2835506 -0.0044143926 -0.115512446
1.1152719 -0.018809054 -0.010270501 0.06375787 0.10144776 0.2884676 -0.04239432 0.3765933
0.87674904 -0.24238308 0.06733329 0.5411898 -0.1481724 -0.15827724 -0.354786 -0.32228586
-0.0049278024 -0.29455847 -0.06426353 -0.25521564 -0.036154896 -0.45210838 -0.30748838 -0.17571281
0.021420406 -0.3592806 -0.2791268 0.28507128 -0.30282414 0.92509234 0.61233175 -0.263836
0.04312587 -7.1487746e-05 0.18751094 0.022049993 0.11932528 -0.37189147 0.15994121 -0.2828442
-0.053057246 -0.16292717 0.3834853 0.2551741 0.03084715 0.253763 -0.30884358 -0.35100186
-0.4263846 0.07887245 0.20931162 -0.34285823 0.37357324 -0.12132431 0.3801719 -0.5652628
-0.25985566 -0.13030078 -0.068203345 -0.24718647 0.041769117 -0.23724076 -0.28359443 -0.14165118
-0.2581618 -0.51689935 -0.37314713 0.07238481 0.3459876 0.40188807 -0.3146142 -0.23152593
-0.25817767 0.3595392 -0.18784045 -0.01115903 -0.09359615 0.10433634 0.08134583 -0.23097065
0.26095206 -0.028544677 0.27601433 -0.28844902 -0.2849522 0.34126815 -0.35620007 -0.0015708493
-0.016903024 -0.1936602 0.12439836 0.03938237 -0.049262937 0.11472175 -0.13332827 0.04942838
-0.26998094 -0.38438192 -0.04522619 0.27439904 -0.09376688 0.1893606 0.13239244 0.1766106
-0.45774928 0.019764686 -0.270902 -0.15679747 0.106490225 -0.28022322 0.018781025 0.0049924646
0.19101611 -0.0674878 -0.021783633 -0.044963486 -0.09496674 -0.004712122 0.1319494 -0.23737024
-0.046488494 0.24846399 -0.1216666 0.29895222 0.07880804 0.217053 0.19622764 0.031565435
-0.34265095 0.0233027 -0.07762172 0.15482947 -0.21319376 0.24082433 -0.3364832 0.097331576
0.26578116 0.15248115 -0.13373382 0.13432951 -0.21820483 -0.04557597 0.43685573 0.07682201
0.080668524 0.22103989 -0.3276974 -0.050895758 0.282061 0.0873063 -0.013212484 -0.2250662
0.15626 0.34394687 -0.10692676 -0.2939134 0.2189413 -0.09776657 0.094134904 -0.37435186
1.443864 -0.72716856 0.23782468 0.17733343 -0.29915914 -0.4045418 -0.32022303 -0.06292968
-0.02061923 -0.16061112 -0.38115087 -0.2645096 0.31206045 -0.14453454 -0.13642795 -0.171542
0.8262797 -0.043781333 -0.58435607 0.054994717 -0.22317527 0.2462891 0.5180372 1.1128683
-0.43344122 0.8122663 0.031523827 0.1650529 0.43289125 -0.020876179 -0.2107675 -0.07920667
1.1284311 -0.51735306 -0.44033903 -0.1737283 0.30707416 0.21240555 -0.03410067 0.36363128
1.1642523 -0.50690466 0.13189875 0.76698524 0.4145934 -0.270498 -0.5211857 -0.3238248
0.11649679 -0.4293993 0.009556697 -0.36145544 0.23584908 -0.17109245 0.17153019 0.23215319

lstm.bias_hh_l0 f4 [256]
00000000: a73d 7b3d d4d0 f4be 20a1 4b3d 17f6 82be
00000010: 95f0 8b3e a90d 50be 4a58 d0bd 4e04 50be
00000020: 14f7 a93f 806a 553c e592 7d3e bc9b 3b3d
00000030: cc02 9dbd 4381 0cbf 02be 4dbe 806a 05bf
00000040: b510 2bbe d318 423d a94d f23d 1fc6 92be
00000050: ea6d fd3e 4ae7 f4bd 69bb c0be 5831 debd
00000060: 197b 053f 6143 b83d b25f dfbb 4639 873d
00000070: 5aaa 023f 2da8 8fbe fa64 a53d 533f 163f
00000080: 9e03 63be 932d f43e d5ef cebe ebc2 a2be
00000090: 4630 b43e d9a7 b1be 3f9d 853d 190a aabc
000000a0: 4e9b 933f 9680 833d 7652 823b 9a7c 7ebd
000000b0: c4be 6fbc 033e 763e d534 4dbd 2a8d b53e
000000c0: 2ac5 4b3f e232 48be 4d0b bf3d 82df 113f
000000d0: 2099 c5be 2db5 98be ee08 f7be 132a d8be
000000e0: ddb3 25be 5395 f5be c6df 2b3d 5da7 b2be
000000f0: 1d5b 2fbd 6f49 e3be abf5 fabd 7ad7 61be
00000100: e5bc 3a3e 5987 9bbe 26de a8be 3b50 dd3d
00000110: bd60 1cbe a6ec 683f 6541 da3e fd85 b2bd
00000120: 6bb1 3cbd 02b9 113d 50cb ae3d ad26 053e
00000130: be5c 9c3e 6549 8ebe a312 8a3e 8d81 5fbe
00000140: bd8f 2dbe 33b3 49be 134f cf3e 249c 903d
00000150: 4a8c c43d d411 0b3e f78b 28be 9b72 bcbe
00000160: 78db e9be 56da 613d dde3 b33d 8cc9 cebe
00000170: e75c eb3e 58cd 73be 2434 243e a49d e3be
00000180: 1ad7 67be bbb5 ae3d fe40 82bc d2cd e7bc
00000190: 7936 0bbd a76a 8dbe 9f7b 90be 5873 2abe
000001a0: f25b 62be 88e7 1cbf 13ed 56be 41f1 553e
000001b0: b8c1 b23e b707 9e3e 2636 87be 1b2c 54be
000001c0: c055 e6bd 84f1 9b3e d6ad 3dbe 2bbd f83b
000001d0: 0209 f8bd 6e26 943d 6768 a5bd 327a 57be
000001e0: 09ca 893e 206b d9bd d7f6 893e 61e0 67be
000001f0: 7e9b 6fbe 87ab 9d3e cb9f 80be ac05 e43d
00000200: d1cf 243d 5b16 30bd 070c 17bd 4694 f73d
00000210: 7c42 863d 2d4a 9b3e 8398 18be 413b 283e
00000220: e4e8 8abe c39c e4be fdf2 103e 1029 9c3e
00000230: f2b6 fbbc 0049 493e 031b 0d3e 95b7 893e
00000240: be81 73be cea1 b33d af5c 86be 7853 e2bd
00000250: c034 843e ed81 52be 3525 28bd b0a9 e43d
00000260: 2246 4c3e 2537 093d ac0d 803d 3215 0e3b
00000270: c4ef a0bd 21dc 4cbe 822b 273e 69cc c2be
00000280: 542e d9bd 74dd c23d eaf6 b7bd eebf 0e3e
00000290: b4de 213d 271b 3d3e aa87 653e c821 8b3d
000002a0: 7b20 36be 2d72 963d 2f0d eabd c4ae dc3d
000002b0: 9009 67be e150 df3d 6476 b8be a94d ad3d
000002c0: 0c44 f73d e8cc 1d3e 74a4 febd e1cd 913e
000002d0: 99dd 4ebe 6671 30be 2e9c b43e bcb5 d13d
000002e0: 5a11 733e b8b3 db3d d8a1 b7be 4274 20be
000002f0: 1e8b a03d c29e 823c 652b d0bd 18a2 93be
00000300: c951 643e 5acc 7d3e 4953 a8bc 9690 cebe
00000310: 61cb 003e d2ca d4bd 6182 d9bd 2bb8 d6be
00000320: c97c b43f 7eb7 21bf 9548 4a3e 229c 9f3e
00000330: c4eb aebe 4eef d7be 81d3 5fbe 1143 73bd
00000340: c48f 88bc 5c61 e3bd 598f 93be 769c 81be
00000350: 1f39 e33e 9bc8 97be 4d35 47be ae30 34be
00000360: 73c6 403f e5f7 cbba d521 dabe 9455 173e
00000370: 2d87 20be 9c87 643e b843 043f 1116 8f3f
00000380: 85b2 06bf d9fe 263f 48d7 323e f18b 9c3d
00000390: bc11 e63e c789 00be ee5d a3be 0bb8 0fbe
000003a0: 7759 903f a5af b5be e090 a5be 40b2 15be
000003b0: 90cf b13e fc2c 653e 837f 9cbd 5bfe fc3e
000003c0: cdf5 8a3f 45b8 dfbe 0be2 1c3e 0810 383f
000003d0: b74a 5c3e 061a 4bbe b126 aebe eb12 78be
000003e0: e553 643e 6f13 03bf 00b2 6ebd 0086 2bbe
000003f0: 63b9 783e 6f10 f9bd 35b0 15bd b605 4c3e
0.061338093 -0.47815573 0.049714208 -0.25578377 0.27331987 -0.20317711 -0.1017309 -0.20314142
1.3278527 0.01302588 0.24763067 0.045802817 -0.07666549 -0.5488474 -0.20092013 -0.5211563
-0.16705592 0.047386955 0.11831219 -0.2866678 0.4949792 -0.119581774 -0.37642983 -0.10849255
0.5214096 0.089972265 -0.0068168277 0.06602721 0.51041186 -0.28057995 0.080759004 0.58690375
-0.22169349 0.4769102 -0.40417352 -0.31789336 0.3519308 -0.3469837 0.06524133 -0.020756768
1.153177 0.0642101 0.0039771153 -0.062130548 -0.014632884 0.24047093 -0.050099213 0.35459262
0.79597723 -0.1955066 0.09328327 0.5698167 -0.38593388 -0.29825726 -0.48249 -0.422196
-0.16181894 -0.47965488 0.041961454 -0.34893313 -0.0428115 -0.44391963 -0.12253889 -0.22054854
0.1823612 -0.303767 -0.32981986 0.10806318 -0.15271278 0.90986097 0.42628017 -0.087169625
-0.046067636 0.035576828 0.085348725 0.13003035 0.30539507 -0.2779037 0.26967344 -0.21826763
-0.16949363 -0.19697265 0.40490016 0.070610315 0.095970705 0.1358102 -0.16459642 -0.36806187
-0.45675254 0.055139862 0.08783696 -0.40388143 0.45969316 -0.23808801 0.16035515 -0.44456208
-0.22640648 0.08530756 -0.015900131 -0.028296385 -0.033987496 -0.27620432 -0.28219315 -0.16645563
-0.22105387 -0.6129079 -0.20988874 0.20892812 0.3491342 0.3086526 -0.264085 -0.2071995
-0.11246824 0.304577 -0.18523344 0.00759091 -0.12111093 0.072338924 -0.08076554 -0.21042708
0.26911953 -0.106161356 0.26946136 -0.22644188 -0.2339916 0.30794927 -0.25121912 0.11133894
0.04023725 -0.04299007 -0.036876705 0.12088828 0.0655565 0.3033003 -0.14901929 0.16428854
-0.27130806 -0.4465085 0.14155193 0.30500078 -0.030726884 0.19656754 0.13779835 0.26897874
-0.23779961 0.08771096 -0.26242587 -0.11051077 0.25821495 -0.20557375 -0.04105111 0.11165178
0.19948629 0.033499856 0.06252608 0.0021680114 -0.07858232 -0.20005848 0.1632519 -0.38046578
-0.106045395 0.09514895 -0.08982642 0.13940403 0.039519027 0.18467389 0.22415033 0.06793553
-0.17785828 0.07345996 -0.11428296 0.107755214 -0.22562242 0.10904098 -0.36027825 0.08462078
0.12073526 0.15410197 -0.12433711 0.28477386 -0.2020172 -0.17230758 0.35275406 0.10239741
0.23737088 0.10727638 -0.35865664 -0.15669349 0.078390345 0.015944842 -0.10164527 -0.28834605
0.22296824 0.24784985 -0.020547526 -0.40344685 0.12577583 -0.103902474 -0.10620571 -0.41937384
1.4100581 -0.6317061 0.1975425 0.31173807 -0.3416425 -0.42174762 -0.21858026 -0.05939013
-0.016670115 -0.11102554 -0.28820303 -0.25314683 0.44379517 -0.29645237 -0.19453926 -0.17596695
0.7530281 -0.0015561549 -0.42603937 0.14778739 -0.15676565 0.22317356 0.5166583 1.1178609
-0.5261615 0.65232617 0.17464936 0.07643879 0.44935405 -0.12552558 -0.319076 -0.1403505
1.1277303 -0.3548557 -0.32337093 -0.14618778 0.3472867 0.22380441 -0.076415084 0.49412808
1.0856262 -0.43695274 0.15320604 0.7189946 0.21512876 -0.19834146 -0.34013894 -0.24225967
0.22297628 -0.5120153 -0.058275223 -0.16750336 0.2428947 -0.121613376 -0.036544997 0.19924054

lstm.weight_ih_l1 f4 [256, 64]
00000000: b4ba 533f 8dd0 d2bf 21f3 f03e e54b e0be
00000010: 24d2 983f 912b 523f 7bd9 6fbf 9c54 693e
00000020: 05f7 38bf c8fb cabf 903e 363c 80b0 2abf
00000030: 0bcb 553f cefd 8d3e 76ab 90be 5d40 303f
00000040: b2ec 1d3f a373 b2be 7a63 97bf da13 4bbf
00000050: f585 a63f 395a 983e a7e9 8d3f 3407 50bf
00000060: 976a bb3f b194 4e3f dc41 6cbe dd79 9abe
00000070: 5ed3 0e3e d516 783e 5d7c 463e 85eb 82bd
00000080: 44c6 113f be61 dfbd 5324 bebf 4fb9 81be
00000090: 9e78 a43f b102 fbbd 0ee3 54bf 11e5 33c0
000000a0: 9296 a23e 0199 bdbf 8d86 af3e a3a3 c43d
000000b0: fdc3 f93e a93e 93be 2db3 22bf 27ae 98bf
000000c0: 46fc 813e 666c 2d3e 9a2c 7ebf f795 f13f
000000d0: d3ec b13c 81e7 83be 02bf 93bf 5559 c0be
000000e0: bd95 03c0 d5df 0e3f 82ae d73e 3c5e c3be
000000f0: 1ee5 983e ee84 bbbf 32b5 e4be d108 ec3f
00000100: 7324 3abe 376a 4c3e e78c 2dbf 1f01 e1be
00000110: 1900 de3e 37ea ef3e 5ce4 3cbd 1fc7 e13e
00000120: afa1 57c0 faea 31bf c8d1 193f 3ab3 4cbf
00000130: dbfc 783d ced0 61bf 271c 8e3f 9aff 16bf
00000140: b6b1 c83d 9f8b f43f 8215 2abe f55a 0fbf
00000150: 5cde 1ebd e4ed 33bf 33c2 503f 6645 783f
00000160: b7fc ad3e 4edb b13e ae36 b7be 37a5 dfbe
00000170: 6ab3 66bb 5c68 c63e b310 99be a5d7 6cbf
00000180: 5efe c5bd 1e4b d13f 86a6 493f 7e05 8dbf
00000190: ae55 18bf 04cc a4be 375f a3bf 948a 46bf
000001a0: 8e1b 39bf 108a 3cbf d288 0e3f eace 29be
000001b0: 1242 a6be 3f30 c9be eee7 b0be e869 873e
000001c0: 5b9a 493f ef08 93bc 2983 c33e cc33 0040
000001d0: a9bb 36bf 6fc6 153e 53d3 773f edcd 8fbf
000001e0: 3bb6 1d3f c083 ddbe 4d36 87bf 1f84 71be
000001f0: 155c bfbe 5d08 0bbe ff37 2b3f 8edc 5bbf
00000200: d42b 083f f08d 823c baa2 053f 92ef 54bf
00000210: 7291 b43f 213a 61bf 69ee 70bf 5d13 3e3f
00000220: 9417 5dbf 8ea9 9c3f 643a 81be e3c5 c5be
00000230: 9663 d8be 6c5d bb3e 47eb c2be 1390 8abe
00000240: 7da1 ab3c 1b48 22bf 8dcb 16bf 607f d73e
00000250: 39c7 763d 29d4 b1be 5eeb 10bf f21e 303f
00000260: 7c44 a53e 9e2b 8c3f a650 5abe bfbd 923d
00000270: 1ac7 05bf bbdd 1e3d 58ba 2bbc 5e9d 41be
00000280: d3bd 8a3c 1b26 60be 52c1 9fbe 44be d5be
00000290: eddd 283e 7e02 e63e 0025 113f 780b 253f
000002a0: 9394 f93e 8699 a6bd 56b4 e1bc d723 7cbf
000002b0: dc58 80bd 7a93 35be 5392 2e3f 9c07 32bf
000002c0: cb3c 60be af4c 77be 7abd fabe c44c 143f
000002d0: f40c 133e 690e bbbd fbd2 82bf f890 033f
000002e0: c9ca fb3e b78a ef3e 3b38 cb3e 209e 4bbe
000002f0: 9058 d5be d2bc e6be 6c34 0c3f 50bb 30bf
00000300: c982 27bf a2eb 3e3c 8c5c 69bf caec a23c
00000310: 0e2a 62be f114 4e3e 7a5d d43d 1069 eabe
00000320: 2499 23bf 162e a5bd 8812 8c3d 14de 0dbf
00000330: 3d29 9dbd 378d 08bf 9bd2 c63e 0e78 39bf
00000340: e3b4 28be 6cff 27be 843d 14bf 6c3a 94be
00000350: 8d62 5dbe 832d f9bd 13d9 6abd 2067 b5bf
00000360: 7433 bbbe 3ae2 16bf 8f2f dabd 5b17 a7bf
00000370: c402 99bf 299b d33e 1b00 e23e c33e 443e
00000380: 807b 033f 5525 033f d83a 84bf 2619 e43c
00000390: 6756 15be 72d3 30bd 06db 98be d428 a53f
000003a0: 91a6 be3b ae3e e93c 64b2 c9be af4b b3be
000003b0: 5657 a8be c02e afbe 80ee c23d 2603 4a3e
000003c0: b357 ac3e f219 bb3e db4f cabe 1642 2c3f
000003d0: 6bfd 4cbf 9a05 c4be b6f8 1cbf d052 7e3f
000003e0: 4bea d7be b08e 4d3d 20e7 20bf 8b69 b4bf
000003f0: 3a26 8e3e 4efb d73e 0341 563f 7661 a33f
0.8270676 -1.6469895 0.47060493 -0.43807903 1.193913 0.8209773 -0.93691224 0.22786182
-0.7225192 -1.5858088 0.0111233145 -0.6667557 0.83512944 0.277327 -0.28255814 0.6884821
0.61689293 -0.3485385 -1.1827233 -0.79327166 1.300963 0.29756334 1.108693 -0.8126099
1.4641904 0.80695635 -0.23071998 -0.301711 0.13947818 0.2422746 0.19383378 -0.06392578
0.56943154 -0.10907315 -1.4854835 -0.25336692 1.284931 -0.12256373 -0.8315896 -2.810856
0.317555 -1.4812318 0.34282342 0.09601524 0.4878234 -0.28758743 -0.6355465 -1.1928147
0.25387782 0.16935882 -0.99286807 1.8873891 0.021719372 -0.2576256 -1.1542666 -0.37568155
-2.0560143 0.5581029 0.42125326 -0.38157833 0.29862303 -1.4649942 -0.4466949 1.844019
-0.18177967 0.19962393 -0.67793125 -0.43946168 0.4335945 0.4685838 -0.046116218 0.4409723
-3.3692434 -0.6949917 0.60085726 -0.7996098 0.060788017 -0.88209236 1.1102341 -0.5898377
0.09799521 1.9105109 -0.16609767 -0.55998164 -0.038786277 -0.7028487 0.81546324 0.96980894
0.3398187 0.3473763 -0.35783905 -0.43680736 -0.0035202154 0.38751495 -0.29895553 -0.9251655
-0.09667657 1.6351049 0.7876972 -1.1017301 -0.59505737 -0.32186902 -1.2763432 -0.77555203
-0.7230767 -0.73648167 0.5567752 -0.16582838 -0.32472283 -0.3929462 -0.34551948 0.26447988
0.7875115 -0.017948596 0.38186005 2.0031614 -0.71380097 0.14626478 0.9680683 -1.1234719
0.61606187 -0.4326458 -1.0563446 -0.23585556 -0.3737494 -0.13577409 0.6688232 -0.85883415
0.53191876 0.015936822 0.52201426 -0.83178055 1.4106886 -0.8797932 -0.94113785 0.74248296
-0.863641 1.2239244 -0.2523986 -0.38627538 -0.42263478 0.36594713 -0.38070127 -0.27063045
0.020951027 -0.63391274 -0.58904344 0.42089367 0.060248587 -0.34732178 -0.5660914 0.6879722
0.32278812 1.0950811 -0.21319827 0.071650974 -0.5225693 0.038785677 -0.0104814395 -0.18907687
0.016936218 -0.21889536 -0.3120218 -0.41746724 0.16490908 0.44923776 0.5669708 0.64470625
0.48746166 -0.08134751 -0.027551811 -0.9849219 -0.062669486 -0.17732039 0.68192023 -0.6954286
-0.2189819 -0.24150346 -0.48972684 0.57929635 0.1436041 -0.09133608 -1.0220636 0.5139308
0.4917815 0.4678552 0.39691338 -0.19884539 -0.4166913 -0.45065933 0.5476749 -0.69035816
-0.6543394 0.011652859 -0.9115684 0.0198883 -0.22086355 0.20125176 0.10369392 -0.4578328
-0.6390555 -0.08065431 0.06839472 -0.5541699 -0.07673881 -0.53340477 0.38832554 -0.72448814
-0.16475253 -0.1640603 -0.57906365 -0.28950822 -0.21619625 -0.12166884 -0.057335924 -1.4172096
-0.36562693 -0.58938944 -0.10653602 -1.3054003 -1.1953969 0.41329315 0.44140705 0.19164567
0.5136032 0.5122884 -1.0330458 0.027844023 -0.14583741 -0.0431704 -0.29854602 1.2903085
0.005818196 0.02847227 -0.39393914 -0.3501868 -0.32879132 -0.34215355 0.095181465 0.19727764
0.3366066 0.36543232 -0.3951405 0.6728834 -0.80074185 -0.38285524 -0.61317 0.9934511
-0.4217094 0.050184906 -0.6285267 -1.4094709 0.2776354 0.42183918 0.8369295 1.2764118

lstm.weight_hh_l1 f4 [256, 64]
00000000: a464 5ac0 5bcf a23e 1876 33bf bdad 583f
00000010: 09ff 85bf 0db6 febf fa35 113e 3953 89bf
00000020: bf17 46bf ddd3 863e 41c8 1a3f d52f 30c0
00000030: e2f4 31c0 7fe2 c13c c310 453e ca98 5d40
00000040: 5660 f6bf 0e40 9abe d3aa 1dbf 143d 753c
00000050: e749 6cbe 33e5 acbf 868b 48c0 b429 6bbf
00000060: d7e7 09c0 d602 f2bf 25b3 8abe e7e8 f93f
00000070: c5ef 303d 40f4 83bf 9267 1840 b3a8 16bf
00000080: 82e2 b4bf e271 febe 6347 c1bf 9940 9cbe
00000090: 1646 09be 1527 8d3e b58a 72bf 246e 5cbf
000000a0: cc93 b5bf 060f 71be da7b e13f 08cd 5fbc
000000b0: 68b1 1240 58a4 083e dd21 893f 213f ccbe
000000c0: 88a3 103f 61f1 0bbf 7acf 22be 8fbb 98bf
000000d0: be43 0cbf edb0 81bf f431 95bd 173b 143f
000000e0: 4c7d 57bf 1e0c 42bf d113 59bf fd55 84be
000000f0: 9570 a9bf f6e7 fd3e 61da 8dbe 970f 423d
00000100: 1e41 943f 4978 89be 0501 7a3f bc95 38be
00000110: 70ba 9bbf 8e9d c73f 26c4 3cbf d793 62bf
00000120: c7fe 0fbf e5bf 513f 77eb 533f 017b 87bf
00000130: 7978 2fbd e77e 593f 51db 17bf 1f6e 5fbf
00000140: 890f 1340 7f98 f0be d5b1 e7bf ff9e 483f
00000150: 452f 9bbd 5277 18c0 3535 a13f 95a3 8dbd
00000160: 28c5 3bbf bfc0 d53f 4f46 c8bf 0105 1ebf
00000170: c51c 2f3e cb1f 043f 17b6 13be ce32 1e3f
00000180: 1a1d 083f c4f5 2abf 6af1 da3e 6568 633e
00000190: f0ab c43e 2362 a63f a809 7e3f 7422 583f
000001a0: e6e6 abbf 5d13 99bf 4793 14bf 7fb1 05bf
000001b0: 0fee 6abf d513 b83d b13f 2abf cb10 d2bc
000001c0: f1af 323f a0d4 15be 935a acbf e2da b63e
000001d0: 3961 133f 7ce1 78be 35d7 84be e9d8 a8be
000001e0: b19e b2bf ceda d53e eb5e 89bd 73ad e03d
000001f0: d770 db3c a53d f03e 5940 83bf 3e62 233e
00000200: cbfc c9bf a1da 58c0 4134 d9bf fb70 1dc0
00000210: 2969 92bd 0a28 d13e 63a1 733f b228 8e3f
00000220: 6dfd e4bf 3a54 f7bf 6cc5 89be 0b1b f3bf
00000230: 12da 19c0 e6c6 c0bf 4cea 7ac0 f4e8 1940
00000240: 2fa9 b93f b163 a93c 7c18 a43e 6334 e33f
00000250: 41f0 92bf 12c4 1abf e31a f43f 0e59 893f
00000260: 4151 4d40 f80d 873f 03b0 dcbf d263 333f
00000270: 66b9 5cbf 7e1f c93c fc6f 00bf e5e9 773f
00000280: 188b 2140 4804 ec3e 2573 a73d a3c3 41bf
00000290: 0510 6b3e 867e 23be 699d 44bf a368 843f
000002a0: c329 d9bf 05ac b8bf faf8 0640 e3b5 323f
000002b0: 599f 703f 030e 9abf a220 583f fbcc 1bbf
000002c0: e488 73bf 5cc8 d83d 1b93 26c0 35a5 9cc0
000002d0: e44c e1be f6b7 1ebe 015a 833e a37a 963e
000002e0: ebb9 8e40 2da8 babf 4d41 4a3f 4fd6 31bf
000002f0: dee8 ea3f 6762 b63f 1a64 eabe 785b 9a3f
00000300: 5fba 433f 4ca8 88bf 8517 d1bf 66e7 35bf
00000310: e8e6 4bbf 2a20 86bd 9ebe b43f 490b 0dc0
00000320: d342 40bf 921f 5a3f 0ed0 6cbe 17e2 2e40
00000330: 3cd4 12bf 26b8 5c3f 970c 07bf db04 5b3e
00000340: f96d 17be 55bc 9dbf a62e 8bbe a1c2 f23f
00000350: 9282 c03f 95a2 1abf 4d5b b2be 3835 5d3e
00000360: b324 423f 4974 903f 69a6 86bf 7678 55bf
00000370: f528 27be 4352 acbf cd11 ae3d c882 073f
00000380: 83fd 8e3e beb6 bfbf 6740 b23e 0161 0dbf
00000390: ee73 e13d e0dc 7ebe 6a23 0840 3c3b 6e3f
000003a0: f361 7bbf 6c8e 9abc ecae 21bf 5bf9 0fc0
000003b0: ce88 743f 4366 46be a86f 1e3f 36ff 61be
000003c0: 2d10 d83c 77e4 513f 2f19 983f bfb4 c3be
000003d0: ed2d ce3e 6d1b b83e da25 87be f80b 8d3f
000003e0: ba5b 8abf 4c4c 553f 7b24 af3f 56b8 5d3f
000003f0: 2166 00c0 7c83 71bf a01b c5bf eaee 8e3c
-3.4123926 0.31798825 -0.7010207 0.84640104 -1.0468456 -1.9899307 0.14180747 -1.0728523
-0.77379984 0.26333514 0.60461813 -2.7529194 -2.7805715 0.023667572 0.19244675 3.4624505
-1.9248149 -0.30126995 -0.6158878 0.014968175 -0.23075067 -1.3507446 -3.1335158 -0.9186051
-2.1547754 -1.8907115 -0.270898 1.9524201 0.043197412 -1.0308914 2.3813214 -0.58851165
-1.4131625 -0.4969626 -1.509991 -0.30518034 -0.13405642 0.2756888 -0.947429 -0.8610556
-1.4185729 -0.23540887 1.7615921 -0.013659723 2.292078 0.13343942 1.0713459 -0.39891914
0.5649953 -0.5466519 -0.15899459 -1.1932238 -0.54790866 -1.0132118 -0.072849184 0.57902664
-0.8417556 -0.7579974 -0.8479586 -0.25846854 -1.3237482 0.49591035 -0.27705672 0.04737815
1.1582372 -0.26849583 0.97657806 -0.18025869 -1.2166271 1.5594957 -0.737368 -0.88506836
-0.56248134 0.8193343 0.82781166 -1.0584413 -0.0428395 0.8495926 -0.59319025 -0.87277406
2.2978232 -0.46991345 -1.8101145 0.7836761 -0.07577375 -2.3822827 1.2594362 -0.069159664
-0.7334771 1.6699446 -1.5646456 -0.61726385 0.17100818 0.5161101 -0.1442493 0.6179627
0.53169405 -0.6678126 0.4276231 0.22207792 0.38412428 1.2998699 0.99233484 0.8442757
-1.342984 -1.1959034 -0.5803723 -0.5222396 -0.917695 0.08988158 -0.66503435 -0.025642773
0.69799715 -0.14631891 -1.3465141 0.3571387 0.57570225 -0.24304765 -0.2594544 -0.3297799
-1.3954679 0.41768497 -0.06707557 0.10970583 0.026787205 0.4692203 -1.0254012 0.15955445
-1.5780271 -3.388344 -1.6969072 -2.4600208 -0.07148964 0.4085086 0.9516813 1.1106169
-1.788984 -1.9322579 -0.26908433 -1.8992628 -2.403935 -1.5060699 -3.9205503 2.4048433
1.4504756 0.02067742 0.3204993 1.7750362 -1.147957 -0.6045543 1.9070705 1.0730302
3.2080843 1.0551138 -1.7241215 0.7007419 -0.86220396 0.02455115 -0.50170875 0.9684127
2.5241146 0.46097016 0.08176259 -0.7568914 0.2295533 -0.15966234 -0.7680269 1.0344433
-1.696587 -1.4427496 2.1089463 0.6980879 0.93993145 -1.2035526 0.84424794 -0.6085965
-0.95130754 0.105850905 -2.6027286 -4.895167 -0.44003975 -0.15499863 0.25654605 0.2939044
4.460195 -1.4582573 0.7900589 -0.69467634 1.8352315 1.424878 -0.45779496 1.2059164
0.76456255 -1.067636 -1.6335303 -0.7105621 -0.7964921 -0.065491036 1.4120672 -2.2038138
-0.75101966 0.8520442 -0.23126242 2.7325494 -0.57355094 0.8621849 -0.52753586 0.21388571
-0.14788045 -1.2323099 -0.27184027 1.8965646 1.5039847 -0.6040433 -0.34835282 0.21602333
0.7583725 1.1285487 -1.0519534 -0.83386934 -0.16324218 -1.3462604 0.08499489 0.5293393
0.2792779 -1.4977643 0.3481476 -0.5522614 0.1100844 -0.24888945 2.1271615 0.93059134
-0.98196334 -0.01886674 -0.63157535 -2.2495944 0.9552125 -0.19374947 0.61889124 -0.22070011
0.0263749 0.81989235 1.1882685 -0.38223836 0.40269414 0.35958424 -0.26396066 1.1019278
-1.0809243 0.83319545 1.3683008 0.866094 -2.0062335 -0.94341254 -1.5399055 0.017447907

lstm.bias_ih_l1 f4 [256]
00000000: 0bd5 ffbc e617 e0bd 78a0 903e 4e00 5f3e
00000010: 331d 0a3f 1bf6 62be bf35 e8bc 1e77 8dbe
00000020: 3e7f 8ebd 63a9 ad3d 9604 bcbe ab8a c2be
00000030: 9abc c2bd 033a 7c3e ef51 6ebc b45a 533e
00000040: c911 cabe cdee 2d3e 2496 ebbe 4fff 6f3e
00000050: 911b 2fbe cd2d 803e d1a5 c2bd 996a af3e
00000060: 3e07 753e ec97 2e3e 425a a63e e2ad c6bd
00000070: 7aee f73e 9f1d b03d 0460 4abe c7da a73e
00000080: ee21 b13e 7402 b73e f41c c43e 805e 363e
00000090: d30e 6a3f 03e9 b43e 9b71 6a3e fe01 9d3e
000000a0: d02f a13e 22fb 9c3d b381 d63d ce63 0a3e
000000b0: 22ab 6e3d d5d2 47be 1414 a23e a5b0 fbbe
000000c0: 9741 ab3e 5065 173e 27e9 babb 4eae e2be
000000d0: a869 2fbd 556b 44be bc14 ab3e 72ea b33d
000000e0: afbe d23d 4707 2abe d971 163e f1f4 963d
000000f0: 1b4f b33d ac15 a73e a37a 803e 9f6d 053f
00000100: dfb1 d93e 485a 95be 4b78 893e 26e4 b03e
00000110: 6975 993e fc4d 293e deed 98bb f792 533d
00000120: fbad b43d 93e8 4fbd 41ce f93d 37ea 85be
00000130: 3580 3ebe ccb1 a63d fafc 99bd ce93 e93e
00000140: f933 4abe 9a21 cc3e 4c93 29be 88f7 c33d
00000150: 4ba0 05be 5b63 34be 5e69 193c 7208 ccbe
00000160: 73ca 103e 57ba a1be 7964 2f3e c393 a93e
00000170: c2fe e23d 0a29 a23c 5fba b93e fe6e 8cbc
00000180: 5901 b13e e079 cdbd e776 0f3f a118 a83e
00000190: dc7d 0e3f de88 a63e ee00 08be 524b a0be
000001a0: c0d6 503f 1d46 1cbe 998a 353e c3ce 873e
000001b0: ea7b 063f 4ef1 513e ffb6 e83e e998 8e3f
000001c0: c55b af3e 662d d83e ac1a 1c3f 019b 27be
000001d0: 67cf 1f3f a4b8 1e3e 68d9 0b3f 0e6a f93d
000001e0: 8e7a 3dbd c98b 9e3e 6c4e 2d3e 19d8 f03e
000001f0: 66c7 9abd e088 b33e e8b5 063e 2c55 043f
00000200: f16e 8f3e 92a6 c43d c5fb 24bf 571f 2ebe
00000210: 5421 77be 56be 2d3c 6955 503d 3946 a8bd
00000220: 2f32 393e 19b2 bdbc a750 65be a097 d93d
00000230: c5de d8bd 6352 9dbe 1b61 18bf 6a62 e1bd
00000240: 6bd8 403c c499 c13e 730a a6be 1940 9ebe
00000250: bc4c 2d3e c95e dfbd 585c 93bd 4e80 1d3e
00000260: 584e a83e 8401 9b3e ae66 0cbe 13a9 9ebb
00000270: e588 a1be 5997 29be 21a0 3f3e f520 573e
00000280: a1f8 d43e 46f7 08be 806a 893c faa5 f73d
00000290: 0707 1cbd f8f2 3f3f 2279 a53d 8236 20be
000002a0: 2eda 8ebe 35cb 6c3e 5dfb b0be 4d0a bcbe
000002b0: 37d9 2c3e d1c4 8fbc d9ae 04bd d563 b5be
000002c0: de0f dabe e51d be3e 4deb 2e3e 5329 8e3e
000002d0: 47fe 853e af9a 04be fad6 683e f316 bfbe
000002e0: 5bc0 00bf 38d3 c23d a67f 803e 1147 e83e
000002f0: 8f55 0cbe 6f64 973c 1795 573e cd43 493d
00000300: fd26 713e 5c13 d7bd e70b c43e 8aa6 073f
00000310: ade2 133f c8a0 353e 02d0 913e 7a18 023f
00000320: e72e e63e 6072 b13e 5c87 c73e c6a5 1a3f
00000330: 94fa e63e 0e9a 153f 4681 b13e 7121 1b3f
00000340: cb31 683e 77a0 9e3d 7eb1 6dbe edd8 293f
00000350: ec8e 6a3d 35c9 efbc 03ac 933e f402 433e
00000360: 7475 c23d 8eee cf3e 7307 b63e bf5a 153f
00000370: 5f58 2a3e b438 993e 9006 2cbe 0e4a c93e
00000380: 6cfc 153f 185a 973f e7dc 663f d6e5 443e
00000390: 9e41 da3e 6935 c33e 061d 16be a1d8 b83e
000003a0: 01f1 bc3e 36cf 5b3e fa09 643e 2ae0 b23e
000003b0: 456b 223d 6ea5 073f 53d0 893e eefe f13d
000003c0: 7a34 bd3e 1cc8 823e 8fe0 f13e 98d9 323e
000003d0: 7415 693f b914 573e 1638 0c3f 79bd 24be
000003e0: 6348 c03e 31d0 293e d71e fa3e e010 b93e
000003f0: 427e a3bc 3e8b 783e 0f77 573e 7974 e23e
-0.031229516 -0.10942058 0.28247428 0.2177746 0.53950804 -0.22164194 -0.02834594 -0.27629942
-0.06957863 0.084795736 -0.3672225 -0.3799642 -0.09508629 0.24631505 -0.014545902 0.20640069
-0.39466694 0.16985627 -0.46012986 0.23437236 -0.1710036 0.25034943 -0.09504283 0.34261015
0.23928544 0.17050141 0.32490736 -0.09701134 0.4842413 0.085994 -0.1976319 0.327841
0.345962 0.3574406 0.3830334 0.17809486 0.9142887 0.35334024 0.228949 0.30665582
0.3148179 0.07665087 0.10473957 0.13514635 0.058268674 -0.1951402 0.31655943 -0.49158207
0.3344848 0.14784741 -0.0057040635 -0.4427361 -0.04282537 -0.19181569 0.33414257 0.08784951
0.10290276 -0.16604339 0.14691867 0.073709376 0.087553225 0.32633722 0.25093564 0.52120394
0.42518517 -0.29170442 0.2684959 0.34549063 0.2997239 0.16533655 -0.004667028 0.05165383
0.08822247 -0.05075891 0.12197543 -0.26155254 -0.18603595 0.08139381 -0.075189546 0.4562058
-0.19746388 0.39869386 -0.16560096 0.09568697 -0.13049428 -0.17616026 0.0093635 -0.39850193
0.14139728 -0.3158748 0.17128171 0.33120546 0.110837474 0.01979496 0.36275002 -0.017142769
0.3457134 -0.100330114 0.56040806 0.3283129 0.55660796 0.32526296 -0.13281605 -0.31307465
0.8157768 -0.15261121 0.17728652 0.26524934 0.5253283 0.20502207 0.45452115 1.1140414
0.34249702 0.42222136 0.609782 -0.16367723 0.62425846 0.15500122 0.5462861 0.121784315
-0.046259455 0.30966023 0.16924447 0.4703987 -0.075575635 0.35065365 0.13155329 0.5169246
0.2801433 0.09602083 -0.6444667 -0.17004143 -0.24133807 0.010604462 0.050862703 -0.08216519
0.1808555 -0.023156213 -0.22394048 0.10624623 -0.10589365 -0.3072692 -0.5952317 -0.11005099
0.011770348 0.37812626 -0.32429847 -0.30908278 0.16923803 -0.10906751 -0.071953475 0.15380976
0.32872272 0.30274594 -0.13711044 -0.0048419326 -0.31549755 -0.16561641 0.18713428 0.21008666
0.4159594 -0.13375577 0.016774416 0.120922044 -0.03809264 0.74980116 0.08079745 -0.15645793
-0.27900833 0.23124392 -0.34566775 -0.3672661 0.16879736 -0.017549904 -0.03239331 -0.35427728
-0.4259023 0.37132183 0.17081948 0.27765903 0.2617056 -0.12949632 0.22738257 -0.37322196
-0.5029351 0.09512943 0.25097388 0.4536672 -0.13704513 0.018480508 0.21052967 0.049136925
0.23550029 -0.105017394 0.3829033 0.52988493 0.57767755 0.17737114 0.2847901 0.508186
0.4495766 0.34657574 0.38970459 0.604092 0.4511305 0.58438194 0.3466894 0.605979
0.22675245 0.0774545 -0.23212239 0.6634663 0.057265207 -0.029270748 0.28842172 0.19044095
0.09495059 0.4061169 0.35552558 0.5834159 0.16635273 0.29926074 -0.16799378 0.39314312
0.5858829 1.182437 0.9018082 0.192283 0.42628187 0.38126686 -0.14659509 0.36102775
0.3690262 0.21465763 0.22269431 0.3493665 0.03965308 0.529868 0.2691675 0.11816202
0.369541 0.25543296 0.47241637 0.17465818 0.9104836 0.21003999 0.5477308 -0.16087903
0.37555227 0.16583325 0.48851654 0.36145687 -0.019957665 0.24271867 0.21041511 0.44229487

lstm.bias_hh_l1 f4 [256]
00000000: 5cac 26bb 90bd 86be f17c 803e 426a 2f3d
00000010: 177a f23e 4af8 d4bd d9ab 3abd 3cee 10be
00000020: 9326 c7bd 1fbf 86bd db78 19be 0ea9 b6be
00000030: 7df0 09be a16b 8a3e f572 f73c 072f 053e
00000040: 5798 8bbe ab76 b73e a1ec d9be 6206 2a3e
00000050: 2004 b9be db2a 0e3e 36d2 0fbd c512 853e
00000060: 6ce1 5b3e c306 d33d eb2c 773e f29b a4bd
00000070: c7c9 dd3e 65f8 6a3e 5fbb e0bd 7a71 f63e
00000080: e64f 113f aa6d d63e aaa1 c03e 4f88 813e
00000090: 5e66 6a3f 6e49 4b3e 7e77 4d3e 387e c53e
000000a0: c351 8c3e 200f d43c 9196 193e 725d 163e
000000b0: a332 07be 38c8 bfbd 0306 c03e a459 08bf
000000c0: 8ba6 ba3e 60d4 243e f1b1 45bd ad02 a5be
000000d0: 52db 98bc 0ffa fbbd 50b0 853e 8e20 89bc
000000e0: 4c01 23bb da10 9fbd 7d4b 673e 34ec 913c
000000f0: de01 dfbc 96b6 a33e b754 443e a9f1 e33e
00000100: fb87 bf3e 08b2 f4bd 5771 443e e583 803e
00000110: 47dd eb3e 4815 823e 679a cc3c 2bf3 803c
00000120: a6ac 8b3e de6a 95bc ecf5 1abc f29b acbe
00000130: d637 64be c0b3 d63d e636 e2bd 6e1d af3e
00000140: 5d45 53be 5016 d53e fdce 0fbe d956 24bd
00000150: 8b26 7ebe 52d6 f2bd 860d 3d3d 9c2e 40be
00000160: 7290 6a3e 5818 9dbe 4433 443e adc7 8e3e
00000170: 6311 543e dcf6 383e 0a6f 9d3e 2108 e83d
00000180: 45d6 9d3e f066 a9bd 949b 0d3f 3110 db3e
00000190: 37d2 073f 15d0 c63e 3d69 a8ba 515c 6bbe
000001a0: 1a81 2a3f 2e3a f5bd 2e84 023e 1ca7 623e
000001b0: 169a 003f 6bee 4a3e 634c 113f c54f 833f
000001c0: af6e d83e 9637 bb3e 4f59 023f 1e00 09bd
000001d0: 50f2 243f 7edf a43d d296 cf3e 67c5 403e
000001e0: eacc 7f3c a88c 933e 1ef8 273e 489c 993e
000001f0: a166 c03d 053e fb3e 0d25 2f3e d078 b43e
00000200: 608c 673e fbe1 bc3d 6bc5 dabe 246d 1bbe
00000210: c702 82be b771 8f3d e074 323e 1c7e 9ebe
00000220: e40f a83d ad2e 443e 4f21 bfbd e7c7 083e
00000230: 28b5 81bd 5bd2 ecbd e48d 1dbf 1770 f1bd
00000240: fc28 10be 3849 b73e 775e 18be da95 dbbd
00000250: aad2 4bbd d9d1 28be 80bf 45be ad08 48bd
00000260: 7f5f 1b3e c5d5 2b3e 85c8 b73d f956 d63d
00000270: dae6 a1be 909d 9cbe 5627 8e3e 8406 063e
00000280: e521 db3e 39b5 bebd e46b 84bd 5142 0d3e
00000290: 9f92 343d c123 453f 7405 05bd ac47 95be
000002a0: f597 cabe c1d0 163e 5610 96be ee7f 89be
000002b0: 0992 b13d 64b3 9ebb 8f57 36be 2e43 9cbe
000002c0: 2f96 9cbe cba2 6f3e 868d 283e de81 853e
000002d0: 3c36 793e f6d9 833d 2d6f 9e3e 627e cabe
000002e0: cc69 e1be c0ed 0a3d 0cf1 3a3e 71a1 0c3f
000002f0: 196b 36be 2eaf 3538 7ef7 5c3e a757 e6bc
00000300: 570b 523e 0aba 3bbe 1881 b93e bef3 a73e
00000310: 1466 413f e144 ff3d 6cc4 943e 9572 d83e
00000320: 343e d83e 5969 903e 62e3 f73e cf2d f43e
00000330: 1d2b b73e 7adc 0e3f de3f 1f3e e25b e23e
00000340: 2272 763e d668 763e 5905 46be 4b5c 133f
00000350: 2752 7a3d f125 023e 5700 403e fc50 3c3d
00000360: 8516 293e 81bd e93e bbcd b03e a668 3e3f
00000370: b141 be3e aa5e 5f3e 6dbc 37be af0b c83e
00000380: ca38 fe3e 29d6 8f3f be9f 863f c1fa 6f3e
00000390: ccca df3e bf58 ae3e 376e 67be 977a 9e3e
000003a0: fdc2 b13e 14d5 683d ec98 763e 00dd c83e
000003b0: ed98 893e 570f 203f 4266 853d 30d8 2d3e
000003c0: 671f 893e 244e 943e 4bce 8e3e 1278 933e
000003d0: 64db 733f 59e3 273e 7156 1e3f 75f3 1ebe
000003e0: 961f cd3e 1973 923e 74cc de3e afe1 db3e
000003f0: 008d 4f3e a94e 373e 9227 293e 50b1 203f
-0.0025432324 -0.263165 0.25095323 0.042825945 0.47358772 -0.1039892 -0.045574043 -0.14153379
-0.09724154 -0.06579422 -0.14987509 -0.35675853 -0.13470645 0.2703524 0.030206183 0.13006221
-0.27264664 0.35832724 -0.42563346 0.16603997 -0.3613596 0.13883536 -0.035112582 0.25990883
0.2147271 0.10304024 0.24138229 -0.08037557 0.43318006 0.22946317 -0.10973238 0.4813345
0.5676254 0.41880542 0.3762334 0.25299308 0.9156245 0.1985223 0.20065114 0.3857286
0.2740613 0.025886118 0.14998843 0.14684084 -0.1320291 -0.093643606 0.37504587 -0.5326178
0.36455187 0.1609664 -0.0482654 -0.32228604 -0.018659268 -0.12303554 0.26111078 -0.016739156
-0.00248726 -0.07766886 0.2258739 0.017812826 -0.02722257 0.3197524 0.19172941 0.4452031
0.37408432 -0.11948019 0.1918386 0.25100628 0.4606726 0.2540686 0.024975969 0.015740952
0.27280158 -0.018239435 -0.009458046 -0.33712727 -0.22286925 0.10483503 -0.11045627 0.3420214
-0.20631929 0.41618586 -0.14043804 -0.040121887 -0.2481939 -0.118572846 0.046155475 -0.1876778
0.22906664 -0.30682635 0.19160181 0.27886716 0.20709758 0.1806292 0.3074878 0.113296755
0.30827537 -0.08271587 0.5531552 0.4278579 0.5305514 0.3883063 -0.0012848746 -0.22984435
0.66603243 -0.119739875 0.12745735 0.2213406 0.50235116 0.19817512 0.5675718 1.0258719
0.42271945 0.36565846 0.50917524 -0.033447377 0.6443224 0.0805044 0.40544754 0.18825303
0.01561282 0.2881825 0.16403243 0.30002046 0.09394575 0.49070755 0.17103978 0.35248423
0.22612143 0.0922279 -0.42728743 -0.15178353 -0.25392744 0.07004111 0.17427397 -0.3095559
0.08206156 0.1915843 -0.09332525 0.13357507 -0.06333381 -0.115635596 -0.6154463 -0.117889576
-0.14078134 0.3579805 -0.14879785 -0.10721941 -0.04976145 -0.164863 -0.19311333 -0.0488364
0.15173148 0.16780765 0.08973793 0.104658075 -0.31621438 -0.3058896 0.27764386 0.13088423
0.42799297 -0.09311909 -0.06465891 0.13794829 0.04408514 0.7700768 -0.032475904 -0.29156244
-0.3956906 0.14728071 -0.29309338 -0.26855415 0.08670432 -0.0048431624 -0.17806838 -0.30520004
-0.3058333 0.23401944 0.16460237 0.26075643 0.24337095 0.06438057 0.30944195 -0.39549547
-0.4402603 0.033918142 0.18256015 0.5493384 -0.17814292 4.331691e-05 0.21578786 -0.028117968
0.20512138 -0.18332687 0.36231303 0.32803148 0.75546384 0.124643095 0.29056108 0.4227492
0.42234957 0.28205374 0.48415667 0.476912 0.3577508 0.5580517 0.15551707 0.44210726
0.24066976 0.24063429 -0.19337977 0.575627 0.061113503 0.12709786 0.1875013 0.04597567
0.16512497 0.45652393 0.3453196 0.7437843 0.37159494 0.21813455 -0.17942972 0.39071414
0.49652702 1.1237231 1.05175 0.23435499 0.4370941 0.34052083 -0.22600637 0.30952904
0.34719077 0.056843832 0.24081773 0.3923111 0.26874486 0.62523407 0.06513645 0.16977
0.2678177 0.28965867 0.27891764 0.28802544 0.9525664 0.1639532 0.6185065 -0.15522559
0.4006316 0.28603438 0.4351536 0.4294562 0.20268631 0.179011 0.16519001 0.6277056
