param1/lstm_model_95000.pth (torch, 204435 bytes, 9 tensors)

lstm.weight_ih_l0 f4 [256, 1]
00000000: 3e84 553f 88a5 b53f 70e3 5b3f 0e77 4a3f
00000010: c5e3 4b3f 492f 23bf 87b0 20bf 4de8 573f
00000020: 525f 0fbf 6527 bb3e 717b 4ebf 0f23 ca3f
00000030: 6454 003d d158 84bf 9412 bc3f b4e5 313f
00000040: 9f22 aa3e ffd4 1c40 85f5 d33e 0ab5 293f
00000050: 7c4f b63f 179a 8abf 2a53 863e 0392 c03e
00000060: 8c56 07be 704d 983e d70b 163f 40f0 243f
00000070: 9cca 6fbe 6129 81bf bbad f4be f42c aa3f
00000080: 993c ab3f d68a 3f40 c380 6abe 7b4d 0f3f
00000090: 42cd e53f 2d82 80be 2053 edbe a787 a33f
000000a0: b8db 3540 2c3d 76bf 4f0e 41bf 72a9 a83e
000000b0: a007 313f 5984 e0bc 009a 813e d7cb 023e
000000c0: 2e02 0b40 abad 9bbf fcff e63f 4315 1a3e
000000d0: 02aa 6f3e 2033 0dbf 9896 70be 3622 673f
000000e0: 53bc e63e 1735 243f 7690 033f d150 8dbf
000000f0: 4b57 2b3e 7f8e 253e ce1c cc3d 0bfb 473f
00000100: ba50 95bf 4dce b03d 40d7 593f 4bdc a53f
00000110: 1a8f 6f3f 226a 1840 1eb9 c03f 8627 c13e
00000120: ed66 ccbf d923 2d3e 0e79 ff3e ce67 9d3f
00000130: 65bb fb3e a82d 963e 2eb7 933f c84a 2f3f
00000140: 0952 f13e 2782 aa3f 07a2 613f 4c0d c83d
00000150: 6e33 313f 9e66 07bf 5d6c 2cbf c674 e9be
00000160: 8cba 9f3e 38f2 1d3f 4482 813e 232e a3bd
00000170: a369 a6bf 2cf2 bdbd 1d0e 343f 3819 03c0
00000180: 11c5 173f 7730 a03e 3b49 713f 0376 f23f
00000190: 8a32 c83d eda8 763f 906d 2a3e 3ceb 21bf
000001a0: 644e 21bd 140c 983e 112d 37bf 19d5 553f
000001b0: f61b e3bd 06ea 443f 4494 913e ae0f 2dbf
000001c0: 6781 6a3f a73d cd3e 3858 82be 12f2 36c0
000001d0: ad2b d93e df9a 593f d6b2 963f 1bbd 7e3f
000001e0: 6e9e 1b3e 4097 093f 6d83 3b3f dcf0 62bf
000001f0: 3624 c53e dd2e 833e 332d 52be b035 18bc
00000200: 2f79 c23f 3441 75be b125 fb3f 1d35 8abf
00000210: a869 d7bf be07 07bf 19e2 b53b ff85 513f
00000220: 89f0 fa40 0d9d 78bf d555 04c0 81fe b7bf
00000230: 7eed 9abf b406 7cbe aa1b 91bf 5187 3bbf
00000240: 8ed2 bb3f 9f4d 1fc0 43c7 f5be d21e 713f
00000250: b262 0240 41d0 0d3e b4e3 0bc0 92c5 883f
00000260: 361f db3f 548f c3bf 4d2e 25bf 64de edbe
00000270: 7901 993f 34d0 90bf 6b3b 1b3c 254b 5d40
00000280: 03ff b93e 4eeb 26c0 8433 82c0 8962 0f3f
00000290: 0c12 0ac0 8c92 62bf 1adc eb3e 740f 233f
000002a0: aac6 3b40 8109 23bf 9ef2 a1bf 7b79 f9bf
000002b0: 21df d43f c61a 37bf 6273 b23f dcce 61c0
000002c0: 7ea6 25c0 cdbe 67bd c649 513f 436b 76c0
000002d0: 823a b43f d15a 073f c355 92be 484c 8ebf
000002e0: bd83 b5bf c19e 8bbf 44b6 63bf 852b b5bf
000002f0: ff47 0ec0 2261 f5be 2d99 de3f 17a0 53bf
00000300: b23a d2be 24c4 c53e 3a1c 6040 4b01 613f
00000310: 3dd7 5c40 bd91 3e3d fb2a 02bf 6973 9f3e
00000320: 3974 11be f015 bd3d 2606 c6be 8339 fd3e
00000330: 9e28 6440 378b fe3d 21b5 0e40 2263 d73e
00000340: 2a83 853f 9e90 4040 67ec 253f 3824 333d
00000350: cd09 943f da7d a0be c044 49bf 6e63 12be
00000360: fa80 e73f e4df 1940 3289 5cbe 30c0 8b3f
00000370: 79a2 9bbf b676 88be e707 4ebe 57a4 94be
00000380: 6423 a13f 177b 8640 ea79 713f 657d 3bbf
00000390: 5e19 1d40 5e01 073f fc08 d4be 8702 f03d
000003a0: 7ed6 5540 7121 e73e d246 c3bf 65bd 8f3f
000003b0: 4fee 513f 89b8 a13f 7c8e 9abd b3e8 b73d
000003c0: 048b 7640 6159 bbbe 0e4d 39be 9e35 70bf
000003d0: 9ca7 01be ce94 89bf b9f0 d2bd 8b4f fc3f
000003e0: 1223 a83f 7d7c 1240 acaa ae3e c95d 96bf
000003f0: e848 b53e 9d82 023f 421e 283f 34cb 303f
0.8340491 1.4191141 0.8589392 0.79087913 0.79644424 -0.63744026 -0.6276936 0.8433884
-0.5600482 0.36553493 -0.80657107 1.5791949 0.03133048 -1.0339605 1.469317 0.69491124
0.3322954 2.4505002 0.41398254 0.6629187 1.4243007 -1.0828274 0.26235324 0.37611398
-0.13216609 0.2974658 0.58611816 0.6442909 -0.23417133 -1.0090753 -0.47788796 1.3294969
1.3377868 2.9928489 -0.22900681 0.559776 1.7953265 -0.25099316 -0.46352482 1.2775773
2.8415356 -0.9618709 -0.7541246 0.32941777 0.6915226 -0.027406858 0.25312805 0.12773071
2.172008 -1.2162374 1.804687 0.15047173 0.23404697 -0.55156136 -0.23494947 0.90286577
0.45065555 0.6414351 0.51392305 -1.1040288 0.16732518 0.16167639 0.099664316 0.78117436
-1.1665261 0.08633099 0.8509407 1.2957853 0.9357773 2.3814778 1.5056493 0.37725466
-1.596891 0.16908206 0.49897045 1.2297304 0.49166408 0.29331708 1.1540277 0.6847348
0.471329 1.3320969 0.8813786 0.09768161 0.692191 -0.52890956 -0.6735285 -0.45596904
0.3119701 0.6169772 0.25294697 -0.07967784 -1.3000988 -0.09274706 0.70334035 -2.0484142
0.59285074 0.31286976 0.94252366 1.8942264 0.097752646 0.9635151 0.16643357 -0.63249564
-0.0393814 0.29696715 -0.7155314 0.83528286 -0.110893175 0.7691959 0.2843343 -0.6760205
0.916037 0.400861 -0.2545793 -2.8585248 0.42416134 0.8500194 1.1773326 0.995073
0.15197155 0.53746414 0.73247415 -0.8864877 0.3850419 0.2562169 -0.20525055 -0.009290144
1.5193232 -0.23950654 1.9620878 -1.0797459 -1.6829119 -0.5274619 0.0055506346 0.81845087
7.841862 -0.9711464 -2.0677388 -1.4374543 -1.2103727 -0.24611932 -1.1336567 -0.7325335
1.4673631 -2.4891126 -0.48003587 0.94187653 2.037274 0.13848974 -2.185773 1.0685294
1.71189 -1.5278115 -0.64523774 -0.46458733 1.1953574 -1.1313539 0.009474616 3.4577115
0.3632737 -2.6081119 -4.0687885 0.5600973 -2.1573515 -0.8850486 0.46066362 0.63695455
2.9340005 -0.63686377 -1.2652166 -1.9490198 1.6630594 -0.7152523 1.3941462 -3.5282507
-2.5882869 -0.056578446 0.81753194 -3.8502967 1.4080355 0.5287295 -0.28581056 -1.1117029
-1.4180828 -1.0907823 -0.8894999 -1.4153906 -2.2231443 -0.4792567 1.7390496 -0.8266615
-0.41060406 0.38626206 3.5017228 0.878926 3.450637 0.046525706 -0.50846833 0.31142738
-0.14204492 0.092327 -0.38676566 0.4945794 3.564979 0.12428897 2.2298052 0.4206782
1.0430653 3.0088267 0.64813846 0.043735713 1.1565491 -0.31346017 -0.7862053 -0.14295742
1.8086236 2.4042902 -0.21536711 1.0918026 -1.2158958 -0.2665307 -0.20120202 -0.2903163
1.2588925 4.2025256 0.9432665 -0.7323821 2.4546733 0.5273646 -0.41413105 0.11719232
3.3412166 0.451427 -1.5255988 1.1229674 0.82004255 1.2634441 -0.07546708 0.08979931
3.8522348 -0.36591628 -0.180958 -0.93831813 -0.12661594 -1.0748537 -0.102998205 1.9711775
1.3135703 2.2888482 0.34114587 -1.1747371 0.35407186 0.5098055 0.6567117 0.69060063

lstm.weight_hh_l0 f4 [256, 64]
00000000: cc6d c23c 32a1 5c3f 5bbc 16be c6d3 c23c
00000010: 293c 99be 5936 15be 83f2 1e3e c587 3f3d
00000020: 40fc 913f 7570 1a3d d833 efbe 911a 203f
00000030: e718 863d fce5 773f 2208 58bf d3a2 4e3d
00000040: 0628 cc3b e624 91bd 4d47 00be 8d90 173f
00000050: 3d3a 373f c431 9a3e 065e 32be 2ef7 88be
00000060: bde9 02be 2eac f53e 5f3d ddbc 2bd4 80bf
00000070: 13a4 7cbd 4e1b a1be ab0a 653d bff7 d23e
00000080: b663 833e fc40 06bf 8b67 2dbe b7a1 f33e
00000090: 2403 57be 210e 69bf 2c87 7a3e 01ef 17bf
000000a0: 2670 c9bc af3a 9fbe 1770 0a3e 94d1 c8be
000000b0: 7924 863e 5a26 cf3e 480b ae3e 02f5 18bf
000000c0: 44cc e2be 82d1 e03d c027 503e 39c8 e3bd
000000d0: bf66 373f bb13 713f 69e7 1f3e 2e5c da3c
000000e0: a856 a0bf 310f 12bf ff4a b13e 6054 b63e
000000f0: 035f 92be 5074 81bd b6a7 d8bd 05ce 22be
00000100: e343 513f 9159 cfbf 846d f53e 448b e93e
00000110: 3956 1abe 0714 15be cd12 b6be f87a 873d
00000120: 28cb 093f 1a65 a6bc 731f c5be 399b 433d
00000130: 0705 c93e 3a28 c2bf b2b1 033f ff63 16bf
00000140: 0fe6 513f c0d6 b2bf 15d5 3d3d f37f 4e3f
00000150: 102f 46be 1e0b 13be 335f e13f 96a3 613f
00000160: 453a 7f3e 9bbb b6be ebf6 a73e 9192 913f
00000170: 6c6e eabe 18fd 24bf 819c d73e 562b 943f
00000180: 73fe 29be 86eb a4bf eac2 3e3e 152e 953e
00000190: 8191 b5bf 1117 c13b ffbc 8b3f dbfe 2fbf
000001a0: c0ef 8e3f 3d5b d23e 49fc 04bf 51db 8fbf
000001b0: 5836 183c 13b1 23bf 6c28 ee3e 0a35 603b
000001c0: f29e fcbf 198f 39bf 16ce 943d 7102 9abe
000001d0: cf06 a13d 08ed 66bf 954c cabe c3a8 e8be
000001e0: 19e0 103f af6b a83d 0ccd b8be 44db 54bf
000001f0: fb87 20bf 9c77 77be a922 17bd bc1d b4bf
00000200: b788 9cbf b9ee a43f dd26 7d3e d148 533e
00000210: 39f7 9bbf 51e2 f23d ed01 42be 9368 63be
00000220: 5954 973f 89ed 04bf 3ddb dcbd 6082 9cbd
00000230: b6e5 73bf f43a 77bf 27a4 edbe 7953 7dbe
00000240: bc65 cf3f a7f9 babf 6a72 35bf 939e 8b3e
00000250: 12f9 403e 49b7 9ebc b966 ecbe a63a 43bf
00000260: 98bd 11bf 1180 abbf 3500 e23d d702 4a3c
00000270: a6ed 11bf 260f 54bf 9d66 103f 8dad 103f
00000280: 55a9 a6be ab64 44be efec 213f 79e7 953e
00000290: 8027 573f a65a 363f 3be7 de3e 1fd7 693f
000002a0: 9ae6 253f d79b 843f 4767 a13e d2c2 0dbf
000002b0: d9a2 f03d 5ce1 fa3e c4f8 223f a0b2 c43e
000002c0: 9403 dabd 3e88 4bbf 74f9 4e3f e7d1 323f
000002d0: 1630 f93e 8187 8e3e b0c3 f1bf 4558 453f
000002e0: df64 89bf f925 6abf 3ead bc3e 3679 993e
000002f0: 72bd b2bf bf6c f5be 5391 2c3f 0488 47bf
00000300: 56c0 c8be 1535 433f 364c 2abf cb57 09bf
00000310: 8e31 72bf 7f57 7a3e 17e1 d33d 7b13 b83e
00000320: 5891 883e 2213 a1be 080f 033e 274a 5fbf
00000330: 2ed0 c63e 5ea3 97be 935e a23e bc45 d8be
00000340: da9c 893e ce56 8cbd 82ea ed3d 8ecb a53e
00000350: 01a6 7f3f 0b56 b5bc 7200 d13e e910 9b3c
00000360: 64b4 a13e d400 0abe 76a6 20bf 0c91 143f
00000370: 5880 4e3e 9d29 10bf e338 a6bd 5cec 103f
00000380: 740b 903d 7ed3 28bf f12e 1fbe d1c6 48be
00000390: e8f7 dcbe 797c 3c3e dbf4 e6be 5b3e bb3e
000003a0: b2f1 093f 5b82 643f 9266 823e a193 593f
000003b0: ed95 213f cadd 4ebe d773 e3be 5b0d 8c3e
000003c0: e5d1 45be 6fef 61be c948 773f 1130 5fbe
000003d0: 6b75 403e 9900 dfbe f86e bebf d741 d53f
000003e0: e273 caba 8cc9 663e eef1 73bd 8bea 0ebf
000003f0: 18fa 68be 4b36 b53d cc76 1ebe 1d4b 97bf
0.023733996 0.86183465 -0.1472029 0.023782622 -0.2992871 -0.14571513 0.15522198 0.04676034
1.1405106 0.037704904 -0.4671924 0.6254054 0.065477185 0.96835303 -0.8438741 0.05044825
0.006230357 -0.07087116 -0.12527199 0.5920494 0.7157324 0.30116093 -0.1741868 -0.26751083
-0.12784477 0.47982925 -0.027006803 -1.0064749 -0.06167991 -0.31466144 0.055918377 0.4120464
0.2566201 -0.5244291 -0.1693403 0.47584316 -0.20997292 -0.91037184 0.24465626 -0.59349066
-0.02458961 -0.3109946 0.13519321 -0.39222395 0.261997 0.40458947 0.33992982 -0.5974885
-0.44296467 0.109774604 0.20327663 -0.11122174 0.71641153 0.9417073 0.1561562 0.026655283
-1.2526445 -0.5705443 0.3462753 0.35611248 -0.28588113 -0.06321013 -0.10578863 -0.15898903
0.8174421 -1.6199208 0.47935116 0.45614064 -0.15071954 -0.14558421 -0.3556122 0.06615251
0.53825617 -0.02031188 -0.38500556 0.047755454 0.39261648 -1.5168526 0.51443017 -0.5874633
0.81991667 -1.3971786 0.04634579 0.80663985 -0.1935389 -0.1435971 1.7607177 0.8814024
0.24924572 -0.35690007 0.3280557 1.1372854 -0.4578737 -0.6444869 0.4211159 1.1575725
-0.16600971 -1.2884376 0.18629041 0.2913672 -1.4185029 0.0058926423 1.0917052 -0.68748254
1.1166916 0.41085234 -0.51947457 -1.1238805 0.0092903 -0.6394207 0.46515214 0.0034211301
-1.9736006 -0.72483975 0.0726587 -0.30079988 0.07862627 -0.9020543 -0.39511552 -0.45441255
0.56591946 0.08223664 -0.36093938 -0.8314707 -0.6270749 -0.24166721 -0.03689829 -1.4071574
-1.2229222 1.2885352 0.24721856 0.20633246 -1.2184821 0.11859573 -0.18946047 -0.2220786
1.1822616 -0.5192495 -0.10784004 -0.076420546 -0.95272386 -0.9657433 -0.464143 -0.24738874
1.6202922 -1.4607438 -0.70877707 0.2726942 0.18845013 -0.019374507 -0.4617212 -0.76261365
-0.5692992 -1.3398458 0.11035196 0.012329779 -0.5700325 -0.82835615 0.56406575 0.5651482
-0.32551065 -0.19179027 0.63252157 0.29278162 0.8404465 0.7123207 0.4353579 0.91343874
0.64804995 1.0360059 0.31524107 -0.553754 0.11749811 0.4900006 0.63660836 0.3841753
-0.10645214 -0.79504764 0.80849385 0.69851536 0.486695 0.27837756 -1.8887844 0.77087814
-1.0733908 -0.9146419 0.36850923 0.2997529 -1.3964064 -0.4793453 0.6740925 -0.7794192
-0.3920924 0.7625287 -0.6652254 -0.53649586 -0.94606864 0.2444744 0.10345667 0.35952362
0.26673388 -0.3145991 0.12798703 -0.8722252 0.38830703 -0.29616827 0.3171278 -0.42240703
0.2687748 -0.06852494 0.116169944 0.32381862 0.99862677 -0.022135755 0.40820652 0.018928962
0.3158294 -0.13476878 -0.62754 0.58033824 0.20166147 -0.56313497 -0.08116319 0.56610656
0.070334345 -0.6594771 -0.1554525 -0.19607092 -0.43157887 0.18406858 -0.45108685 0.3657101
0.5388442 0.89261407 0.2546888 0.8499089 0.63119394 -0.20201793 -0.44424316 0.2735394
-0.1931835 -0.22063993 0.96595436 -0.2179568 0.18794791 -0.43555143 -1.4877615 1.6660718
-0.0015445913 0.22537822 -0.059556894 -0.55826634 -0.22751653 0.08848246 -0.15475005 -1.1819798

lstm.bias_ih_l0 f4 [256]
00000000: 109f 7b3e 6300 18bf 3521 d73d ce42 37be
00000010: 08cc 2b3e f2aa 93be f041 eebd 9fc1 44be
00000020: 03e9 b53f 9b3c 1c3e ca73 703d 2557 633e
00000030: f1fd acbe e39f 2fbf 768c 1abe ba46 dbbe
00000040: dff2 0e3d 1ca2 ec3d 6a22 9abe ea19 47be
00000050: cdfe bc3e cc18 67be 4a47 96be 9100 4abe
00000060: 03ce fd3e f401 7b3e 18d1 b0bd db19 c9bd
00000070: f046 203f 96eb 3abe df1e 27be db28 493f
00000080: 6fb0 73be f3b9 083f d0ac d7be 469f c6be
00000090: 0357 d23e 0621 a5be 27a5 cb3a 5998 8bbd
000000a0: 147b 903f 7054 963d b598 d4bd 8cdf 0c3e
000000b0: 87f1 2b3e 4116 783e 6625 2ebd f8ab c53e
000000c0: 7d6a 673f 4ae4 64be f509 053e ddd6 0e3f
000000d0: e5a5 04be a72f 8abe 6319 c1be 0693 86be
000000e0: eb1b 873c 36ec 60be 408a fabd b8a3 98be
000000f0: 36f7 41bc 1d3f e8be 3171 eebe 7e6b b7be
00000100: 3362 1e3d 10e6 9fbe 0fca 61be 53ed 8b3e
00000110: f9e8 73be 8fa8 573f 7483 0e3f aa93 3abe
00000120: dafe 433d 5502 273d 5fa3 e53d 06cc 8bbd
00000130: 51e6 323e 416f c3be 73b1 2f3e 1ecd 99be
00000140: 022f 563d 9c70 cbbd d397 9d3e 29f5 753e
00000150: 9402 5fbd 1756 ad3e 5c87 a4be 9cd8 8ebe
00000160: 0d88 dcbe 53af 273e 4f95 8b3e 0cca 58be
00000170: 217a 853e 9ecd 06be 6de6 993e 5c9c 0cbf
00000180: dada 3ebe 58fd 2dbe 7825 9bbd fe88 a9be
00000190: 616b f33d 17aa 65be 866f 84be f97f 48bd
000001a0: 3e2e 76be 954d bdbe 44ff a8be fe36 2b3d
000001b0: 0e16 d13e 7e41 dd3e 29a6 9bbe 4a8d 71be
000001c0: c135 3dbe c3d1 ec3e 2623 38be a27c 4dbd
000001d0: 8718 01bd 8d4f 683d 976d db3b a19a 62be
000001e0: 8dcd be3e 076a d0bb 22ee 733e 5f6d 18be
000001f0: 2e9b b7be 0fec ba3e 1c65 0ebf e0d5 9abd
00000200: cfef 70bd 740c 52be 3689 233d 6424 d13c
00000210: 5fe0 94bc 9556 043e 40e1 03be 3b07 903d
00000220: a245 87be 6fd7 c6be ed48 b5bd 9b0c 593e
00000230: b1db 3fbc d83a 803e 4e2c 2d3e 1765 353e
00000240: 523c c5be ecfb 5e3d fd99 32be 69fc 20be
00000250: 6b14 3b3d 22ff 43be 428a 29be 6f2c 353d
00000260: 5a5d 233e 4691 5cbd 6428 cdbd a4ef 23bd
00000270: d187 01be fce9 163c b473 193d 66c4 89be
00000280: 5d6a 38be 2e24 823e 5684 2ebd 66aa 8b3e
00000290: 9237 053e ef4d 783e 8df9 433e f07b 153e
000002a0: 4cc4 b4be 63b3 233c 9797 a9bd f503 d03d
000002b0: 731a 03be d2bb 7a3e 11bf 37be 91ba 203e
000002c0: 28f1 9b3e 5c0a 053e 43b6 93bd a130 1d3e
000002d0: bdba e9bd 1731 453d a832 933e 61f7 153d
000002e0: bb4f bc39 d583 453e 075a c1be 415b ad3b
000002f0: 80de 9e3e 2ec2 893d 94ce e3bd ccd2 20bd
00000300: cfbc 453e cdf0 853e 3806 51bd f141 4fbe
00000310: fc15 5e3e 78da 89bd d833 29bd c3da 95be
00000320: c658 bc3f d33e 49bf 52b8 733e 47eb 233e
00000330: 20f4 96be 4351 d7be da60 98be 4eca dbbc
00000340: d257 3ebd 1045 bcbd 8e99 03bf a25a 89be
00000350: 4200 7a3e 632d aabc c417 0cbe 1a36 5abe
00000360: d383 4d3f e4c2 b3bc dbe9 fcbe 2069 013e
00000370: e1e4 6ebe 4f16 793e 7f5b c03e e887 913f
00000380: 3d20 6fbe 3bd7 2f3f 4499 243c 02a6 1e3e
00000390: 4a24 e33e 287a c73c 4015 63be 384f 9bbd
000003a0: a8f0 973f be09 08bf 7153 edbe 450c 4cbe
000003b0: 72b8 b53e 4a01 253e ef08 26bd c8d0 e63e
000003c0: eee2 883f a625 e1be b146 6c3e e1de 443f
000003d0: 1eed b63e 764b 4abe 698b 0fbf 04bf c4be
000003e0: e4c9 ea3d 34b0 81be c245 b6bc 60f1 b0be
000003f0: 3973 7e3e bd62 28be 520f c53d 728c 403e
0.24572396 -0.5937559 0.105043806 -0.17896578 0.1677705 -0.28841358 -0.1163367 -0.19214486
1.4211735 0.15257494 0.058704175 0.22201212 -0.33787492 -0.6860334 -0.15092644 -0.42827398
0.03489959 0.115543574 -0.3010438 -0.19443479 0.36913148 -0.22568053 -0.29351264 -0.19726779
0.49571237 0.24512464 -0.086336315 -0.09819385 0.6260824 -0.18253931 -0.1632037 0.78577965
-0.23797773 0.53408736 -0.42124033 -0.3879339 0.4108201 -0.32251757 0.001553689 -0.068161674
1.128756 0.07340324 -0.10380689 0.13757151 0.16791354 0.24227239 -0.042516135 0.38607764
0.90396863 -0.2235271 0.1299208 0.55796605 -0.12953909 -0.2698948 -0.3771468 -0.26284045
0.016492805 -0.21965107 -0.122334 -0.29812407 -0.011838725 -0.45360652 -0.46570733 -0.35824198
0.03866787 -0.3123021 -0.22049735 0.27329502 -0.23819341 0.84241575 0.5566933 -0.18220392
0.047850467 0.04077371 0.11212801 -0.06826024 0.17470671 -0.38170817 0.17157535 -0.30039304
0.052290924 -0.09933588 0.30779895 0.24019302 -0.054445818 0.33854744 -0.3213452 -0.27899635
-0.43072549 0.16375475 0.2726235 -0.21170825 0.2606974 -0.13164374 0.30058613 -0.54926085
-0.18638173 -0.16991174 -0.07575506 -0.3311233 0.11885715 -0.22428165 -0.25866336 -0.04895017
-0.24041077 -0.36973253 -0.33007252 0.04180049 0.4083714 0.4321403 -0.30400208 -0.23589054
-0.18477537 0.46253785 -0.17982158 -0.050167687 -0.03151753 0.05671649 0.0066964137 -0.22129299
0.37266198 -0.0063602957 0.23821309 -0.14885472 -0.3586058 0.36508223 -0.5562303 -0.07560325
-0.05882245 -0.20512563 0.039925776 0.025530048 -0.018173395 0.12923653 -0.12878895 0.07032629
-0.26420313 -0.38836238 -0.088518 0.21196215 -0.011710093 0.25044894 0.16911432 0.17714344
-0.38522583 0.05443947 -0.17441554 -0.15721287 0.04567377 -0.19140294 -0.16556647 0.04423183
0.1595358 -0.05384948 -0.100174695 -0.04002346 -0.12649466 0.00921106 0.03746386 -0.26907653
-0.18009324 0.25418228 -0.042606674 0.2727844 0.1300948 0.2424848 0.19138165 0.1459806
-0.35306013 0.0099915 -0.082808666 0.10157005 -0.12803058 0.2448571 -0.1794398 0.1569617
0.30457425 0.12992233 -0.07212498 0.15350582 -0.114125706 0.04814252 0.28749585 0.036612872
0.00035917558 0.19288571 -0.37763998 0.0052904193 0.3102913 0.0672649 -0.11123386 -0.03926353
0.19310306 0.2616028 -0.05103132 -0.20239998 0.21688074 -0.06731123 -0.041309208 -0.29268464
1.4714592 -0.7861149 0.23800781 0.1600772 -0.29483128 -0.42054185 -0.29761392 -0.026829865
-0.04647047 -0.0919286 -0.5140618 -0.2682696 0.24414161 -0.020773595 -0.13680941 -0.213097
0.8027927 -0.021943517 -0.49397168 0.12637758 -0.23329498 0.24324916 0.37569806 1.13696
-0.23352142 0.6868779 0.010046307 0.15493014 0.44363624 0.02435024 -0.22176075 -0.07583469
1.1870317 -0.53139865 -0.46352723 -0.19926555 0.35492283 0.16113773 -0.040535863 0.45081162
1.0694253 -0.43974036 0.23073842 0.76902586 0.3572778 -0.19755349 -0.560721 -0.38426983
0.11464289 -0.25329745 -0.02225006 -0.34559155 0.24848641 -0.16443916 0.09622063 0.18803576

lstm.bias_hh_l0 f4 [256]
00000000: ff44 003e 436e f8be 94e2 993d c02c 2ebe
00000010: d93a 873e 8f19 79be a447 2bbe ce96 39be
00000020: db11 a63f 69cf 2e3e 4fd1 413e 6a4c 72bb
00000030: 0027 f7bd d7fa 17bf 6e8f 94be a2d6 edbe
00000040: 00d4 0ebe 991f 813d 148f 3bbe cfcf abbe
00000050: 5f86 da3e 64b0 bebd 07bb acbe 783a 09be
00000060: 1ca2 043f bdeb 633d c307 1cbb 4be4 b53c
00000070: 0751 f03e 2e4a 76be 77a2 a3bd adaf 263f
00000080: 56ff 04be a41f f53e 4d3c d0be fb13 a5be
00000090: 4bd2 973e 549b c5be 41d6 913d 68db d93c
000000a0: 2755 953f 2a2d 203e da6a b7bd 316b 3f3c
000000b0: e24e 543d 31f0 463e 90b4 4dbd 4c68 ba3e
000000c0: 07bd 523f aee3 34be 949c 1f3e f52a 163f
000000d0: 100f bcbe 09db d1be 0c3e 01bf 73ba b9be
000000e0: 93c4 0fbe 123b cfbe bef6 83bc 8e9f c8be
000000f0: 8d83 97bc d60d e4be 68bf 8fbe 5760 cebe
00000100: 5066 4c3e cd79 83be 6cd9 8abe 1d32 c53d
00000110: f363 b4bd 5bc2 533f 2fc5 bd3e 7d70 b5bb
00000120: fd56 29bd 3683 9c3d 3e4a 233c 60b1 223d
00000130: bbb7 b83e 1750 93be 7a07 903e 107a 71be
00000140: e95e 83bd 0095 08be b78e a83e 0edd 633d
00000150: b4f1 2e3c cae3 613e 5d59 35be b394 97be
00000160: 7014 ecbe 1262 0f3e aac6 1a3e 71a3 8bbe
00000170: 0992 b13e cd5e 7ebe 8a6a a53d 6c6c dbbe
00000180: 3a9a 1cbe d32b 3b3d 281e c0bc 6eda e5bd
00000190: 038a 303d 3fc8 86be dbb7 83be ac0c 97bd
000001a0: 802e 50be d775 eebe 40d1 2abe e89f 363e
000001b0: 7db2 d23e ef84 ad3e 3bc7 81be 43a4 58be
000001c0: a902 20bd c1ad d03e bd77 35be d2af 00bd
000001d0: bccb 71bd 857f ca3c 1c25 1fbe 4191 4dbe
000001e0: 14fc c23e 0efc abbd 4438 6d3e 1ddd b1bd
000001f0: a583 9dbe e3dc a93e 280a e7be bece 183d
00000200: 787d dcba 550d 5fbd 1086 f8bd 0036 db3d
00000210: 47ee c53d 8bb8 a23e 90f2 13be a4a1 3d3e
00000220: 94f3 87be 7da6 e6be 933c c93d f662 783e
00000230: 693f 523d 7ceb 833e 6db5 323e 4afd 893e
00000240: 1c3e 29be 4fa5 fa3d 05ec 29be 432d e3bd
00000250: 0923 4a3e f71b efbd f4ce 66be 0e83 1a3e
00000260: c209 2c3e 1f14 413d 3ff7 81bc e4ea e83b
00000270: 6581 e1bd 5e9a 3ebe 5dd5 8c3d 3208 d3be
00000280: d466 75be 7193 ce3d 1266 30bc 23e8 e73d
00000290: c5f8 b93d f125 573e 5191 603e 1fba 3a3e
000002a0: 79c9 40be 755e 763d feac f4bd 9237 5f3d
000002b0: 8ad4 0fbe be92 e73d cb1c 50be 80b6 133e
000002c0: 675b 233e 3fb3 063e c177 80bd 449f 9b3e
000002d0: c393 c8bd 2cf3 a0bd 7946 503e 3cb9 7e3d
000002e0: d6d4 203e 7d0a a23d eb33 d1be 05d7 cdbd
000002f0: 615c da3d 353f 86bb 5075 4cbe 8f02 d2bd
00000300: ed05 853e 577a 293e 55c9 103d 99b5 9fbe
00000310: 1d5e fd3d 646b 96bd 0573 77be e2e7 acbe
00000320: 0605 b83f 99ce 30bf 9a78 4a3e 46c6 963e
00000330: 81b4 acbe 7620 e0be 41ac 48be 82cb bebc
00000340: d62a 2ebd e26f 2dbd 3e9c d7be 4f89 83be
00000350: c872 c03e f3d5 30be 5099 47be 13be 5ebe
00000360: 35c3 3a3f 8725 a63c c2da abbe 076e 603e
00000370: 04e4 2abe d56a 613e c4a6 bf3e 812b 923f
00000380: 3909 a7be 65e5 063f f8d8 1c3e bbd0 873d
00000390: 2692 eb3e 2774 a4bd cafe a8be 3644 0cbe
000003a0: b1d9 973f 7be0 bcbe 3370 b1be 82d8 2fbe
000003b0: 2f4f ca3e 6fad 303e 65ad a9bd bdd0 143f
000003c0: f4a4 7d3f 2155 bdbe 2c0c 813e c495 383f
000003d0: 119a 213e cc67 00be 7c64 c2be 24fc 9abe
000003e0: fe6d 623e c7fc abbe 0a7d b8bd 8147 1bbe
000003f0: 23d5 823e 2c70 ebbd 0214 e5bd a1d8 1e3e
0.1252632 -0.48521623 0.075139195 -0.17009258 0.26412085 -0.24326156 -0.16726547 -0.18123934
1.2974199 0.17071308 0.18927501 -0.0036971816 -0.120679855 -0.59367126 -0.29015678 -0.46452814
-0.13948059 0.06304855 -0.18316299 -0.33556983 0.42680642 -0.093109876 -0.3373644 -0.1340121
0.5180986 0.05564474 -0.0023808337 0.022203585 0.4693682 -0.24051735 -0.07989972 0.6511181
-0.12988028 0.47875702 -0.40671006 -0.32241806 0.29652628 -0.38595068 0.07120944 0.026593879
1.1666611 0.15642229 -0.08955927 0.011683271 0.05183304 0.19427563 -0.050221026 0.36407697
0.8231968 -0.17664978 0.15587074 0.586593 -0.36730242 -0.40987423 -0.504853 -0.36275062
-0.14039831 -0.40474755 -0.016108867 -0.3918423 -0.018495345 -0.44541806 -0.2807572 -0.40307876
0.19960904 -0.25678864 -0.27119005 0.09628699 -0.08808126 0.8271844 0.37064502 -0.0055370913
-0.041342724 0.07642214 0.009966431 0.03971994 0.36077675 -0.2877204 0.28130704 -0.2358172
-0.06414587 -0.13338089 0.32921383 0.055630736 0.010677744 0.22059551 -0.1770987 -0.29605636
-0.46109343 0.14002255 0.15114847 -0.27273133 0.34681728 -0.24840851 0.08076961 -0.42856157
-0.15293208 0.04569609 -0.02345188 -0.11223303 0.04310037 -0.2632465 -0.25726208 -0.07375464
-0.20330238 -0.4657428 -0.16681385 0.17834437 0.411518 0.33890483 -0.25347313 -0.21156411
-0.039065037 0.40757564 -0.17721458 -0.031417675 -0.059032187 0.02471901 -0.155415 -0.20074941
0.38082945 -0.08397685 0.23165995 -0.08684752 -0.307645 0.33176336 -0.45124936 0.03730654
-0.001682206 -0.054456074 -0.121349454 0.10703659 0.096645884 0.3178142 -0.14447999 0.18518692
-0.26553023 -0.45048895 0.09826007 0.242565 0.051330004 0.25765598 0.17452021 0.26951057
-0.16527599 0.12238561 -0.1659394 -0.11092617 0.19739927 -0.11675256 -0.22539884 0.15089056
0.16800597 0.04713833 -0.015864966 0.0071080793 -0.11011008 -0.18613574 0.06876633 -0.4121719
-0.23965007 0.10086716 -0.010766523 0.113235734 0.09080652 0.21010567 0.21930434 0.18235062
-0.18826856 0.060148675 -0.11947058 0.054496355 -0.14045921 0.11307286 -0.20323484 0.14425087
0.15952836 0.13154314 -0.06272841 0.30394948 -0.09793808 -0.07858881 0.20339383 0.062188372
0.1570619 0.07912157 -0.40859923 -0.10050777 0.10662151 -0.0040968903 -0.19966626 -0.10254394
0.25981084 0.16550575 0.035348255 -0.31193236 0.12371466 -0.07344702 -0.2416497 -0.33770663
1.4376533 -0.69065243 0.19772568 0.29448146 -0.33731464 -0.43774766 -0.1959696 -0.0232904
-0.04252132 -0.042343028 -0.4211139 -0.25690696 0.3758757 -0.17269115 -0.19492078 -0.21752195
0.7295411 0.020281566 -0.33565336 0.21916972 -0.16688544 0.2201341 0.3743192 1.1419526
-0.32624224 0.5269378 0.15317142 0.06631609 0.4600994 -0.08029967 -0.3300689 -0.13697895
1.1863309 -0.36890015 -0.34655914 -0.17172435 0.39513537 0.1725366 -0.082850255 0.5813101
0.99079823 -0.3697901 0.252046 0.72103524 0.15781428 -0.12539595 -0.37967288 -0.30270493
0.22112271 -0.3359129 -0.09008224 -0.15163995 0.25553235 -0.114960045 -0.11185457 0.15512325

lstm.weight_ih_l1 f4 [256, 64]
00000000: 9fce 6a3f d8d0 b7bf 1897 6a3e 37b0 e8be
00000010: 8808 953f a6d5 443f be08 4dbf f0a4 7b3d
00000020: 7589 37bf e3b1 c8bf a8a4 dcbb 4aac 24bf
00000030: dc73 523f b60c a73e eb81 86be 02a6 403f
00000040: 3640 2d3f 4500 b2be edd5 77bf c3d7 2bbf
00000050: 6f07 ab3f 975f e43d 00b7 9e3f 1761 50bf
00000060: d43c b73f 9606 6a3f dd70 2dbe cc4a 8ebe
00000070: 9338 253e e84c 593e 3183 783e 6944 a2bd
00000080: eecf 1d3f 25ef 0abe 582a c1bf d95a a9be
00000090: 3893 a73f a89d 63bd 82a7 27bf 6bd8 59c0
000000a0: de41 d13e be68 babf 56bc 973e 09ec 703d
000000b0: 0d28 bf3e ce5f b0be df6e 0ebf c974 8cbf
000000c0: d9d9 a73e 2376 203e 296c a6bf 499b f13f
000000d0: b3fb 203e ddda 4abe d062 acbf 5c4b 6bbe
000000e0: afa7 12c0 27ec f13e 86b9 003f 7697 45be
000000f0: e240 833e ed27 babf 991c 7bbe c71d ea3f
00000100: aedc 16be 52fc 613e e5c3 34bf 9a22 e1be
00000110: f4b6 d33e b8d9 113f 4d7b 8ebe 4860 063f
00000120: 4078 60c0 c056 1ebf 52c0 313f b8df 75bf
00000130: 84b6 673e 6335 6bbf 0f41 913f 88cc dfbe
00000140: 846e 4f3d 9d80 f63f d3f8 81be b912 c2be
00000150: 82fb efbd 93a2 12bf b909 2e3f 76f8 843f
00000160: 87b5 453e 318e 943e 8e8e 57be 2123 99be
00000170: eb8b 5ebe 090a de3e dfae 8cbe ea5b 90bf
00000180: 94f9 f1bd ffbd c53f 9b28 5c3f 0f76 8fbf
00000190: fb13 0cbf 8f82 81be 4806 c0bf f915 42bf
000001a0: 63f5 31bf c987 5cbf d1f6 3f3f 8664 babd
000001b0: 4a1a 82be 2be5 adbe 11a7 6dbe b1ab ff3e
000001c0: 3396 483f ec07 f2bd a824 d13e b2f2 0540
000001d0: c39e 2dbf eba3 1fbe 25ea 503f 0dfb 9abf
000001e0: 68e3 1c3f ee68 e7be d44f 90bf 5f2c b1be
000001f0: 02a9 92be 0590 18be f77d 153f 8728 5cbf
00000200: a70f 143f 1b1c 0ebe 5bfc 0e3f 8627 4dbf
00000210: 1056 613f 3ffc 2fbf 7fc9 9dbf 5cf3 0f3f
00000220: 8d69 45bf bf89 5b3f ad7f c9bd aaaf 8abe
00000230: 761d 09bf 13f7 6e3e a4b5 dabe 7110 a7be
00000240: 0268 4a3e c5f6 3abf 5611 99be fa39 a33e
00000250: 0034 c6bd 8e5b 13be f3fc 69be e16b 363f
00000260: 61ab 053f 6fba 613f c5a7 233d 3027 38be
00000270: f65b bfbe 8e99 ce3c a0d5 063f 94cd 8fbe
00000280: 3ca4 a4be 09ab abbe 93e4 a6be ceaa 05bf
00000290: 4c1f 803e e464 b13e 2fc2 3d3f 6af1 6d3f
000002a0: fa0d 3b3f ede7 aebe a551 f4bd 461f 73bf
000002b0: 3b42 15be ee83 0dbe 694e 823d 9d4d c9be
000002c0: 5917 0bbf c2ae 03bf db83 d8be f959 053f
000002d0: 7516 1d3e 077d fcbd c8c5 76bf fc44 643f
000002e0: 971f 883e 8bd1 ff3e 97d4 963d ba02 85be
000002f0: 8e03 1bbf 223b 33bf a94a 833f 6463 93bf
00000300: 3933 5abf 9519 7bbc 55a1 7fbf d695 303e
00000310: 5732 8cbe 36ec 7d3d 84fd b63d d124 d8be
00000320: 366a 26bf f49a c13c d231 183e 2408 c7be
00000330: c286 85bc e22b 39bf d5e2 f93e adea 47bf
00000340: 8a2b efbc b272 c9be 9de3 ddbe 2f29 c8be
00000350: 84b2 afbe a8f6 95bd e6bf ab3d 16c8 bcbf
00000360: be2d e8be 3d45 0dbf fb45 463e 1342 9cbf
00000370: 9614 abbf cf82 123f 8377 db3e a302 533e
00000380: 7050 f23e ba28 083f 49a6 75bf df7c f8bd
00000390: 0952 323d 7c02 de3b b3aa 83be 079d a63f
000003a0: 5cba 053e 4fab 723c 7a75 2fbe 2351 a1be
000003b0: 151c 7cbe f028 cfbe f4bb 863d 275b 943e
000003c0: 2fd1 5f3e 2adc 263f 0dc7 2abf c65b 283f
000003d0: 0176 51bf ccc2 dabe 2f6d d7be b175 773f
000003e0: 80b6 b7be 345c 833e 35b1 18bf 3209 b1bf
000003f0: 6995 e53e d7c2 e03e baae 483f b0e0 9d3f
0.9172153 -1.4360609 0.229092 -0.4544694 1.1643229 0.768885 -0.80091465 0.061436594
-0.7169412 -1.5679287 -0.0067334957 -0.6432539 0.8220804 0.32626885 -0.26270995 0.7525331
0.67676103 -0.3476583 -0.968108 -0.671261 1.3361644 0.11151045 1.2399597 -0.8139815
1.4315438 0.914163 -0.16937585 -0.2779144 0.16134863 0.21220744 0.24268796 -0.079232045
0.616454 -0.13567789 -1.5091047 -0.33077124 1.3091803 -0.055570275 -0.6548997 -3.403834
0.40870565 -1.4563215 0.29635876 0.05881885 0.37335244 -0.34448093 -0.55637926 -1.097314
0.32783392 0.15670066 -1.3001758 1.8875514 0.15721016 -0.19810052 -1.3467655 -0.22977966
-2.2914846 0.47250482 0.50283086 -0.19296059 0.2563544 -1.4543434 -0.24522628 1.8290337
-0.1473262 0.22068909 -0.7061141 -0.4397171 0.4135052 0.5697284 -0.27828446 0.52490664
-3.5073395 -0.6185112 0.6943408 -0.9604449 0.22628218 -0.91878337 1.1347979 -0.43710732
0.050642505 1.9258 -0.2538515 -0.3790491 -0.11717893 -0.5727932 0.67983586 1.0388324
0.19307528 0.29014733 -0.21050474 -0.29909614 -0.21733062 0.4336703 -0.27477166 -1.127805
-0.118151814 1.5448607 0.8599946 -1.1207904 -0.5471799 -0.2529492 -1.5001917 -0.7581478
-0.69515055 -0.8614469 0.74985987 -0.091012046 -0.25410682 -0.33963904 -0.23208262 0.49935678
0.78354186 -0.11817917 0.4084828 2.092938 -0.67820376 -0.15589873 0.81607276 -1.2107865
0.61284494 -0.45197242 -1.1274362 -0.34604165 -0.28644568 -0.14898689 0.5839533 -0.8599934
0.57836384 -0.13877909 0.55853814 -0.8013843 0.88021946 -0.6874427 -1.2327117 0.5623071
-0.7711418 0.8575706 -0.09838805 -0.27087146 -0.5356058 0.23336439 -0.42716706 -0.3262973
0.19766238 -0.7303279 -0.2989604 0.3188017 -0.09677887 -0.14390394 -0.22850399 0.7125836
0.5221463 0.881751 0.03995492 -0.17983699 -0.37374848 0.025219705 0.52669716 -0.2808653
-0.3215655 -0.33528927 -0.32596263 -0.5221375 0.25023878 0.34647286 0.74124426 0.92946494
0.730682 -0.3416132 -0.11929635 -0.94969594 -0.14576046 -0.13819858 0.06362612 -0.39317027
-0.543325 -0.51438534 -0.42288098 0.5209041 0.15340598 -0.123285346 -0.9639554 0.8916776
0.265866 0.49964556 0.07364767 -0.25978643 -0.605523 -0.70012105 1.025716 -1.1514707
-0.8523441 -0.015325923 -0.9985555 0.17244658 -0.27382156 0.061992846 0.08935073 -0.4221559
-0.65005815 0.023633458 0.14862755 -0.38873398 -0.01629961 -0.72332585 0.48805872 -0.7809246
-0.029195566 -0.39345318 -0.43337718 -0.3909392 -0.34315884 -0.073224366 0.08386211 -1.4748561
-0.453474 -0.55183774 0.19362633 -1.2207664 -1.3365657 0.5723085 0.42864618 0.20606475
0.47326994 0.53187144 -0.95956856 -0.12133192 0.043535266 0.0067751985 -0.2571617 1.3016671
0.13059372 0.014811351 -0.17134658 -0.31507215 -0.24620087 -0.4046092 0.06578818 0.28975794
0.21857141 0.65179694 -0.6670998 0.65765035 -0.81820685 -0.42726743 -0.42075488 0.9666396
-0.35881424 0.25656283 -0.59645396 -1.3830931 0.44840553 0.4389865 0.7839161 1.2334194

lstm.weight_hh_l1 f4 [256, 64]
00000000: 03e6 4dc0 2c56 b13e de0d 06bf 9937 393f
00000010: 59f1 77bf 7b34 08c0 142e 9d3e 499d 8bbf
00000020: bbe1 58bf 7d9e 9d3e 5f4c 233f 392b 53c0
00000030: 492e 2ec0 0815 0e3d cdfe 493e 2b9e 5840
00000040: af67 f2bf 7758 c0be 0ecd 23bf 61f5 bfbb
00000050: cbcc 8fbe daa8 b3bf 8058 4ac0 e1d6 65bf
00000060: 3c19 09c0 d4bb e2bf 0d00 85be 01de f53f
00000070: 8c90 93bc 1228 82bf 3d17 1040 7914 1ebf
00000080: ee78 b6bf 552a 18bf 77c3 b7bf 7c8a c6be
00000090: 7f05 bebd 5083 bb3e 86b0 7cbf 3695 86bf
000000a0: 1720 c3bf aa95 9cbe 0bbc d33f 8670 b93d
000000b0: f07d 0a40 c0dc 423e bbed 8f3f bb77 e8be
000000c0: 5b99 1d3f c15f ffbe 1220 62be d2d9 8cbf
000000d0: 5186 00bf 2db2 85bf 6251 77bd 9038 2f3f
000000e0: 1fb4 67bf c1b2 3fbf 3ab1 3fbf f448 8fbe
000000f0: d15a bdbf ded6 173f 2417 a1be c447 8c3d
00000100: 799d 973f 010a 86be 192f 643f 0709 a1bc
00000110: 531b aabf 7ca6 bb3f 9773 52bf 4587 8fbf
00000120: b4cc 2cbf 9918 0d3f cfff 2b3f f354 63bf
00000130: f153 a2be 87c7 523f 2e7e 11bf 0a61 d8be
00000140: 03ef ff3f 5e19 e4be b166 15c0 e1dc 203f
00000150: df71 dc3c 0166 13c0 31d3 8b3f f120 303d
00000160: 11ee 6abf 3d8b c53f 032f dcbf e687 0fbf
00000170: 984c f03d 7ae5 073f c5c6 0abe 88c7 3d3f
00000180: aa99 d93e 9b6f 35bf 53b9 d83e 6880 943d
00000190: fb6d 073f 3cea 9d3f d59d 2f3f f43e 8f3f
000001a0: e95f 8bbf c66f a9bf e789 28bf 27d4 0cbf
000001b0: 879a 1abf 9dae f63d ed72 ebbe 9e4d 9abe
000001c0: 32a7 273f e71e 5cbe 6c5e a9bf 7ebd d93e
000001d0: bd7b ea3e 5278 1fbe c71b 8bbe bedd 1cbf
000001e0: ef0f 96bf b828 9b3e 2d5d 98be 33e0 fdbc
000001f0: 4d66 8dbd 0111 e93e c589 6bbf e4e0 a03e
00000200: 0db4 bfbf c9d8 6dc0 1e32 bfbf ed9f f3bf
00000210: 6407 b33d 3de0 f33d a5ce 693f 257e 8c3f
00000220: 4b60 eebf 3da8 fbbf ed10 a8be 0199 abbf
00000230: d88d 18c0 1d4e 5fbf 334c 8bc0 b568 dc3f
00000240: aff6 c13f 35c9 6e3e 43fb c53e b47f bb3f
00000250: 7b05 b5bf ffd7 8dbe 598f 9b3f eb38 8f3f
00000260: d013 5b40 12cc 053f bc74 a9bf e415 143f
00000270: 50f7 91bf 1907 a23d 11e5 18bf d403 833f
00000280: 1ff6 2740 257a 98bb 47ee 3e3e a647 26be
00000290: 95f5 7d3e 590e a33c dfdc 52bf c132 9b3f
000002a0: eb13 2fbf 3ea6 b3bf f973 0240 b6e0 b83e
000002b0: 18f9 3b3f e1db 9bbf 4319 773f bb18 0abf
000002c0: 6ba6 86bf fa71 36be 10df 2dc0 1fba 8ec0
000002d0: 31de 00bf 5b91 3d3e fd0c 5f3e 1ee9 65bd
000002e0: cd2d 9040 39e1 9dbf 0de1 4c3f c689 5cbf
000002f0: 0d09 0540 65ce 8a3f fc2c 9fbe 7a25 923f
00000300: 5800 4d3f 0816 81bf 781a bbbf 1ee9 e8bd
00000310: 9c97 16bf c64b 0a3d 981c a93f f35a febf
00000320: 28d8 4dbf 5c53 2a3f 199f 0bbe 8e3b 3440
00000330: 9264 febe 09c4 773f 4e0f 1bbf 7d13 9a3e
00000340: f0dd 77be 393c a6bf 0eb8 7d3d be85 cf3f
00000350: 99bc c83f 21e9 2bbf 9f7d bbbe 6bd0 9b3e
00000360: 305c 1d3f 07a7 813f 4924 94bf f664 62bf
00000370: bad4 5cbe 61cd a5bf ff1a ff3d d3e9 0f3f
00000380: 351b bf3e a8a6 cebf c4de da3e 26f5 02bf
00000390: 7ecf 1b3d b0cc 96be b95d fc3f eef7 5b3f
000003a0: ad57 73bf 340e 133e 1723 2abf 904e 16c0
000003b0: 24ea 4f3f 779d 16be 133b fa3e 5a1e 06be
000003c0: a9d8 a9bc 7c6d 343f c832 8d3f 908b 96be
000003d0: fa41 e03e 3e04 fe3e 410e cbbe bfbc 583f
000003e0: ff81 75bf 0c62 463f 7b30 ac3f bcd2 453f
000003f0: def0 f1bf 79e3 85bf a2cf dcbf e4b9 cc3c
-3.2171638 0.34636056 -0.5236491 0.7235046 -0.9685264 -2.1282032 0.30699217 -1.0907375
-0.8471944 0.3078498 0.6378841 -3.299513 -2.721575 0.034688026 0.19726105 3.3846538
-1.8937892 -0.37567493 -0.63984764 -0.005858109 -0.28085932 -1.4035904 -3.1616516 -0.89781004
-2.1421652 -1.771357 -0.259766 1.9208375 -0.018013261 -1.0168478 2.2514184 -0.6174999
-1.4255655 -0.59439594 -1.4356526 -0.3877753 -0.09278392 0.3662362 -0.98706853 -1.0514286
-1.5244168 -0.30582935 1.6541761 0.09054665 2.1639366 0.19029522 1.1244425 -0.45403847
0.61562127 -0.49877742 -0.22082546 -1.1003973 -0.5020495 -1.0445 -0.060380347 0.6844568
-0.9050922 -0.7488213 -0.748798 -0.27985346 -1.479334 0.59312236 -0.31462967 0.06849626
1.1844932 -0.26179507 0.89134365 -0.019657625 -1.3289589 1.4660182 -0.82207626 -1.1213156
-0.6749985 0.5511566 0.6718721 -0.888015 -0.31704667 0.82335705 -0.5683316 -0.42261535
1.9994816 -0.44550604 -2.3343928 0.62837034 0.026909767 -2.3031008 1.0923826 0.043000165
-0.9176951 1.5433117 -1.7201847 -0.5606674 0.11733359 0.5308453 -0.13552387 0.74132586
0.4250005 -0.7087342 0.4232889 0.07251054 0.5290219 1.2337108 0.6860021 1.1191087
-1.0888644 -1.3237236 -0.6583542 -0.5501122 -0.6039204 0.120450236 -0.4598612 -0.30137342
0.65489495 -0.21496163 -1.323194 0.42527384 0.4579753 -0.15573242 -0.2716963 -0.6127585
-1.1723613 0.30304503 -0.29758587 -0.030990696 -0.06904278 0.45520785 -0.92007095 0.31421578
-1.4976822 -3.7163565 -1.493717 -1.903318 0.08741644 0.119080044 0.9133094 1.0975996
-1.8623136 -1.9660717 -0.32825413 -1.3406068 -2.3836575 -0.87228566 -4.3530517 1.7219454
1.5153407 0.23318942 0.3866826 1.4648347 -1.4142298 -0.27703854 1.2153121 1.1189245
3.4230843 0.5226451 -1.323875 0.578459 -1.1403599 0.0791151 -0.5972453 1.0235543
2.624397 -0.0046532326 0.18645583 -0.16238269 0.24800713 0.019904302 -0.8236827 1.2124864
-0.6838977 -1.4035108 2.0383284 0.3610894 0.7342696 -1.2176477 0.9652292 -0.53943986
-1.0519537 -0.17816916 -2.7167397 -4.46022 -0.5033904 0.1851248 0.21782298 -0.05613052
4.505591 -1.2334358 0.800309 -0.86147726 2.0786774 1.0844237 -0.31089008 1.1417687
0.8007865 -1.0084848 -1.4617453 -0.113725886 -0.5882509 0.03376367 1.3211851 -1.9871505
-0.80407953 0.66533446 -0.1363491 2.816135 -0.49686104 0.967835 -0.6057023 0.30092993
-0.24205756 -1.2987128 0.061943106 1.621269 1.5682555 -0.671526 -0.3661928 0.30432448
0.6146879 1.0129098 -1.1573573 -0.88435304 -0.21565524 -1.2953302 0.12456321 0.5621616
0.37325445 -1.614461 0.42748082 -0.51155317 0.038039677 -0.2945304 1.9716102 0.85925186
-0.9505566 0.14360887 -0.6645979 -2.348545 0.81216645 -0.14708506 0.48873195 -0.13097516
-0.020733194 0.7047956 1.1031122 -0.29403353 0.43800336 0.49612612 -0.39659312 0.84663004
-0.95901483 0.7749336 1.3452295 0.7727468 -1.8901632 -1.0460044 -1.7250865 0.024990983

lstm.bias_ih_l1 f4 [256]
00000000: 88b7 afbd a30b 8cbd c042 be3e 6fb4 e93d
00000010: acd0 0f3f a5a5 53bd 443d 913d ef52 69be
00000020: 829c c1bc c0d8 0d3e 3840 9ebe a00c cdbe
00000030: 1e09 1abe e279 893e 9ac6 03bd e2f3 5f3e
00000040: 9e3b fabe fa44 493e ae63 03bf 0fc0 5b3e
00000050: a48b 78ba 576d 9a3e 32a6 e1bd 7e3d c13e
00000060: 2855 743e ee09 a83d f771 b13e 626a 1f3d
00000070: 1729 ad3e 5a4c b73d 043d 97be 1bc6 e23e
00000080: dee4 c83e 0c1e b43e 476d af3e 7b04 6e3e
00000090: 31da 433f 15e8 603e 462e 7d3e aec7 773e
000000a0: e39c 4a3e 843a 983d 49bf 823d fcd8 643e
000000b0: 376c eb3c 2b56 1dbe 872f b53e a2d8 0cbf
000000c0: 143d 923e d63d c53d c59a 39bd 9fd9 debe
000000d0: cb92 81bc 29bb 0fbe 2100 c03e 7242 d63d
000000e0: 0010 a53d 9aa5 92be 7246 2e3e 91da dd3d
000000f0: 3328 6b3d 0e1a bc3e f3be 753e 885c f93e
00000100: f2e0 d13e f5de b1be 2abf 983e bd4c a63e
00000110: 6ab3 5b3e 5aed 003e a342 53bc 5867 143d
00000120: 69ef ac3d 6ca6 b1bd 16d7 273e 943e 57be
00000130: f2e5 3bbe 9666 7d3d 4783 98bd d0a3 d43e
00000140: 999c 7ebe f301 d13e d662 5ebe 005f 353e
00000150: 5327 50be 1e33 7fbd 10aa 6e3d 45b9 cabe
00000160: dcef dc3d 43e4 88be 9898 9d3e 98a2 9c3e
00000170: 0aa8 033c 2ee1 5a3b 58fb 6b3e 202a 8dba
00000180: d4cc f23d 2db7 b3bd f27b 043f 7c41 a13e
00000190: 3453 013f 1b33 a63e f1ab f4bd 13e4 8dbe
000001a0: 3490 183f d680 1cbe 9c4a 4c3e 004f aa3e
000001b0: d2e6 053f e5ee 683e bf9d 033f c10e 953f
000001c0: 9300 a73e 54cb cc3e 2f6d 023f ec58 82bd
000001d0: a361 2f3f 390f 523e e284 e83e 7552 fc3d
000001e0: a42a 83bd d3ca 9c3e 78b7 d23d e297 f63e
000001f0: 3481 b5bd 7ad7 8f3e aa86 ae3d 200b d03e
00000200: e2d6 393e 4c41 b73d aaa0 0cbf 9831 25be
00000210: 9526 30be d1cf 453d 9bdf ae3c d115 19bd
00000220: 9948 603e cffe 873d b31f 11be a699 b13d
00000230: 2ce3 0abe 3be2 c4be b9f9 e4be 9714 c2bc
00000240: c470 9b3d b485 cb3e dc1d 93be eab7 84be
00000250: 74fd 683e f795 edbd 645e 0ebe e005 9d3d
00000260: edff 963e 1a23 b23e ca59 1dbe 675c 13bd
00000270: c1a7 9dbe f6d0 0abd 647b 083e 5345 2b3e
00000280: 0a37 c33e cc92 fabd dba7 343d 5d52 153e
00000290: 85ab 46bc cfa0 363f 6653 913d 544b 0bbe
000002a0: 961d aebe 9407 633e e181 abbe 25c0 f3be
000002b0: 4534 573e f7de 44bd 230f 3cbd 8cdc 9fbe
000002c0: 0d7b c4be d190 b93e 636f fa3d 4f4f 553e
000002d0: 5d6b 483e 1733 28be 3949 763e f4cf adbe
000002e0: b297 fabe 3a5d 0e3e 228b 9c3e e6e9 e03e
000002f0: 0e93 50be fd8f 833a f752 013e 3d89 6d3d
00000300: e849 403e 17b0 32be 4423 9a3e b4a2 113f
00000310: d1d1 e93e b903 a23e ca77 9f3e fd7c c43e
00000320: 968f ac3e 19a6 c13e af43 bf3e 31ec 1f3f
00000330: 221f e93e 6f8a 323f c64f c33e fd56 1d3f
00000340: ac99 2f3e af90 413e 9600 a6be c478 193f
00000350: b692 8b3d a7b3 dbbd 74a4 773e 5b1a f13d
00000360: 316c 1a3e b1a7 9b3e 0289 db3e 7615 243f
00000370: d446 1b3e 5854 ad3e d736 02be 0dbc c43e
00000380: 4c80 273f 5bda a53f c812 513f 1920 3b3e
00000390: 7d81 c93e 096d c23e d899 2cbe 18bc b43e
000003a0: d907 7b3e bc1f 393e 937f 393e 1c95 963e
000003b0: 0864 f83c 9a23 053f 0995 ab3e e4ba d83d
000003c0: ec84 be3e c3e2 5e3e 9117 f63e f488 d43d
000003d0: fded 533f 3037 2d3e 3373 ce3e af1b f1bd
000003e0: d52a d53e 2a28 923d c34f f73e 85af ca3e
000003f0: f992 58bd bcc5 5f3e 0c4a 433e 0921 f63e
-0.08579928 -0.06838157 0.371603 0.11411368 0.56177783 -0.051671643 0.070917636 -0.22785543
-0.023634199 0.13852215 -0.3090837 -0.40048695 -0.1504254 0.26850802 -0.032171823 0.21870378
-0.4887361 0.19655219 -0.51323974 0.21459983 -0.00094812573 0.30161545 -0.11018027 0.37742227
0.2386061 0.08205019 0.3465726 0.038919814 0.33820412 0.0895011 -0.2953874 0.44291767
0.39237112 0.35179174 0.3426306 0.23243897 0.7650481 0.21963532 0.24724683 0.24197266
0.1978641 0.07433036 0.06384141 0.22348398 0.028738124 -0.15364902 0.35387823 -0.55018055
0.28562224 0.09630935 -0.045313615 -0.43525407 -0.015817067 -0.1403624 0.37500098 0.10461892
0.080596924 -0.2864197 0.1701906 0.10832704 0.057411384 0.36738628 0.23998623 0.48703408
0.40991932 -0.34740415 0.29833347 0.32480422 0.2145516 0.12590542 -0.012894305 0.03623137
0.08444101 -0.086743206 0.16390643 -0.21019965 -0.18349436 0.06186541 -0.07446914 0.4153123
-0.24864425 0.408218 -0.2171739 0.17712021 -0.20327501 -0.06230461 0.058267653 -0.39594474
0.10787937 -0.2673665 0.30780482 0.305928 0.008035669 0.0033398378 0.23045099 -0.001077
0.11855474 -0.087751724 0.51751626 0.31495273 0.5051758 0.32460865 -0.11946858 -0.2771307
0.59595037 -0.15283522 0.19950336 0.33263397 0.5230533 0.22747381 0.51412576 1.1645128
0.32617626 0.39998877 0.5094785 -0.06364617 0.68508357 0.2051362 0.45413882 0.12320415
-0.064046174 0.30623493 0.102889 0.48162752 -0.08862534 0.28094083 0.08521779 0.40633488
0.18148378 0.08948001 -0.54932654 -0.161322 -0.17202218 0.048293892 0.021346858 -0.03737432
0.21902694 0.06640398 -0.14172249 0.08671884 -0.13563222 -0.3845385 -0.44721773 -0.023691459
0.07589868 0.39750445 -0.28733718 -0.25921565 0.22752935 -0.11600869 -0.13903195 0.07667136
0.2949213 0.34792405 -0.15366283 -0.035976794 -0.3079205 -0.033890687 0.1332832 0.16725664
0.3812793 -0.122350305 0.044105392 0.145822 -0.012125854 0.71339124 0.07095985 -0.13602954
-0.34006947 0.2217086 -0.33497527 -0.47607532 0.21016033 -0.0480642 -0.045912873 -0.3122295
-0.3837513 0.362433 0.122282766 0.20831035 0.19572206 -0.16425739 0.2405137 -0.33947718
-0.4894386 0.1390275 0.305749 0.4392845 -0.20368597 0.0010037419 0.12629305 0.05799221
0.18778193 -0.17449985 0.3010503 0.5688889 0.4566789 0.31643465 0.3114608 0.38376608
0.33703297 0.37822035 0.37356326 0.62469774 0.45531565 0.6974248 0.381468 0.6146086
0.17148465 0.18902849 -0.32422322 0.599499 0.06815092 -0.10727625 0.24183828 0.11772605
0.15080334 0.30401376 0.42877966 0.64095247 0.15163738 0.33853412 -0.12716232 0.3842472
0.6543014 1.2957262 0.8166928 0.18273963 0.39356604 0.37973812 -0.16855562 0.35299754
0.24514712 0.18078512 0.18115072 0.29410636 0.030321136 0.5200745 0.33512142 0.105825216
0.37210786 0.2176619 0.48064855 0.10377684 0.82785016 0.16915584 0.40322265 -0.11772858
0.4163424 0.07136567 0.4830304 0.39587036 -0.05287454 0.21852773 0.19071215 0.4807208

lstm.bias_hh_l1 f4 [256]
00000000: 27ef 69bd d674 63be 3d1f ae3e b52d 79bd
00000010: 3ee1 fd3e 6921 873d 5ce9 5b3d 6ca6 bebd
00000020: 131d 52bd 71b8 45bc c3df bbbd 032b c1be
00000030: 449b 42be 8ec8 953e cd1d 4e3c 3ec8 113e
00000040: 2cc2 bbbe d121 c53e f91d f5be 27c7 153e
00000050: 2ce5 43be e1a9 423e ead2 4dbd aae5 963e
00000060: dc2e 5b3e 0506 6f3c 2aae 863e a98e 633d
00000070: 6404 933e e08f 6e3e b077 54be 80ae 183f
00000080: 5731 1d3f 4289 d33e fdf1 ab3e 3b5b 9d3e
00000090: bc31 443f 18bf 843d 2634 603e 2760 a43e
000000a0: cfe0 203e d70c c13c ec6a df3d 95d2 703e
000000b0: e66f 25be ba9d 55bd 7621 d33e e659 17bf
000000c0: 08a2 a13e d61b e03d b6f7 b3bd fe2d a1be
000000d0: 61ca 083c 7e99 92bd be9b 9a3e 65d1 0138
000000e0: 421a cbbc 85cc 4abe 2820 7f3e 44c0 563d
000000f0: 03f7 6abd f8ba b83e 941e 393e f072 d23e
00000100: 0eb7 b73e ce62 33be 4aff 623e 03d9 6b3e
00000110: 9441 c03e f9c9 5b3e 8534 893c a4e0 a639
00000120: 0dbd 893e 1819 5ebd a302 053d c050 92be
00000130: 929d 61be 35b5 ae3d 4cbd e0bd 702d 9a3e
00000140: 0ed7 83be a9f6 d93e 879e 44be 3636 293d
00000150: cc56 a4be 238e 9abb c5ae c23d 4f90 3dbe
00000160: d63d 483e 4442 84be eeff a73e 7fd6 813e
00000170: 9798 d53d 581d 283e 0865 333e b277 043e
00000180: 8e20 a63d 40a4 8fbd 9fa0 023f 0c39 d43e
00000190: 274f f53e 527a c63e 71a1 453c f48d 46be
000001a0: 3375 e43e 72af f5bd f143 193e bdd3 933e
000001b0: fc04 003f 03ec 613e 7e8e 203f 9dc5 893f
000001c0: 7d13 d03e 84d5 af3e f457 d13e ef5c 883d
000001d0: 8c84 343f 7cc6 053e ed68 a03e 5939 423e
000001e0: 1c78 0ebb b2cb 913e cd0a c83d 535c 9f3e
000001f0: d2ac a53d 9f8c d73e f464 ff3d 47b3 773e
00000200: 2f85 023e 957c af3d 400f aabe 657f 12be
00000210: ce0a 3dbe f7a1 dc3d 533b 143e 568f 87be
00000220: bd3c f63d 01f2 8f3e 0ffc 35bc a791 e93d
00000230: a49c bebd e688 45be 4b53 efbe 5525 01bd
00000240: 34fc 9cbd 2835 c13e 800a e5bd 01eb 6abd
00000250: a0c1 0b3c 99ed 2fbe ca37 85be 99ff 00be
00000260: 2485 f13d ef18 5a3e fde1 953d 4893 963d
00000270: b605 9ebe 1458 32be f829 653e ea55 b43d
00000280: 4e60 c93e 8a59 a7bd 2fe5 18bd afc1 263e
00000290: 7677 8f3d 98d1 3b3f dc50 2dbd fad1 8abe
000002a0: 5ddb e9be 0d0d 0d3e da96 90be b835 c1be
000002b0: 0024 033e f6d2 10bd ba2f 44be f1bb 86be
000002c0: 5e01 87be c588 663e d2b3 ed3d 6e00 443e
000002d0: 5ea5 353e f7a4 f23c 2c28 a53e 6337 b9be
000002e0: bd80 dabe 165e 9f3d 0108 733e 14f3 083f
000002f0: 83a8 7abe c3d0 8ebc 60b5 063e eccc 9dbc
00000300: 422e 213e 2c70 81be 7598 8f3e 1cec bb3e
00000310: 4d6c 223f c604 873e 346c a23e cfbe 983e
00000320: e39e 9e3e 129d a03e c39f ef3e acba fe3e
00000330: ab4f b93e dbcc 2b3f addc 423e 3cc7 e63e
00000340: 03da 3d3e a754 b43e 892a 92be 20fc 023f
00000350: 5674 933d 2e15 493d 154d 103e bb0c dbbc
00000360: cf47 623e a476 b53e 4a4f d63e 5d23 4d3f
00000370: e3b8 b63e ecca 833e b8ec 0dbe ae7d c33e
00000380: 44a0 103f 6c56 9e3f 9275 773f f434 663e
00000390: ab0a cf3e 5f90 ad3e fdea 7dbe 075e 9a3e
000003a0: edab 643e 5e2c bc3c 9d0e 4c3e f291 ac3e
000003b0: cbd1 843e 838d 1d3f 623c 063e 2936 213e
000003c0: d86f 8a3e 73f7 803e 6705 933e 425b 5e3e
000003d0: edb3 5e3f 970b fc3d 9faf f23e ac87 e5bd
000003e0: 0802 e23e 022a 443e 39fd db3e 5480 ed3e
000003f0: e3d7 2d3e 1f89 1e3e 8ffa 143e b187 2a3f
-0.05711284 -0.22212538 0.34008208 -0.060834605 0.4958591 0.06598169 0.053689346 -0.09309086
-0.05129726 -0.0120679 -0.091735385 -0.37728128 -0.19004542 0.29254574 0.012580347 0.14236543
-0.3667158 0.38502362 -0.4787443 0.14626752 -0.19130391 0.19010116 -0.05024997 0.29472095
0.21404594 0.0145888375 0.26304752 0.055555973 0.28714287 0.23297071 -0.20748782 0.59641266
0.6140341 0.41315657 0.3358306 0.30733666 0.7663839 0.06481761 0.21894893 0.32104608
0.15710758 0.023565693 0.109090656 0.2351783 -0.16155967 -0.052152373 0.41236466 -0.5912155
0.31568933 0.10942809 -0.087874815 -0.31480402 0.008349032 -0.071581826 0.30196947 3.095101e-05
-0.024792794 -0.1980458 0.2491461 0.052429453 -0.057364475 0.36080146 0.18078071 0.41103315
0.35881847 -0.1751816 0.22167698 0.23032002 0.37550032 0.21463765 0.016748676 0.00031829358
0.26902047 -0.05422315 0.032473218 -0.28577232 -0.22032765 0.08530656 -0.109736055 0.3011279
-0.2575001 0.42571 -0.19201098 0.041311465 -0.3209747 -0.004716651 0.09505991 -0.1851208
0.19554839 -0.25831807 0.32812446 0.2535896 0.10429495 0.16417444 0.17519009 0.12936285
0.08111678 -0.0701375 0.5102634 0.41449773 0.4791195 0.38765198 0.012062416 -0.19390088
0.44620666 -0.11996354 0.14967324 0.2887248 0.50007606 0.22062688 0.62717426 1.0763432
0.40639868 0.34342587 0.40887415 0.06658351 0.7051475 0.13063997 0.31330052 0.18967189
-0.0021739071 0.2847572 0.09767685 0.31125125 0.080896035 0.42099473 0.12470427 0.24189483
0.12746118 0.08568684 -0.3321476 -0.1430641 -0.18461153 0.1077308 0.14475755 -0.26476544
0.12023304 0.28114322 -0.011107459 0.11404734 -0.093072206 -0.19290504 -0.46743235 -0.031529743
-0.076652914 0.37735868 -0.11183643 -0.057353023 0.0085300505 -0.1718048 -0.26019126 -0.12597503
0.11792973 0.21298574 0.073184945 0.073523104 -0.30863732 -0.17416412 0.22379291 0.08805449
0.39331287 -0.08171375 -0.03732794 0.16284822 0.07005207 0.7336669 -0.04231344 -0.27113324
-0.45675173 0.1377451 -0.2824009 -0.37736297 0.12806702 -0.035357438 -0.19158831 -0.26315263
-0.2636823 0.22513111 0.11606564 0.19140789 0.17738864 0.029619677 0.3225721 -0.3617507
-0.42676345 0.07781617 0.23733522 0.5349591 -0.24478345 -0.01743353 0.13155127 -0.019262753
0.15740302 -0.25280893 0.28046003 0.36703575 0.63446504 0.2637083 0.31723177 0.29833075
0.30980596 0.31369835 0.46801576 0.49751794 0.36193594 0.6710946 0.19029494 0.4507388
0.18540196 0.35220835 -0.28548077 0.5116596 0.07199924 0.049092464 0.14091904 -0.026739469
0.22097705 0.35442078 0.41857368 0.80132085 0.35687932 0.25740755 -0.13859832 0.38181823
0.56494546 1.2370124 0.96663773 0.22481138 0.40437827 0.3389921 -0.24796672 0.30149862
0.2233121 0.022970375 0.1992745 0.33705097 0.2594131 0.61544055 0.13108972 0.15743317
0.27038455 0.2518879 0.2871506 0.217145 0.86993295 0.12306898 0.47399613 -0.11207518
0.44142175 0.1915665 0.4296663 0.4638697 0.16976885 0.15481995 0.14548706 0.666133
