param1/lstm_model_97000.pth (torch, 204435 bytes, 9 tensors)

lstm.weight_ih_l0 f4 [256, 1]
0	0x3f2c1a41	0.6722756
1	0x3fb56ce3	1.4173855
2	0x3f50660f	0.8140573
3	0x3f3ddbf7	0.74163765
4	0x3f474d38	0.778522
5	0xbf303467	-0.6882996
6	0xbf138d17	-0.5763716
7	0x3f51fba9	0.8202463
8	0xbefcc762	-0.49370867
9	0x3e6257ff	0.2210388
10	0xbf38ebd7	-0.72234863
11	0x3fd03bfd	1.6268307
12	0x3de07cca	0.109613016
13	0xbf7a03bd	-0.97661954
14	0x3fbee7f6	1.4914539
15	0x3f211788	0.6292653
16	0x3e8f800c	0.2802738
17	0x401fed16	2.4988456
18	0x3f202ad4	0.6256535
19	0x3f2d6b98	0.677423
20	0x3fbf1092	1.4926932
21	0xbf8f0bda	-1.1175492
22	0x3e8b7766	0.2723953
23	0x3ebd3a64	0.3695861
24	0xbc825c83	-0.015913254
25	0x3ea7eb53	0.32796726
26	0x3f1597e6	0.58434904
27	0x3f1b6ae0	0.60709953
28	0xbe14e3ac	-0.14539975
29	0xbf8394e8	-1.0279818
30	0xbe9272a0	-0.28603077
31	0x3fa50fec	1.2895484
32	0x3f9fc0ba	1.248069
33	0x4042a73b	3.041457
34	0xbe6ebbc1	-0.2331381
35	0x3f1307ce	0.57433784
36	0x3fefc676	1.873244
37	0xbe417493	-0.18892126
38	0xbf0a100c	-0.53930736
39	0x3f9c3dd2	1.2206366
40	0x40322361	2.7834094
41	0xbf7b1179	-0.98073536
42	0xbf38216f	-0.71926016
43	0x3eb7e237	0.35914776
44	0x3f20df8d	0.6284111
45	0x3d554cc3	0.05207516
46	0x3e809bbe	0.25118822
47	0x3e2ba490	0.16761994
48	0x400dbce7	2.2146547
49	0xbf9f48d7	-1.2444104
50	0x3fed3b13	1.8533653
51	0x3e437460	0.19087362
52	0x3e5d2200	0.21595001
53	0xbed9e7f9	-0.42559794
54	0xbe6f6f1f	-0.23382233
55	0x3f50a7e1	0.8150616
56	0x3ee4cab6	0.44685906
57	0x3f303114	0.6882489
58	0x3f19a35a	0.6001488
59	0xbf899b28	-1.0750475
60	0x3daae41a	0.08344288
61	0x3da5789b	0.08079644
62	0x3e3e6ad4	0.18595439
63	0x3f6f22fd	0.9341276
64	0xbf92fac0	-1.1482773
65	0x3d54a076	0.05191084
66	0x3f4d4145	0.8017772
67	0x3fa9c422	1.326298
68	0x3f69e7f3	0.9136955
69	0x40144da9	2.31724
70	0x3fc4255b	1.53239
71	0x3eb95802	0.36199957
72	0xbfc8ccdd	-1.5687519
73	0x3df5a3ad	0.11994109
74	0x3f19b53d	0.6004217
75	0x3fa564fd	1.2921444
76	0x3eeb453a	0.45951253
77	0x3e9aede9	0.30259636
78	0x3f9e1d3d	1.2352673
79	0x3f356593	0.70858115
80	0x3eecd1e5	0.46253887
81	0x3faa5bf4	1.3309312
82	0x3f814ff4	1.0102525
83	0x3e10146a	0.14070287
84	0x3f4b47a0	0.79406166
85	0xbf09ef9e	-0.5388125
86	0xbf2112a6	-0.6291908
87	0xbf15201d	-0.58252126
88	0x3ec58f2e	0.385858
89	0x3f0cce4f	0.550023
90	0x3e5aad36	0.21355137
91	0xbe3e0aa3	-0.18558745
92	0xbf99bb01	-1.2010194
93	0xbe4610ac	-0.19342297
94	0x3f342d78	0.7038188
95	0xc006ca73	-2.1061065
96	0x3f0ccfc8	0.5500455
97	0x3ebbba8c	0.3666576
98	0x3f7802e1	0.9687939
99	0x3ff7f2cf	1.9370974
100	0x3d0ea37e	0.034823887
101	0x3f842151	1.0322667
102	0x3d66a211	0.056306902
103	0xbf415ae3	-0.7552931
104	0xbb8d5282	-0.004312814
105	0x3e73cd1b	0.2380871
106	0xbf31c6b7	-0.6944384
107	0x3f570655	0.83994037
108	0xbe2707da	-0.16311589
109	0x3f455c8e	0.7709435
110	0x3eab11df	0.33412072
111	0xbf2e0039	-0.6796909
112	0x3f6c4c29	0.9230371
113	0x3e8351cb	0.2564834
114	0xbe5afcfd	-0.2138557
115	0xc030736d	-2.757045
116	0x3ed03178	0.40662742
117	0x3f7a19b7	0.9769549
118	0x3fa2fc9c	1.273334
119	0x3f81b777	1.0134114
120	0x3da96944	0.08272031
121	0x3f1845d6	0.5948156
122	0x3f25771a	0.6463486
123	0xbf7881ff	-0.9707336
124	0x3ec0b5bd	0.37638655
125	0x3e915057	0.28381607
126	0xbe2a043b	-0.16603176
127	0x3d859972	0.06523408
128	0x3fc45dab	1.5341085
129	0xbe72a470	-0.2369554
130	0x3ffcfe12	1.9765036
131	0xbf85d08b	-1.0454267
132	0xbfd930ed	-1.6968056
133	0xbf2020e3	-0.6255018
134	0xbdc4db8f	-0.0961219
135	0x3f3ae864	0.7301085
136	0x40faf132	7.841943
137	0xbf795b2c	-0.9740474
138	0xbffa0daf	-1.9535426
139	0xbfb26cc2	-1.393944
140	0xbfac44ab	-1.3458456
141	0xbe843d0b	-0.25827822
142	0xbf8e7bab	-1.113149
143	0xbf26433a	-0.6494633
144	0x3faef375	1.3668047
145	0xc021db0b	-2.5289943
146	0xbf1b3b7d	-0.60637647
147	0x3f605f0c	0.8764503
148	0x4003002c	2.0468855
149	0x3d9a49bd	0.07533596
150	0xc00602ba	-2.0939164
151	0x3f7ff204	0.9997866
152	0x3fd56671	1.6671888
153	0xbfc3755d	-1.5270191
154	0xbf2d6b3f	-0.6774177
155	0xbf08172e	-0.5316037
156	0x3f9725e1	1.1808435
157	0xbf8c06e3	-1.0939602
158	0x3d9ddee7	0.07708531
159	0x406018c3	3.5015113
160	0x3ec959e6	0.393264
161	0xc022de8b	-2.544833
162	0xc083cf2c	-4.1190395
163	0x3f0c1d63	0.5473234
164	0xc00d7cbd	-2.2107384
165	0xbf6a08f4	-0.9141991
166	0x3eeec84f	0.46637198
167	0x3f0d5e69	0.55222183
168	0x4038c1af	2.8868215
169	0xbf22e7e0	-0.63635063
170	0xbfa59b12	-1.2937949
171	0xbff85c04	-1.9403081
172	0x3fd2d1fa	1.647033
173	0xbf2cec4f	-0.6754808
174	0x3fa6f3ab	1.3043112
175	0xc06709e3	-3.6099784
176	0xc02668c8	-2.6001453
177	0xbc589a8e	-0.013220442
178	0x3f48d834	0.784549
179	0xc077d97c	-3.8726492
180	0x3fa532be	1.290611
181	0x3ee81b11	0.4533315
182	0xbe3d7b88	-0.18504155
183	0xbf8c643c	-1.0968089
184	0xbfb04838	-1.377204
185	0xbf83afc3	-1.0288013
186	0xbf57aab3	-0.8424484
187	0xbfb2bac8	-1.3963251
188	0xc0116a15	-2.2720997
189	0xbec78c34	-0.38974154
190	0x3fe240b5	1.7675997
191	0xbf700b79	-0.93767506
192	0xbef9dbb7	-0.48800442
193	0x3ee4bbb2	0.4467445
194	0x405e714f	3.4756658
195	0x3f4ac390	0.79204655
196	0x40600ec8	3.5009022
197	0xbc051667	-0.008123017
198	0xbeea240f	-0.45730636
199	0x3e8e6834	0.27813876
200	0xbe0bf6d9	-0.13668384
201	0x3e11ed8e	0.14250776
202	0xbea88397	-0.32912895
203	0x3f099d6f	0.5375585
204	0x4062d180	3.5440369
205	0x3de2e43a	0.11078687
206	0x400a8483	2.1643379
207	0x3ebe915b	0.37220272
208	0x3f8d99c4	1.106255
209	0x403e40c8	2.972704
210	0x3f2f1322	0.6838857
211	0x3dcfa7d6	0.10139434
212	0x3f9f0341	1.2422868
213	0xbed12fb4	-0.40856707
214	0xbf4c5737	-0.7982058
215	0xbd8aeaf0	-0.06783092
216	0x3feb9f25	1.8407942
217	0x40185abc	2.380538
218	0xbea15a4d	-0.31514207
219	0x3f924880	1.1428375
220	0xbf94b740	-1.1618423
221	0xbe4fdd16	-0.20299181
222	0xbd62055f	-0.055180904
223	0xbe9beec4	-0.304556
224	0x3f8beb71	1.0931226
225	0x4084eba6	4.1537657
226	0x3f6b4121	0.91896254
227	0xbf3927ec	-0.7232654
228	0x401f7f0d	2.4921296
229	0x3f02b7cb	0.51061696
230	0xbec78dc4	-0.38975346
231	0x3e174ac4	0.14774615
232	0x40584d26	3.3797088
233	0x3f0ea580	0.5572128
234	0xbfbeea92	-1.4915335
235	0x3fa42697	1.2824277
236	0x3f5c791a	0.86122286
237	0x3fadff8b	1.359361
238	0xbc2ca9da	-0.010538543
239	0x3e0adb5c	0.13560241
240	0x407d56a6	3.9584136
241	0xbee1f63b	-0.4413317
242	0xbe490b96	-0.19633326
243	0xbf59e323	-0.8511221
244	0xbcdf5aaf	-0.027264921
245	0xbf859dba	-1.0438759
246	0xbd7cd786	-0.061728977
247	0x4001bd69	2.0271857
248	0x3fa9b994	1.3259759
249	0x400c8bff	2.1960447
250	0x3ed97b50	0.42476892
251	0xbf98af6d	-1.1928536
252	0x3eb1ea30	0.34748983
253	0x3ee85863	0.45379934
254	0x3f3d71af	0.7400159
255	0x3f4aed69	0.7926851

lstm.weight_hh_l0 f4 [256, 64]
0	0x3db66368	0.08905679
1	0x3f51de7e	0.8198012
2	0xbe449b11	-0.19199778
3	0x3e131c79	0.1436633
4	0xbe91dce9	-0.28488854
5	0xbe0c4dff	-0.13701628
6	0x3e6f2a41	0.23355962
7	0x3d6b3381	0.057422165
8	0x3f8fc493	1.1231865
9	0x3d381b9e	0.044948213
10	0xbeccf2f2	-0.40029103
11	0x3f0dddba	0.5541645
12	0x3dc41bb8	0.095755994
13	0x3f50b4dc	0.8152597
14	0xbf476ea4	-0.779032
15	0xbd0360d0	-0.03207475
16	0x3dc52551	0.09626258
17	0xbdd8f789	-0.105940886
18	0xbd72712d	-0.059189964
19	0x3f30e95c	0.6910608
20	0x3f1e041a	0.6172501
21	0x3e3ecf08	0.18633664
22	0xbe09d5f5	-0.13460524
23	0xbe93ad9b	-0.28843388
24	0xbe387fec	-0.18017548
25	0x3ed2bab9	0.41158083
26	0x3e089a3e	0.13340089
27	0xbf63b2c7	-0.8894467
28	0xbdb5dc32	-0.088798895
29	0xbe5aef55	-0.2138036
30	0x3caba8eb	0.02095457
31	0x3ebcef1c	0.36901176
32	0x3eac7e59	0.33690146
33	0xbed1351a	-0.40860826
34	0xbe158b88	-0.14604008
35	0x3eacc44d	0.33743516
36	0xbdcbe8ad	-0.09956489
37	0xbf7dd87d	-0.9915846
38	0x3e6dc143	0.23218255
39	0xbf3c1404	-0.7346804
40	0xbd5fb9d2	-0.05462057
41	0xbec8c50a	-0.3921283
42	0x3e22f9aa	0.15915552
43	0xbf07c66b	-0.53037137
44	0x3e8ef842	0.2792378
45	0x3e8882f2	0.26662403
46	0x3eeef9a1	0.46674827
47	0xbf21b90b	-0.6317298
48	0xbedb6998	-0.42854
49	0xbd884638	-0.06654018
50	0x3ca0e321	0.019639554
51	0x3c2a1dc3	0.010383072
52	0x3f1ebcc5	0.6200679
53	0x3f6802e7	0.9062943
54	0xbccdd7a8	-0.025127247
55	0xbdb78804	-0.0896149
56	0xbfb1ab2d	-1.3880364
57	0xbf2ddd08	-0.6791539
58	0x3ecbaea6	0.39781684
59	0x3ed9839e	0.42483228
60	0xbe80307b	-0.25036988
61	0x3e1746a3	0.1477304
62	0xbdd9a91b	-0.106279574
63	0xbe07a966	-0.13248214
64	0x3f4b9cbc	0.7953603
65	0xbfd7c411	-1.685671
66	0x3ed7109a	0.42004853
67	0x3eefe802	0.46856695
68	0xbe86c245	-0.2632009
69	0xbe22f3f4	-0.15913373
70	0xbede077c	-0.43365085
71	0x3e06aac7	0.13151084
72	0x3f0fc311	0.5615702
73	0xbd1dd7c0	-0.038535833
74	0xbeb653cb	-0.35610804
75	0x3d924e63	0.07143857
76	0x3eb2e6cc	0.3494171
77	0xbfc433f9	-1.5328361
78	0x3f10fc48	0.5663495
79	0xbf0fe5af	-0.56209844
80	0x3f4af1bd	0.79275113
81	0xbfaa3c7d	-1.329971
82	0x391c72f6	0.00014920146
83	0x3f37c6e5	0.71787864
84	0xbe3f1a51	-0.18662383
85	0xbe0e0cc8	-0.13872063
86	0x3fd6a2b5	1.6768404
87	0x3f796c0f	0.9743051
88	0x3ea68971	0.32526734
89	0xbeebf5c9	-0.46085957
90	0x3e968819	0.2940071
91	0x3f8f556b	1.1197942
92	0xbed22b99	-0.41048887
93	0xbf1f8c4c	-0.6232345
94	0x3efbd76c	0.4918779
95	0x3f8faf39	1.1225349
96	0xbe718c0c	-0.2358858
97	0xbfa88f0a	-1.3168652
98	0x3e71df20	0.23620272
99	0x3e9aec85	0.30258575
100	0xbfb72616	-1.4308498
101	0x3e006ff3	0.12542705
102	0x3f8f02d8	1.1172743
103	0xbf2326bc	-0.6373098
104	0x3f8bc50e	1.0919511
105	0x3f06da29	0.52676636
106	0xbf0b02a3	-0.543009
107	0xbf880569	-1.0626651
108	0xbd46d8f9	-0.048546765
109	0xbf2f5184	-0.6848376
110	0x3eec3acb	0.46138605
111	0x3d9f6643	0.07783177
112	0xc0040879	-2.0630171
113	0xbf2f0aee	-0.6837605
114	0x3de9404e	0.11389218
115	0xbeae231e	-0.34011167
116	0x3e02ca2a	0.12772432
117	0xbf796a39	-0.9742771
118	0xbedd4939	-0.43219927
119	0xbeee0fb8	-0.46496367
120	0x3f1820fd	0.59425336
121	0x3db8efa3	0.09030082
122	0xbeab1a63	-0.3341857
123	0xbf4e20ef	-0.80519
124	0xbf13453c	-0.5752752
125	0xbe898dad	-0.26865903
126	0x3d23d944	0.040002123
127	0xbfb86920	-1.4407082
128	0xbf90ea3b	-1.1321481
129	0x3fa64cd4	1.2992196
130	0x3e85896b	0.26081404
131	0x3e9f5d37	0.31125805
132	0xbf809a37	-1.0047063
133	0x3e17b804	0.1481629
134	0xbeabd9a1	-0.33564475
135	0xbe86f2f7	-0.26357242
136	0x3f87ef6b	1.061994
137	0xbee77880	-0.45209122
138	0xbd4ee563	-0.05051173
139	0xbdc9b96c	-0.098498195
140	0xbf6f0f85	-0.93383056
141	0xbf86129f	-1.0474433
142	0xbec4af9e	-0.38415235
143	0xbe3e739d	-0.1859879
144	0x3fcc0e0a	1.5941784
145	0xbfbe2fa2	-1.4858286
146	0xbf67100d	-0.90258867
147	0x3ec4c0f7	0.3842847
148	0x3e19f8a1	0.1503625
149	0xbdd753ad	-0.10514007
150	0xbeffa213	-0.4992834
151	0xbf5caf8a	-0.8620535
152	0xbf1686b1	-0.5879927
153	0xbfa0713e	-1.2534559
154	0x3e29c114	0.1657756
155	0x3d07a558	0.03311667
156	0xbf1a350a	-0.6023718
157	0xbf5ce3ce	-0.862851
158	0x3f1f2670	0.62168026
159	0x3ee84e96	0.45372456
160	0xbeaebb43	-0.34127244
161	0xbe330433	-0.1748207
162	0x3f2f6329	0.6851068
163	0x3e6f5a21	0.23374225
164	0x3f6906c8	0.9102597
165	0x3f3d766d	0.7400883
166	0x3ef6b230	0.4818282
167	0x3f747e7b	0.95505494
168	0x3f2b9f9d	0.67040426
169	0x3f858e90	1.0434132
170	0x3ec0fe52	0.3769403
171	0xbf25abcc	-0.64715266
172	0x3dafc962	0.085833326
173	0x3eebf44a	0.46084815
174	0x3f2f96f0	0.6858969
175	0x3eca548a	0.39517623
176	0xbde5ff2e	-0.11230312
177	0xbf53534f	-0.82548994
178	0x3f694fcb	0.9113738
179	0x3f3b0686	0.7305683
180	0x3ed6f781	0.41985705
181	0x3e0ceb52	0.13761643
182	0xbff9f78d	-1.9528672
183	0x3f3d5a0f	0.73965544
184	0xbf946b09	-1.1595165
185	0xbf7cb1eb	-0.9870898
186	0x3eccafc7	0.39977857
187	0x3ef619b9	0.480665
188	0xbfa5ff2d	-1.2968498
189	0xbee5390f	-0.44770095
190	0x3f17375a	0.59068835
191	0xbf28127c	-0.65653205
192	0xbe64b1ea	-0.22333494
193	0x3f21b0b4	0.6316025
194	0xbf189e9a	-0.59617007
195	0xbf030fe8	-0.51196146
196	0xbf67852b	-0.90437573
197	0x3eaa15da	0.33219796
198	0xbbd96a07	-0.006634954
199	0x3eb831ec	0.35975587
200	0x3e072878	0.13199031
201	0xbeb00edc	-0.34386337
202	0x3ea6ec9e	0.326024
203	0xbf73dabd	-0.95255643
204	0x3f09e39b	0.53862923
205	0xbebe5932	-0.37177426
206	0x3eca09cc	0.394606
207	0xbefe59d0	-0.49677896
208	0x3e3e1721	0.1856351
209	0xbe2e5566	-0.17024764
210	0x3db23deb	0.08703216
211	0x3edfc1a1	0.43702415
212	0x3f5e70cf	0.8689088
213	0xbd99efe9	-0.07516462
214	0x3f038943	0.5138132
215	0x3e052c15	0.13005097
216	0x3e73d4a3	0.23811583
217	0xbdcda9e7	-0.10042172
218	0xbf21a0b3	-0.6313583
219	0x3f2e8bfd	0.68182355
220	0x3dba513c	0.090975255
221	0xbf1aebb6	-0.60515916
222	0xbd4b6284	-0.0496545
223	0x3eee8e42	0.4659291
224	0x3d119eda	0.035551883
225	0xbf1da722	-0.6158315
226	0xbd5ac30d	-0.05340867
227	0xbe906cb4	-0.28207934
228	0xbeb70167	-0.35743257
229	0x3eb9b4ad	0.36270657
230	0xbed51ca4	-0.41623414
231	0x3eb24efd	0.34825888
232	0x3f03499a	0.5128418
233	0x3f5638eb	0.836806
234	0x3ed6053c	0.4180087
235	0x3f3b5d06	0.7318882
236	0x3f2b1acd	0.6683777
237	0xbe885f1e	-0.2663507
238	0xbea8d5e6	-0.32975692
239	0x3ec08d32	0.37607723
240	0xbe08c44d	-0.13356133
241	0xbebf3fce	-0.37353367
242	0x3f80bc96	1.0057552
243	0xbe30265d	-0.17202134
244	0x3e03e6a9	0.12880959
245	0xbf0d01ac	-0.55080676
246	0xbfc25e00	-1.5184937
247	0x3fe55c9d	1.7918888
248	0xbe3235ff	-0.1740341
249	0x3ddff7b6	0.10935919
250	0xbe16f680	-0.1474247
251	0xbf1b2f88	-0.606194
252	0xbd8bcd83	-0.068263076
253	0x3e20dc5c	0.1570906
254	0xbe96724c	-0.29384077
255	0xbf8cbe97	-1.0995663

lstm.bias_ih_l0 f4 [256]
0	0x3e314445	0.17311199
1	0xbf1ad526	-0.6048149
2	0x3dbad4a5	0.0912259
3	0xbe73fa47	-0.23825942
4	0x3e1668a8	0.1468836
5	0xbe8d7905	-0.27631393
6	0xbd6223f2	-0.05521006
7	0xbe3844ad	-0.17994948
8	0x3fb9b91b	1.4509615
9	0x3d0ffed4	0.035155132
10	0x3e08e821	0.133698
11	0x3e7e93e5	0.24861105
12	0xbe8dc063	-0.27685842
13	0xbf32607a	-0.6967846
14	0xbdd30495	-0.10303608
15	0xbf025650	-0.5091295
16	0xbcd5fc74	-0.026121356
17	0x3e13c597	0.14430843
18	0xbdcda47c	-0.100411385
19	0xbe1bee73	-0.1522768
20	0x3ec9929e	0.39369673
21	0xbe621c5f	-0.22081135
22	0xbe8136f1	-0.2523723
23	0xbe4f4151	-0.2023976
24	0x3f09e079	0.53858143
25	0x3e956a0e	0.29182476
26	0xbd73b0c4	-0.05949475
27	0xbddaeae0	-0.1068933
28	0x3f2b5818	0.66931295
29	0xbe560fa3	-0.20904402
30	0xbd487f9d	-0.048949827
31	0x3f3a8597	0.7286009
32	0xbe8c91ec	-0.2745508
33	0x3f02a5fa	0.5103451
34	0xbed4d700	-0.41570282
35	0xbed34e9e	-0.41270918
36	0x3efa8d51	0.4893594
37	0xbea00596	-0.31254262
38	0xbd720c43	-0.059093725
39	0xbdeed33b	-0.11661383
40	0x3f8aecdb	1.0853533
41	0x3a3fa808	0.00073111104
42	0xbcacd15a	-0.02109592
43	0x3dee9c80	0.11650944
44	0x3dca4d54	0.098780304
45	0x3e963c5a	0.2934292
46	0xbd8fadd7	-0.07015579
47	0x3eda3b7a	0.42623502
48	0x3f582b55	0.8444112
49	0xbe9a2ccd	-0.30112305
50	0x3dad77cd	0.08470116
51	0x3f1410da	0.57838213
52	0xbde1aad9	-0.11018915
53	0xbde49227	-0.11160689
54	0xbeceac9a	-0.4036606
55	0xbeb857f2	-0.36004597
56	0x3ccd70ea	0.025078256
57	0xbe90982d	-0.282411
58	0xbd392a23	-0.0452062
59	0xbe89a70b	-0.26885256
60	0xbccff062	-0.025383178
61	0xbeeee5cf	-0.46659705
62	0xbecbbce1	-0.3979254
63	0xbe5c23d8	-0.21498048
64	0x3ca8e92d	0.020619
65	0xbe9d3c2c	-0.3070997
66	0xbe8cf730	-0.2753234
67	0x3ea3185d	0.31854525
68	0xbe810cd1	-0.2520509
69	0x3f72ea57	0.94888824
70	0x3f13a7f2	0.5767814
71	0xbe631f21	-0.22179843
72	0x3d8fc7b4	0.07020512
73	0x3cf7520b	0.030190488
74	0x3e6d3102	0.23163226
75	0x3c965b7b	0.018354168
76	0x3e2790bd	0.16363807
77	0xbecc406b	-0.39892897
78	0x3e3f1bc8	0.18662941
79	0xbe9cd298	-0.3062942
80	0xbdca10e1	-0.09866501
81	0xbe18cc21	-0.14921619
82	0x3ed85e8c	0.42259634
83	0x3e8e50ab	0.2779592
84	0x3d5c455e	0.05377709
85	0x3e8d0b7d	0.27547827
86	0xbeaa7aa6	-0.33296698
87	0xbe9bd03c	-0.30432308
88	0xbec129d0	-0.37727213
89	0x3dd32848	0.103104174
90	0x3e63467c	0.22194856
91	0xbe974823	-0.29547223
92	0x3eb55043	0.35412797
93	0xbdb5ff8b	-0.088866316
94	0x3ea74504	0.32669842
95	0xbf101a80	-0.56290436
96	0xbe8909e7	-0.26765367
97	0xbdf0186d	-0.11723409
98	0xbd824980	-0.06361675
99	0xbe8cdd54	-0.2751261
100	0x3de851c2	0.11343719
101	0xbe6c726a	-0.2309052
102	0xbea91c3f	-0.33029363
103	0xbe262568	-0.16225207
104	0xbe7f1431	-0.24910046
105	0xbef6ba57	-0.4818904
106	0xbebe9c14	-0.37228453
107	0x3db065f8	0.08613199
108	0x3eb69af6	0.356651
109	0x3eda539e	0.4264192
110	0xbe94eb86	-0.2908594
111	0xbe33fb49	-0.17576326
112	0xbe6865d9	-0.22695102
113	0x3eaccec7	0.3375151
114	0xbe1e1569	-0.15437855
115	0x3d1b5717	0.037924852
116	0xbd949131	-0.072542556
117	0x3df82913	0.12117209
118	0x3d818f09	0.0632611
119	0xbe3a0ee8	-0.18169749
120	0x3e989b4f	0.2980599
121	0xbc363821	-0.011121781
122	0x3e61023c	0.21973509
123	0xbe693ead	-0.22777815
124	0xbe879935	-0.26484075
125	0x3eb7cf9a	0.35900575
126	0xbee771e8	-0.4520409
127	0xbb71d139	-0.0036898388
128	0xbd537ad9	-0.05163083
129	0xbe265f3c	-0.16247267
130	0x3dc06cfd	0.09395788
131	0x3caec38d	0.02133348
132	0xbd5cb6d6	-0.053885303
133	0x3e1a678b	0.15078561
134	0xbe37d360	-0.17951727
135	0x3d991067	0.074738316
136	0xbe7633d5	-0.2404321
137	0xbed101b5	-0.40821615
138	0xbcd84a18	-0.026402518
139	0x3e676e4d	0.2260067
140	0xbdd7d7e4	-0.10539225
141	0x3e0b48d6	0.13602003
142	0x3e0a62ad	0.13514204
143	0x3e1b39ca	0.15158764
144	0xbef6cb04	-0.48201764
145	0xbcce6f4f	-0.02519956
146	0xbea40edd	-0.3204259
147	0xbe585ffe	-0.21130368
148	0x3db38193	0.08764949
149	0xbe86319b	-0.2620972
150	0xbcab3797	-0.02090053
151	0x3cbdb766	0.02315874
152	0x3e1234a7	0.14277898
153	0xbd8bbce7	-0.0682314
154	0xbca26a8e	-0.0198262
155	0xbb16fc4f	-0.0023038571
156	0xbe004c24	-0.12529045
157	0x3cd938d2	0.026516352
158	0x3e0f1903	0.13974385
159	0xbe581588	-0.21101964
160	0xbde647bb	-0.1124415
161	0x3e754bf9	0.23954763
162	0xbd9c3d43	-0.07628872
163	0x3e8dbb0b	0.27681765
164	0x3ddeb376	0.10874073
165	0x3e6e10d6	0.2324861
166	0x3e3087bb	0.17239277
167	0x3d50dc69	0.05099145
168	0xbea3a9f3	-0.31965598
169	0x3d417765	0.047233004
170	0xbdbb1e26	-0.0913661
171	0x3dfa58fd	0.122240044
172	0xbe364535	-0.17799838
173	0x3e5e4f2f	0.21709894
174	0xbeab1b7f	-0.33419415
175	0x3db679d9	0.08909959
176	0x3e8396d1	0.25701
177	0x3e1348a8	0.14383185
178	0xbddc492b	-0.10756143
179	0x3e010b4a	0.12601963
180	0xbe494007	-0.1965333
181	0xbd401d5f	-0.04690301
182	0x3ec235ce	0.37931675
183	0x3c991261	0.018685522
184	0x3d55d4dc	0.05220495
185	0x3e5a1f2f	0.21300958
186	0xbea8251f	-0.3284082
187	0xbce0118f	-0.027352123
188	0x3e864c91	0.2623029
189	0x3dce50fa	0.10074039
190	0xbdc4058f	-0.09571373
191	0xbe30a477	-0.17250238
192	0x3df2d3dc	0.11856815
193	0x3ea23ce5	0.31687084
194	0xbdd50cbb	-0.10402819
195	0xbe831432	-0.25601345
196	0x3e85cfa8	0.26134992
197	0xbdbf353d	-0.09336326
198	0x3d74e0ab	0.059784573
199	0xbeb2168f	-0.34782836
200	0x3fb996f6	1.4499195
201	0xbf3acc7c	-0.7296827
202	0x3e8f84b4	0.28030932
203	0x3e368e07	0.17827617
204	0xbe9626f9	-0.2932661
205	0xbeda7faa	-0.42675525
206	0xbea5c40e	-0.3237614
207	0xbd837b77	-0.064200334
208	0xbcf32af7	-0.029683573
209	0xbe0fed98	-0.14055479
210	0xbec6045a	-0.38675195
211	0xbe888f55	-0.26671854
212	0x3e932c4d	0.28744736
213	0xbe239829	-0.15976013
214	0xbdf7d9c1	-0.1210208
215	0xbe325010	-0.17413354
216	0x3f5859ce	0.8451203
217	0xbccbdd89	-0.02488591
218	0xbf13bb4a	-0.57707655
219	0x3d6832e6	0.056689166
220	0xbe492710	-0.19643807
221	0x3e854d00	0.2603531
222	0x3f03bae9	0.5145708
223	0x3f93c57d	1.1544644
224	0xbebc5d73	-0.36790046
225	0x3f40c41d	0.75299245
226	0xbb268d56	-0.0025413833
227	0x3e100b61	0.1406684
228	0x3efac064	0.48974907
229	0xbd4217ef	-0.047386106
230	0xbe7d8960	-0.24759436
231	0xbdcb39e7	-0.09923153
232	0x3f96307c	1.1733546
233	0xbf0289a0	-0.5099125
234	0xbed0a8fa	-0.4075392
235	0xbe0911a5	-0.13385637
236	0x3eb47c0f	0.352509
237	0x3e64c1c5	0.22339542
238	0xbd71aa98	-0.05900058
239	0x3ed036d2	0.40666825
240	0x3f91e25d	1.1397206
241	0xbf11933f	-0.56865305
242	0x3e381326	0.17976055
243	0x3f528033	0.82226866
244	0x3ee10580	0.4394951
245	0xbe6c0dfe	-0.23052213
246	0xbf118031	-0.5683623
247	0xbeb39c0e	-0.35079998
248	0x3dbed7fd	0.0931854
249	0xbedc7c7b	-0.4306372
250	0x3c57f7c5	0.013181631
251	0xbeba525c	-0.3639096
252	0x3e609978	0.21933544
253	0xbe3a6262	-0.18201593
254	0x3e13cf40	0.14434528
255	0x3e4f7fb8	0.20263565

lstm.bias_hh_l0 f4 [256]
0	0x3d57a938	0.052651614
1	0xbefe180b	-0.49627718
2	0x3d7b2ba3	0.061320912
3	0xbe6ae439	-0.22938623
4	0x3e79124f	0.2432339
5	0xbe6cb571	-0.2311609
6	0xbdd95efc	-0.1061382
7	0xbe2d19dc	-0.16904396
8	0x3fa9e1f3	1.3272079
9	0x3d5a4a09	0.05329326
10	0x3e874e58	0.2642696
11	0x3cbb9ba0	0.022901356
12	0xbd746273	-0.0596642
13	0xbf1abb6e	-0.60442245
14	0xbe7814d2	-0.24226692
15	0xbf0b9e43	-0.54538363
16	0xbe4d5034	-0.20050126
17	0x3dbc0871	0.091812976
18	0x3c8f1cdb	0.017469814
19	0xbe963a0e	-0.29341167
20	0x3ee71a30	0.45137167
21	0xbdb4b7f0	-0.08824146
22	0xbe97aaa2	-0.2962237
23	0xbe0e7b22	-0.13914159
24	0x3f0f9b94	0.5609677
25	0x3dd19aad	0.1023458
26	0x3cc86196	0.024460595
27	0x3c5d417f	0.013504385
28	0x3f0339b5	0.5125993
29	0xbe88b71b	-0.26702198
30	0x3d0cb723	0.03435434
31	0x3f180c69	0.59393936
32	0xbe2a72b6	-0.16645321
33	0x3ee8f76a	0.45501262
34	0xbecd667d	-0.40117255
35	0xbeb1c353	-0.34719333
36	0x3ec008aa	0.3750661
37	0xbec07fe4	-0.37597573
38	0x3c2d0c6b	0.010562043
39	0xbcb30fc6	-0.021858107
40	0x3f8fc6ee	1.1232584
41	0x3dab8542	0.08375026
42	0xbbe06849	-0.0068483693
43	0xbc19a98c	-0.009378802
44	0xbc8db919	-0.017300176
45	0x3e7b528f	0.24543212
46	0xbd9f756c	-0.07786068
47	0x3ecef7ce	0.40423435
48	0x3f437ddf	0.7636394
49	0xbe822ca8	-0.25424695
50	0x3de29d0d	0.11065111
51	0x3f1b64f2	0.60700905
52	0xbeb226bb	-0.34795174
53	0xbe80d009	-0.25158718
54	0xbf080781	-0.5313645
55	0xbeeb7f5e	-0.4599561
56	0xbe06f9f5	-0.13181289
57	0xbeef5d22	-0.46750742
58	0x3d79eef7	0.06101891
59	0xbeb9a2dd	-0.36257067
60	0xbd033c30	-0.03203982
61	0xbeeab47e	-0.4584083
62	0xbe5a164e	-0.21297571
63	0xbe8506b0	-0.25981665
64	0x3e39eae1	0.18156005
65	0xbe80cfe5	-0.2515861
66	0xbea6eba1	-0.32601646
67	0x3e10ef40	0.14153767
68	0xbdd0c593	-0.10193934
69	0x3f6f0423	0.9336569
70	0x3ec80de8	0.3907311
71	0xbd38dc4b	-0.045131963
72	0xbc9b8d58	-0.018988296
73	0x3d86d679	0.06583876
74	0x3e0493d9	0.12947024
75	0x3e015dd1	0.12633444
76	0x3eb30cf7	0.3497083
77	0xbe9c2141	-0.3049412
78	0x3e97bcb5	0.2963616
79	0xbe778525	-0.24171884
80	0xbe5c438f	-0.21510147
81	0xbe3ba8f3	-0.18326168
82	0x3ee35570	0.4440112
83	0x3dbf464c	0.0933958
84	0x3df3824a	0.11890085
85	0x3e214e5a	0.15752545
86	0xbe413feb	-0.18872039
87	0xbea48c53	-0.3213831
88	0xbed0b633	-0.40764007
89	0x3da28d7c	0.07937142
90	0x3dcdc520	0.10047364
91	0xbeb68692	-0.35649544
92	0x3ee1682c	0.4402479
93	0xbe5290c6	-0.20563039
94	0x3ddae4d1	0.106881745
95	0xbee26857	-0.4422023
96	0xbe6fd33f	-0.23420428
97	0x3dc97863	0.09837415
98	0xbc395c98	-0.01131358
99	0xbd6657dc	-0.056236133
100	0x3d1a56e4	0.03768052
101	0xbe8a2c42	-0.2698689
102	0xbea86494	-0.32889235
103	0xbe3f8bbe	-0.18705651
104	0xbe59147e	-0.21199223
105	0xbf13f136	-0.57789934
106	0xbe560af1	-0.20902611
107	0x3e64050d	0.22267552
108	0x3eb83765	0.35979763
109	0x3eaa970f	0.33318374
110	0xbe76190c	-0.24032992
111	0xbe1b1242	-0.15143684
112	0xbda66179	-0.0812406
113	0x3e90aac5	0.28255287
114	0xbe1b6a00	-0.15177155
115	0x3d6823d0	0.05667478
116	0xbdccead7	-0.1000573
117	0x3db6a138	0.08917469
118	0xbdca7200	-0.09885025
119	0xbe250588	-0.16115391
120	0x3e9cc9d6	0.3062274
121	0xbdb5bc82	-0.08873846
122	0x3e5a4c5e	0.21318194
123	0xbe29bfe5	-0.16577108
124	0xbe5b033f	-0.21387957
125	0x3ea6c06e	0.32568687
126	0xbeb1b1d8	-0.34705997
127	0x3ddfaec1	0.109220035
128	0x3bb488eb	0.005509486
129	0xbc4160db	-0.011802877
130	0xbd89dd96	-0.06731717
131	0x3dd29d8a	0.102839544
132	0x3d7995ec	0.060933992
133	0x3eadc118	0.3393638
134	0xbe47e4ae	-0.19520828
135	0x3e42261c	0.1895985
136	0xbe778fba	-0.24175921
137	0xbef0d0c3	-0.47034273
138	0x3e243991	0.16037585
139	0x3e83622f	0.25660846
140	0xbd2d7998	-0.04235229
141	0x3e12aa17	0.14322697
142	0x3e0febcc	0.14054793
143	0x3e79cf62	0.24395517
144	0xbe862dcc	-0.26206815
145	0x3d2f1720	0.042746663
146	0xbe9fb7e1	-0.31194976
147	0xbe28fa37	-0.165017
148	0x3e751e9a	0.23937455
149	0xbe3ff1ff	-0.18744658
150	0xbda55728	-0.08073264
151	0x3e04eeeb	0.12981765
152	0x3e1ae10f	0.15124916
153	0x3d062b6f	0.032756265
154	0x3d840ff1	0.06448353
155	0x3d379d3d	0.04482769
156	0xbddf0a25	-0.10890607
157	0xbe2ce1ca	-0.16883007
158	0x3e2f26c7	0.17104636
159	0xbeb54e7c	-0.3541144
160	0xbe302052	-0.17199829
161	0x3db09aa2	0.08623244
162	0xbd360fc3	-0.044448625
163	0x3df02ae8	0.11726934
164	0x3d8e3caa	0.069451645
165	0x3e4ce8d9	0.200107
166	0x3e4d1f7f	0.20031546
167	0x3db2ea8c	0.087361425
168	0xbe1e94ac	-0.15486401
169	0x3dc77483	0.0973902
170	0xbe0319a6	-0.12802753
171	0x3d99f09d	0.075165965
172	0xbe42ff4e	-0.19042704
173	0x3daeb9d4	0.08531538
174	0xbeb74a5c	-0.3579892
175	0x3d9c71bb	0.0763888
176	0x3de54d6e	0.11196409
177	0x3e14f18b	0.14545266
178	0xbdc90aa7	-0.09816485
179	0x3e8d8cb7	0.2764642
180	0xbe38ac8a	-0.18034568
181	0xbe31cd3f	-0.17363451
182	0x3e97266e	0.29521507
183	0x3d354af0	0.04426092
184	0x3e55ebc8	0.20890725
185	0x3dcb414f	0.09924566
186	0xbeb7ff03	-0.35936746
187	0xbe08587a	-0.13315001
188	0x3d702815	0.058631975
189	0x3cf0ac48	0.029379025
190	0xbe3c90ee	-0.18414661
191	0xbe717106	-0.23578271
192	0x3e3db90d	0.18527623
193	0x3e621275	0.22077353
194	0xbc909586	-0.017649423
195	0xbebb28f7	-0.3655469
196	0x3e2c388d	0.16818447
197	0xbdcbc638	-0.099499166
198	0xbe0fede5	-0.14055593
199	0xbec923ae	-0.39285034
200	0x3fb54336	1.4161136
201	0xbf225c42	-0.63422024
202	0x3e75c9ee	0.24002811
203	0x3ea017a3	0.31268033
204	0xbeabe75a	-0.33574945
205	0xbee34ede	-0.44396108
206	0xbe637350	-0.22211957
207	0xbd78777b	-0.06066082
208	0xbcd2d10e	-0.02573445
209	0xbdba4e0a	-0.09096916
210	0xbe966d7e	-0.2938041
211	0xbe82bdfe	-0.25535578
212	0x3ed69f09	0.4191821
213	0xbe9f9454	-0.31167853
214	0xbe376e6b	-0.17913215
215	0xbe36d809	-0.17855848
216	0x3f459930	0.7718687
217	0x3c8e0b1e	0.017339285
218	0xbed66776	-0.4187581
219	0x3e1911b4	0.1494816
220	0xbe052633	-0.13002853
221	0x3e72ee82	0.23723796
222	0x3f03608b	0.5131919
223	0x3f946916	1.159457
224	0xbeebd690	-0.46062136
225	0x3f17d247	0.5930523
226	0x3e0ff548	0.14058411
227	0x3d553682	0.052053936
228	0x3f01971a	0.5062119
229	0xbe1baf49	-0.15203585
230	0xbeb638fa	-0.35590345
231	0xbe243993	-0.16037588
232	0x3f961985	1.1726538
233	0xbeb1e073	-0.34741554
234	0xbe94c5bc	-0.2905711
235	0xbdd9bc03	-0.106315635
236	0x3ec912cc	0.39272153
237	0x3e706dea	0.23479429
238	0xbdcf7e3d	-0.101315
239	0x3f0983a8	0.53716516
240	0x3f87d1f2	1.0610945
241	0xbeff55c6	-0.49870127
242	0x3e4de4ba	0.20106784
243	0x3f463716	0.77427804
244	0x3e75cab6	0.2400311
245	0xbe222a5d	-0.15836473
246	0xbec64e25	-0.38731495
247	0xbe89d92e	-0.26923507
248	0x3e4c7508	0.19966519
249	0xbf036491	-0.5132533
250	0xbd5fd908	-0.054650337
251	0xbe2e0997	-0.16995846
252	0x3e67d06f	0.22638105
253	0xbe07b7bb	-0.13253681
254	0xbd8284dc	-0.06372997
255	0x3e2dcbdd	0.16972299

lstm.weight_ih_l1 f4 [256, 64]
0	0x3f5a3dac	0.85250354
1	0xbfd90e83	-1.6957554
2	0x3efbb14d	0.49158707
3	0xbef18d60	-0.47178173
4	0x3f998bae	1.1995752
5	0x3f49aae5	0.7877639
6	0xbf5b927e	-0.85770404
7	0x3e062b28	0.131024
8	0xbf3d7134	-0.7400086
9	0xbfce5c3f	-1.6121901
10	0x3c3b9711	0.011449591
11	0xbf212b72	-0.6295692
12	0x3f52fa5b	0.8241326
13	0x3e9f7fde	0.31152242
14	0xbea92535	-0.330362
15	0x3f3445c0	0.7041893
16	0x3f11c314	0.5693829
17	0xbe9ed806	-0.31024188
18	0xbf88431f	-1.0645484
19	0xbf4a3df0	-0.7900076
20	0x3fa9d88c	1.326921
21	0x3e29463f	0.16530703
22	0x3f9ab1f9	1.2085563
23	0xbf5caed7	-0.86204284
24	0x3fb720b6	1.4306858
25	0x3f5afbf8	0.85540724
26	0xbe66a852	-0.22525147
27	0xbe952258	-0.29127765
28	0x3e0e5a6d	0.13901682
29	0x3e71333d	0.23554702
30	0x3e80b02e	0.25134414
31	0xbda3c67f	-0.079968445
32	0x3f0a692f	0.5406675
33	0xbe041329	-0.12897934
34	0xbfbc74e0	-1.4723167
35	0xbe8d2143	-0.2756444
36	0x3fa6a61f	1.3019446
37	0xbd9b0f41	-0.07571269
38	0xbf4e067f	-0.8047866
39	0xc0428eb6	-3.0399604
40	0x3ec6a4ea	0.38797694
41	0xbfbf1697	-1.4928769
42	0x3ea71cbf	0.3263912
43	0x3d931c0d	0.07183085
44	0x3ec89e46	0.39183253
45	0xbe85dc8a	-0.2614482
46	0xbf0d5a88	-0.55216265
47	0xbf8e4ac8	-1.1116571
48	0x3ea50248	0.32228303
49	0x3e1a0c2e	0.15043709
50	0xbf830545	-1.0235983
51	0x3ff0edcd	1.8822571
52	0x3df3d38e	0.11905585
53	0xbe7178de	-0.23581263
54	0xbf90b7a6	-1.1306045
55	0xbe9b9ac9	-0.3039153
56	0xc00c7c07	-2.19507
57	0x3f07abf5	0.5299676
58	0x3f022c5e	0.5084895
59	0xbeb915a0	-0.3614931
60	0x3e9e73b0	0.30947638
61	0xbfc18c6d	-1.512098
62	0xbec96ab0	-0.3933921
63	0x3feb49bc	1.8381877
64	0xbe30bce4	-0.17259556
65	0x3e6d452f	0.23170923
66	0xbf2b092a	-0.6681086
67	0xbedf907a	-0.43664914
68	0x3ee2b7a0	0.4428072
69	0x3efa624d	0.48903123
70	0xbddf9f66	-0.10919075
71	0x3f003a84	0.5008929
72	0xc05d5fdd	-3.458976
73	0xbf3393cc	-0.70147395
74	0x3f31c333	0.69438475
75	0xbf5f172e	-0.87144744
76	0x3daa2225	0.08307294
77	0xbf687160	-0.90797997
78	0x3f929599	1.1451904
79	0xbf0e9cb7	-0.5570788
80	0x3de10a41	0.10988284
81	0x3fede01a	1.8584015
82	0xbe3fb13c	-0.18719953
83	0xbed9e767	-0.42559358
84	0xbd22cd11	-0.039746348
85	0xbf38587d	-0.7201002
86	0x3f59436a	0.8486849
87	0x3f85cd83	1.0453342
88	0x3e7ec563	0.24879985
89	0x3ebf7747	0.3739569
90	0xbe9027aa	-0.2815526
91	0xbed36683	-0.41289148
92	0xbe42c298	-0.19019544
93	0x3eddd67c	0.433277
94	0xbe926dd5	-0.2859942
95	0xbf741656	-0.9534658
96	0xbe3f5d4e	-0.18687937
97	0x3fcd93fe	1.6060789
98	0x3f658a3f	0.8966407
99	0xbf977327	-1.1832017
100	0xbf17f085	-0.5935138
101	0xbea2f996	-0.31831044
102	0xbfac08eb	-1.3440222
103	0xbf482298	-0.78177786
104	0xbf3d8126	-0.7402519
105	0xbf5a2014	-0.852052
106	0x3f1da6da	0.6158272
107	0xbd089a34	-0.033350185
108	0xbe8d1d18	-0.2756126
109	0xbebaa5c6	-0.364546
110	0xbe8d017d	-0.27540198
111	0x3ea60086	0.32422274
112	0x3f464eb2	0.7746383
113	0xbe4249b7	-0.18973432
114	0x3ed3d903	0.41376504
115	0x4007bb41	2.120804
116	0xbf3988d9	-0.7247444
117	0x3d114b07	0.035471942
118	0x3f67ad42	0.90498745
119	0xbf9c950b	-1.2232984
120	0x3f275ce5	0.6537612
121	0xbee3ce5d	-0.4449338
122	0xbf87a5a9	-1.059743
123	0xbea392f8	-0.31948066
124	0xbebf77f9	-0.3739622
125	0xbe0196b3	-0.12655143
126	0x3f1c2cf0	0.6100607
127	0xbf4d1c24	-0.80121064
128	0x3f394277	0.7236704
129	0xbd061d34	-0.032742694
130	0x3f21bbee	0.6317738
131	0xbf705ecc	-0.9389465
132	0x3fadce67	1.3578614
133	0xbf6ee3a7	-0.9331612
134	0xbf7eacc0	-0.99482346
135	0x3f554f2a	0.8332392
136	0xbf525527	-0.8216118
137	0x3f8c3461	1.0953485
138	0xbe6f72d2	-0.23383644
139	0xbec8ab3b	-0.39193138
140	0xbef3320b	-0.47499117
141	0x3ed0c2d3	0.4077364
142	0xbede2663	-0.43388662
143	0xbeabb871	-0.33539155
144	0xbb1493c9	-0.0022671095
145	0xbf347967	-0.70497745
146	0xbf19b738	-0.60045195
147	0x3ec8bfe9	0.39208916
148	0x3dd009e5	0.10158137
149	0xbea1c45c	-0.31595123
150	0xbf0f6789	-0.5601736
151	0x3f50ab73	0.8151161
152	0x3edf0706	0.43560046
153	0x3f8714ee	1.0553262
154	0xbe43ec82	-0.1913319
155	0xbe12a636	-0.14321217
156	0xbed6ae9d	-0.41930094
157	0xbd563a96	-0.052301966
158	0x3e077f0e	0.13232061
159	0xbda8a469	-0.08234484
160	0xbde04b4e	-0.10951863
161	0xbebcf8fc	-0.3690871
162	0xbeb0a0eb	-0.3449777
163	0xbe936586	-0.28788394
164	0x3dcdfa8a	0.10057552
165	0x3ed045fa	0.40678388
166	0x3f35ddba	0.7104145
167	0x3f5a199a	0.85195315
168	0x3f07f769	0.5311189
169	0xbdf59f5f	-0.11993288
170	0xbda04764	-0.07826117
171	0xbf62ce27	-0.88595814
172	0xbddd4b7c	-0.10805413
173	0xbe01af1f	-0.1266446
174	0x3eaf6a74	0.34260905
175	0xbf32c04f	-0.6982469
176	0xbe94946b	-0.29019484
177	0xbec6cc99	-0.3882797
178	0xbeed5111	-0.4635091
179	0x3eed266f	0.46318385
180	0x3e093fee	0.13403293
181	0xbda452c4	-0.08023599
182	0xbf7de34a	-0.9917494
183	0x3f7eab6b	0.99480313
184	0x3e8f37b1	0.27972177
185	0x3ea8870a	0.32915527
186	0x3ea7c5f8	0.32768226
187	0xbe754504	-0.23952109
188	0xbf0063c1	-0.5015221
189	0xbf18262c	-0.59433246
190	0x3f29e710	0.663682
191	0xbf51f41f	-0.82013124
192	0xbf3b56dd	-0.7317942
193	0x3cf69c7a	0.03010391
194	0xbf885101	-1.064972
195	0x3d988272	0.074467555
196	0xbe424204	-0.18970495
197	0x3e2f5225	0.1712118
198	0x3d1ca790	0.038245738
199	0xbeea40b9	-0.45752504
200	0xbf20099a	-0.6251465
201	0xbde42acf	-0.111409776
202	0x3e1e2033	0.1544197
203	0xbf13bfc4	-0.57714486
204	0xbcbf322c	-0.023339354
205	0xbf13a8ba	-0.5767933
206	0x3ef758e1	0.48309997
207	0xbf46a0e9	-0.7758928
208	0xbdb9b383	-0.09067442
209	0xbe6ebebc	-0.23314947
210	0xbef5e0b5	-0.48023
211	0xbe91a7c7	-0.28448316
212	0xbe89ffc0	-0.26952934
213	0xbdd1f164	-0.1025112
214	0x3aeedae1	0.001822319
215	0xbfb0f9e9	-1.3826267
216	0xbecbc9f0	-0.39802504
217	0xbf092fe4	-0.535887
218	0xbcefb402	-0.02926064
219	0xbfa34eb4	-1.2758393
220	0xbfa1a9e0	-1.2629967
221	0x3ee73f62	0.45165545
222	0x3ebbd6c9	0.36687306
223	0x3e2b5666	0.16732177
224	0x3efa2a73	0.4886051
225	0x3f0b9c41	0.545353
226	0xbf81aabb	-1.0130228
227	0xbd8381ef	-0.06421267
228	0xbdb339d2	-0.08751263
229	0x3e1394d1	0.14412238
230	0xbeca530b	-0.39516482
231	0x3fa0ec4c	1.2572112
232	0x3db66788	0.08906466
233	0x3cba8abc	0.022771232
234	0xbea1d00a	-0.31604034
235	0xbe97c108	-0.2963946
236	0xbe74ad29	-0.2389418
237	0xbec496cd	-0.38396302
238	0x3e078d48	0.13237488
239	0x3e296d64	0.16545635
240	0x3e825d6e	0.25461906
241	0x3f05e176	0.5229715
242	0xbef40ba6	-0.47665137
243	0x3f39eec5	0.7262996
244	0xbf597e22	-0.8495809
245	0xbecb5f8f	-0.39721343
246	0xbf07fd79	-0.53121144
247	0x3f5dccf9	0.8664089
248	0xbebd3a64	-0.3695861
249	0x3d6e4fd0	0.058181584
250	0xbf1c864a	-0.6114241
251	0xbfb3c64d	-1.4044892
252	0x3eb5f40a	0.3553775
253	0x3edacf2a	0.4273618
254	0x3f65683b	0.8961217
255	0x3fa77cd7	1.3084973

lstm.weight_hh_l1 f4 [256, 64]
0	0xc058cb04	-3.387391
1	0x3eaf450a	0.3423236
2	0xbf3173de	-0.69317424
3	0x3f499513	0.78743094
4	0xbf7d43f4	-0.98931813
5	0xc0022ecb	-2.034106
6	0x3e481dc1	0.195426
7	0xbf8df088	-1.1089029
8	0xbf510e20	-0.8166218
9	0x3e92f083	0.2869912
10	0x3f1e90c4	0.61939645
11	0xc03e242c	-2.9709578
12	0xc02fccdb	-2.7468784
13	0xbd1c4ed5	-0.038161118
14	0x3e44c018	0.19213903
15	0x4059a0b2	3.400433
16	0xbff2db25	-1.8973128
17	0xbeb4bb62	-0.35299212
18	0xbf272be2	-0.65301335
19	0xbcb85406	-0.022501003
20	0xbe76b142	-0.24091056
21	0xbfad3df1	-1.3534528
22	0xc04b9f59	-3.1816008
23	0xbf66e583	-0.9019396
24	0xc00531ef	-2.0811727
25	0xbfe68299	-1.8008605
26	0xbe7e9118	-0.24860036
27	0x3ff1db91	1.8895131
28	0x3c30a4ae	0.01078145
29	0xbf842582	-1.0323946
30	0x401ad976	2.4195228
31	0xbf182933	-0.59437865
32	0xbfb368d7	-1.401637
33	0xbf213632	-0.6297332
34	0xbfbc0269	-1.4688236
35	0xbe7108fe	-0.23538586
36	0xbdc228cb	-0.09480437
37	0x3ea791d1	0.32728437
38	0xbf6b3c53	-0.9188892
39	0xbf74a956	-0.95570886
40	0xbfc0651e	-1.5030859
41	0xbe9987ad	-0.29986325
42	0x3fd59588	1.6686258
43	0x3bd81f72	0.0065955454
44	0x400e1512	2.220036
45	0x3e246f9e	0.16058204
46	0x3f8da619	1.1066314
47	0xbf0d6143	-0.55226535
48	0x3f169eec	0.58836246
49	0xbf02f9fe	-0.5116271
50	0xbe4f4523	-0.20241217
51	0xbf95ba90	-1.1697559
52	0xbf0201ac	-0.507838
53	0xbf84bb63	-1.0369686
54	0xbdeb61f2	-0.11493291
55	0x3f20d17b	0.6281964
56	0xbf70683f	-0.93909067
57	0xbf3e2847	-0.7428021
58	0xbf470f7c	-0.77758
59	0xbe8ca5c0	-0.27470207
60	0xbfbc7630	-1.4723568
61	0x3f15ed6d	0.5856541
62	0xbe9e0e35	-0.30870214
63	0x3d30bdc5	0.04314973
64	0x3f938753	1.1525673
65	0xbde20e1b	-0.11037847
66	0x3f78e36c	0.9722202
67	0xbe4a8939	-0.19778909
68	0xbf996dbe	-1.1986616
69	0x3fc39c94	1.5282159
70	0xbf449077	-0.76782936
71	0xbf69e8f2	-0.9137107
72	0xbf09ad5a	-0.5378014
73	0x3f3a45ca	0.7276274
74	0x3f34f559	0.7068687
75	0xbf79d1da	-0.97585833
76	0xbe06cb2b	-0.1316344
77	0x3f639994	0.88906217
78	0xbf1ee4bd	-0.62067777
79	0xbf4a62f7	-0.7905726
80	0x4009c4ec	2.1526442
81	0xbef60c4e	-0.48056263
82	0xbff85a87	-1.9402627
83	0x3f25b1fb	0.647247
84	0xbc9faf47	-0.019492758
85	0xc0106195	-2.255956
86	0x3f9bd3ed	1.217405
87	0x3d2665b6	0.040624343
88	0xbf690f07	-0.91038555
89	0x3fd432df	1.6578025
90	0xbfcb8a65	-1.590161
91	0xbf2717de	-0.65270793
92	0x3e24b7af	0.16085695
93	0x3ed044fa	0.40677625
94	0xbd76caa1	-0.060251836
95	0x3f250ba2	0.64470875
96	0x3f0a5eb2	0.54050744
97	0xbf6b8030	-0.91992474
98	0x3ed91cb8	0.42404723
99	0x3e453601	0.19258882
100	0x3ee0d4be	0.4391231
101	0x3fa3eaaa	1.2805989
102	0x3f807919	1.0036956
103	0x3f70e982	0.94106305
104	0xbf9e67b2	-1.2375395
105	0xbfa3f93d	-1.2810436
106	0xbf15aadb	-0.5846383
107	0xbf00e010	-0.5034189
108	0xbf5ed613	-0.870454
109	0x3de88564	0.11353567
110	0xbf2cf356	-0.675588
111	0xbd6c4b4c	-0.057688996
112	0x3f26b7d0	0.65124226
113	0xbe0e08a4	-0.13870484
114	0xbfad21c7	-1.3525933
115	0x3ed70078	0.41992545
116	0x3efcd11c	0.49378288
117	0xbe6679e0	-0.22507429
118	0xbe903114	-0.28162444
119	0xbed73b43	-0.420374
120	0xbfb1c4ef	-1.3888224
121	0x3e8eab45	0.27865043
122	0xbe31895b	-0.17337553
123	0x3e069ae2	0.1314502
124	0x3d2e0983	0.04248954
125	0x3eb905ef	0.3613734
126	0xbf836cdc	-1.0267596
127	0x3e96677c	0.29375827
128	0xbfc445d8	-1.5333815
129	0xc05e3ca8	-3.4724522
130	0xbfdd687c	-1.7297511
131	0xc0114ab1	-2.2701838
132	0xbe1e99b3	-0.15488319
133	0x3eb377f6	0.3505246
134	0x3f959428	1.1685839
135	0x3f9601cf	1.1719302
136	0xbfe438e3	-1.782986
137	0xbff7ba8d	-1.9353806
138	0xbe59baba	-0.21262637
139	0xbffc6d30	-1.9720821
140	0xc01987b6	-2.3989081
141	0xbfc07a05	-1.5037237
142	0xc07bb8b9	-3.9331496
143	0x4011a2ca	2.2755609
144	0x3fb244d5	1.3927256
145	0x3da7e7f2	0.08198537
146	0x3ec1e2b6	0.3786828
147	0x3fe1dc33	1.7645324
148	0xbfa8eac0	-1.319664
149	0xbf161b1a	-0.58635104
150	0x3fd7917d	1.6841274
151	0x3f8a718a	1.0815899
152	0x404dd5f5	3.216184
153	0x3f588009	0.84570366
154	0xbfd7b0ab	-1.685079
155	0x3f625dde	0.8842448
156	0xbf6cd49a	-0.92511904
157	0x3d5b9b91	0.053615157
158	0xbf13a0fd	-0.57667524
159	0x3f7a69ca	0.9781767
160	0x401ff224	2.499154
161	0x3f0291c6	0.5100368
162	0x3e2d3a25	0.16916712
163	0xbf166592	-0.58748734
164	0x3e2402ca	0.16016689
165	0xbe0c08af	-0.13675188
166	0xbf3890e3	-0.7209608
167	0x3f899108	1.0747385
168	0xbfb11a4e	-1.3836153
169	0xbfb5319e	-1.4155767
170	0x4003c8a9	2.0591223
171	0x3f43b38d	0.7644585
172	0x3f5e61ba	0.8686787
173	0xbfb01208	-1.3755503
174	0x3f536f40	0.8259163
175	0xbf12c8e2	-0.5733777
176	0xbf811939	-1.0085822
177	0x3e19cbb4	0.15019113
178	0xc0250f6e	-2.5790668
179	0xc095b3e9	-4.6782117
180	0xbed5a8aa	-0.41730243
181	0xbe308d02	-0.1724129
182	0x3e8c184d	0.2736229
183	0x3e901be0	0.28146267
184	0x40904626	4.508563
185	0xbfb720a0	-1.4306831
186	0x3f6020a6	0.8754982
187	0xbf275e6f	-0.6537847
188	0x3fe2864a	1.7697232
189	0x3fa8f02c	1.3198295
190	0xbeddf3dc	-0.43350112
191	0x3f9bab6b	1.2161688
192	0x3f5063f1	0.814025
193	0xbf7b4d1d	-0.9816454
194	0xbfc408aa	-1.5315144
195	0xbed2207b	-0.41040406
196	0xbf3bc063	-0.73340434
197	0xbd3014d3	-0.04298861
198	0x3faa81ea	1.3320897
199	0xc009728f	-2.147617
200	0xbf532c32	-0.8248931
201	0x3f4c27ce	0.7974824
202	0xbe772565	-0.24135359
203	0x402ee525	2.7327359
204	0xbf211544	-0.62923074
205	0x3f5e5ecb	0.8686339
206	0xbf18f647	-0.5975079
207	0x3e81d548	0.25358033
208	0xbe7ba5da	-0.24574986
209	0xbfa4a7c9	-1.2863704
210	0xbe30d40a	-0.17268386
211	0x3fdea6a8	1.739461
212	0x3fcdfed9	1.6093398
213	0xbf1adb2e	-0.6049069
214	0xbe95b912	-0.2924276
215	0x3e5d74e2	0.21626619
216	0x3f14eaa2	0.5817052
217	0x3f925f57	1.1435345
218	0xbf907799	-1.1286498
219	0xbf5526c6	-0.8326229
220	0xbe420a36	-0.18949208
221	0xbfaae965	-1.3352476
222	0x3c92fbf8	0.017942414
223	0x3f0ad689	0.54233605
224	0x3e94ffd8	0.29101443
225	0xbfc9f769	-1.5778629
226	0x3eb775e3	0.35832128
227	0xbf247d31	-0.64253527
228	0x3d8f5495	0.069985546
229	0xbe81a70c	-0.2532276
230	0x4000f61c	2.0150213
231	0x3f69e3e7	0.91363376
232	0xbf6dbf07	-0.9286961
233	0x3c47e3e0	0.012200326
234	0xbf286032	-0.6577178
235	0xc014ccf8	-2.3250103
236	0x3f618c9e	0.8810519
237	0xbe5a7868	-0.21334994
238	0x3f1a8d42	0.6037179
239	0xbe5f740d	-0.21821614
240	0x3de094f3	0.1096591
241	0x3f4eda29	0.80801636
242	0x3f867d11	1.0506917
243	0xbeabfd01	-0.33591464
244	0x3ec95fe3	0.39330968
245	0x3ede9191	0.43470433
246	0xbe99a8be	-0.30011553
247	0x3f88ce8f	1.0688037
248	0xbf82e017	-1.0224637
249	0x3f4794de	0.7796153
250	0x3fa5ee84	1.2963414
251	0x3f4e2226	0.80520856
252	0xc0010afa	-2.016295
253	0xbf73401e	-0.9501971
254	0xbfd429d9	-1.6575271
255	0x3db09856	0.08622806

lstm.bias_ih_l1 f4 [256]
0	0xbd5f0c3a	-0.05445502
1	0xbdd22148	-0.10260254
2	0x3e9f86b1	0.3115745
3	0x3e2807e3	0.16409259
4	0x3f0576b3	0.52134246
5	0xbe320c10	-0.17387414
6	0xbc5b841e	-0.013398198
7	0xbe4e08db	-0.20120566
8	0xbd90a7c7	-0.07063251
9	0x3df35930	0.118822455
10	0xbeb4e615	-0.3533179
11	0xbede27bf	-0.433897
12	0xbdd09340	-0.10184336
13	0x3e87dd75	0.26536146
14	0xbbaaecd7	-0.005216222
15	0x3e5c2ae1	0.21500732
16	0xbede5fc5	-0.4343244
17	0x3e363a20	0.1779561
18	0xbee786f9	-0.45220163
19	0x3e59715b	0.21234648
20	0xbdc48b7f	-0.09596919
21	0x3e8b84a2	0.27249628
22	0xbdb91468	-0.09037095
23	0x3ebcce43	0.36876115
24	0x3e917365	0.28408352
25	0x3dde283a	0.10847516
26	0x3eca7e90	0.39549685
27	0xbdefbab5	-0.117055334
28	0x3ee46000	0.44604492
29	0x3de4cdbd	0.11172054
30	0xbe585e76	-0.21129784
31	0x3ea49063	0.32141408
32	0x3eca7153	0.39539585
33	0x3ed189af	0.40925357
34	0x3eabf391	0.33584264
35	0x3e1aeeb5	0.15130122
36	0x3f5bbc67	0.85834354
37	0x3e9755af	0.2955756
38	0x3e84b536	0.25919503
39	0x3e85a99a	0.26105958
40	0x3ea451ee	0.32093757
41	0x3dc7a3fd	0.09748075
42	0x3df43673	0.11924448
43	0x3e678426	0.22609004
44	0x3d5ebfac	0.05438201
45	0xbe3e09e8	-0.18558466
46	0x3ec1f15a	0.3787945
47	0xbecfa240	-0.40553474
48	0x3eaa2635	0.33232275
49	0x3db74ddb	0.089503966
50	0xbcc026d7	-0.02345602
51	0xbecc3fbd	-0.39892378
52	0xbd2f7918	-0.042840093
53	0xbe751923	-0.2393537
54	0x3ebfcd7e	0.37461466
55	0x3e32cc0c	0.1746065
56	0x3d2cd92c	0.0421993
57	0xbe89f231	-0.2694259
58	0x3e0bdf0f	0.13659309
59	0x3e165fa4	0.14684922
60	0x3de5bf40	0.11218119
61	0x3ebba7b8	0.36651397
62	0x3e86a7f8	0.26300025
63	0x3f0be060	0.54639244
64	0x3ecb47d1	0.3970323
65	0xbe8ed661	-0.27897933
66	0x3e97b483	0.29629907
67	0x3eafc629	0.34330872
68	0x3e72038e	0.23634169
69	0x3da50ca9	0.08059055
70	0x3d180eda	0.03712354
71	0x3d294f41	0.041335348
72	0x3daeeddb	0.08541461
73	0xbd198956	-0.03748449
74	0x3e04be42	0.12963203
75	0xbe3d9654	-0.18514377
76	0xbe5be600	-0.21474457
77	0x3d437d68	0.04772702
78	0xbe0ba566	-0.13637313
79	0x3ec5f3f5	0.38662687
80	0xbe712b4c	-0.23551673
81	0x3edf6f0c	0.4363941
82	0xbe37a49a	-0.17933884
83	0x3ddad468	0.106850445
84	0xbe26b800	-0.16281128
85	0xbe1b70a0	-0.15179682
86	0x3ccd6992	0.025074754
87	0xbed54976	-0.4165761
88	0x3dd698ce	0.10478364
89	0xbeb2beaf	-0.34911105
90	0x3e7d7653	0.24752168
91	0x3e9f369d	0.31096354
92	0x3d71bcbb	0.059017878
93	0x3c31558a	0.010823617
94	0x3e974f18	0.2955253
95	0xbbf049f7	-0.007333036
96	0x3e63eeb9	0.22259034
97	0xbdaec5cc	-0.085338205
98	0x3f094751	0.53624445
99	0x3ea09a48	0.31367707
100	0x3f112a64	0.5670531
101	0x3eac368e	0.33635372
102	0xbdb80bb3	-0.089866064
103	0xbe9b0a73	-0.3028141
104	0x3f4462d2	0.7671329
105	0xbe0db82d	-0.13839789
106	0x3e033aea	0.12815443
107	0x3ea43869	0.32074288
108	0x3f05cc4d	0.52264863
109	0x3e84fc5e	0.2597379
110	0x3efa0758	0.48833728
111	0x3f90ebcf	1.1321963
112	0x3eaa2468	0.332309
113	0x3ec4983c	0.38397396
114	0x3f0cf075	0.5505441
115	0xbe0a37fd	-0.1349792
116	0x3f1a5729	0.60289246
117	0x3dbc6158	0.09198254
118	0x3f06f1c3	0.5271265
119	0x3e43982c	0.19101018
120	0xbd36d334	-0.044635013
121	0x3e9c2aeb	0.30501494
122	0x3e0bc424	0.1364904
123	0x3ef929a8	0.48664594
124	0xbde22d78	-0.11043829
125	0x3ea590f3	0.3233715
126	0x3e128745	0.14309414
127	0x3ee74502	0.45169836
128	0x3e745201	0.23859407
129	0x3e0eb231	0.13935162
130	0xbf1b1db0	-0.60592175
131	0xbe4997bf	-0.19686793
132	0xbe55a775	-0.20864661
133	0x39f7b365	0.0004724517
134	0x3d02212b	0.031769913
135	0xbdc57cf0	-0.096429706
136	0x3e5bd8b6	0.21469387
137	0x3c9b0a90	0.018925935
138	0xbe1e862e	-0.15480873
139	0x3dce30aa	0.10067876
140	0xbd9e01f2	-0.07715215
141	0xbeb54121	-0.35401252
142	0xbf107f00	-0.56443787
143	0xbd9e7d35	-0.07738725
144	0x3d9b134f	0.07572042
145	0x3ed24944	0.41071522
146	0xbe8b9a57	-0.2726619
147	0xbe974625	-0.29545704
148	0x3e30c07a	0.17260924
149	0xbe0629a8	-0.13101828
150	0xbdb9b5d4	-0.09067884
151	0x3e1e8a77	0.15482508
152	0x3e8b78dc	0.27240646
153	0x3eb0af51	0.34508756
154	0xbdc43559	-0.09580488
155	0xbd4af541	-0.0495503
156	0xbe8ea35c	-0.27859008
157	0xbdbb176e	-0.09135328
158	0x3e4746ba	0.19460574
159	0x3e615ca0	0.2200799
160	0x3ecd3524	0.40079606
161	0xbe12eaae	-0.14347336
162	0xbbab5a08	-0.0052292384
163	0x3dff7286	0.124730155
164	0xbc643278	-0.013928048
165	0x3f4374f9	0.7635036
166	0x3e0eb511	0.13936259
167	0xbe3b76f0	-0.1830709
168	0xbeaaca98	-0.33357692
169	0x3e88478c	0.26617086
170	0xbeab7cb3	-0.33493575
171	0xbedc192a	-0.4298795
172	0x3e3bd545	0.18343075
173	0xbae73ebe	-0.00176426
174	0xbcd1f7af	-0.0256308
175	0xbeb7764d	-0.35832444
176	0xbed17f0f	-0.4091725
177	0x3eb4d2c1	0.35317042
178	0x3dd5559e	0.10416721
179	0x3e82595e	0.25458807
180	0x3e8646a5	0.26225773
181	0xbe21bdc7	-0.1579505
182	0x3e724589	0.23659338
183	0xbecaa48c	-0.39578664
184	0xbefbab32	-0.4915405
185	0x3db0e9f9	0.08638377
186	0x3e8d8e7a	0.27647763
187	0x3ef28b94	0.47372115
188	0xbe24d30b	-0.16096132
189	0x3cd99704	0.026561268
190	0x3e54fff3	0.20800762
191	0x3cae902b	0.021308979
192	0x3e50640c	0.20350665
193	0xbdf5bcd5	-0.119989075
194	0x3eb61efc	0.35570514
195	0x3f0f9dc4	0.56100106
196	0x3f14707d	0.57984143
197	0x3e82fc09	0.25582913
198	0x3e9b6f6b	0.30358443
199	0x3eebcd78	0.46055198
200	0x3edcb80a	0.4310916
201	0x3ec17d67	0.37790987
202	0x3ecc2937	0.39875194
203	0x3f191234	0.597934
204	0x3edccc8e	0.43124813
205	0x3f18f191	0.597436
206	0x3ec51c71	0.38498262
207	0x3f21c18c	0.63185954
208	0x3e3bbf35	0.18334658
209	0x3e073962	0.13205484
210	0xbe6c4d61	-0.23076393
211	0x3f2d0067	0.6757874
212	0x3d549810	0.05190283
213	0xbd5aca61	-0.05341566
214	0x3e8e9395	0.2784697
215	0x3e52fcf2	0.20604303
216	0x3dc10008	0.09423834
217	0x3ec825c1	0.39091304
218	0x3ed70ed4	0.420035
219	0x3f149735	0.58043224
220	0x3de45fff	0.11151122
221	0x3e9c10f9	0.304817
222	0xbde8deff	-0.11370658
223	0x3ecb20ce	0.39673465
224	0x3f260e66	0.6486572
225	0x3f9ec593	1.2404045
226	0x3f50b487	0.8152546
227	0x3e368dbe	0.17827508
228	0x3ed7cf99	0.42150572
229	0x3ec69d9a	0.38792115
230	0xbdcb80d4	-0.099366814
231	0x3ea41d3a	0.32053548
232	0x3ea98643	0.33110246
233	0x3e53ee5d	0.20696397
234	0x3e8058e4	0.25067818
235	0x3e95ef4d	0.29284135
236	0x3dccc353	0.09998193
237	0x3f0f0ad9	0.5587593
238	0x3eb4ce76	0.35313767
239	0x3e263ae4	0.16233402
240	0x3edc0051	0.4296899
241	0x3e56d167	0.20978318
242	0x3ef1d54d	0.47233048
243	0x3e697b2c	0.22800893
244	0x3f5dba1e	0.8661212
245	0x3e2cde96	0.16881785
246	0x3ef69ad4	0.48165
247	0xbdfe4092	-0.124146596
248	0x3eb449df	0.3521261
249	0x3ddc380a	0.10752876
250	0x3efe632d	0.4968504
251	0x3ec9eec5	0.3943998
252	0xbda16e1e	-0.07882331
253	0x3e7b652e	0.24550316
254	0x3e72c5b5	0.23708232
255	0x3ef34052	0.4751001
