param1/lstm_model_94000.pth (torch, 204435 bytes, 9 tensors)

lstm.weight_ih_l0 f4 [256, 1]
0.81521577 1.3791035 0.91009384 0.792529 0.82824403 -0.63787144 -0.6329282 0.81185347
-0.57160974 0.394639 -0.80656916 1.5788982 0.011122468 -1.0089383 1.4751126 0.6535424
0.32187375 2.4113028 0.42766306 0.6822793 1.4621036 -1.0621966 0.23747931 0.38696107
-0.17808823 0.30229184 0.5836906 0.6317405 -0.24467976 -0.9742176 -0.4714947 1.3667238
1.3506545 2.9333498 -0.25256664 0.50963336 1.7398784 -0.28082913 -0.44160742 1.2835313
2.9037104 -0.9623176 -0.82268137 0.35829774 0.69483596 -0.03937519 0.25388667 0.18361877
2.149436 -1.2045994 1.7978151 0.08735086 0.2951603 -0.5674444 -0.23154192 0.8756002
0.4586981 0.64348555 0.45160255 -1.0667036 0.15333563 0.17721696 0.12910219 0.83580375
-1.1785319 0.11917294 0.8721437 1.2350186 0.97908133 2.4216158 1.5047015 0.40127242
-1.5934064 0.2385615 0.55607826 1.1282889 0.5598591 0.27872035 1.1079894 0.6572311
0.49478477 1.2920218 0.82660514 0.08387356 0.7112092 -0.57218003 -0.6296248 -0.5072412
0.30112976 0.6113793 0.19605254 -0.06819467 -1.2694117 -0.06979092 0.7307919 -2.088786
0.61395776 0.31391078 0.9827541 1.9050202 0.18182105 1.0097725 0.17941104 -0.56894636
-0.035624005 0.37284884 -0.6751467 0.81368977 -0.046398696 0.79058254 0.22442622 -0.6350555
0.9259601 0.3950698 -0.26305586 -2.809417 0.461869 0.80771893 1.1460606 0.9825629
0.20212987 0.56762034 0.76939565 -0.82468086 0.3793053 0.25096682 -0.22360662 -0.00086689094
1.5470464 -0.2563065 1.9631487 -1.0876876 -1.649124 -0.51338404 0.02979327 0.80452615
7.8594027 -0.9722571 -2.0127053 -1.4471279 -1.1822511 -0.24219757 -1.1424007 -0.70998484
1.4557918 -2.4961503 -0.45082292 0.9314168 2.0180426 0.07262803 -2.2000844 1.0956271
1.7321585 -1.5203753 -0.58760154 -0.4642252 1.1969877 -1.2036296 -0.020045113 3.4998748
0.35569558 -2.630169 -4.0606046 0.56478 -2.1230798 -0.8781207 0.44057408 0.61327887
2.9323664 -0.60624117 -1.2381266 -1.9297034 1.6653852 -0.6666687 1.4004993 -3.5192926
-2.6249182 -0.113206424 0.79491144 -3.861307 1.3792465 0.5960636 -0.26980206 -1.1273824
-1.4292032 -1.1151996 -0.93056387 -1.4324852 -2.240971 -0.48091322 1.8200699 -0.8153086
-0.42051446 0.31585303 3.561951 0.862399 3.440762 0.041825965 -0.5329552 0.31758687
-0.15022394 0.07048941 -0.3594799 0.51720554 3.6139052 0.095477074 2.2202663 0.3891535
1.0401218 2.9704 0.6341745 -0.0036281054 1.191047 -0.3678749 -0.8001704 -0.09470985
1.7733718 2.3979993 -0.19416128 1.063099 -1.1783965 -0.2453509 -0.18660875 -0.26016596
1.2653072 4.1127415 0.91337526 -0.75160027 2.3946996 0.49636945 -0.45744583 0.12820292
3.316746 0.38039222 -1.4748236 1.1272517 0.8054913 1.2670265 -0.0840216 0.099555716
3.8257966 -0.30447897 -0.1554474 -0.87873054 -0.14613101 -1.0516491 -0.20788378 1.9655004
1.3509486 2.2830515 0.32718572 -1.1819742 0.38174793 0.46966016 0.6232936 0.7097634
00000000: fbb1 503f 7786 b03f e9fb 683f 2ee3 4a3f
00000010: cd07 543f 8b4b 23bf 9507 22bf a1d5 4f3f
00000020: 0455 12bf 1f0e ca3e 517b 4ebf 5619 ca3f
00000030: 033b 363c e424 81bf 7dd0 bc3f 8e4e 273f
00000040: a3cc a43e c952 1a40 a7f6 da3e dba9 2e3f
00000050: 3626 bb3f 0ff6 87bf c72d 733e c31f c63e
00000060: c35c 36be ffc5 9a3e bf6c 153f bfb9 213f
00000070: 558d 7abe 5366 79bf c167 f1be cef0 ae3f
00000080: 3fe2 ac3f 01bc 3b40 6a50 81be 5577 023f
00000090: 56b4 de3f d6c8 8fbe 5e1a e2be c14a a43f
000000a0: 64d6 3940 725a 76bf 3f9b 52bf cd72 b73e
000000b0: c5e0 313f e147 21bd 6ffd 813e 8f06 3c3e
000000c0: 5c90 0940 5030 9abf ce1e e63f 02e5 b23d
000000d0: 401f 973e 0944 11bf 5319 6dbe 5627 603f
000000e0: 7ada ea3e 78bb 243f 7338 e73e be89 88bf
000000f0: 0404 1d3e 5d78 353e 5d33 043e 3cf7 553f
00000100: 22da 96bf f110 f43d cf44 5f3f 1715 9e3f
00000110: 13a5 7a3f c1fb 1a40 0f9a c03f 9473 cd3e
00000120: bef4 cbbf 7749 743e 255b 0e3f c56b 903f
00000130: ed52 0f3f 6fb4 8e3e 99d2 8d3f 4c40 283f
00000140: 6e54 fd3e f860 a53f 659c 533f e7c5 ab3d
00000150: ce11 363f 647a 12bf 172f 21bf 8fda 01bf
00000160: ae2d 9a3e 5b83 1c3f ffc1 483e a6a9 8bbd
00000170: 157c a2bf 8bee 8ebd 2e15 3b3f abae 05c0
00000180: 562c 1d3f eab8 a03e c695 7b3f b4d7 f33f
00000190: 4c2f 3a3e 3a40 813f 87b7 373e 78a6 11bf
000001a0: 7aea 11bd 0be6 be3e 6ad6 2cbf f94d 503f
000001b0: 8f0c 3ebd 9e63 4a3f fdcf 653e ff92 22bf
000001c0: b90b 6d3f 9746 ca3e 42af 86be 7dcd 33c0
000001d0: 187a ec3e abc6 4e3f 1db2 923f 3e89 7b3f
000001e0: 22fb 4e3e 914f 113f 1df7 443f 491e 53bf
000001f0: 4e34 c23e b97e 803e 22f9 64be 1140 63ba
00000200: 9e05 c63f 9b3a 83be 7548 fb3f 5939 8bbf
00000210: 7f16 d3bf 236d 03bf 0411 f43c 6df5 4d3f
00000220: 3a80 fb40 d7e5 78bf 2ad0 00c0 7d3b b9bf
00000230: 0154 97bf a402 78be 303a 92bf 91c1 35bf
00000240: 6357 ba3f edc0 1fc0 43d2 e6be 5571 6e3f
00000250: 9c27 0140 01be 943d 2fce 0cc0 823d 8c3f
00000260: 5fb7 dd3f a89b c2bf 0e6d 16bf edae edbe
00000270: e536 993f 8910 9abf a635 a4bc f3fd 5f40
00000280: bb1d b63e b054 28c0 79f0 81c0 6c95 103f
00000290: 8ae0 07c0 85cc 60bf ed92 e13e d8ff 1c3f
000002a0: e4ab 3b40 9f32 1bbf ef7a 9ebf 8500 f7bf
000002b0: 582b d53f cdaa 2abf 9043 b33f 173c 61c0
000002c0: a9fe 27c0 c5d8 e7bd 517f 4b3f a71f 77c0
000002d0: 268b b03f a097 183f 7f23 8abe 114e 90bf
000002e0: 21f0 b6bf dcbe 8ebf 6f39 6ebf ad5b b7bf
000002f0: 126c 0fc0 423a f6be 0df8 e83f 10b8 50bf
00000300: ac4d d7be 7db7 a13e 01f7 6340 2ec6 5c3f
00000310: 7235 5c40 b451 2b3d c16f 08bf bf9a a23e
00000320: 4ed4 19be c05c 903d c00d b8be 9567 043f
00000330: 394a 6740 7c89 c33d d818 0e40 213f c73e
00000340: b622 853f 091b 3e40 4359 223f 82c5 6dbb
00000350: 3a74 983f 195a bcbe f8d7 4cbf 3df7 c1bd
00000360: d9fd e23f d278 1940 37d2 46be a113 883f
00000370: b2d5 96bf 443d 7bbe 5d16 3fbe 7934 85be
00000380: 96f5 a13f 949b 8340 f6d2 693f e068 40bf
00000390: c242 1940 2324 fe3e 5736 eabe a047 033e
000003a0: 9145 5440 c5c2 c23e 05c7 bcbf c949 903f
000003b0: ae34 4e3f ed2d a23f 8413 acbd dee3 cb3d
000003c0: dad9 7440 abe4 9bbe 9a2d 1fbe 7cf4 60bf
000003d0: 5ea3 15be 709c 86bf 7cdf 54be 8495 fb3f
000003e0: e2eb ac3f 841d 1240 e384 a73e ee4a 97bf
000003f0: 7774 c33e 4c77 f03e 2b90 1f3f 0eb3 353f

lstm.weight_hh_l0 f4 [256, 64]
-0.030827563 0.9338747 -0.24923955 -0.012659236 -0.32376507 -0.07392009 0.20491734 0.09768858
1.1756734 -0.0028053173 -0.5177733 0.57607335 0.13712968 1.0143937 -0.886425 -0.01591741
0.12120223 -0.068181 -0.109728195 0.57990974 0.73268735 0.3127979 -0.13603266 -0.22260596
-0.076113306 0.48082355 -0.034946706 -1.003582 -0.002461926 -0.39288855 0.08891278 0.44287306
0.18251656 -0.57141435 -0.12380387 0.4791029 -0.20124948 -0.8800215 0.21770167 -0.54371405
0.037321575 -0.20904878 0.110391065 -0.3515022 0.30399927 0.32605788 0.33388492 -0.6134963
-0.49250638 0.100234084 0.16314967 -0.15502949 0.76288635 0.9244871 0.10633713 0.03542966
-1.223981 -0.52369386 0.25776464 0.3568148 -0.32907596 -0.04762211 -0.05633575 -0.23899621
0.8337011 -1.6088763 0.43538424 0.5173923 -0.09309378 -0.16435283 -0.37343165 0.029027501
0.50059336 -0.009043467 -0.35892797 0.04660917 0.43595603 -1.5695965 0.5251979 -0.6024256
0.81702703 -1.3953128 0.025530754 0.841494 -0.2234276 -0.17045194 1.7653726 0.87514687
0.22713763 -0.36732578 0.39569947 1.1514524 -0.48117128 -0.6291837 0.42146587 1.0983753
-0.17289019 -1.2648638 0.16011754 0.2701188 -1.4049432 -0.00042140795 1.1117735 -0.6778382
1.1125083 0.41901103 -0.4960073 -1.1634504 0.024214612 -0.6461147 0.43406376 0.046046868
-1.9021512 -0.7093267 0.11297517 -0.27443555 0.054925255 -0.8940765 -0.39289504 -0.4362934
0.5680766 0.073638245 -0.3528581 -0.83709157 -0.6018494 -0.1945287 -0.06019134 -1.3361386
-1.2849277 1.1927679 0.33874735 0.20593426 -1.306914 0.1648238 -0.19136319 -0.22640818
1.19135 -0.48788825 -0.054605678 -0.08239315 -0.9655147 -0.9841824 -0.4523954 -0.2586978
1.6329427 -1.4114317 -0.6374786 0.23746343 0.16086783 -0.03617951 -0.45937973 -0.7597025
-0.5679112 -1.3753871 0.09167547 0.043298878 -0.5725217 -0.8073295 0.56347644 0.5853841
-0.31076366 -0.11261188 0.55787385 0.26772764 0.85154754 0.6918833 0.45381698 0.8672597
0.6249723 0.9873455 0.39923114 -0.50434655 0.13460855 0.47367722 0.72318226 0.41628346
-0.10500045 -0.80981565 0.80357796 0.6903136 0.5325386 0.27200356 -1.8842237 0.7252015
-1.0241736 -0.8280992 0.34774458 0.27533954 -1.3932105 -0.47361425 0.61078006 -0.815544
-0.4059458 0.7181331 -0.59664965 -0.51248854 -0.98306227 0.1678637 0.16660261 0.3401966
0.30131653 -0.25044125 0.110745616 -0.8685083 0.37847415 -0.32249615 0.30634528 -0.45447692
0.23454185 -0.09611501 0.072931945 0.3101373 1.0071828 -0.051826116 0.3746455 0.0063216533
0.3199094 -0.111207105 -0.63575643 0.59073484 0.26380274 -0.5349787 -0.051809765 0.64224553
0.104223005 -0.67594624 -0.15925954 -0.23180066 -0.42207202 0.19745067 -0.4465488 0.3976201
0.6011838 0.90714914 0.28560227 0.80625635 0.6305257 -0.21422115 -0.43397298 0.22872253
-0.20783955 -0.18583035 0.954647 -0.28482893 0.15866376 -0.43666074 -1.5038052 1.6305941
0.00728556 0.23878981 -0.034937374 -0.54194385 -0.32895485 0.15080468 -0.14532425 -1.1714935
00000000: 168a fcbc 6a12 6f3f a738 7fbe af68 4fbc
00000010: 89c4 a5be 6b63 97bd dad5 513e f310 c83d
00000020: 777c 963f 6ad9 37bb ca8c 04bf 8b79 133f
00000030: b96b 0c3e a7d7 813f c0ec 62bf 3a65 82bc
00000040: e038 f83d 7ba2 8bbd 2db9 e0bd f774 143f
00000050: 6691 3b3f 0c27 a03e 254c 0bbe d1f2 63be
00000060: 4be1 9bbd 812e f63e 4724 0fbd 6075 80bf
00000070: 4458 21bb b028 c9be e717 b63d 42c0 e23e
00000080: 9fe5 3a3e 3648 12bf e28c fdbd fa4c f53e
00000090: 5814 4ebe 1749 61bf 30ed 5e3e d830 0bbf
000000a0: 82de 183d e210 56be b614 e23d 19f8 b3be
000000b0: cba5 9b3e 0ff1 a63e f7f2 aa3e 180e 1dbf
000000c0: cc29 fcbe 8747 cd3d b510 273e 0dc0 1ebe
000000d0: 854c 433f 30ab 6c3f 48c7 d93d b11e 113d
000000e0: 69ab 9cbf cd10 06bf baf9 833e 6eb0 b63e
000000f0: a57c a8be 670f 43bd 51c0 66bd 6cbb 74be
00000100: 6f6d 553f a9ef cdbf afea de3e d273 043f
00000110: f4a7 bebd 1c4c 28be 6f32 bfbe 15cb ed3c
00000120: e326 003f 0d2b 14bc 68c5 b7be 42e9 3e3d
00000130: a135 df3e 8ae8 c8bf 5f73 063f 9038 1abf
00000140: af28 513f 9c99 b2bf df25 d13c 276c 573f
00000150: 34ca 64be f48a 2ebe bbf7 e13f a009 603f
00000160: c496 683e 2012 bcbe 1f99 ca3e cb62 933f
00000170: 155c f6be 2f12 21bf 60ca d73e 9097 8c3f
00000180: 200a 31be 0fe7 a1bf daf5 233e 034d 8a3e
00000190: 2ed5 b3bf 6bf0 dcb9 984e 8e3f ce86 2dbf
000001a0: ac66 8e3f 9d88 d63e abf4 fdbe f1eb 94bf
000001b0: b95d c63c c667 25bf 9b3d de3e a49b 3c3d
000001c0: b179 f3bf 6f96 35bf 875f e73d d182 8cbe
000001d0: 4ef9 603d 33e2 64bf 8a29 c9be d961 dfbe
000001e0: 786d 113f a6cf 963d d1a9 b4be a24b 56bf
000001f0: cd12 1abf 8832 47be 328b 76bd 9706 abbf
00000200: 8378 a4bf 9eac 983f 4b70 ad3e 6ee0 523e
00000210: f548 a7bf 92c7 283e b6f4 43be 8cd7 67be
00000220: 287e 983f 7dcc f9be 34aa 5fbd bdbd a8bd
00000230: f92b 77bf 61f3 7bbf 5fa0 e7be 0a74 84be
00000240: 4404 d13f cba9 b4bf cc31 23bf 9d29 733e
00000250: 89ba 243e f730 14bd d233 ebbe dd7b 42bf
00000260: a162 11bf af0c b0bf 59c0 bb3d 2a5a 313d
00000270: c890 12bf 25ad 4ebf fe3f 103f bbdb 153f
00000280: 6a1c 9fbe 0fa1 e6bd d2d0 0e3f 9913 893e
00000290: 05ff 593f 441f 313f b35a e83e bb04 5e3f
000002a0: 2ffe 1f3f adc2 7c3f 0668 cc3e db1c 01bf
000002b0: d3d6 093e d285 f23e 7922 393f 1b23 d53e
000002c0: 7a0a d7bd 1450 4fbf 49b7 4d3f 64b8 303f
000002d0: 7354 083f 0d44 8b3e 3e2e f1bf cea6 393f
000002e0: 1f18 83bf 4ffe 53bf 940b b23e 4ef9 8c3e
000002f0: b954 b2bf 917d f2be 155c 1c3f 7ec7 50bf
00000300: 21d8 cfbe 92d7 373f 08be 18bf 7332 03bf
00000310: f8a9 7bbf 76e4 2b3e e099 2a3e 402e ae3e
00000320: 2946 9a3e d639 80be 99ce e23d 8f56 5ebf
00000330: 5dc7 c13e 371e a5be 4ad9 9c3e 33b1 e8be
00000340: bd2b 703e f2d7 c4bd 585d 953d 51ca 9e3e
00000350: 5eeb 803f 9f47 54bd 89d1 bf3e df25 cf3b
00000360: 2acb a33e 8dc0 e3bd efc0 22bf 663a 173f
00000370: 2711 873e 5df4 08bf 7a36 54bd 346a 243f
00000380: df72 d53d d00a 2dbf ef14 23be 275d 6dbe
00000390: d319 d8be 8230 4a3e 0ba2 e4be dd94 cb3e
000003a0: 2ee7 193f ed3a 683f 763a 923e d166 4e3f
000003b0: 226a 213f ca5c 5bbe b531 debe 3d36 6a3e
000003c0: e4d3 54be 504a 3ebe bf63 743f 19d5 91be
000003d0: c178 223e ff91 dfbe b07c c0bf 4fb7 d03f
000003e0: b5bb ee3b 5185 743e 7e1a 0fbd d5bc 0abf
000003f0: c56c a8be 8b6c 1a3e e1cf 14be 80f3 95bf

lstm.bias_ih_l0 f4 [256]
0.18330903 -0.5964318 0.09579167 -0.19781053 0.15898763 -0.30428684 -0.124686696 -0.13893528
1.4140042 0.17713253 0.020126423 0.22019948 -0.30298916 -0.6673784 -0.14583294 -0.44150448
0.04401196 0.11267239 -0.312912 -0.17536302 0.4264526 -0.25388926 -0.3598534 -0.19484596
0.47838753 0.21386585 -0.07403345 -0.07225358 0.59690213 -0.181708 -0.18630092 0.8138255
-0.28851905 0.5211725 -0.43833995 -0.4125188 0.40810817 -0.34338424 0.042183574 -0.051961243
1.2222159 0.08625727 -0.1777232 0.1531561 0.16989298 0.22371419 -0.04384793 0.4010237
0.9280358 -0.2262427 0.1253635 0.5945663 -0.10482555 -0.27154058 -0.37483984 -0.25003633
0.034258697 -0.18266214 -0.17073189 -0.339862 -0.003916011 -0.3997756 -0.41265172 -0.36129844
-0.033428453 -0.3681487 -0.20667532 0.21659367 -0.24828324 0.7812641 0.55388296 -0.16757064
0.025732653 0.06495856 0.05813561 -0.08747429 0.24387558 -0.36681405 0.15233095 -0.33138466
0.06516589 -0.10205556 0.2927872 0.21498784 0.002323642 0.29024935 -0.3183596 -0.29297462
-0.46380037 0.125505 0.2709144 -0.20428322 0.29304022 -0.16162413 0.2899161 -0.60358256
-0.16676137 -0.1924092 -0.089328125 -0.34594992 0.16581708 -0.19358772 -0.2635257 -0.0399426
-0.2143608 -0.34285185 -0.36810032 0.03465581 0.41422415 0.41861507 -0.33139297 -0.29107103
-0.20415673 0.48629457 -0.16903768 -0.042662766 -0.024969902 0.03797554 -0.032222245 -0.21427041
0.36563268 0.025901392 0.20509729 -0.16379215 -0.36453915 0.39767718 -0.528416 -0.11656126
-0.032154743 -0.2300244 0.034098696 0.0061981515 -0.013178404 0.112675086 -0.09358246 0.064825274
-0.23948856 -0.40447226 -0.108442836 0.20765506 -0.034722157 0.2555568 0.12259574 0.17516105
-0.38050035 0.036773875 -0.164182 -0.16837338 0.043486655 -0.23477563 -0.16010155 0.073349684
0.17182544 -0.07508322 -0.10057362 -0.0547735 -0.13440634 0.0263614 0.0092339935 -0.2529495
-0.19929355 0.21870099 0.005894437 0.26637664 0.15114258 0.21847774 0.19551149 0.12047687
-0.32768986 -0.0070579103 -0.08461083 0.08644158 -0.12638687 0.27878895 -0.19619177 0.14197868
0.28367403 0.12828012 -0.068258345 0.14445204 -0.11675938 0.09032056 0.26490998 0.03920005
-0.015523369 0.19951618 -0.36722636 -0.011538682 0.30472752 0.041832764 -0.057306603 -0.010401839
0.195193 0.20468266 -0.049566776 -0.19307294 0.15962316 -0.13952595 -0.06872794 -0.24435756
1.4627348 -0.7508014 0.1799217 0.16557361 -0.23876932 -0.4242143 -0.31639352 -0.036800917
-0.045809742 -0.08323173 -0.52491695 -0.2626888 0.29602018 -0.021051764 -0.15092002 -0.1786024
0.7805698 -0.0663138 -0.49752522 0.02995122 -0.21897845 0.23971458 0.38220528 1.193769
-0.23370999 0.68498117 -0.019823503 0.16374145 0.41998106 -0.0075256494 -0.19906802 -0.0050453334
1.1813499 -0.54019904 -0.47834155 -0.16309477 0.32574338 0.13419423 -0.01526858 0.41664764
1.0569041 -0.41081798 0.17987962 0.78973204 0.3521232 -0.20110033 -0.56355405 -0.3530479
0.1351072 -0.22343968 -0.049673516 -0.3677573 0.25369102 -0.057125725 0.11319854 0.17893209
00000000: 5db5 3b3e c1af 18bf 6c2e c43d d88e 4abe
00000010: a7cd 223e 7ccb 9bbe bd5b ffbd 0d45 0ebe
00000020: 17fe b43f 3b62 353e 2be0 a43c f97b 613e
00000030: 6521 9bbe 50d9 2abf 3b55 15be e00c e2be
00000040: e345 343d c8c0 e63d 0036 a0be 5d92 33be
00000050: ff57 da3e c6fd 81be b43e b8be b385 47be
00000060: 36ef f43e a6ff 5a3e d99e 97bd aff9 93bd
00000070: 94ce 183f a911 3abe abc5 3ebe de56 503f
00000080: c5b8 93be 906b 053f 186e e0be aa35 d3be
00000090: 8ef3 d03e 0fd0 afbe afc8 2c3d 50d5 54bd
000000a0: 9271 9c3f a7a7 b03d 12fd 35be f4d4 1c3e
000000b0: 6df8 2d3e 5515 653e e399 33bd fa52 cd3e
000000c0: c193 6d3f 2bac 67be 4a5f 003e 7f35 183f
000000d0: c7ae d6bd 5e07 8bbe 02eb bfbe c304 80be
000000e0: d952 0c3d c90b 3bbe 57d4 2ebe 6402 aebe
000000f0: e251 80bb 63af ccbe 1647 d3be 1cfc b8be
00000100: 46ec 08bd fd7d bcbe b2a2 53be bbca 5d3e
00000110: f63d 7ebe ed00 483f 46cb 0d3f a397 2bbe
00000120: 49cd d23c fe08 853d 9b1f 6e3d b825 b3bd
00000130: 85ba 793e 0dcf bbbe a5fc 1b3e 40ab a9be
00000140: b275 853d 8102 d1bd 34e8 953e c625 5c3e
00000150: 3e48 183b 909b 943e 0800 a3be c500 96be
00000160: 3e77 edbe 6284 003e 4bb5 8a3e 9f2f 51be
00000170: 5e09 963e cc80 25be e26f 943e 6384 1abf
00000180: 7ec3 2abe eb06 45be aaf1 b6bd 5920 b1be
00000190: f4cb 293e dc3b 46be d7ec 86be da9a 23bd
000001a0: 6681 5bbe 478a afbe a577 bcbe 40f3 0d3d
000001b0: 3015 d43e b754 d63e 57ac a9be 4307 95be
000001c0: 760e 51be 9afb f83e 3718 2dbe 27bf 2ebd
000001d0: ae8d ccbc 3d8c 1b3d 79fb 03bd b469 5bbe
000001e0: 3534 bb3e 282f d43c 0605 523e 21b9 27be
000001f0: e0a4 babe 589c cb3e 4546 07bf abb7 eebd
00000200: b1b4 03bd 848b 6bbe 13ab 0b3d dd19 cb3b
00000210: 3cea 57bc 32c2 e63d 29a8 bfbd 1dc3 843d
00000220: 7d3c 75be fd16 cfbe 4717 debd 87a3 543e
00000230: d238 0ebd 57d8 823e 7a13 fb3d 6b5d 333e
00000240: f1d0 c2be 34a0 163d 541f 28be 126a 2cbe
00000250: 101f 323d 0669 70be a9f1 23be 5c38 963d
00000260: 02f3 2f3e 3bc5 99bd 8bf9 cdbd 2d5a 60bd
00000270: d1a1 09be ddf3 d73c 2d4a 173c 9982 81be
00000280: 9c13 4cbe 27f3 5f3e 1f26 c13b 8562 883e
00000290: 1fc5 1a3e a1b8 5f3e 2a34 483e 94bc f63d
000002a0: f7c6 a7be 0b46 e7bb 7148 adbd 4808 b13d
000002b0: 8f6b 01be 6dbd 8e3e 7fe6 48be dc62 113e
000002c0: b93d 913e dd5b 033e 08cb 8bbd 3ceb 133e
000002d0: 8b1f efbd fcf9 b83d 48a2 873e 3b90 203d
000002e0: bb55 7ebc f84d 4c3e 1805 bcbe bd0c 3dbc
000002f0: 3f05 9c3e d558 2b3d 54ba 6abd 7a6c 2abc
00000300: ace0 473e 5598 513e 8806 4bbd eab4 45be
00000310: 4174 233e e4df 0ebe 3cc1 8cbd de38 7abe
00000320: e53a bb3f 8534 40bf 653d 383e 218c 293e
00000330: f27f 74be 9e32 d9be 55fe a1be 8fbc 16bd
00000340: ffa2 3bbd 6675 aabd f560 06bf 257f 86be
00000350: f58f 973e c074 acbc c78a 1abe 8ce3 36be
00000360: 6cd3 473f 88cf 87bd a0bb febe 435c f53c
00000370: e33b 60be bd77 753e 69b0 c33e 6ccd 983f
00000380: ac51 6fbe ed5a 2f3f e664 a2bc d7ab 273e
00000390: c207 d73e b999 f6bb 7dd8 4bbe 5353 a5bb
000003a0: 7936 973f 7c4a 0abf 2fe9 f4be 5102 27be
000003b0: d6c7 a63e 366a 093e 1129 7abc d752 d53e
000003c0: a248 873f bc56 d2be 5d32 383e e12b 4a3f
000003d0: 7e49 b43e 3fed 4dbe 1445 10bf b2c2 b4be
000003e0: 8b59 0a3e 5fcd 64be 7576 4bbd af4a bcbe
000003f0: cae3 813e aafc 69bd a3d4 e73d f939 373e

lstm.bias_hh_l0 f4 [256]
0.06284863 -0.48789188 0.065887064 -0.18893734 0.25533897 -0.25913444 -0.1756153 -0.12802976
1.2902507 0.19527067 0.15069708 -0.0055094296 -0.08579362 -0.57501626 -0.28506336 -0.47775865
-0.13036817 0.06017707 -0.19503108 -0.31649715 0.48412755 -0.12131797 -0.40370515 -0.1315903
0.5007742 0.024385914 0.00992189 0.048143733 0.4401884 -0.23968624 -0.10299717 0.67916393
-0.18042164 0.46584162 -0.42380968 -0.34700295 0.29381436 -0.40681735 0.11183924 0.042794317
1.260121 0.16927609 -0.1634756 0.027267838 0.0538128 0.17571743 -0.051552847 0.37902302
0.847264 -0.17936538 0.15131342 0.6231932 -0.34258848 -0.41152 -0.50254387 -0.3499464
-0.12263216 -0.36775804 -0.06450678 -0.43358022 -0.010572681 -0.39158714 -0.22770172 -0.40613523
0.12751272 -0.3126353 -0.25736797 0.0395857 -0.09817113 0.76603276 0.36783308 0.009095887
-0.06346022 0.10060693 -0.044026103 0.020505853 0.42994547 -0.27282628 0.26206353 -0.26680824
-0.051270846 -0.1361009 0.31420207 0.030425882 0.06744714 0.17229623 -0.17411332 -0.31003463
-0.49416825 0.10177306 0.1494386 -0.2653057 0.37916017 -0.2783888 0.070099875 -0.48288465
-0.13331172 0.023198651 -0.037024997 -0.1270608 0.09006038 -0.23255329 -0.26212433 -0.06474706
-0.17725241 -0.43886212 -0.20484166 0.1711999 0.41737077 0.3253796 -0.28086403 -0.2667456
-0.058446333 0.43133235 -0.16643068 -0.023912689 -0.052484587 0.0059780325 -0.19433336 -0.19372684
0.37380016 -0.05171528 0.19854425 -0.10178542 -0.31357834 0.3643583 -0.42343688 -0.0036515526
0.02498555 -0.07935527 -0.12717657 0.08770466 0.101641044 0.30125248 -0.10927345 0.17968555
-0.24081565 -0.46659884 0.07833523 0.23825791 0.028318044 0.26276395 0.12800153 0.26752806
-0.16054997 0.10472019 -0.15570587 -0.12208641 0.19521257 -0.16012518 -0.21993391 0.1800081
0.18029562 0.025904445 -0.016263999 -0.007641909 -0.11802181 -0.16898507 0.04053649 -0.396045
-0.25885046 0.06538695 0.037734568 0.10682885 0.11185404 0.18609862 0.22343418 0.15684691
-0.16289778 0.04309934 -0.12127238 0.039367586 -0.13881555 0.14700507 -0.21998681 0.12926786
0.1386283 0.12990096 -0.058861848 0.29489553 -0.10057176 -0.036410563 0.18080951 0.06477548
0.14117932 0.08575161 -0.3981856 -0.11733681 0.10105787 -0.029529093 -0.14573863 -0.07368231
0.26190028 0.108585574 0.036812793 -0.30260473 0.06645718 -0.14566174 -0.2690691 -0.28937998
1.428929 -0.65533894 0.13963957 0.29997793 -0.28125268 -0.4414201 -0.21474785 -0.033261456
-0.0418606 -0.033646353 -0.43196929 -0.2513259 0.42775437 -0.17296912 -0.20903146 -0.18302734
0.7073182 -0.024088742 -0.33920714 0.12274351 -0.1525689 0.21659951 0.3808264 1.1987616
-0.32643107 0.52504104 0.12330174 0.07512731 0.43644422 -0.112175584 -0.30737618 -0.06618957
1.180649 -0.37770054 -0.3613734 -0.13555357 0.36595592 0.14559309 -0.057582907 0.54714614
0.9782783 -0.34086773 0.2011874 0.7417414 0.15265848 -0.12894274 -0.38250512 -0.271483
0.24158679 -0.30605537 -0.11750554 -0.17380597 0.26073685 -0.0076466547 -0.094876654 0.14601958
00000000: c8b6 803d f7cc f9be ccef 863d ca78 41be
00000010: cabb 823e 45ad 84be 7fd4 33be 3c1a 03be
00000020: ef26 a53f 09f5 473e 5650 1a3e 7288 b4bb
00000030: 91b4 afbd 4434 13bf d3f3 91be c89c f4be
00000040: 3c7f 05be 3b7c 763d 3ab6 47be ea0b a2be
00000050: 91df f73e 8e75 f8bd 71b2 cebe 9cbf 06be
00000060: bd32 003f f8c4 c73c 6c8f 223c 5d32 453d
00000070: 6060 e13e 4f70 75be 2ef0 d2bd b0dd 2d3f
00000080: 73c0 38be cb82 ee3e 95fd d8be 5faa b1be
00000090: d66e 963e 5d4a d0be f90b e53d 1849 2f3d
000000a0: a54b a13f b656 2d3e 2666 27be cd60 df3c
000000b0: d06a 5c3d 45ef 333e 1429 53bd 4e0f c23e
000000c0: 4be6 583f 8fab 37be e8f1 1a3e 9789 1f3f
000000d0: c267 afbe c0b2 d2be b7a6 00bf 2d2c b3be
000000e0: 9226 fbbd c84a bcbe 211c 84bd 3afe ddbe
000000f0: 0a39 2dbc 1c7e c8be a42a 69be f5f0 cfbe
00000100: b292 023e bc11 a0be bcc5 83be 9d24 223d
00000110: f20d c9bd b91a 443f 9e54 bc3e ea06 153c
00000120: 6ff7 81bd 020b ce3d b754 34bd e4fb a73c
00000130: d021 dc3e e3af 8bbe 312d 863e 179b 88be
00000140: 6101 52bd 095e 0bbe 18df a03e b33f f93c
00000150: ba21 8a3d 6c6e 303e c34a 32be dcbc 9ebe
00000160: 9f03 fdbe 656e d03d 6f06 193e 26d6 87be
00000170: 4821 c23e fa88 8ebe 8690 8f3d a83c f7be
00000180: de82 08be 190b be3c 86a7 17bd 3a1c 02be
00000190: 9471 b83d 7322 6ebe 2935 86be 1b9a 84bd
000001a0: a881 35be 89b2 e0be 03c2 51be 074f 2f3e
000001b0: 9fb1 d53e 2898 a63e 69cd 8fbe e192 88be
000001c0: 6c65 6fbd 98d7 dc3e ce6c 2abe 8be4 c3bc
000001d0: 14fa 56bd 5fe3 c33b 53ff 46be 5460 46be
000001e0: bc62 bf3e 67d3 53bd 2f4f 4b3e e074 d0bd
000001f0: 578d a0be 2c8d ba3e b8cc d8be e34e 6fbb
00000200: 7fae cc3c 0485 a2bd 933a 02be 809e b33d
00000210: 2e29 d03d c43d 9a3e c2ca dfbd 7dff 373e
00000220: 6198 76be 0be6 eebe 396e a03d e2f9 733e
00000230: 3efb e73c ff88 863e d512 033e 70f9 883e
00000240: 3667 24be 8a77 d63d 5c71 1fbe 7108 fabd
00000250: cee5 473e dbf7 23be 5b36 61be 0b54 383e
00000260: 6a9f 383e 8f35 d43c 143c 85bc fb68 fabb
00000270: 6bb5 f1bd 6c0a 2dbe 9709 263d 69c6 cabe
00000280: 0c88 84be 98e9 853d 908f 1a3d 16c9 da3d
00000290: bb13 e53d a390 3e3e eecb 643e 7a9c 203e
000002a0: adce 26be ef88 303d a75d f8bd e83f 213d
000002b0: aa25 0ebe 7f88 163e 3944 61be cb5e 043e
000002c0: 94f4 0d3e c204 053e 1f19 71bd 8cfc 963e
000002d0: 91f8 cdbd 3e23 15bd 2126 393e 02a9 843d
000002e0: 5091 103e 8a9e af3d fcde cbbe 484e f0bd
000002f0: 6ef7 ce3d ffe6 f1bc 823c 15be c0e6 96bd
00000300: cb17 863e 1d62 de3d 03c9 163d 02ef 9abe
00000310: b41a 883d 5a28 15be 6dc3 89be 9d29 94be
00000320: 25e7 b63f 4bc4 27bf adfd 0e3e b596 993e
00000330: 5a00 90be d101 e2be dce6 5bbe 2a3d 08bd
00000340: 0576 2bbd c2d0 09bd 142b ddbe caad 80be
00000350: 9f02 db3e d11e 31be 580c 56be 856b 3bbe
00000360: ce12 353f c155 c5bc 8fac adbe f360 fb3d
00000370: 063b 1cbe 43cc 5d3e aefb c23e 0571 993f
00000380: f921 a7be 1769 063f 9f85 fc3d 59dc 993d
00000390: 9e75 df3e 50bc e5bd 6960 9dbe 668e 87bd
000003a0: 821f 973f f761 c1be ef05 b9be 8ece 0abe
000003b0: 935e bb3e 5b16 153e 0edc 6bbd c511 0c3f
000003c0: 7270 7a3f 3786 aebe 1204 4e3e c4e2 3d3f
000003d0: 8152 1c3e 9109 04be b6d7 c3be d2ff 8abe
000003e0: 8762 773e 4ab3 9cbe bfa6 f0bd 31fa 31be
000003f0: 4d7f 853e ca90 fabb b14e c2bd 2886 153e

lstm.weight_ih_l1 f4 [256, 64]
0.89382946 -1.346495 0.27167416 -0.5620222 1.1010085 0.71271014 -0.8112011 0.05335087
-0.7358869 -1.5592415 -0.07236441 -0.6511776 0.7173987 0.3994494 -0.3503803 0.7680814
0.6914168 -0.27856827 -0.9244307 -0.69563717 1.3592515 0.15748 1.1438514 -0.6822774
1.4034448 1.0292854 -0.11465681 -0.34846476 0.13852558 0.14622311 0.17728499 -0.037011247
0.672092 -0.18662117 -1.5158153 -0.25068745 1.2483048 -0.11542975 -0.5427081 -3.3551424
0.4305563 -1.3445444 0.21909274 0.14979091 0.29712188 -0.27745438 -0.62844884 -1.0245922
0.33949292 0.089741245 -1.3965461 1.7838454 0.17197274 -0.26709935 -1.4009645 0.044608634
-2.2567627 0.44758603 0.53694487 -0.26639938 0.1401214 -1.5099924 -0.25322843 1.7729902
-0.19692011 0.14230625 -0.67942524 -0.40135413 0.29260638 0.6092976 -0.26313353 0.49136546
-3.45929 -0.58695054 0.6507446 -0.9018641 0.16196732 -0.9692521 1.1616461 -0.5113978
-0.018554425 1.9605483 -0.33871314 -0.362629 -0.14287946 -0.525013 0.73101884 1.0339272
0.17924817 0.23227826 -0.14894563 -0.21700181 -0.23895085 0.49574566 -0.27666724 -1.1622251
-0.13028944 1.4981859 0.9795517 -1.1114467 -0.51691824 -0.25298542 -1.4948721 -0.7074459
-0.6922768 -0.8129666 0.853216 0.09473034 -0.15700117 -0.30443978 -0.21212073 0.544864
0.795523 -0.16693684 0.36132008 2.0623527 -0.69504046 -0.22784622 0.8204011 -1.3026402
0.6517767 -0.43780446 -1.0794443 -0.3602203 -0.2926498 -0.11581563 0.50281876 -0.9530397
0.57009876 -0.18858565 0.45961174 -0.75933105 0.93208534 -0.6346254 -1.0589222 0.5383756
-0.8264817 0.9017657 -0.02976125 -0.2787 -0.51535225 0.19022265 -0.37138388 -0.30733046
0.31379232 -0.7069049 -0.2948106 0.30474076 -0.16020572 -0.17707293 -0.20521474 0.6601474
0.44912443 0.8433446 0.093511164 -0.15682629 -0.35165805 0.09231744 0.5231846 -0.33825555
-0.33800438 -0.2058518 -0.35856766 -0.58149284 0.2976838 0.4395818 0.69476223 0.8798685
0.67770773 -0.4562652 -0.05583216 -0.9919366 -0.1020843 -0.1487064 0.09339596 -0.37910628
-0.481845 -0.3852173 -0.5350052 0.63082 0.05006767 -0.14595573 -0.9254715 0.710291
0.22791028 0.44833794 0.1103992 -0.26225758 -0.5253617 -0.5753802 0.98984617 -1.1248494
-0.86014384 0.002607826 -1.0012785 0.14974962 -0.29547745 0.05081907 -0.02297961 -0.41337052
-0.64840025 -0.08367069 0.05630863 -0.36389175 -0.050059676 -0.6879802 0.48196116 -0.7813351
0.028376115 -0.47285116 -0.36089164 -0.32896316 -0.30188435 -0.038364623 0.083263144 -1.450182
-0.42013502 -0.47812214 0.22449957 -1.251342 -1.2948294 0.5181739 0.4668743 0.21328
0.42284107 0.4202995 -0.9987206 -0.09998479 0.035318404 0.0051717474 -0.23732583 1.2823803
0.120374925 0.03984044 -0.1970008 -0.23401351 -0.27744114 -0.33321944 0.031315204 0.22726725
0.14829765 0.6704244 -0.6231665 0.5551117 -0.7674945 -0.39879122 -0.44041198 0.96433866
-0.3584109 0.21093456 -0.6573209 -1.4647619 0.38077402 0.34530616 0.8834316 1.2526531
00000000: 02d2 643f f359 acbf e018 8b3e b0e0 0fbf
00000010: d9ed 8c3f 2c74 363f e0aa 4fbf 7186 5a3d
00000020: 1563 3cbf 3a95 c7bf cb33 94bd 93b3 26bf
00000030: 71a7 373f a284 cc3e 0c65 b3be fca0 443f
00000040: b100 313f 80a0 8ebe 7ea7 6cbf 4715 32bf
00000050: f4fb ad3f 7042 213e b969 923f bba9 2ebf
00000060: 14a4 b33f a0bf 833f 31d1 eabd f969 b2be
00000070: a6d9 0d3e 83bb 153e 328a 353e 1b99 17bd
00000080: 390e 2c3f 9f19 3fbe 3c06 c2bf 1b5a 80be
00000090: 74c8 9f3f 6f66 ecbd ebee 0abf a7ba 56c0
000000a0: e071 dc3e 081a acbf d959 603e ca62 193e
000000b0: 5c20 983e 800e 8ebe 06e2 20bf d625 83bf
000000c0: 04d2 ad3e 42ca b73d 06c2 b2bf 0c55 e43f
000000d0: 9f19 303e 3fc1 88be ce52 b3bf 8bb7 363d
000000e0: cd6e 10c0 ff29 e53e 3875 093f 8065 88be
000000f0: fc7b 0f3e 6e47 c1bf 28a7 81be 58f1 e23f
00000100: 6da5 49be bbb8 113e d0ee 2dbf 4a7e cdbe
00000110: 81d0 953e edfa 1b3f 70b9 86be 4194 fb3e
00000120: 0265 5dc0 6442 16bf 3397 263f 91e0 66bf
00000130: c3da 253e e820 78bf d2b0 943f f7ea 02bf
00000140: 73ff 97bc 3ff3 fa3f cf6b adbe 82aa b9be
00000150: fe4e 12be 4167 06bf 0d24 3b3f ba57 843f
00000160: d58c 373e 5ada 6d3e 3485 18be b935 5ebe
00000170: 88af 74be 60d2 fd3e 54a7 8dbe cbc3 94bf
00000180: 986a 05be 8ec4 bf3f e6c3 7a3f e343 8ebf
00000190: c154 04bf 4e87 81be f857 bfbf 2d1b 35bf
000001a0: 0d39 31bf 941e 50bf 5d6c 5a3f fb01 c23d
000001b0: eac4 20be 88df 9bbe 2d36 59be 357c 0b3f
000001c0: 65a7 4b3f 7ef1 2abe f2fe b83e 96fd 0340
000001d0: 2cee 31bf 8550 69be ce05 523f eabc a6bf
000001e0: d6da 263f e827 e0be 3b2b 8abf cc6e b8be
000001f0: 32d6 95be bf30 edbd bbb8 003f 69fa 73bf
00000200: fef1 113f 991c 41be 3b52 eb3e 8563 42bf
00000210: 259d 6e3f cf76 22bf c38a 87bf fcd2 093f
00000220: 4e94 53bf 1eda 663f ddcd f3bc c4b1 8ebe
00000230: 20ee 03bf bac9 423e 0726 bebe 6b5a 9dbe
00000240: 63a9 a03e b8f7 34bf 6af1 96be fb06 9c3e
00000250: f80c 24be 9b52 35be d023 52be 6cff 283f
00000260: a3f3 e53e 6fe5 573f c882 bf3d 1297 20be
00000270: 860c b4be ed10 bd3d 6def 053f d52f adbe
00000280: e90e adbe d0ca 52be 2e96 b7be b7dc 14bf
00000290: 036a 983e de10 e13e f0db 313f 103f 613f
000002a0: 417e 2d3f 989b e9be 43b0 64bd 8fef 7dbf
000002b0: 9311 d1bd 7e46 18be 6246 bf3d 381a c2be
000002c0: 63b4 f6be 343b c5be 1af6 08bf 6b7d 213f
000002d0: c213 4d3d 6b75 15be b3eb 6cbf a2d5 353f
000002e0: 5061 693e 8d8c e53e fa18 e23d a046 86be
000002f0: 1b7e 06bf 1e4c 13bf 8f66 7d3f 11fb 8fbf
00000300: 6332 5cbf 0fe8 2a3b e529 80bf f757 193e
00000310: d248 97be a827 503d bc3f bcbc 4da5 d3be
00000320: 8ffd 25bf 8a5b abbd e1a3 663d 0550 babe
00000330: 600b 4dbd 781f 30bf 9dc3 f63e 9405 48bf
00000340: 0775 e83c 8c19 f2be cac6 b8be dc6d a8be
00000350: 9690 9abe 3924 1dbd de85 aa3d 909f b9bf
00000360: f01b d7be 6dcc f4be 37e3 653e fa2b a0bf
00000370: f8bc a5bf 0ba7 043f 260a ef3e 1366 5a3e
00000380: a07e d83e 7f31 d73e 27ac 7fbf d3c4 ccbd
00000390: 08aa 103d c377 a93b 8b05 73be 0a25 a43f
000003a0: 2187 f63d bb2f 233d 94ba 49be 3da1 6fbe
000003b0: c40c 8ebe bd9b aabe 5f44 003d bfb8 683e
000003c0: 57db 173e efa0 2b3f d787 1fbf cd1b 0e3f
000003d0: 857a 44bf 5d2e ccbe ae7d e1be e6de 763f
000003e0: a281 b7be 3bff 573e 2f46 28bf 517d bbbf
000003f0: d0f4 c23e f8cb b03e 9328 623f f056 a03f

lstm.weight_hh_l1 f4 [256, 64]
-3.1441655 0.320192 -0.34648046 0.6608208 -0.9403232 -2.13984 0.28320065 -1.1485265
-0.89956534 0.31652167 0.6865304 -3.29321 -2.7103608 0.090057515 0.20927863 3.3913448
-1.9309623 -0.4465082 -0.5387728 -0.0022419856 -0.32643637 -1.3879933 -3.1463776 -0.9562712
-2.0738256 -1.7039179 -0.18917984 1.8079654 -0.060097795 -1.043864 2.3765414 -0.62593216
-1.4259175 -0.6514371 -1.4115478 -0.3527926 -0.08479966 0.40562344 -0.9007516 -1.1303427
-1.587206 -0.2234695 1.5284442 0.024007658 2.0825982 0.23487268 1.1441377 -0.45709583
0.6263576 -0.57385427 -0.26272327 -1.0855905 -0.4866023 -1.0346576 -0.116347 0.6152213
-0.958753 -0.7007868 -0.7177135 -0.23490551 -1.4018807 0.44555146 -0.34180164 0.038614314
1.1778243 -0.28591895 0.8830191 -0.00516335 -1.3122526 1.5610404 -0.8867847 -1.1298447
-0.6914354 0.45703855 0.65611434 -0.7844913 -0.24738923 0.94024694 -0.4995719 -0.38336998
2.02256 -0.40598524 -2.5790715 0.6256236 0.04878914 -2.22386 1.1434885 0.07710024
-0.9991498 1.5448347 -1.7865026 -0.57288826 0.07748299 0.5464056 -0.25232056 0.73369807
0.4701439 -0.58759004 0.3955729 0.10249864 0.51151943 1.2018889 0.54665524 1.0380423
-1.0765034 -1.3078061 -0.6162148 -0.5530029 -0.6678358 0.007950383 -0.47415775 -0.26422396
0.6360605 -0.24379095 -1.3100057 0.38632265 0.48211926 -0.16794404 -0.2031803 -0.70565796
-1.0637622 0.33497795 -0.27820268 -0.009761015 0.04130721 0.41594777 -0.9309178 0.2902711
-1.370379 -3.5421336 -1.4807848 -1.8745582 0.099632844 0.1320958 0.76663554 1.1139283
-1.867356 -2.068581 -0.5053747 -1.4334823 -2.380756 -0.91847306 -4.5014257 1.5829885
1.5305173 0.23568001 0.38986877 1.4233797 -1.4196538 -0.22487518 1.007186 1.1774745
3.3383205 0.46911636 -1.2867054 0.69011915 -1.3840461 0.07701103 -0.7834917 1.0732551
2.6191115 -0.123463 0.30546612 -0.08173541 0.24806908 -0.16273567 -0.8599838 1.171202
-0.49307656 -1.4981905 2.145051 0.28348893 0.6282843 -1.2014282 0.9609124 -0.51765376
-1.0839906 -0.21081822 -2.821441 -4.3145485 -0.5089931 0.21226367 0.2108253 -0.048672475
4.5080276 -1.1382228 0.83487993 -0.9120088 1.958328 1.2535068 -0.29944736 1.1502678
0.78174126 -0.98738194 -1.5206608 -0.048727926 -0.5526812 0.028851345 1.3094822 -1.9805841
-0.9348278 0.6321202 -0.12285071 2.7702408 -0.4833369 1.021392 -0.49293047 0.35358348
-0.35005996 -1.2381703 0.13398346 1.6751585 1.5695591 -0.689694 -0.3142203 0.26501545
0.5309558 1.1038984 -1.3388789 -0.82504976 -0.24488252 -1.1607653 0.35301766 0.53639853
0.2951679 -1.6010962 0.41365016 -0.5936726 0.0354424 -0.26936102 2.0119205 0.8280134
-0.97361827 0.10895112 -0.6695772 -2.3055844 0.8634151 -0.15471523 0.5496056 -0.18269639
-0.07248198 0.68359834 1.0328236 -0.2754248 0.41269788 0.4249154 -0.39859644 0.9399496
-0.99068624 0.7837153 1.272251 0.69022804 -1.9429215 -0.91671324 -1.696122 0.060829
00000000: 023a 49c0 35f0 a33e e365 b1be 8d2b 293f
00000010: 05b9 70bf 23f3 08c0 adff 903e eb02 93bf
00000020: ea49 66bf 210f a23e 75c0 2f3f f4c3 52c0
00000030: 8d76 2dc0 1370 b83d 234d 563e cb0b 5940
00000040: c629 f7bf b99c e4be 04ed 09bf 47ee 12bb
00000050: ab22 a7be c4a9 b1bf 405e 49c0 30ce 74bf
00000060: 8fb9 04c0 fb19 dabf 5cb8 41be 696b e73f
00000070: 1b29 76bd 569d 85bf 4119 1840 173d 20bf
00000080: 7784 b6bf 95c4 26bf 99ad b4bf 3ba1 b4be
00000090: 72ab adbd e0ad cf3e a897 66bf 12af 90bf
000000a0: 9129 cbbf 30d5 64be 0fa4 c33f b5ab c43c
000000b0: 4a49 0540 7782 703e 1b73 923f 7708 eabe
000000c0: f958 203f 1de8 12bf aa83 86be a1f4 8abf
000000d0: f023 f9be a96f 84bf 5647 eebd 257f 1d3f
000000e0: d670 75bf c466 33bf 12bc 37bf 128b 70be
000000f0: d470 b3bf 521f e43e a000 afbe 0b2a 1e3d
00000100: f2c2 963f f863 92be 8a0d 623f 5231 a9bb
00000110: e5f7 a7bf 2cd0 c73f 5204 63bf c09e 90bf
00000120: e901 31bf f500 ea3e 1cf7 273f 6cd4 48bf
00000130: 9a53 7dbe 06b4 703f e3c7 ffbe 1249 c4be
00000140: 9f71 0140 4cdd cfbe 820f 25c0 de28 203f
00000150: 1fd7 473d b953 0ec0 d55d 923f bbe6 9d3d
00000160: 48c8 7fbf 25bd c53f 1eac e4bf cea8 12bf
00000170: 67af 9e3d 3de1 0b3f 2930 81be a3d3 3b3f
00000180: b4b6 f03e 4d6c 16bf 8888 ca3e cfea d13d
00000190: f0f2 023f 7fd7 993f 99f1 0b3f 92de 843f
000001a0: ddca 89bf 3166 a7bf 41c0 1dbf 9991 0dbf
000001b0: 49f7 2abf 5342 023c cec4 f2be 5d48 87be
000001c0: dcd4 223f 56a4 79be 44ae a7bf 15cc c53e
000001d0: 56d8 f63e 86f9 2bbe 7f0e 50be 00a6 34bf
000001e0: 5c29 88bf 3b82 ab3e 9570 8ebe aaec 1fbc
000001f0: c031 293d 1bf7 d43e a150 6ebf 6a9e 943e
00000200: 9468 afbf 51b2 62c0 5b8a bdbf 86f1 efbf
00000210: 4e0c cc3d 1f44 073e 3a42 443f 3495 8e3f
00000220: 8505 efbf a263 04c0 3d60 01bf 597c b7bf
00000230: 4e5e 18c0 0d21 6bbf ae0b 90c0 5e9f ca3f
00000240: fee7 c33f 1a56 713e e19c c73e 4e31 b63f
00000250: 37b7 b5bf ae45 66be 79eb 803f 7cb7 963f
00000260: 0ba7 5540 0530 f03e c3b2 a4bf a6ab 303f
00000270: 6c28 b1bf f5b7 9d3d e992 48bf 6c60 893f
00000280: 869f 2740 2bda fcbd 0e66 9c3e e564 a7bd
00000290: d205 7e3e 2ea4 26be e627 5cbf f2e9 953f
000002a0: 8874 fcbe b5c4 bfbf 8448 0940 7625 913e
000002b0: 3dd7 203f 66c8 99bf 5bfe 753f f584 04bf
000002c0: 34c0 8abf bbe0 57be 7d92 34c0 c810 8ac0
000002d0: 5f4d 02bf a65b 593e 96e2 573e ca5c 47bd
000002e0: c341 9040 49b1 91bf b1ba 553f 6979 69bf
000002f0: 7eaa fa3f e972 a03f 2a51 99be fa3b 933f
00000300: 3220 483f 10c5 7cbf 03a5 c2bf ef96 47bd
00000310: 847c 0dbf a859 ec3c 1d9d a73f c883 fdbf
00000320: e050 6fbf a1d2 213f 2799 fbbd a04b 3140
00000330: ef77 f7be f9bc 823f 6261 fcbe e508 b53e
00000340: 0f3b b3be 5d7c 9ebf f632 093e 986b d63f
00000350: 50e7 c83f c98f 30bf 7ce1 a0be 1bb0 873e
00000360: b8ec 073f 8b4c 8d3f 6260 abbf 7636 53bf
00000370: 7cc2 7abe f593 94bf bbbe b43e 6a51 093f
00000380: 3f20 973e b8f0 ccbf f4c9 d33e edfa 17bf
00000390: 0d2c 113d b0e9 89be 4ec3 0040 b0f8 533f
000003a0: 0c3f 79bf c421 df3d 6969 2bbf b28e 13c0
000003b0: c608 5d3f ab6d 1ebe f4b2 0c3f c314 3bbe
000003c0: 6f71 94bd 4d00 2f3f 9033 843f 7b04 8dbe
000003d0: 234d d33e 838e d93e d514 ccbe 89a0 703f
000003e0: 9d9d 7dbf 91a1 483f 1fd9 a23f c9b2 303f
000003f0: a7b1 f8bf b8ad 6abf 871a d9bf d427 793d

lstm.bias_ih_l1 f4 [256]
-0.09492171 -0.08412409 0.36376774 0.14477022 0.5420892 -0.016965799 0.09228928 -0.22592427
-0.0379322 0.11761936 -0.33984023 -0.39695817 -0.1740589 0.29268694 -0.012707343 0.23790321
-0.46961758 0.22275707 -0.49677914 0.2433028 -0.023072641 0.269122 -0.13102056 0.4248104
0.12974977 0.07038648 0.28431913 0.024974111 0.29089922 0.07309478 -0.34233555 0.43312663
0.38784435 0.33386827 0.3226671 0.28026983 0.72345716 0.12829016 0.25663134 0.22179253
0.21716286 0.021194782 0.056725603 0.2003085 0.044136103 -0.17637417 0.38493267 -0.56630206
0.31989327 0.080600165 0.0032923997 -0.44907975 0.04445177 -0.1283795 0.38906947 0.11913052
0.08941754 -0.26973304 0.1678979 0.086732 0.060468074 0.3410042 0.2202394 0.44974792
0.43604246 -0.34550026 0.30717716 0.34760547 0.25503537 0.14622726 0.05888569 0.04360084
0.05530396 -0.08037828 0.19289982 -0.15401526 -0.18916483 0.0840338 -0.0601354 0.45353007
-0.27719113 0.41434708 -0.2117567 0.20945506 -0.19767879 -0.09703725 0.063883714 -0.39326006
0.07198292 -0.30248293 0.27764514 0.30535534 0.03544228 -0.0056676124 0.21355684 -0.059416015
0.1442338 -0.04562105 0.5153391 0.31060246 0.47408733 0.30925217 -0.13325654 -0.29730862
0.5902942 -0.16752067 0.20459248 0.28486595 0.511769 0.23042504 0.51884884 1.0595547
0.31833535 0.407717 0.47572136 -0.08663431 0.7206408 0.22330447 0.4916562 0.12386492
-0.073255 0.31498316 0.1500251 0.47150502 -0.06356989 0.29900014 0.064939566 0.41455537
0.17886923 0.092550434 -0.54892725 -0.1538193 -0.18655767 0.00020030093 0.035782192 0.00918041
0.2086493 0.102817945 -0.16187823 0.08695766 -0.13069843 -0.37178513 -0.4544919 0.027366763
0.030645827 0.39283454 -0.2963845 -0.23272826 0.2520227 -0.10081016 -0.118691355 0.06955336
0.31476277 0.30694354 -0.1494879 -0.012029543 -0.3014207 -0.04682281 0.11645785 0.11749121
0.396328 -0.12623285 0.05491959 0.13860165 -0.030126212 0.6979935 0.07866506 -0.14342256
-0.37722313 0.14151725 -0.3413666 -0.4810737 0.18386307 -0.034386758 -0.047703914 -0.30717677
-0.3525474 0.33793277 0.14777012 0.1571833 0.22042261 -0.2116553 0.22884998 -0.34253898
-0.4951305 0.12271333 0.3002453 0.4355933 -0.19462408 0.002878545 0.12570146 0.072784305
0.14479041 -0.1983767 0.2844549 0.55655277 0.48919386 0.31918374 0.31092685 0.3302953
0.31332594 0.3865108 0.35735607 0.5926796 0.3904398 0.66714996 0.3619804 0.5962382
0.1816344 0.17344227 -0.34038 0.6151325 0.06233343 -0.10729399 0.28647447 0.10412077
0.1563865 0.27615866 0.4007987 0.5940594 0.07895969 0.32250652 -0.12653111 0.42676973
0.64924026 1.2456843 0.73808163 0.18852773 0.34201443 0.36582926 -0.21177289 0.36252126
0.24756737 0.1723218 0.15118359 0.2966433 0.006711719 0.46514538 0.31471497 0.12445379
0.37324128 0.19285043 0.42490995 0.100228205 0.7955124 0.1706488 0.3742049 -0.07939902
0.4187386 0.09286219 0.5151217 0.42608997 -0.04901015 0.19532223 0.20046969 0.50463194
00000000: 5066 c2bd 4049 acbd c43f ba3e a53e 143e
00000010: 5cc6 0a3f dcfb 8abc 2902 bd3d b158 67be
00000020: cb5e 1bbd 6be2 f03d 8aff adbe 1a3e cbbe
00000030: 7f3c 32be 10db 953e 7632 50bc e69c 733e
00000040: b771 f0be 6e1a 643e d659 febe 5f24 793e
00000050: d602 bdbc 5cca 893e 412a 06be c080 d93e
00000060: 20dd 043e c926 903d 4792 913e 8296 cc3c
00000070: bef0 943e b7b2 953d 9b46 afbe c6c2 dd3e
00000080: 8993 c63e c8f0 aa3e 9f34 a53e 877f 8f3e
00000090: 7d34 393f 7f5e 033e 2f65 833e 951d 633e
000000a0: f15f 5e3e aea0 ad3c 1b59 683d ac1d 4d3e
000000b0: 0fc8 343d 6e9b 34be e515 c53e 2cf9 10bf
000000c0: 0dc9 a33e b311 a53d 4dc5 573b c8ed e5be
000000d0: 0f13 363d ea75 03be 1d34 c73e b4fa f33d
000000e0: 8b20 b73d 731a 8abe 6ded 2b3e 8ca0 b13d
000000f0: 5fad 773d 1a98 ae3e 7086 613e 5c45 e63e
00000100: f540 df3e 69e5 b0be 5346 9d3e 58f9 b13e
00000110: ff93 823e 99bc 153e 1f32 713d cb96 323d
00000120: 6886 623d 5e9d a4bd 8887 453e 2db6 1dbe
00000130: 6db4 41be ea19 ac3d 8a50 76bd 1835 e83e
00000140: ffeb 8dbe 4d25 d43e c0d6 58be 637b 563e
00000150: 4f6c 4abe 77bb c6bd 77d5 823d 6259 c9be
00000160: c86b 933d 0bdf 9abe 8127 8e3e 8957 9c3e
00000170: ed2b 113d 61b7 b9bb a5ae 5a3e 355e 73bd
00000180: 06b2 133e 23dd 3abd 43ed 033f 4907 9f3e
00000190: 93bb f23e 4d56 9e3e 6774 08be d638 98be
000001a0: 851d 173f 8a8a 2bbe b180 513e f3d9 913e
000001b0: 4b03 033f 8bf4 6b3e 47d3 043f 7d9f 873f
000001c0: dafc a23e 48c0 d03e c091 f33e 546d b1bd
000001d0: ea7b 383f eda9 643e 5dba fb3e e4ac fd3d
000001e0: b806 96bd 7945 a13e 2ea0 193e 1b69 f13e
000001f0: ee30 82bd 8c16 993e 09ff 843d 9a40 d43e
00000200: 7f29 373e 158b bd3d 7f86 0cbf ce82 1dbe
00000210: f908 3fbe df07 5239 5990 123d 6e69 163c
00000220: 29a8 553e 3792 d23d 68c3 25be dc16 b23d
00000230: cfd5 05be 9f5a bebe 2ab3 e8be 4330 e03c
00000240: f50c fb3c 9c21 c93e b6bf 97be 5150 6ebe
00000250: 1f09 813e 8f75 cebd 7414 f3bd fe71 8e3d
00000260: 9628 a13e b427 9d3e 5b13 19be 8f17 45bc
00000270: d053 9abe 46c9 3fbd 7481 ee3d 3b9f f03d
00000280: 81eb ca3e 2f43 01be 5df3 603d 97ed 0d3e
00000290: 3fcb f6bc b4af 323f 261b a13d 5ddd 12be
000002a0: 6423 c1be e6e9 103e 9ac7 aebe 4b4f f6be
000002b0: 9a46 3c3e 21d9 0cbd 2e65 43bd 4646 9dbe
000002c0: 1881 b4be 8605 ad3e 0d51 173e a9f4 203e
000002d0: 77b6 613e 2bbc 58be a657 6a3e 4561 afbe
000002e0: bf81 fdbe 2051 fb3d c1b9 993e 1606 df3e
000002f0: 894b 47be f9a5 3c3b e2b7 003e f00f 953d
00000300: f043 143e 4323 4bbe 13a4 913e 3e7a 0e3f
00000310: 9e77 fa3e 0d6c a33e ce31 9f3e 771c a93e
00000320: 426c a03e bee4 c53e 60f7 b63e dab9 173f
00000330: bae7 c73e 57ca 2a3f 7f55 b93e 11a3 183f
00000340: 5efe 393e da9a 313e 4a46 aebe 5379 1d3f
00000350: 5751 7f3d f4bc dbbd c8ac 923e 453d d53d
00000360: c823 203e ab64 8d3e 7d35 cd3e 4714 183f
00000370: 9eb5 a13d 931f a53e 5f91 01be 9081 da3e
00000380: 9c34 263f 9572 9f3f ebf2 3c3f 6a0d 413e
00000390: 841c af3e f94d bb3e feda 58be 639c b93e
000003a0: 4d82 7d3e 2075 303e dfcf 1a3e a1e1 973e
000003b0: fbed db3b 8927 ee3e 5222 a13e a1e1 fe3d
000003c0: 7b19 bf3e 957a 453e cc8d d93e 7244 cd3d
000003d0: b3a6 4b3f 8fbe 2e3e c997 bf3e f49b a2bd
000003e0: e864 d63e 882e be3d 04df 033f 7728 da3e
000003f0: debe 48bd 8d02 483e ed47 4d3e 8f2f 013f

lstm.bias_hh_l1 f4 [256]
-0.0662351 -0.23786816 0.3322468 -0.030177932 0.47617126 0.10068731 0.075060956 -0.091159455
-0.06559523 -0.032970823 -0.12249267 -0.3737525 -0.21367891 0.31672466 0.032044888 0.16156486
-0.34759727 0.41122845 -0.46228358 0.1749705 -0.21342857 0.15760803 -0.07109007 0.34210908
0.105189905 0.002925174 0.20079431 0.041610327 0.23983786 0.21656425 -0.25443688 0.5866228
0.6095075 0.3952331 0.3158671 0.3551674 0.72479296 -0.026527176 0.22833367 0.30086556
0.17640634 -0.029569935 0.10197503 0.21200283 -0.14616184 -0.074878015 0.4434191 -0.607337
0.34996036 0.09371891 -0.039268885 -0.3286297 0.0686179 -0.059599053 0.31603795 0.014542454
-0.0159722 -0.18135904 0.24685338 0.030834535 -0.054307714 0.33441937 0.16103399 0.373747
0.3849416 -0.17327772 0.23052062 0.2531214 0.4159833 0.23495981 0.08852873 0.0076877517
0.23988323 -0.047858354 0.061466448 -0.2295877 -0.22599812 0.10747498 -0.09540227 0.3393457
-0.28604746 0.43183908 -0.18659379 0.07364679 -0.31537914 -0.039449383 0.10067583 -0.18243535
0.15965179 -0.2934345 0.29796478 0.25301698 0.13170162 0.15516672 0.15829594 0.07102376
0.10679582 -0.028006649 0.5080862 0.41014746 0.44803053 0.3722955 -0.0017254048 -0.2140794
0.44055042 -0.13464923 0.15476236 0.24095674 0.48879376 0.22357807 0.63189733 0.97138476
0.39855778 0.3511541 0.37511727 0.043595664 0.7407047 0.14880818 0.35081792 0.19033282
-0.011382652 0.29350543 0.144813 0.3011288 0.10595152 0.43905404 0.104425855 0.25011498
0.12484683 0.08875726 -0.3317496 -0.13556139 -0.19914702 0.05963722 0.15919295 -0.21821044
0.109855205 0.3175574 -0.03126317 0.11428616 -0.08813811 -0.18015139 -0.47470653 0.019528493
-0.12190591 0.37268877 -0.12088379 -0.030865205 0.033023182 -0.15660606 -0.23985073 -0.13309301
0.13777064 0.1720047 0.07736004 0.09747039 -0.30213752 -0.18709658 0.20696741 0.03828907
0.40836158 -0.0855962 -0.026513714 0.15562786 0.05205173 0.71826917 -0.03460826 -0.2785268
-0.4939054 0.057554193 -0.28879222 -0.38236135 0.10176984 -0.021680038 -0.19337969 -0.2580998
-0.23247883 0.20063053 0.14155298 0.14028084 0.20208919 -0.017778635 0.3109075 -0.3648125
-0.43245557 0.061502084 0.23183218 0.53126585 -0.23572174 -0.015558739 0.13095984 -0.004470605
0.11441143 -0.27668574 0.26386464 0.35470197 0.6669812 0.26645738 0.31669784 0.2448597
0.28609893 0.3219888 0.45180857 0.46549782 0.2970601 0.6408197 0.17080708 0.43236938
0.19555171 0.3366221 -0.30163756 0.5272931 0.06618174 0.04907481 0.18555564 -0.04034468
0.2265602 0.32656568 0.39059272 0.7544278 0.28420216 0.2413801 -0.13796677 0.42434075
0.5598843 1.1869705 0.88802654 0.23059948 0.35282665 0.32508323 -0.291184 0.31102234
0.22573255 0.014506975 0.16930737 0.3395879 0.23580377 0.56051105 0.11068309 0.1760619
0.27151775 0.22707605 0.23141208 0.21359695 0.83759516 0.12456254 0.4449784 -0.073745616
0.44381794 0.21306352 0.4617576 0.4940893 0.17363335 0.13161445 0.15524459 0.69004333
00000000: 45a6 87bd b693 73be 411c aa3e b637 f7bc
00000010: b8cc f33e 2635 ce3d 8fb9 993d cfb1 babd
00000020: cb56 86bd 6a0c 07bd 70dd fabd 7d5c bfbe
00000030: a5ce 5abe bc29 a23e 8041 033d 4271 253e
00000040: 45f8 b1be 898c d23e 6fb0 ecbe 772b 333e
00000050: 058d 5abe 0064 213e ac97 91bd ec28 af3e
00000060: ce6d d73d 47b4 3f3b 069d 4d3e 976f 2a3d
00000070: 0e98 753e 05c3 5d3e 8d45 82be e92c 163f
00000080: af08 1c3f fe5b ca3e 55b9 a13e 80d8 b53e
00000090: 088c 393f 854f d9bc 4dd0 693e 0d0b 9a3e
000000a0: dda3 343e a63c f2bc 49d8 d03d 4517 593e
000000b0: 73ab 15be a559 99bd d407 e33e 707a 1bbf
000000c0: 012e b33e b3ef bf3d 69d8 20bd 2742 a8be
000000d0: 8b87 8c3d 231e 74bd bacf a13e 7943 6e3c
000000e0: 22d8 82bc 2fb6 39be 22c7 7c3e b598 fc3c
000000f0: c471 5ebd 0439 ab3e 18e6 243e c45b bf3e
00000100: 1117 c53e b76f 31be 990d 6c3e 2199 813e
00000110: c3fb d43e 4e99 703e 8d4e b53d 89e9 fb3b
00000120: f3a3 753e 1f07 44bd 3ec4 7b3d 0a19 6bbe
00000130: 0d6c 67be d81b dc3d 4462 c3bd b8be ad3e
00000140: d074 92be 031a dd3e 7112 3fbe 21d4 963d
00000150: 6079 a1be ad95 21bd 212f ce3d 55d0 3abe
00000160: c27b 233e 0c3d 96be d78e 983e 718b 813e
00000170: cadc 063e 06e4 1e3e 5518 223e e874 913d
00000180: c4b7 da3d 336e e5bc f011 023f d9fe d13e
00000190: 4264 e53e 849d be3e fa26 e2ba a137 5bbe
000001a0: d38f e13e 7de1 09be 067a 1e3e 5dbd 763e
000001b0: 2d43 fa3e a6f1 643e 06c4 213f acac 783f
000001c0: c40f cc3e 78ca b33e 5f0f c03e 5e91 323d
000001d0: d39e 3d3f 2c61 183e 689e b33e 9be6 423e
000001e0: 4e7e 3abc 5846 963e dc49 143e 8e2d 9a3e
000001f0: 1cfd d83d b1cb e03e 39dd d53d 120f 803e
00000200: b2af ff3d 5ec6 b53d 15db a9be 9bd0 0abe
00000210: 32ed 4bbe 2846 743d 7a03 233e 8f72 5fbe
00000220: c4fb e03d e296 a23e cf0d 00bd dd0e ea3d
00000230: c181 b4bd 9b79 38be bc0c f3be 38fa 9f3c
00000240: cea9 f9bd 10d1 be3e ec91 f7bd 07d9 fcbc
00000250: 5143 073d 575d 20be 6e9b 75be 8949 08be
00000260: bf13 0d3e 0022 303e f16e 9e3d 8e9e c73d
00000270: c5b1 9abe 3f96 3fbe 44ef 533e 00d5 1c3d
00000280: c514 d13e 0f4d afbd 4a33 d9bc e95c 1f3e
00000290: 3234 553d 7de0 373f 64c1 0dbd 119b 8ebe
000002a0: 2be1 fcbe f2bd 6b3d 93dc 93be dec4 c3be
000002b0: b56c d03d 569a b1bc 5305 46be a825 84be
000002c0: ee0e 6ebe 1772 4d3e 44f3 103e c8a5 0f3e
000002d0: 78f0 4e3e 80a4 91bc 452f 9f3e b4c8 babe
000002e0: d16a ddbe 9ce9 7b3d 6a65 6d3e 0a01 083f
000002f0: 0a61 71be 15ea 7ebc 561a 063e 277e 92bb
00000300: 8a50 ea3d c1a9 8dbe 4419 873e 7f9b b53e
00000310: 48bf 2a3f 1a6d 883e 3826 a23e 80bc 7a3e
00000320: 8f7b 923e b7db a43e 7453 e73e bb55 ee3e
00000330: 4318 983e c30c 243f 0de8 2e3e 855f dd3e
00000340: b53e 483e bb59 ac3e 3d70 9abe aefc 063f
00000350: 4b8a 873d ab02 493d 4c02 3e3e 7740 25bd
00000360: 66ff 673e 9e33 a73e c5fb c73e 2e22 413f
00000370: f282 913e 582c 773e 2947 0dbe 3143 d93e
00000380: 9454 0f3f a6ee 973f b555 633f 4522 6c3e
00000390: b2a5 b43e 4f71 a63e 1216 95be 523e 9f3e
000003a0: 6f26 673e aaae 6d3c e95e 2d3e 77de ad3e
000003b0: 8b76 713e a77d 0f3f d1ad e23d 9249 343e
000003c0: 6004 8b3e a086 683e 4af7 6c3e 29b9 5a3e
000003d0: a36c 563f a51a ff3d 35d4 e33e f107 97bd
000003e0: 1b3c e33e 532d 5a3e 7e6b ec3e 46f9 fc3e
000003f0: f1cc 313e f0c5 063e 70f8 1e3e aea6 303f
