param1/lstm_model_92000.pth (torch, 204435 bytes, 9 tensors)

lstm.weight_ih_l0 f4 [256, 1]
0	0x3f3e1ec8	0.7426572
1	0x3fb3f07b	1.4057764
2	0x3f6e0bca	0.9298674
3	0x3f45f87e	0.77332294
4	0x3f552bca	0.8326994
5	0xbf2423ef	-0.6411733
6	0xbf2c0498	-0.6719451
7	0x3f56953f	0.8382148
8	0xbf136dbf	-0.57589334
9	0x3eca8d7e	0.39561075
10	0xbf47b704	-0.78013635
11	0x3fc7242f	1.5557917
12	0x3d90d705	0.07072262
13	0xbf80321a	-1.001529
14	0x3fbd131f	1.477146
15	0x3f29507a	0.6613842
16	0x3eaa4d68	0.3326218
17	0x401a269b	2.4086063
18	0x3f078677	0.5293955
19	0x3f1bc7a0	0.6085148
20	0x3fb0d99f	1.3816413
21	0xbf89a8b4	-1.0754609
22	0x3e541138	0.20709693
23	0x3ecbe9b6	0.39826745
24	0xbe49c49a	-0.19703904
25	0x3e9d18f1	0.3068309
26	0x3f0ff31a	0.5623032
27	0x3f25f7f3	0.64831465
28	0xbe7d94dd	-0.24763818
29	0xbf676bd6	-0.9039892
30	0xbeb40d17	-0.35166237
31	0x3fb70a34	1.4299989
32	0x3fb1f336	1.3902347
33	0x403f2c39	2.9870741
34	0xbe83335a	-0.25625116
35	0x3efc0922	0.49225718
36	0x3fe0b4f5	1.7555224
37	0xbe850a7b	-0.25984558
38	0xbec7791d	-0.3895959
39	0x3fa38e49	1.2777797
40	0x403e56e2	2.974053
41	0xbf7ad72f	-0.97984594
42	0xbf5abf73	-0.8544838
43	0x3ebd23a0	0.36941242
44	0x3f2da75b	0.6783349
45	0xbc9b3f4f	-0.018951086
46	0x3e0b7cf2	0.13621882
47	0x3e3e0018	0.18554723
48	0x4013589a	2.3022828
49	0xbfa2f5d2	-1.2731268
50	0x3fe0e0e3	1.756863
51	0x3da9ad25	0.08284978
52	0x3e8ff1d5	0.2811419
53	0xbf107727	-0.5643181
54	0xbe2edbad	-0.17075987
55	0x3f63445c	0.88776183
56	0x3ec392a7	0.38197824
57	0x3f396fad	0.7243603
58	0x3ef86203	0.48512277
59	0xbf842bcf	-1.0325869
60	0x3e67e59b	0.22646181
61	0x3e1e6e82	0.15471843
62	0x3e7118d0	0.23544621
63	0x3f553488	0.8328328
64	0xbf97f072	-1.1870253
65	0x3e019174	0.12653142
66	0x3f698ed6	0.91233575
67	0x3f9fcbde	1.248409
68	0x3f79f2a1	0.9763585
69	0x4019f5b9	2.4056227
70	0x3fc658f1	1.5495893
71	0x3ec5ba40	0.3861866
72	0xbfd4f1f1	-1.6636335
73	0x3e8ed555	0.27897134
74	0x3f1d231b	0.6138169
75	0x3f8df541	1.109047
76	0x3f223a6f	0.6337041
77	0x3e80947f	0.25113294
78	0x3f8f963e	1.1217725
79	0x3f2ec8f7	0.682754
80	0x3f0a4aa6	0.54020154
81	0x3fa78ba5	1.3089491
82	0x3f3cd9ae	0.7376965
83	0x3dd9da1f	0.106373064
84	0x3f1dec24	0.61688447
85	0xbf0efb51	-0.5585223
86	0xbf2cc6ab	-0.67490643
87	0xbee7a886	-0.4524576
88	0x3e97212a	0.2951749
89	0x3f2319e4	0.6371138
90	0x3d68a45b	0.056797367
91	0xbce48125	-0.027893612
92	0xbfb2651e	-1.3937109
93	0xba3a561c	-0.0007108168
94	0x3f41032a	0.7539545
95	0xc005f94f	-2.0933416
96	0x3f265b03	0.6498262
97	0x3ea2bb8a	0.31783706
98	0x3f6de920	0.92933846
99	0x3ff2ad4c	1.8959136
100	0x3e55c625	0.20876367
101	0x3f944940	1.1584854
102	0x3e80340f	0.25039718
103	0xbf165ef6	-0.5873865
104	0x3b869d69	0.00410812
105	0x3ec5307b	0.3851355
106	0xbf286e9e	-0.6579379
107	0x3f589779	0.8460613
108	0xbe1623a1	-0.14662029
109	0x3f3d8e3d	0.74045163
110	0x3e86e089	0.26343182
111	0xbf09cd84	-0.53829217
112	0x3f69d7df	0.9134502
113	0x3ed2db74	0.41183054
114	0xbe6e6c03	-0.2328339
115	0xc039a8d2	-2.900929
116	0x3f03efee	0.5153798
117	0x3f3e2ce2	0.74287236
118	0x3f8f1c00	1.118042
119	0x3f8190ad	1.0122277
120	0x3e828f2f	0.25499865
121	0x3f1b89b7	0.6075701
122	0x3f42f153	0.7614948
123	0xbf447cc9	-0.7675291
124	0x3ecc60be	0.39917558
125	0x3e30e7f0	0.17275977
126	0xbe365d6a	-0.17809072
127	0x3c9b638e	0.01896837
128	0x3fc5cc8c	1.5453048
129	0xbe385f32	-0.18005064
130	0x3ffb9a04	1.9656377
131	0xbf8ea519	-1.1144134
132	0xbfd2e179	-1.6475059
133	0xbf0246b7	-0.5088915
134	0xbc8f4bf7	-0.017492278
135	0x3f577adc	0.84171844
136	0x40fc4815	7.883799
137	0xbf7bb5a0	-0.9832401
138	0xc00024bb	-2.0022418
139	0xbfc0fa91	-1.5076467
140	0xbf98bc8f	-1.1932544
141	0xbe82f5c6	-0.25578135
142	0xbf8e14d7	-1.110011
143	0xbf380edd	-0.7189768
144	0x3fb9ac2e	1.450567
145	0xc0238946	-2.5552535
146	0xbefa0836	-0.4883439
147	0x3f62b883	0.8856279
148	0x4000202a	2.0019631
149	0x3daf1f2c	0.085508674
150	0xc00a1e52	-2.1581006
151	0x3f8ca350	1.0987339
152	0x3fd77340	1.6832047
153	0xbfc22d42	-1.5170062
154	0xbf16d875	-0.5892404
155	0xbecd26dc	-0.4006871
156	0x3f9e06a7	1.234578
157	0xbf9dfa7e	-1.2342069
158	0xbc16e0f9	-0.009208911
159	0x40623472	3.534451
160	0x3ed8321b	0.42225727
161	0xc02ab8e7	-2.6675355
162	0xc0816cef	-4.0445476
163	0x3f0e7c2a	0.5565821
164	0xc008522d	-2.1300156
165	0xbf614814	-0.8800061
166	0x3ee2d14c	0.44300306
167	0x3f17259f	0.5904178
168	0x4040abdd	3.0104897
169	0xbf0e935a	-0.5569359
170	0xbf99e0e4	-1.2021756
171	0xbff81839	-1.9382392
172	0x3fd6de8d	1.6786667
173	0xbf27e7a6	-0.6558784
174	0x3fab1908	1.3367014
175	0xc063a2ae	-3.5568042
176	0xc02a6f24	-2.6630335
177	0xbe0f9601	-0.14022066
178	0x3f4b4b4a	0.79411757
179	0xc07dd5c9	-3.9661734
180	0x3fac747b	1.3473047
181	0x3f1b8ef2	0.6076499
182	0xbe9fd9a9	-0.3122075
183	0xbf8ff610	-1.1246967
184	0xbfb62c00	-1.4232178
185	0xbf925d0b	-1.1434644
186	0xbf6e109c	-0.92994094
187	0xbfa92bd1	-1.3216497
188	0xc013125a	-2.297995
189	0xbee92997	-0.45539543
190	0x3ff120fb	1.883819
191	0xbf50db30	-0.81584454
192	0xbeeb7e8b	-0.45994982
193	0x3e886357	0.2663829
194	0x4069a097	3.6504266
195	0x3f4edcd5	0.8080571
196	0x405d1499	3.4543822
197	0x3d825fab	0.063659035
198	0xbee0bd71	-0.43894532
199	0x3ed0009d	0.40625468
200	0xbe1b3ceb	-0.15159957
201	0x3de4c5ba	0.11170526
202	0xbeaf18bc	-0.34198558
203	0x3efe796e	0.49702018
204	0x4071c93c	3.7779074
205	0x3d720859	0.059089992
206	0x400ec8be	2.2310023
207	0x3ec9ad31	0.39389947
208	0x3f8797dc	1.0593219
209	0x403d9ecf	2.962818
210	0x3f36ca3b	0.7140233
211	0xbc1dbea1	-0.009627969
212	0x3f920ff9	1.1411124
213	0xbedef44d	-0.43545762
214	0xbf52ad9d	-0.8229616
215	0x3b9011ba	0.0043966444
216	0x3fdce09e	1.7256048
217	0x401a7327	2.4132783
218	0xbe4d2515	-0.20033677
219	0x3f87eccb	1.0619138
220	0xbf973728	-1.1813707
221	0xbe747332	-0.23872069
222	0xbe292946	-0.16519651
223	0xbe77bdf9	-0.24193563
224	0x3fa438bd	1.2829815
225	0x4082a90f	4.083137
226	0x3f6436f0	0.8914633
227	0xbf347672	-0.70493233
228	0x40191d2b	2.3924053
229	0x3ef37b41	0.47554973
230	0xbee6749f	-0.4501085
231	0x3df3bda9	0.11901409
232	0x404f808d	3.242221
233	0x3ec78424	0.38968003
234	0xbfbc4d06	-1.4711006
235	0x3f8c39e1	1.0955163
236	0x3f47a6e2	0.7798902
237	0x3fa75845	1.3073813
238	0xbd9f2e10	-0.077724576
239	0x3e073274	0.1320284
240	0x407cc7eb	3.949702
241	0xbed0a2db	-0.4074925
242	0xbe06839f	-0.13136147
243	0xbf6d909d	-0.9279879
244	0xbe502668	-0.20327151
245	0xbf8e0eae	-1.109823
246	0xbe37705a	-0.17913952
247	0x3ff6d096	1.9282405
248	0x3fa53eb7	1.2909764
249	0x4014c778	2.3246746
250	0x3e99720c	0.29969823
251	0xbf97f06e	-1.1870248
252	0x3ee2c55c	0.44291198
253	0x3ef27f6c	0.4736284
254	0x3f308dec	0.68966556
255	0x3f301b03	0.68791217

lstm.weight_hh_l0 f4 [256, 64]
0	0xbdb50371	-0.08838547
1	0x3f71a623	0.9439413
2	0xbe8058ce	-0.25067753
3	0xbd81faf8	-0.063466966
4	0xbe8c5398	-0.27407527
5	0xbdd1b6c5	-0.10239939
6	0x3e0c014b	0.13672368
7	0x3dd7f40d	0.10544596
8	0x3f94e091	1.1631032
9	0xbd07b0bc	-0.03312753
10	0xbefbf941	-0.49213603
11	0x3f05f485	0.5232623
12	0x3df362c9	0.11884076
13	0x3f7ffc12	0.99994004
14	0xbf691248	-0.9104352
15	0xbd8ab9ad	-0.06773696
16	0x3e245754	0.16048938
17	0xbd21bce9	-0.0394868
18	0xbe1122c7	-0.14173423
19	0x3f06f354	0.5271504
20	0x3f294fbd	0.66137296
21	0x3eb0c8f4	0.34528315
22	0xbdf4dc20	-0.11956048
23	0xbe2ac2cc	-0.16675872
24	0xbdd656a2	-0.10465743
25	0x3f0f9ac8	0.5609555
26	0xbd911d17	-0.070856266
27	0xbf8285a4	-1.0197034
28	0x3b352dcd	0.0027645708
29	0xbed0853f	-0.4072666
30	0x3d55e69e	0.052221887
31	0x3ef5f660	0.48039532
32	0x3e275c1f	0.16343735
33	0xbf126187	-0.57180065
34	0xbd1dd43b	-0.038532477
35	0x3eecd8b6	0.46259087
36	0xbe077458	-0.13227975
37	0xbf6bfafe	-0.9217986
38	0x3e415f59	0.18884028
39	0xbf16f95a	-0.5897423
40	0x3cdfe4bc	0.027330749
41	0xbe11399d	-0.14182134
42	0x3d5090b0	0.050919235
43	0xbeaa3d41	-0.33249858
44	0x3ebcaea4	0.3685199
45	0x3e8cc7b8	0.27496123
46	0x3e925f7b	0.2858847
47	0xbf19fa78	-0.6014781
48	0xbefa3776	-0.48870438
49	0x3d7e2f07	0.062056568
50	0x3e464de0	0.19365644
51	0xbe20e36f	-0.15711759
52	0x3f3a3a4e	0.72745216
53	0x3f63f4c1	0.8904534
54	0x3dc2ef2a	0.09518273
55	0x3d0193db	0.031635147
56	0xbf9eb4e0	-1.2398949
57	0xbeeac364	-0.45852196
58	0x3e5e0db3	0.21684913
59	0x3ebd653b	0.36991295
60	0xbeac74fb	-0.33683
61	0xbd00affe	-0.03141784
62	0xbb9f24f1	-0.0048566987
63	0xbe885f9d	-0.26635447
64	0x3f51257a	0.8169781
65	0xbfd2be3d	-1.6464306
66	0x3f00282c	0.500613
67	0x3f0c6e64	0.5485594
68	0xbe0d7b43	-0.13816552
69	0xbe46d76f	-0.19418119
70	0xbeb8f1b0	-0.36121893
71	0x3a88168f	0.00103827
72	0x3f0a83b6	0.54107225
73	0x3d9ab00a	0.07553108
74	0xbecb0c99	-0.3965805
75	0x3db95e31	0.09051169
76	0x3ed20d7e	0.4102592
77	0xbfc80de5	-1.562924
78	0x3f02e6a1	0.5113316
79	0xbf108854	-0.5645802
80	0x3f449b9b	0.76799935
81	0xbfae8b48	-1.3636255
82	0xbca771d4	-0.02044002
83	0x3f573452	0.8406421
84	0xbe2fb789	-0.17159857
85	0xbe3c175b	-0.18368284
86	0x3fd868f3	1.6907028
87	0x3f572c44	0.8405192
88	0x3e9695c3	0.29411134
89	0xbeabd3d3	-0.33560047
90	0x3eb5422c	0.35402048
91	0x3f961c3c	1.1727366
92	0xbed8e354	-0.42360938
93	0xbf19616b	-0.59914273
94	0x3ecb255c	0.3967694
95	0x3f8ff620	1.1246986
96	0xbe0d9ebd	-0.13830085
97	0xbf9e8718	-1.2384977
98	0x3e1a957f	0.1509609
99	0x3e980e04	0.29698193
100	0xbfb68334	-1.425879
101	0xbd06b5e0	-0.032888293
102	0x3f90b75e	1.1305959
103	0xbf354a5e	-0.708166
104	0x3f909fee	1.1298807
105	0x3ee2c992	0.4429441
106	0xbef27145	-0.47352043
107	0xbf99b198	-1.2007322
108	0x3d3f1556	0.046651207
109	0xbf1f5a3e	-0.62247074
110	0x3ef1f582	0.4725762
111	0x3cbd9797	0.023143573
112	0xbfeee6d2	-1.8664191
113	0xbf349a71	-0.7054816
114	0x3d956547	0.07294708
115	0xbe9cccac	-0.30624902
116	0x3db21b75	0.08696643
117	0xbf5f3c7b	-0.8720166
118	0xbeda87d4	-0.42681754
119	0xbef26fb7	-0.47350857
120	0x3f08a301	0.53373724
121	0x3dec5474	0.11539546
122	0xbea62d84	-0.324566
123	0xbf42b64c	-0.7605941
124	0xbf2325ea	-0.6372973
125	0xbe3b0341	-0.1826296
126	0xbd119f60	-0.035552382
127	0xbfa1578e	-1.2604845
128	0xbfa7dedf	-1.311489
129	0x3f95781e	1.1677282
130	0x3eb826cc	0.359671
131	0x3e9175ad	0.28410092
132	0xbfafff57	-1.3749799
133	0x3e707c59	0.23484935
134	0xbe9ef84e	-0.31048816
135	0xbe7123f7	-0.23548876
136	0x3f902de9	1.1264011
137	0xbeb8b079	-0.36072138
138	0xbcfcdb45	-0.030866275
139	0xbdb20c0a	-0.086937025
140	0xbf63a66e	-0.88925827
141	0xbf8654b6	-1.0494602
142	0xbebd4690	-0.36967897
143	0xbe94764a	-0.28996497
144	0x3fd14146	1.6348045
145	0xbfb4eb6f	-1.4134349
146	0xbf174d50	-0.59102345
147	0x3e536188	0.20642674
148	0x3deb00a7	0.11474734
149	0xbdf8e8df	-0.12153792
150	0xbeb5c848	-0.35504365
151	0xbf3cd468	-0.73761606
152	0xbf1d0fee	-0.6135243
153	0xbfb81827	-1.4382371
154	0x3d80e6bd	0.0629401
155	0x3d6f6cb0	0.05845326
156	0xbf255b5d	-0.64592534
157	0xbf3bd694	-0.73374295
158	0x3f1385be	0.5762595
159	0x3f0e1829	0.55505615
160	0xbeae172b	-0.3400205
161	0xbd82d1da	-0.06387682
162	0x3f212439	0.62945896
163	0x3e454311	0.19263865
164	0x3f712de9	0.9421068
165	0x3f39714b	0.72438496
166	0x3f089e23	0.533663
167	0x3f5add9e	0.8549441
168	0x3f1dea13	0.61685294
169	0x3f65ddc4	0.8979151
170	0x3e9a0f54	0.3008982
171	0xbef34005	-0.4750978
172	0x3decb764	0.115584165
173	0x3ee65bb1	0.4499183
174	0x3f46f930	0.7772398
175	0x3ee6d455	0.4508387
176	0xbd70da10	-0.05880171
177	0xbf65f007	-0.8981938
178	0x3f2ebdd8	0.6825843
179	0x3f3df8da	0.7420784
180	0x3f018eca	0.50608504
181	0x3e6f928e	0.2339575
182	0xbfee6a97	-1.8626279
183	0x3f344081	0.70410925
184	0xbf7836fb	-0.96958894
185	0xbf496c25	-0.7868064
186	0x3ebf3fac	0.37353265
187	0x3e7fd767	0.24984513
188	0xbfa87dec	-1.3163428
189	0xbeb7a9fa	-0.3587187
190	0x3ee2d7d1	0.4430528
191	0xbf678e1f	-0.90451235
192	0xbe913155	-0.2835795
193	0x3f5421b9	0.82863957
194	0xbf1af156	-0.605245
195	0xbf05f815	-0.5233167
196	0xbf7988b1	-0.974742
197	0x3e547da9	0.2075106
198	0xbca1d722	-0.019755904
199	0x3ec74634	0.38920748
200	0x3e89ebc4	0.26937687
201	0xbe8a6002	-0.27026373
202	0x3da85251	0.082188256
203	0xbf68a801	-0.90881354
204	0x3eb83477	0.35977527
205	0xbe9bb473	-0.3041111
206	0x3e37da46	0.17954358
207	0xbefc7951	-0.49311307
208	0x3e95c4e4	0.29251778
209	0xbe2c8437	-0.16847311
210	0x3d941bde	0.07231878
211	0x3e96853c	0.29398525
212	0x3f79869c	0.9747102
213	0xbcade363	-0.02122659
214	0x3ebf3507	0.37345144
215	0x3dd65736	0.10465853
216	0x3ea53794	0.32268965
217	0x3d4f71b7	0.050645556
218	0xbf2925c4	-0.6607325
219	0x3ef62e05	0.48081985
220	0x3e68f833	0.2275093
221	0xbf004379	-0.50102955
222	0x3cea0bce	0.028570082
223	0x3f2355f9	0.6380306
224	0xbb5effc3	-0.0034026958
225	0xbf4d525a	-0.80203784
226	0xbdf13144	-0.11776975
227	0xbe849f26	-0.2590267
228	0xbed6f323	-0.41982374
229	0x3e5239d7	0.20529877
230	0xbf01a7af	-0.5064649
231	0x3ecdb692	0.40178353
232	0x3f1cd6dc	0.6126535
233	0x3f67f25d	0.9060419
234	0x3ea14f49	0.31505802
235	0x3f544487	0.82917064
236	0x3f2d5704	0.677109
237	0xbe8090c9	-0.25110462
238	0xbec737e0	-0.38909817
239	0x3e577e46	0.21044263
240	0xbe835832	-0.25653225
241	0xbe612b6c	-0.2198922
242	0x3f83cff7	1.0297841
243	0xbe5ab87b	-0.21359436
244	0x3e306fea	0.17230192
245	0xbedecaed	-0.43514195
246	0xbfc03a32	-1.501776
247	0x3fcc29b7	1.595023
248	0x3cf36a56	0.02971379
249	0x3e21a427	0.15785275
250	0xbd130143	-0.035889875
251	0xbee90dc8	-0.45518327
252	0xbebfef6d	-0.37487355
253	0x3dad7fdb	0.08471652
254	0xbdaba6e6	-0.08381443
255	0xbf95ac0b	-1.1693128

lstm.bias_ih_l0 f4 [256]
0	0x3e0e1b3e	0.1387758
1	0xbf14b9ab	-0.58095807
2	0x3de70692	0.1128055
3	0xbe3ca5ed	-0.1842267
4	0x3e44891d	0.1919293
5	0xbe98671e	-0.29766172
6	0xbe0b077d	-0.13577075
7	0xbdc5326b	-0.09628757
8	0x3fb6e9cc	1.4290099
9	0x3e50370f	0.20333503
10	0x3d6b0894	0.057381228
11	0x3e5a57c1	0.21322538
12	0xbe5bfb04	-0.21482474
13	0xbf21d447	-0.63214535
14	0xbe0a81df	-0.13526104
15	0xbee60a7f	-0.44929883
16	0x3c9ff288	0.019524828
17	0x3d866595	0.06562344
18	0xbe8f8792	-0.2803312
19	0xbe49d0e1	-0.19708587
20	0x3edbb8f5	0.4291455
21	0xbe829b20	-0.25508976
22	0xbea5c791	-0.3237882
23	0xbe43244f	-0.1905682
24	0x3eefff5d	0.46874514
25	0x3e6f616b	0.23377006
26	0xbde1443f	-0.10999345
27	0xbbb8b82a	-0.0056371884
28	0x3f0c9566	0.54915464
29	0xbde12ab1	-0.10994471
30	0xbd6c5a2a	-0.057703175
31	0x3f4f399a	0.8094727
32	0xbeb6e525	-0.35721698
33	0x3f0dff56	0.55467737
34	0xbee149c4	-0.4400159
35	0xbec9cb6e	-0.39413017
36	0x3edb8b7b	0.42879853
37	0xbea060a7	-0.3132374
38	0x3dd9cbcf	0.106345765
39	0xbd054eac	-0.03254573
40	0x3f9d8fb5	1.2309481
41	0x3daf4c79	0.08559508
42	0xbe177fa5	-0.14794786
43	0x3e237402	0.15962222
44	0x3e2a916b	0.16657035
45	0x3e87f64b	0.26555094
46	0xbdb3efee	-0.08785997
47	0x3ed28017	0.4111335
48	0x3f81bc09	1.0135509
49	0xbe9b071e	-0.30278867
50	0x3e215d60	0.15758276
51	0x3f103d2e	0.5634335
52	0xbc922a20	-0.017842352
53	0xbea6a4aa	-0.32547504
54	0xbeacb7d0	-0.33733988
55	0xbe7050bd	-0.23468299
56	0x3cae63d4	0.021287836
57	0xbe227a56	-0.1586698
58	0xbe2a34d3	-0.16621713
59	0xbe9edfd8	-0.31030154
60	0x3d19091a	0.037362196
61	0xbec60398	-0.38674617
62	0xbe9f7b0f	-0.31148574
63	0xbeaf68f2	-0.34259754
64	0xbd67f0c3	-0.056626093
65	0xbeab8a2e	-0.3350386
66	0xbe43db3c	-0.191266
67	0x3e8d53e4	0.27603066
68	0xbe80b04c	-0.25134504
69	0x3f380161	0.71877104
70	0x3f1eaeb6	0.6198534
71	0xbdf077bb	-0.11741587
72	0x3b8af58b	0.004240697
73	0x3d918886	0.07106118
74	0x3e0139e7	0.12619744
75	0xbdf26f2a	-0.11837609
76	0x3e9f7b5f	0.31148812
77	0xbeafec5a	-0.3436001
78	0x3e4a5de3	0.19762377
79	0xbea10dbc	-0.3145579
80	0x3e00b057	0.12567268
81	0xbda930a6	-0.08261232
82	0x3e4f9819	0.20272864
83	0x3e6d8297	0.23194347
84	0xbddea044	-0.10870412
85	0x3eaa7fcf	0.33300635
86	0xbe92c3e1	-0.2866507
87	0xbe5eae4d	-0.21746178
88	0xbef107f0	-0.47076368
89	0x3e10c9bb	0.14139454
90	0x3e743c67	0.23851167
91	0xbe32f8c8	-0.17477715
92	0x3e85f217	0.26161262
93	0xbe029cab	-0.12755077
94	0x3eabe92a	0.33576328
95	0xbf16b3b4	-0.58867955
96	0xbdbc56b4	-0.09196225
97	0xbe23bfad	-0.15991087
98	0xbddf5301	-0.109045036
99	0xbe8a527d	-0.2701606
100	0x3e2a68d1	0.16641547
101	0xbd26e2c3	-0.0407436
102	0xbe45355f	-0.1925864
103	0xbcdd2d35	-0.026999095
104	0xbe3216fa	-0.17391577
105	0xbeb88d4d	-0.36045304
106	0xbeb8b79c	-0.36077583
107	0x3dd813c1	0.10550643
108	0x3eaa7907	0.33295462
109	0x3ec69387	0.3878443
110	0xbe6f9811	-0.23397852
111	0xbe5cf456	-0.21577582
112	0xbe488c7a	-0.19584838
113	0x3ee1fefa	0.44139844
114	0xbdf65e6e	-0.1202973
115	0xbdb1f4ac	-0.086892456
116	0x3ba567c1	0.005047769
117	0x3d9c92e8	0.07645208
118	0xbd86bfa4	-0.06579521
119	0xbe28c93b	-0.16483013
120	0x3ed546cf	0.41655585
121	0x3b34c247	0.0027581619
122	0x3e3a27a5	0.18179186
123	0xbde23605	-0.1104546
124	0xbeaa3b9d	-0.33248606
125	0x3e943439	0.28946093
126	0xbee960b6	-0.45581597
127	0xbdd5dd2c	-0.10442576
128	0xbcd8646c	-0.026415072
129	0xbe2d3614	-0.1691516
130	0x3dbc6e4c	0.09200725
131	0xbbb5a994	-0.005543897
132	0xbce95258	-0.028481647
133	0x3ddbddd9	0.107356735
134	0xbdf48f8c	-0.11941442
135	0x3de99e06	0.11407094
136	0xbe4238ba	-0.18966952
137	0xbee343ce	-0.44387668
138	0xbdfd4418	-0.123665035
139	0x3e40eb34	0.18839723
140	0xbdb13631	-0.08652914
141	0x3e7d5447	0.2473918
142	0x3e213760	0.1574378
143	0x3e2b8c1d	0.16752668
144	0xbec462f0	-0.38356733
145	0x3a0156e0	0.0004933905
146	0xbe6989ad	-0.22806425
147	0xbe425d2b	-0.18980853
148	0x3d927131	0.07150496
149	0xbe6d55de	-0.23177287
150	0xbe07a2a7	-0.1324564
151	0x3de1981a	0.11015339
152	0x3e2ea24b	0.17054097
153	0xbd9bbd08	-0.07604414
154	0xbdb6eb14	-0.08931556
155	0xbc7a3040	-0.015270293
156	0xbd9f7263	-0.077854894
157	0xbc186bd9	-0.009303057
158	0x3d383e5a	0.044981338
159	0xbe523e13	-0.20531492
160	0xbde6fa39	-0.11278195
161	0x3e334ef4	0.17510587
162	0x3bb20ddd	0.0054337815
163	0x3e9604c9	0.29300526
164	0x3e295daf	0.16539644
165	0x3e724495	0.23658974
166	0x3e468c59	0.19389476
167	0x3e016021	0.12634327
168	0xbe8473cd	-0.258696
169	0x3d7465a4	0.059667245
170	0xbd78239f	-0.060580846
171	0x3d570f9d	0.052505124
172	0xbdd9609a	-0.106141284
173	0x3e8b3147	0.27186033
174	0xbe651b1b	-0.22373621
175	0x3df956ea	0.12174781
176	0x3e656d65	0.22405012
177	0x3df6ca3d	0.12050293
178	0xbd89ed62	-0.0673473
179	0x3ce02bd4	0.027364649
180	0xbe18171a	-0.14852563
181	0x3db790a0	0.08963132
182	0x3e538984	0.20657927
183	0x3cb43e30	0.02200231
184	0xbd0b5d3f	-0.034024473
185	0x3e2f9952	0.17148331
186	0xbeadebab	-0.33968863
187	0xbadbba74	-0.0016763941
188	0x3e84b06f	0.25915858
189	0x3d98d207	0.074619345
190	0xbccbd5f5	-0.024882296
191	0x3b90baca	0.0044167982
192	0x3e40a759	0.18813838
193	0x3e19fffd	0.15039058
194	0x3c9fd678	0.019511446
195	0xbe6ced8f	-0.23137496
196	0x3e480bd3	0.1953576
197	0xbdc4764a	-0.09592874
198	0x3b944ed0	0.0045259967
199	0xbe23a03b	-0.15979092
200	0x3fb99398	1.4498167
201	0xbf297b9a	-0.66204226
202	0x3e53d995	0.2068847
203	0x3e03d455	0.12873967
204	0xbe34ebe1	-0.17668106
205	0xbed688ee	-0.41901344
206	0xbe953462	-0.29141527
207	0xbd1380cd	-0.036011506
208	0xbda147c8	-0.07875019
209	0xbdb932cb	-0.09042891
210	0xbef4215a	-0.47681695
211	0xbe7aaddb	-0.24480383
212	0x3e9b471b	0.30327687
213	0xbcfec422	-0.031099383
214	0xbe1c3769	-0.15255512
215	0xbdefb165	-0.11703757
216	0x3f3b8d9f	0.7326297
217	0xbc00223c	-0.007820662
218	0xbef73b38	-0.48287368
219	0x3e0cb680	0.13741493
220	0xbe435f7a	-0.1907939
221	0x3e8647d8	0.26226687
222	0x3ed67f7a	0.41894132
223	0x3f9899c1	1.1921922
224	0xbe850a54	-0.25984442
225	0x3f2f7044	0.6853068
226	0x3b3ab3c4	0.0028488496
227	0x3e405e0d	0.18785878
228	0x3ee39e39	0.44456652
229	0x3d96109b	0.07327386
230	0xbe6001a2	-0.21875623
231	0xbc503b0c	-0.01270939
232	0x3f8a5d37	1.0809697
233	0xbf0989ae	-0.5372571
234	0xbeda8740	-0.42681313
235	0xbe1f64e4	-0.1556583
236	0x3e91dddf	0.28489587
237	0x3e1cb400	0.1530304
238	0x3af5fbcd	0.0018767059
239	0x3eefe705	0.4685594
240	0x3f949407	1.1607674
241	0xbeefc41b	-0.46829304
242	0x3e6c9cbe	0.23106667
243	0x3f4967a0	0.78673744
244	0x3ec746d2	0.3892122
245	0xbe690999	-0.22757567
246	0xbf057a5a	-0.5213982
247	0xbeb848e9	-0.35993126
248	0x3c9c6c5d	0.01909464
249	0xbe4434c1	-0.19160749
250	0xbd86f492	-0.06589617
251	0xbec0ef02	-0.37682348
252	0x3e883877	0.2660558
253	0xbd436103	-0.04769994
254	0x3e36b971	0.17844178
255	0x3e1eb1de	0.15497538

lstm.bias_hh_l0 f4 [256]
0	0x3c9609cb	0.018315217
1	0xbef1e08b	-0.47241625
2	0x3da9c7e4	0.08290079
3	0xbe338fdf	-0.17535351
4	0x3e9399c3	0.28828248
5	0xbe8148e8	-0.25250936
6	0xbe3f2e24	-0.18669945
7	0xbdaedd17	-0.08538263
8	0x3fa712a4	1.3052564
9	0x3e62c9dd	0.22147317
10	0x3e40766f	0.18795179
11	0xbc4c8617	-0.012483141
12	0x3b1b601f	0.0023708416
13	0xbf0a2f3a	-0.5397831
14	0xbe8c8a25	-0.27449146
15	0xbef89a67	-0.485553
16	0xbe1e923a	-0.15485469
17	0x3c571820	0.01312831
18	0xbe265982	-0.16245082
19	0xbead2b5f	-0.33822152
20	0x3ef940c3	0.48682222
21	0xbdfaeafe	-0.122518525
22	0xbebc3b4e	-0.36763996
23	0xbe025e38	-0.12731254
24	0x3efb7582	0.4911309
25	0x3d3569ba	0.04429028
26	0xbcd54db0	-0.02603802
27	0x3deb0779	0.11476035
28	0x3ec8edfd	0.3924407
29	0xbe2bf3f1	-0.16792275
30	0x3cd1b8dc	0.025600843
31	0x3f2cc06c	0.6748111
32	0xbe7f18fa	-0.24911872
33	0x3effaa41	0.4993458
34	0xbed9d941	-0.42548564
35	0xbea84023	-0.32861432
36	0x3ea106c3	0.3145047
37	0xbec0daf5	-0.3766705
38	0x3e343977	0.17600046
39	0x3d7ecf96	0.062209688
40	0x3fa269c8	1.2688532
41	0x3e2ca950	0.16861463
42	0xbe08e8b9	-0.13370027
43	0x3d0a2d00	0.03373432
44	0x3d4ece7c	0.050489888
45	0x3e5ec67f	0.21755408
46	0xbdc3b785	-0.09556488
47	0x3ec73c6b	0.38913283
48	0x3f6ecaa1	0.9327794
49	0xbe8306dd	-0.25591174
50	0x3e3bf00c	0.1835329
51	0x3f179146	0.59206045
52	0xbe82debe	-0.25560564
53	0xbeee500c	-0.46545446
54	0xbeee1a39	-0.4650438
55	0xbeab4f93	-0.33459148
56	0xbe0adb8b	-0.13560311
57	0xbeb001c4	-0.34376347
58	0xbd75ba10	-0.059991896
59	0xbecedbae	-0.40401977
60	0x3cfb8a3f	0.03070557
61	0xbec1d251	-0.3785577
62	0xbe0192a2	-0.12653592
63	0xbec65dcb	-0.38743433
64	0x3dd5a31a	0.104315
65	0xbe8f1ded	-0.2795252
66	0xbe77c3f4	-0.24195844
67	0x3dcacc5a	0.09902258
68	0xbdcf537e	-0.10123347
69	0x3f341b2d	0.70353967
70	0x3ede1b7a	0.43380338
71	0x3d72b11d	0.05925094
72	0xbdadfb3b	-0.08495184
73	0x3dda8aad	0.106709816
74	0x3cc4e6a1	0.024035754
75	0xbc2a548d	-0.010396135
76	0x3efebfd6	0.49755734
77	0xbe7f9a78	-0.24961269
78	0x3e9d5dbd	0.3073558
79	0xbe7ffb2b	-0.24998157
80	0x3c17529f	0.009236007
81	0xbdeeea33	-0.11665764
82	0x3e6585e7	0.22414361
83	0x3d421346	0.04738166
84	0xbd3281c3	-0.04358078
85	0x3e5c3732	0.2150543
86	0xbe11d27d	-0.14240451
87	0xbe702677	-0.23452173
88	0xbf004a0f	-0.50113004
89	0x3df0f8ee	0.117662296
90	0x3defb0b0	0.11703622
91	0xbe717589	-0.23579992
92	0x3eb20a01	0.34773257
93	0xbe7a2de9	-0.24431576
94	0x3ded751e	0.11594604
95	0xbeef9b5b	-0.46798214
96	0xbd6fab21	-0.05851281
97	0x3d642266	0.055696867
98	0xbd6869e9	-0.05674163
99	0xbd5201de	-0.051271312
100	0x3db9ab95	0.0906593
101	0xbda33e90	-0.07970917
102	0xbe43c603	-0.19118504
103	0xbd542ffb	-0.05180357
104	0xbe0c173c	-0.13680738
105	0xbee9b58f	-0.4564633
106	0xbe4a41ae	-0.19751617
107	0x3e77dbda	0.2420496
108	0x3eac1576	0.33610123
109	0x3e96d6f8	0.29460883
110	0xbe3bda3d	-0.1834497
111	0xbe440b71	-0.1914499
112	0xbd4d5de4	-0.05013837
113	0x3ec5daf8	0.38643622
114	0xbdf1079d	-0.1176903
115	0xbd8b8e35	-0.06814233
116	0xbcb80cab	-0.022466978
117	0x3d3615eb	0.044454496
118	0xbe69604f	-0.22790645
119	0xbe13bfdc	-0.14428657
120	0x3ed97556	0.42472333
121	0xbd994f78	-0.074858606
122	0x3e3371ce	0.17523882
123	0xbd4671d6	-0.048448406
124	0xbe902414	-0.28152525
125	0x3e83250d	0.25614205
126	0xbeb3a0e1	-0.35083678
127	0x3c0b0011	0.008483903
128	0x3cfbb363	0.030725187
129	0xbc976933	-0.01848278
130	0xbd8ddc49	-0.06926782
131	0x3d9b923a	0.0759625
132	0x3db0d1dc	0.086337775
133	0x3e9784ba	0.2959345
134	0xbe0a5914	-0.13510543
135	0x3e6a6d09	0.22893156
136	0xbe43949e	-0.19099662
137	0xbf01896e	-0.50600326
138	0x3d814158	0.063112915
139	0x3e604179	0.21899976
140	0xbcc06bab	-0.02348884
141	0x3e825ac5	0.25459877
142	0x3e26c073	0.16284351
143	0x3e8510f7	0.25989506
144	0xbe278b48	-0.16361725
145	0x3d8c2a13	0.068439625
146	0xbe60dbb5	-0.21958812
147	0xbe12f74d	-0.1435215
148	0x3e6496b7	0.22323118
149	0xbe20e4a3	-0.15712218
150	0xbe44e759	-0.19228877
151	0x3e5e0400	0.21681213
152	0x3e374eb3	0.17901115
153	0x3ccc5694	0.024943627
154	0xbba40784	-0.0050057787
155	0x3d0280fd	0.031861294
156	0xbd7bc864	-0.061470404
157	0xbe518f71	-0.20464875
158	0x3d9c3a9a	0.07628365
159	0xbeb262b7	-0.34840938
160	0xbe3079a9	-0.1723391
161	0x3cb28524	0.021792002
162	0x3d18ac8e	0.037273936
163	0x3e08a906	0.13345727
164	0x3e01226e	0.1261079
165	0x3e511c97	0.20421062
166	0x3e63240f	0.22181724
167	0x3e269e47	0.16271316
168	0xbdc0507e	-0.09390353
169	0x3de0ebaa	0.10982449
170	0xbdc726ec	-0.09724221
171	0x3bb1f788	0.0054311194
172	0xbdf2d4d2	-0.118569985
173	0x3e0f7075	0.14007743
174	0xbe7d78d6	-0.24753127
175	0x3ddf4ee6	0.109037206
176	0x3da1cd08	0.07900435
177	0x3dfa1c07	0.12212377
178	0xbd6d5df7	-0.05795094
179	0x3e361340	0.17780781
180	0xbe07839c	-0.13233799
181	0xbd17f5d7	-0.037099686
182	0x3dfad63f	0.122478954
183	0x3d42e0e4	0.047577754
184	0x3dfb3ea4	0.12267807
185	0x3d6c6b39	0.057719443
186	0xbebdc58f	-0.37064788
187	0xbddc1bab	-0.10747465
188	0x3d63487d	0.055489052
189	0x3b557c88	0.0032575447
190	0xbde81142	-0.11331417
191	0xbd711b09	-0.058863673
192	0x3e827b3d	0.25484648
193	0x3d5e62af	0.05429333
194	0x3dd8dd37	0.105890684
195	0xbeae8b49	-0.3409064
196	0x3dd14a5f	0.10219263
197	0xbdd10737	-0.10206454
198	0xbe4883ca	-0.19581524
199	0xbe51ba74	-0.20481282
200	0x3fb53fd8	1.4160109
201	0xbf110b60	-0.5665798
202	0x3e2a99dd	0.16660257
203	0x3e86baa3	0.26314268
204	0xbe606c86	-0.21916398
205	0xbedf5821	-0.43621925
206	0xbe425350	-0.18977094
207	0xbd050163	-0.032472026
208	0xbd99314c	-0.07480106
209	0xbd274bae	-0.04084366
210	0xbec48ade	-0.38387197
211	0xbe6f0b47	-0.23344146
212	0x3edeb9c5	0.43501106
213	0xbe3b68d0	-0.18301702
214	0xbe57b8f8	-0.21066654
215	0xbdf8c156	-0.12146251
216	0x3f28cd01	0.6593781
217	0x3d0cebb1	0.03440446
218	0xbea62c27	-0.3245556
219	0x3e6bbb6d	0.23020716
220	0xbdfebd38	-0.12438434
221	0x3e74e44c	0.23915213
222	0x3ed5cabf	0.41756245
223	0x3f993d5a	1.1971848
224	0xbeb48383	-0.35256585
225	0x3f067e6e	0.52536666
226	0x3e157a54	0.14597446
227	0x3dcb4097	0.09924429
228	0x3eec0c15	0.46102968
229	0xbd008413	-0.031375956
230	0xbea774f3	-0.32706413
231	0xbd974095	-0.07385365
232	0x3f8a4640	1.0802689
233	0xbebfe0bc	-0.37476146
234	0xbe9ea40f	-0.30984542
235	0xbe033136	-0.12811741
236	0x3ea6749c	0.3251084
237	0x3e286025	0.16442926
238	0xbd25a1eb	-0.04043762
239	0x3f195bb7	0.5990557
240	0x3f8a83a9	1.082143
241	0xbecbf396	-0.3983428
242	0x3e813741	0.25237468
243	0x3f3d1e83	0.7387468
244	0x3e424d0a	0.189747
245	0xbe1f25ef	-0.15541814
246	0xbeae423d	-0.3403491
247	0xbe8e860b	-0.27836642
248	0x3e009676	0.12557396
249	0xbe8c671e	-0.27422422
250	0xbe08efda	-0.13372746
251	0xbe3b42b3	-0.18287162
252	0x3e8bd404	0.27310193
253	0x3ae931da	0.0017791346
254	0xbcf2c15f	-0.029633222
255	0x3df9fc18	0.12206286

lstm.weight_ih_l1 f4 [256, 64]
0	0x3f6dff3b	0.92967576
1	0xbfab1fba	-1.3369057
2	0x3ea7f736	0.32805794
3	0xbf045dfd	-0.51705915
4	0x3f9422a7	1.1573075
5	0x3f31fb12	0.6952373
6	0xbf3c3ee1	-0.73533446
7	0x3e0fd54c	0.1404621
8	0xbf43b22b	-0.7644374
9	0xbfcd32d6	-1.6031139
10	0xbdd4168d	-0.10355864
11	0xbf2bb8fe	-0.6707915
12	0x3f20bb19	0.6278549
13	0x3edc6b34	0.4305054
14	0xbeb1466f	-0.3462405
15	0x3f3defd1	0.74194056
16	0x3f4644ce	0.7744874
17	0xbea9145b	-0.33023342
18	0xbf79f237	-0.97635216
19	0xbf3347a3	-0.70031184
20	0x3fb0abab	1.3802389
21	0x3e0ed6e7	0.13949166
22	0x3f99dbf5	1.202025
23	0xbf047920	-0.5174732
24	0x3fa94254	1.3223367
25	0x3f84ec38	1.0384588
26	0xbe13bae4	-0.14426762
27	0xbed1e4db	-0.40994915
28	0x3dfff153	0.12497201
29	0x3e3ffcaf	0.18748735
30	0x3e89b8c4	0.26898777
31	0xbc778f2d	-0.015109819
32	0x3f5c4c93	0.86054343
33	0xbe38f409	-0.18061842
34	0xbfb9d522	-1.4518168
35	0xbe59f4d7	-0.21284805
36	0x3f99ebd0	1.2025089
37	0xbda80f07	-0.08205991
38	0xbeeffabc	-0.46870983
39	0xc054e8f7	-3.326719
40	0x3edd1559	0.4318035
41	0xbfae4fdd	-1.3618122
42	0x3e5a61e6	0.21326408
43	0x3e606eee	0.21917316
44	0x3e925441	0.28579906
45	0xbe89b4c6	-0.26895732
46	0xbf183467	-0.5945496
47	0xbf7d2514	-0.988847
48	0x3eaa9926	0.33319968
49	0x3dbe718b	0.09299
50	0xbfa48895	-1.2854182
51	0x3fe20fb4	1.7661042
52	0x3ec57ad2	0.38570267
53	0xbe7bb038	-0.24578941
54	0xbfb72f74	-1.4311357
55	0xbd951fa2	-0.07281424
56	0xc0124aea	-2.2858224
57	0x3ee27aad	0.4423422
58	0x3f000e95	0.5002225
59	0xbdc3ea0c	-0.09566125
60	0x3d499dab	0.04922263
61	0xbfc43f15	-1.5331751
62	0xbe769948	-0.2408191
63	0x3fe4d3fd	1.7877194
64	0xbe2cf926	-0.16891918
65	0x3eab3a3a	0.3344286
66	0xbf4dd7ff	-0.8040771
67	0xbeddf961	-0.43354324
68	0x3e4152ec	0.18879288
69	0x3f2c1e10	0.6723337
70	0xbf0cbf35	-0.5497926
71	0x3efab9b9	0.4896982
72	0xc057e42a	-3.373301
73	0xbf2e98f6	-0.6820215
74	0x3f315c52	0.69281495
75	0xbf7b7546	-0.9822582
76	0x3e38f85d	0.18063493
77	0xbf7b1580	-0.9807968
78	0x3f894b6d	1.0726143
79	0xbf10ed6c	-0.5661228
80	0xbdbb99de	-0.09160207
81	0x3fd801ca	1.6875546
82	0xbec2e131	-0.38062432
83	0xbeb00e3d	-0.34385863
84	0xbe8efc28	-0.27926755
85	0xbefa1b2f	-0.48848864
86	0x3f65f40d	0.89825517
87	0x3f90d90f	1.1316241
88	0x3e16205d	0.14660783
89	0x3e982533	0.2971588
90	0xbd8d0f47	-0.068876795
91	0xbe1f8beb	-0.15580718
92	0xbea7b3eb	-0.32754454
93	0x3eebe6e1	0.46074584
94	0xbe63944c	-0.2222454
95	0xbf82c9f1	-1.0217878
96	0xbe91448f	-0.2837262
97	0x3fb4b88f	1.4118823
98	0x3f779df4	0.9672539
99	0xbf84d651	-1.0377904
100	0xbf096db3	-0.5368301
101	0xbe9e41f1	-0.30909684
102	0xbfbb62c7	-1.463952
103	0xbf64bce0	-0.893507
104	0xbf209002	-0.6271974
105	0xbf4bc220	-0.79593086
106	0x3f2e9826	0.6820091
107	0x3e3c325d	0.18378587
108	0xbdd07cf0	-0.1018008
109	0xbe91f48e	-0.28506893
110	0xbe3f1259	-0.18659343
111	0x3eff078f	0.49810454
112	0x3f26ea41	0.65201193
113	0xbe46132b	-0.1934325
114	0x3ee1ffbc	0.44140422
115	0x40020542	2.031571
116	0xbf49e03c	-0.7885778
117	0xbe9b1ed9	-0.30296972
118	0x3f5450a9	0.8293558
119	0xbfa4c9dc	-1.2874103
120	0x3f4410ce	0.7658814
121	0xbf075402	-0.5286256
122	0xbf8313a4	-1.0240369
123	0xbebc3992	-0.36762673
124	0xbec1f360	-0.37880993
125	0xbe727843	-0.23678689
126	0x3ee6ed6c	0.45103014
127	0xbf735d01	-0.9506379
128	0x3ed308f0	0.41217756
129	0xbe6f4c8c	-0.23369044
130	0x3eceb5c9	0.40373066
131	0xbf23a655	-0.6392568
132	0x3f818b8c	1.0120711
133	0xbf323567	-0.69612736
134	0xbf86deef	-1.0536784
135	0x3ed5d1a9	0.4176152
136	0xbf6c9c20	-0.9242573
137	0x3f79ba78	0.97550154
138	0x3c9b9180	0.018990278
139	0xbe4ad254	-0.19806796
140	0xbefd46e1	-0.4946814
141	0x3e26c01b	0.1628422
142	0xbe8dfa90	-0.27730227
143	0xbeaf3702	-0.34221655
144	0x3eadd43d	0.33950987
145	0xbf2000de	-0.62501323
146	0xbe521a27	-0.20517789
147	0x3e6a07c8	0.22854531
148	0xbe62139f	-0.22077797
149	0xbe949e34	-0.2902695
150	0xbe5d84ad	-0.21632643
151	0x3f209f39	0.62742954
152	0x3ed33154	0.41248572
153	0x3f69e0eb	0.9135882
154	0x3dc93e54	0.09826341
155	0xbe2f6eaf	-0.17132066
156	0xbe9720b2	-0.29517132
157	0x3e3d322f	0.18476175
158	0x3ef117da	0.4708851
159	0xbec8eb70	-0.39242125
160	0xbe3880ab	-0.18017833
161	0xbd91a1aa	-0.07110913
162	0xbeb6b27e	-0.35683054
163	0xbf2d45f9	-0.67684895
164	0x3ea437fb	0.3207396
165	0x3ec4b9d2	0.3842302
166	0x3f31e046	0.6948284
167	0x3f3be559	0.7339683
168	0x3f13ff1e	0.5781115
169	0xbf1320bb	-0.5747182
170	0xbd564a2b	-0.052316826
171	0xbf73242f	-0.94977087
172	0xbe64ada5	-0.22331865
173	0xbe73d49c	-0.23811573
174	0x3e01a503	0.12660603
175	0xbec22658	-0.3791988
176	0xbec37ecd	-0.3818268
177	0xbed1d7ca	-0.40984946
178	0xbf2dc383	-0.6787645
179	0x3f3b66b5	0.73203593
180	0x3c316723	0.010827812
181	0xbdbc6718	-0.09199351
182	0xbf634188	-0.8877187
183	0x3f36d77c	0.71422553
184	0x3e82e3f9	0.25564554
185	0x3f119420	0.56866646
186	0x3e51cbb7	0.20487867
187	0xbe69bf27	-0.22826825
188	0xbeee25c1	-0.4651318
189	0xbf058e01	-0.52169806
190	0x3f7afd83	0.9804308
191	0xbf8af9e5	-1.0857512
192	0xbf5c5ea3	-0.86081904
193	0xbda188f4	-0.0788745
194	0xbf795fb3	-0.9741165
195	0x3e388359	0.18018855
196	0xbec2a4b9	-0.38016298
197	0x3d99ff67	0.07519417
198	0xbe6aede4	-0.2294231
199	0xbef4122e	-0.4767012
200	0xbf1b6180	-0.6069565
201	0xbe620d1c	-0.22075313
202	0x3e032068	0.12805331
203	0xbedad53a	-0.42740804
204	0xbe3fe175	-0.18738349
205	0xbf45d75e	-0.7728175
206	0x3ecfb3c0	0.40566826
207	0xbf3ea552	-0.7447101
208	0xbb9c7fde	-0.004775985
209	0xbf065787	-0.52477306
210	0xbed68325	-0.4189693
211	0xbe44756b	-0.19185416
212	0xbe888c2e	-0.2666945
213	0x3d986062	0.074402586
214	0x3d955ffd	0.07293699
215	0xbfb7fe00	-1.437439
216	0xbeb605d2	-0.35551316
217	0xbf0f55ab	-0.55990094
218	0x3e0b1335	0.13581546
219	0xbf9d3a4e	-1.2283418
220	0xbfb0b800	-1.3806152
221	0x3ef372e9	0.47548607
222	0x3edfcfa6	0.4371311
223	0x3e750a87	0.23929797
224	0x3e600b4a	0.21879306
225	0x3e84eafe	0.25960535
226	0xbf8d7e91	-1.105425
227	0xbe044f9b	-0.12920992
228	0x3ce69859	0.028148817
229	0x3cd5a4a9	0.026079493
230	0xbe29bfff	-0.16577147
231	0x3f92b9cc	1.1462951
232	0x3e6e92c3	0.23298173
233	0xbe324550	-0.17409253
234	0xbe3320b5	-0.17492945
235	0xbe94f4b8	-0.29092956
236	0xbe6c7d1b	-0.23094599
237	0xbe945884	-0.28973782
238	0xbe35ebd1	-0.17765738
239	0x3e3a407c	0.18188661
240	0x3d922ce5	0.07137469
241	0x3f6a46e6	0.9151443
242	0xbe21564b	-0.15755574
243	0x3f0fd7b5	0.5618852
244	0xbf5d587f	-0.8646316
245	0xbef6cf10	-0.4820485
246	0xbeb6bba5	-0.35690036
247	0x3f295983	0.6615221
248	0xbe87f296	-0.26552266
249	0x3e4066e1	0.18789245
250	0xbf37906d	-0.7170475
251	0xbfbfc328	-1.4981432
252	0x3eda8c84	0.4268533
253	0x3e96a029	0.29419068
254	0x3f6b28f7	0.9185938
255	0x3f984658	1.1896467

lstm.weight_hh_l1 f4 [256, 64]
0	0xc04db237	-3.2140024
1	0x3e90dbc5	0.2829267
2	0xbecc1a3c	-0.39863765
3	0x3f2438dd	0.64149266
4	0xbf798b08	-0.9747777
5	0xc004b6de	-2.0736613
6	0x3eaa43cf	0.3325486
7	0xbf96bf10	-1.1777058
8	0xbf89f749	-1.077859
9	0x3e8c9caa	0.27463275
10	0x3f40484e	0.7511033
11	0xc04e2032	-3.220715
12	0xc02842f9	-2.6290877
13	0xbd855982	-0.06511213
14	0x3e69e995	0.2284301
15	0x405b9053	3.4306839
16	0xc001c9f1	-2.0279505
17	0xbf086f38	-0.53294706
18	0xbf01ec53	-0.5075123
19	0x3c37fca3	0.011229667
20	0xbed650cf	-0.41858527
21	0xbfaa209b	-1.32912
22	0xc0446aba	-3.069014
23	0xbf83d92a	-1.0300648
24	0xc006847a	-2.1018357
25	0xbfde7189	-1.7378398
26	0xbe04fed8	-0.1298784
27	0x3fe7a3f9	1.8096915
28	0xbced9a50	-0.029004246
29	0xbf7f3cb5	-0.99702007
30	0x401c8de3	2.44616
31	0xbf16031d	-0.585985
32	0xbfb83f35	-1.4394289
33	0xbf19ff42	-0.6015512
34	0xbfb4e036	-1.4130924
35	0xbedeb461	-0.43496993
36	0xbe478f35	-0.19488223
37	0x3ee0980e	0.4386601
38	0xbf3afbee	-0.73040664
39	0xbf865cef	-1.0497111
40	0xbfc516d4	-1.5397592
41	0xbe81f26c	-0.25380266
42	0x3fc65949	1.5495998
43	0x3d653b21	0.055964593
44	0x40012a42	2.0182042
45	0x3e425dff	0.18981169
46	0x3f91a8ff	1.1379699
47	0xbf07a065	-0.5297912
48	0x3f20ae5b	0.62766045
49	0xbf14c455	-0.5811208
50	0xbe3cfb47	-0.1845523
51	0xbf9352ec	-1.1509681
52	0xbee81497	-0.4532821
53	0xbf72ca88	-0.9484029
54	0xbe814eeb	-0.25255522
55	0x3f0aef04	0.5427096
56	0xbf781a05	-0.969147
57	0xbf34d670	-0.70639706
58	0xbf2c2f21	-0.67259413
59	0xbe620ccd	-0.22075196
60	0xbfb92851	-1.4465429
61	0x3eb70343	0.35744676
62	0xbea0e93c	-0.31427944
63	0x3bd1fd10	0.006408341
64	0x3f9862fc	1.1905208
65	0xbe90704d	-0.2821068
66	0x3f5bd25b	0.8586785
67	0xbd1942a1	-0.037417058
68	0xbf99d99c	-1.2019534
69	0x3fcb3d45	1.5878073
70	0xbf641aff	-0.8910369
71	0xbf92aad4	-1.1458383
72	0xbf339cde	-0.70161235
73	0x3ecea3b8	0.40359282
74	0x3effa865	0.49933162
75	0xbf1e1db0	-0.6176405
76	0xbe9ab10d	-0.30213204
77	0x3f77ee62	0.9684812
78	0xbf3bb6cf	-0.7332582
79	0xbedddae4	-0.43331063
80	0x4001f248	2.0304127
81	0xbeda2c97	-0.42612144
82	0xc0066089	-2.099642
83	0x3f2555f3	0.64584273
84	0xbc9ce5e4	-0.01915259
85	0xc002beda	-2.0428987
86	0x3f8f0daf	1.1176051
87	0x3e958141	0.29200175
88	0xbf6d4566	-0.9268402
89	0x3fc51190	1.5395985
90	0xbfed11c5	-1.8521048
91	0xbf23aeef	-0.639388
92	0x3e4a613d	0.19763656
93	0x3f0b52b0	0.54423046
94	0xbe44dc90	-0.19224763
95	0x3f55ca6c	0.83511996
96	0x3eb8746e	0.3602633
97	0xbf3b44ef	-0.7315206
98	0x3e6dc139	0.2321824
99	0x3da31593	0.07963099
100	0x3f132284	0.5747454
101	0x3f9ba8f6	1.2160938
102	0x3f12072c	0.57042193
103	0x3fb5a015	1.4189478
104	0xbf516fc8	-0.8181119
105	0xbfa2ab0b	-1.2708448
106	0xbf2a5c3c	-0.6654699
107	0xbf0d299d	-0.5514162
108	0xbf1342dc	-0.57523894
109	0x3d14e6b0	0.036352813
110	0xbee897ff	-0.45428464
111	0xbebc1438	-0.36734176
112	0x3f043faf	0.51659673
113	0xbe5451d7	-0.20734344
114	0xbfb922a8	-1.4463701
115	0x3ec451a4	0.38343537
116	0x3ea1aa23	0.31575117
117	0xbe53e99b	-0.20694582
118	0xbe29453a	-0.16530314
119	0xbf040a7c	-0.515785
120	0xbf8402ba	-1.0313332
121	0x3eabdb5e	0.335658
122	0xbe94b258	-0.29042315
123	0xbca681d7	-0.020325584
124	0x3e1ba4f6	0.15199646
125	0x3f0e838f	0.5566949
126	0xbf933dc9	-1.150323
127	0x3ebd6cbc	0.3699702
128	0xbfbaf100	-1.4604797
129	0xc06c079f	-3.6879652
130	0xbfbdfa52	-1.4842017
131	0xbfd3f2e7	-1.6558503
132	0x3e02d018	0.12774694
133	0x3e3c0728	0.18362105
134	0x3f3d0651	0.73837763
135	0x3f85fef1	1.0468427
136	0xc0036064	-2.0527582
137	0xc006837a	-2.1017747
138	0xbe5dfcf6	-0.21678528
139	0xbfbfd433	-1.4986633
140	0xc0190a0b	-2.391238
141	0xbf6d82cc	-0.92777705
142	0xc08e801c	-4.4531384
143	0x3fd75bf2	1.6824934
144	0x3fccd66c	1.6002936
145	0x3e3310e0	0.17486906
146	0x3eddbdcd	0.4330887
147	0x3fbfd22d	1.4986016
148	0xbfc325e4	-1.5245938
149	0xbe429d71	-0.19005372
150	0x3f7c47fe	0.9854735
151	0x3fa66911	1.3000814
152	0x4055c915	3.340398
153	0x3edebf4d	0.43505326
154	0xbf52a446	-0.8228191
155	0x3f166c8e	0.5875939
156	0xbfb6d892	-1.4284842
157	0x3e26dd57	0.16295372
158	0xbf4fe5ac	-0.81209826
159	0x3f5fbe6c	0.87399936
160	0x4027ea6f	2.6236837
161	0xbf1d3521	-0.61409193
162	0x3e860339	0.26174334
163	0xbd6773bf	-0.05650687
164	0x3eabb4b3	0.335363
165	0xbe832b9f	-0.25619218
166	0xbf414b81	-0.75505835
167	0x3f7de78c	0.9918144
168	0xbeb09ef3	-0.3449627
169	0xbfb37015	-1.401858
170	0x4003a702	2.0570683
171	0x3eba4f33	0.3638855
172	0x3e9308c4	0.28717625
173	0xbf934918	-1.1506681
174	0x3f5d282d	0.8638943
175	0xbf0bd815	-0.5462659
176	0xbf6a741f	-0.91583437
177	0xbea11bb7	-0.31466457
178	0xc036839b	-2.8517826
179	0xc08c80ed	-4.390738
180	0xbef9c216	-0.48780888
181	0x3e1f1de0	0.1553874
182	0x3e04cb05	0.12968071
183	0xbebadc30	-0.36496115
184	0x408e89d7	4.454326
185	0xbf809fa3	-1.0048717
186	0x3f56c5b0	0.838954
187	0xbf8077f4	-1.0036607
188	0x3fe9bcdf	1.8260764
189	0x3f9c1f41	1.2197038
190	0xbece73b3	-0.40322646
191	0x3f97483f	1.1818923
192	0x3f498add	0.78727514
193	0xbf0d101a	-0.55102694
194	0xbfbe99f2	-1.489073
195	0x3e14b216	0.1452106
196	0xbf1591fe	-0.5842589
197	0x3dfae8bd	0.122514226
198	0x3fa95a4c	1.3230681
199	0xbff4e339	-1.9131843
200	0xbf8bf141	-1.0933
201	0x3f1b257f	0.6060409
202	0xbe8a18e5	-0.26972118
203	0x40281e3b	2.6268451
204	0xbf0d2572	-0.5513526
205	0x3f79e46c	0.9761417
206	0xbf07c3ea	-0.53033316
207	0x3e6a8b19	0.22904624
208	0xbf1ddcfd	-0.61665326
209	0xbf8bc96f	-1.0920848
210	0x3e729a65	0.2369171
211	0x3fbfc3e1	1.4981652
212	0x3fcca278	1.5987082
213	0xbf12beb7	-0.5732226
214	0xbec3afc0	-0.38220024
215	0x3e9a48b6	0.301336
216	0x3ee9e8fb	0.45685562
217	0x3f8f0466	1.1173217
218	0xbf9d7a60	-1.2302971
219	0xbf432925	-0.76234657
220	0xbe099aa6	-0.134379
221	0xbf94c96c	-1.1623969
222	0x3f6d7d35	0.92769176
223	0x3ed69611	0.41911367
224	0x3e962736	0.2932679
225	0xc00082ab	-2.0079753
226	0x3ed8dbe7	0.42355272
227	0xbf502406	-0.8130497
228	0x3cc962f0	0.02458331
229	0xbe5d9271	-0.21637894
230	0x40011e85	2.0174878
231	0x3f4f4afd	0.809738
232	0xbf3b8026	-0.73242414
233	0xbc50f603	-0.012753966
234	0xbef0907f	-0.46985242
235	0xc01fa12a	-2.4942117
236	0x3f4a97a9	0.79137665
237	0xbee680fe	-0.45020288
238	0x3efb3fee	0.49072212
239	0xbe4a450a	-0.19752899
240	0x3d6630b2	0.056198783
241	0x3f2c66af	0.6734418
242	0x3f4a19f2	0.7894584
243	0xbda5fa66	-0.081044
244	0x3eb87504	0.36026776
245	0x3eba8084	0.36426175
246	0xbe96d958	-0.29462695
247	0x3f5041fa	0.8135067
248	0xbfa31e8b	-1.2743696
249	0x3f350bca	0.70721114
250	0x3f957ccb	1.1678709
251	0x3f0a80dd	0.5410288
252	0xbfee10da	-1.8598893
253	0xbf67f7a0	-0.9061222
254	0xbfdcdf3f	-1.7255629
255	0x3da65f25	0.08123616

lstm.bias_ih_l1 f4 [256]
0	0xbdb49baa	-0.08818753
1	0xbda51271	-0.08060158
2	0x3e9b2431	0.3030105
3	0x3e6ff1e9	0.23432125
4	0x3f0a54e0	0.5403576
5	0x3bf59e98	0.0074957125
6	0x3d259558	0.04042563
7	0xbe552952	-0.20816544
8	0xbca33ac9	-0.019925492
9	0x3de012bf	0.109410755
10	0xbeb66164	-0.35621178
11	0xbec3d397	-0.38247368
12	0xbe2d2e0b	-0.16912095
13	0x3e82cbad	0.25546017
14	0xbca9e7ab	-0.02074035
15	0x3e04e408	0.12977612
16	0xbec01f85	-0.37524047
17	0x3e8ed855	0.27899423
18	0xbef8df8f	-0.48608062
19	0x3e3f9e69	0.18712772
20	0xbd2910b1	-0.041275684
21	0x3e8affe0	0.27148342
22	0xbdfbcadd	-0.122945525
23	0x3ec8d212	0.3922277
24	0x3e2ab972	0.16672304
25	0x3d31813e	0.043336146
26	0x3e9010f5	0.28137937
27	0xbc590c60	-0.013247579
28	0x3e60e94c	0.21963996
29	0x3e07d992	0.1326659
30	0xbe99a8ec	-0.3001169
31	0x3ee0b5e1	0.43888763
32	0x3ea0d437	0.31411907
33	0x3e9d2a65	0.30696407
34	0x3e83ba69	0.25728157
35	0x3e676215	0.22596009
36	0x3f2a9d16	0.66645944
37	0x3e3056e8	0.17220652
38	0x3e3a136a	0.18171468
39	0x3e448c31	0.19194104
40	0x3e4c708c	0.19964808
41	0x3d67fb99	0.056636427
42	0x3d8b0fbb	0.0679011
43	0x3de3a578	0.11115545
44	0x3dbb4023	0.091430925
45	0xbe24d722	-0.16097692
46	0x3eb9f29a	0.36317903
47	0xbf106ead	-0.5641888
48	0x3e8a43bb	0.270048
49	0x3c0c706e	0.008571727
50	0xbcec1304	-0.028817661
51	0xbedebd28	-0.4350369
52	0x3ae29916	0.0017288055
53	0xbe3b5196	-0.18292841
54	0x3ed2a16d	0.41138783
55	0x3dfd081e	0.12355064
56	0x3db65c49	0.08904321
57	0xbe9981db	-0.29981884
58	0x3e27c8dc	0.16385216
59	0x3d2ec3ae	0.042667083
60	0x3dcdc7c0	0.10047865
61	0x3ebcbf34	0.36864626
62	0x3e2b2d49	0.16716494
63	0x3ee352a3	0.44398984
64	0x3eeef394	0.4667021
65	0xbed1095f	-0.40827462
66	0x3e98e67f	0.29863355
67	0x3ebfe4a8	0.37479138
68	0x3e38aa6e	0.18033764
69	0x3e1096c4	0.14120013
70	0x3d79d63a	0.060995318
71	0x3d62dce3	0.055386435
72	0x3d8a848b	0.06763562
73	0xbe226810	-0.15860009
74	0x3df9b4c5	0.12192682
75	0xbe29ea8f	-0.16593383
76	0xbe4908c6	-0.19632253
77	0x3dcb3847	0.099228434
78	0xbc8ef4d6	-0.017450731
79	0x3ecb33cf	0.39687964
80	0xbe79cdde	-0.24394938
81	0x3ecd3445	0.4007894
82	0xbe510048	-0.20410264
83	0x3e1266b1	0.14296986
84	0xbe4b138e	-0.19831678
85	0xbdf010b4	-0.11721936
86	0x3d2c0d74	0.042005017
87	0xbeead341	-0.458643
88	0x3e036110	0.12829995
89	0xbeac171e	-0.33611387
90	0x3e9111af	0.28333804
91	0x3e8d1cfd	0.2756118
92	0x3d20c1e1	0.039247397
93	0xbcd058cb	-0.025432965
94	0x3e6363da	0.22206059
95	0xbe15a6db	-0.14614432
96	0x3dc11011	0.094268925
97	0x3c80a30a	0.015702743
98	0x3eeca2db	0.46218
99	0x3eae3873	0.34027442
100	0x3eda664a	0.42656165
101	0x3ea6ea5f	0.32600686
102	0xbe550825	-0.20803888
103	0xbeb601ca	-0.3554824
104	0x3f2028e6	0.62562406
105	0xbde39ed7	-0.11114281
106	0x3e96914e	0.29407734
107	0x3e3657b9	0.17806901
108	0x3f064232	0.52444756
109	0x3e5b367a	0.214075
110	0x3f0b7724	0.5447867
111	0x3f89a01c	1.0751987
112	0x3e86b3cc	0.2630905
113	0x3eb790d8	0.35852695
114	0x3ef5a781	0.47979358
115	0xbdc9f95c	-0.09862015
116	0x3f4fbc88	0.8114705
117	0x3e706054	0.23474246
118	0x3ef00b16	0.46883458
119	0x3dff0aa3	0.12453201
120	0xbb79af59	-0.00380989
121	0x3e74f5b4	0.23921853
122	0x3e0cd743	0.13753991
123	0x3efaefd9	0.49011114
124	0xbd7b9c73	-0.0614285
125	0x3e8ddbe5	0.2770683
126	0x3d86acca	0.06575926
127	0x3edc67a1	0.43047813
128	0x3e3fdeef	0.18737386
129	0x3c94ff99	0.018188285
130	0xbf0a1575	-0.5393899
131	0xbe4d6059	-0.20056285
132	0xbe3c24e6	-0.1837345
133	0xbc00a455	-0.00785168
134	0xbc1146b4	-0.008866955
135	0x3ca63ce9	0.020292716
136	0x3e7b89c0	0.24564266
137	0x3cfa25b1	0.03053555
138	0xbe06e395	-0.13172753
139	0x3de6e177	0.11273473
140	0xbdf1f67b	-0.118145905
141	0xbea9e71a	-0.3318413
142	0xbedc73f3	-0.43057212
143	0xba8ae3fd	-0.001059651
144	0x3d9e830f	0.07739841
145	0x3eba42d6	0.36379117
146	0xbe847877	-0.25873157
147	0xbe68d96a	-0.22739187
148	0x3e840c41	0.257906
149	0xbde1ef3a	-0.11031957
150	0xbe04c01f	-0.12963913
151	0x3ce684b2	0.028139446
152	0x3eb0b3ae	0.34512085
153	0x3e90c477	0.2827489
154	0xbe5b7032	-0.21429518
155	0xbd84cb60	-0.06484103
156	0xbe8daaf2	-0.27669483
157	0xbde24b16	-0.11049478
158	0x3dde8bd5	0.108665146
159	0x3da6e986	0.0815001
160	0x3eb3c26b	0.35109267
161	0xbdbe415c	-0.0928981
162	0xbad8943f	-0.0016523673
163	0x3e05e1d1	0.13074423
164	0xbc16420a	-0.009171018
165	0x3f2a6785	0.6656421
166	0x3dcab082	0.098969474
167	0xbe097ada	-0.1342577
168	0xbe9c7309	-0.30556515
169	0x3dad30cf	0.08456575
170	0xbebcf705	-0.3690721
171	0xbeeb45a4	-0.4595157
172	0x3e581d72	0.21104982
173	0xbd76a706	-0.06021788
174	0xbde1a5f9	-0.11017985
175	0xbea5cd02	-0.3238297
176	0xbea81e1c	-0.32835472
177	0x3e88c153	0.26709995
178	0x3e122dec	0.1427533
179	0x3e26ed2e	0.16301414
180	0x3e8008e1	0.25006774
181	0xbe3c95ef	-0.1841657
182	0x3e8e70a4	0.27820313
183	0xbeb460da	-0.35230142
184	0xbeffa479	-0.4993017
185	0x3da092cd	0.078405
186	0x3e957000	0.29187012
187	0x3ee8a93d	0.4544162
188	0xbe5ca8e1	-0.21548797
189	0xbdf490f7	-0.11941712
190	0x3e1ac03e	0.15112397
191	0x3cdc9b94	0.026929654
192	0x3e394357	0.18092094
193	0xbe840b19	-0.25789717
194	0x3e89f085	0.26941314
195	0x3f1a4974	0.6026833
196	0x3f032685	0.5123065
197	0x3ecc6b88	0.3992579
198	0x3e84efb7	0.25964138
199	0x3ea42156	0.32056683
200	0x3ea61817	0.32440254
201	0x3ecf6932	0.40509945
202	0x3ebf86a0	0.37407398
203	0x3f0a1d3a	0.53950846
204	0x3ec24cde	0.3794927
205	0x3f26a436	0.65094316
206	0x3ed0b402	0.40762335
207	0x3f0cc53b	0.5498845
208	0x3e15db28	0.14634383
209	0x3e34cabd	0.17655464
210	0xbea07596	-0.3133971
211	0x3f0d1be2	0.5512067
212	0x3ce5b6f4	0.02804134
213	0xbdad566d	-0.0846375
214	0x3eb38a6f	0.35066554
215	0x3e0c83a1	0.13722087
216	0x3e55e997	0.20889889
217	0x3ea2c72b	0.31792578
218	0x3ed76e73	0.42076454
219	0x3f071ee2	0.527815
220	0xbb108f5a	-0.00220581
221	0x3ebfa1fc	0.37428272
222	0xbde68349	-0.112555094
223	0x3ecb9821	0.39764503
224	0x3f162ae2	0.58659184
225	0x3f918cb1	1.1371061
226	0x3f270c7f	0.6525344
227	0x3e17ad14	0.14812118
228	0x3e90e59f	0.28300187
229	0x3e9d6fa8	0.3074925
230	0xbe385604	-0.18001562
231	0x3ec45f0e	0.3835377
232	0x3e8414a3	0.25796995
233	0x3e48ec18	0.19621313
234	0x3e45d109	0.19318022
235	0x3e58c68c	0.2116949
236	0x3d0a8afb	0.03382395
237	0x3edbbea4	0.42918885
238	0x3e9aed12	0.30258995
239	0x3e176992	0.14786366
240	0x3ea8f3ca	0.32998496
241	0x3dc9c57b	0.098521195
242	0x3edbb825	0.4291393
243	0x3d239aee	0.039942674
244	0x3f3c4812	0.7354747
245	0x3e58465d	0.21120591
246	0x3eb97f41	0.362299
247	0xbdf5c45c	-0.12000343
248	0x3ed5c391	0.41750768
249	0x3e132206	0.14368448
250	0x3ef1f087	0.4725382
251	0x3ed4ac2c	0.41537607
252	0x3a7fa0f8	0.0009751464
253	0x3e237d59	0.15965785
254	0x3d9d8468	0.0769127
255	0x3efef00e	0.49792522
