param1/lstm_model_100000.pth (torch, 204442 bytes, 9 tensors)

lstm.weight_ih_l0 f4 [256, 1]
0	0x3f157c1e	0.5839251
1	0x3fc26c39	1.5189277
2	0x3f493f7b	0.7861249
3	0x3f4e01e0	0.8047161
4	0x3f681c90	0.9066858
5	0xbf253209	-0.6452947
6	0xbf0e5a5f	-0.55606645
7	0x3f509cf4	0.8148949
8	0xbed97425	-0.42471424
9	0x3e09570e	0.13412115
10	0xbf46935a	-0.7756859
11	0x3fd20348	1.6407251
12	0x3da3bcd7	0.07995003
13	0xbf7f9cf0	-0.9984884
14	0x3fbbbe65	1.4667479
15	0x3eef6e97	0.4676406
16	0x3ea0b243	0.31386003
17	0x4014bb0b	2.3239162
18	0x3f0e6a79	0.55631214
19	0x3f3300da	0.69923174
20	0x3fb838f5	1.4392382
21	0xbf885c31	-1.0653135
22	0x3e6ed4b6	0.2332333
23	0x3eef3c1a	0.4672554
24	0xbc55a6eb	-0.013040285
25	0x3ee13da4	0.4399234
26	0x3f08bafa	0.53410304
27	0x3f24618f	0.6421136
28	0xbdb502b0	-0.08838403
29	0xbf894045	-1.0722739
30	0xbed3962f	-0.41325518
31	0x3f934570	1.1505566
32	0x3f98738b	1.1910261
33	0x4048f38a	3.1398644
34	0xbe85852e	-0.2607817
35	0x3f0cfc22	0.55072224
36	0x3fecd502	1.8502505
37	0xbe72226c	-0.23645943
38	0xbef93b75	-0.48678175
39	0x3f977dc4	1.1835256
40	0x4036204a	2.8457208
41	0xbf89bf60	-1.0761528
42	0xbf52cd6c	-0.823447
43	0x3eb59486	0.35464877
44	0x3f069eee	0.5258626
45	0xbcf1b533	-0.029505348
46	0x3ea555d6	0.3229205
47	0x3d9b1c72	0.07573785
48	0x400b4cb7	2.1765573
49	0xbf8fb173	-1.1226028
50	0x3fd62385	1.672959
51	0x3e867cef	0.26267192
52	0x3e1f0e89	0.15532888
53	0xbef4f287	-0.47841284
54	0xbe2e3bdb	-0.1701502
55	0x3f59351c	0.84846663
56	0x3f017fe1	0.5058575
57	0x3f44953f	0.7679023
58	0x3f1fde86	0.6244892
59	0xbf8ae6ac	-1.0851645
60	0x3cbad9a0	0.02280885
61	0x3d306ae6	0.043070696
62	0x3e932726	0.28740805
63	0x3f669bc6	0.9008144
64	0xbfa253e2	-1.2681849
65	0x3c89c40c	0.016817115
66	0x3f682ca4	0.90693116
67	0x3f9924d3	1.1964363
68	0x3f5ff9ca	0.8749052
69	0x401114bc	2.2668905
70	0x3fc30127	1.5234727
71	0x3eb3e43e	0.35135072
72	0xbfc7ef47	-1.5619897
73	0x3e0ee8db	0.13956015
74	0x3f100e2d	0.5627163
75	0x3fa64f97	1.2993039
76	0x3edd982c	0.4328016
77	0x3eda1181	0.4259148
78	0x3fa037a6	1.2516983
79	0x3f2f954b	0.6858718
80	0x3ebade30	0.3649764
81	0x3f9de63c	1.2335887
82	0x3f7a5187	0.9778065
83	0x3dfe654f	0.12421667
84	0x3f35d406	0.7102665
85	0xbf0bca67	-0.54605716
86	0xbef2eeff	-0.47447965
87	0xbf23e13f	-0.64015573
88	0x3ec02b79	0.37533167
89	0x3ee7f746	0.45305842
90	0x3e5655b3	0.20931129
91	0xbe4248f5	-0.18973143
92	0xbf9b032e	-1.2110345
93	0xbe7010d3	-0.23443918
94	0x3f1ac661	0.6045895
95	0xc00cd093	-2.2002304
96	0x3ef4c08f	0.4780316
97	0x3eb2a9c6	0.34895152
98	0x3f813dd5	1.0096995
99	0x3ff50e4b	1.9144987
100	0x3d8b16c2	0.0679145
101	0x3f7dc21f	0.9912433
102	0x3b295d63	0.0025843016
103	0xbf52461d	-0.82138234
104	0x3de0cfd6	0.109771416
105	0x3e16bc2a	0.14720216
106	0xbf2c1f2a	-0.6723505
107	0x3f517a39	0.8182712
108	0xbe078ad3	-0.13236551
109	0x3f47993e	0.77968204
110	0x3e90bb95	0.28268114
111	0xbf3d4d32	-0.73945916
112	0x3f658f07	0.8967137
113	0x3ea665df	0.32499596
114	0xbe900101	-0.28125766
115	0xc0356e35	-2.8348515
116	0x3ec70e97	0.3887832
117	0x3f79c32c	0.97563434
118	0x3f97d910	1.1863117
119	0x3f6b319c	0.9187257
120	0xbc29ac63	-0.010356042
121	0x3f0848d4	0.53236127
122	0x3f3351f1	0.7004691
123	0xbf824351	-1.0176793
124	0x3ea3d3a3	0.31997404
125	0x3ebc775a	0.36809808
126	0xbc0fce53	-0.008777219
127	0x3d6dfc65	0.05810203
128	0x3fb987d3	1.4494575
129	0xbecafb7f	-0.39645
130	0x40059c76	2.0876746
131	0xbf89c3d7	-1.076289
132	0xbfdfcfc7	-1.7485284
133	0xbf3af877	-0.7303538
134	0xbda1e6a3	-0.079053186
135	0x3f19d071	0.6008368
136	0x40f8378f	7.756782
137	0xbf737dcb	-0.9511382
138	0xbffc92cc	-1.9732299
139	0xbfbac62c	-1.4591727
140	0xbf9d1303	-1.2271427
141	0xbe622598	-0.22084653
142	0xbf91ea59	-1.1399642
143	0xbf17997a	-0.5921856
144	0x3fbd4983	1.4788059
145	0xc01d8e58	-2.461813
146	0xbf187a79	-0.5956188
147	0x3f6bf84f	0.92175764
148	0x4004ca56	2.0748496
149	0xbcb6f946	-0.02233566
150	0xc004ee69	-2.0770514
151	0x3f87e9f5	1.0618273
152	0x3fd8f6f5	1.6950365
153	0xbfc101c4	-1.5078664
154	0xbf3a7c9d	-0.72846395
155	0xbf134d83	-0.5754015
156	0x3f97d7c3	1.186272
157	0xbf933f44	-1.1503682
158	0xbb8e445e	-0.004341646
159	0x405978f5	3.3980076
160	0x3eb3190f	0.34980056
161	0xc020228a	-2.502108
162	0xc0861562	-4.19011
163	0x3f041d4b	0.516072
164	0xc00a808c	-2.1640959
165	0xbf54691a	-0.8297287
166	0x3f0a7852	0.54089844
167	0x3f1561f2	0.5835258
168	0x403a3988	2.9097614
169	0xbf198a49	-0.5997663
170	0xbfa73c96	-1.3065364
171	0xbff94726	-1.9474838
172	0x3fd92978	1.696578
173	0xbf2f628f	-0.68509763
174	0x3fab5930	1.3386593
175	0xc065d19e	-3.590919
176	0xc020e0ac	-2.513713
177	0x3ccbcd1e	0.024878081
178	0x3f429bbb	0.76018876
179	0xc0727352	-3.7882886
180	0x3fa7037b	1.3047937
181	0x3ee74b46	0.45174617
182	0xbe3cab48	-0.18424714
183	0xbf97df52	-1.1865027
184	0xbfb13e64	-1.3847165
185	0xbf876a75	-1.0579363
186	0xbf4bdc3d	-0.7963293
187	0xbfa69dec	-1.3016944
188	0xc00f394f	-2.2378728
189	0xbeb27ade	-0.34859365
190	0x3fe38b49	1.7776881
191	0xbf625ed7	-0.88425964
192	0xbef83848	-0.4848044
193	0x3ee4f99d	0.4472169
194	0x405d2680	3.4554749
195	0x3f3dd7d0	0.7415743
196	0x40639fbf	3.5566251
197	0x3b192562	0.002336823
198	0xbf050e47	-0.5197491
199	0x3e967ece	0.2939362
200	0xbd92b563	-0.07163503
201	0x3e1bc906	0.15213403
202	0xbebf50f4	-0.3736645
203	0x3f02b337	0.5105471
204	0x405e51a9	3.4737341
205	0x3dfb6db8	0.122767866
206	0x400dd0d8	2.2158718
207	0x3ea0b467	0.31387636
208	0x3f93b07c	1.1538234
209	0x403dde3d	2.9666893
210	0x3f29d1a5	0.6633552
211	0x3e22996f	0.15878843
212	0x3f929edf	1.1454734
213	0xbebca118	-0.36841655
214	0xbf641397	-0.8909239
215	0xbcceaa2e	-0.025227632
216	0x3ff221d3	1.8916572
217	0x40166ee9	2.3505194
218	0xbea3f373	-0.32021675
219	0x3fa23598	1.2672606
220	0xbf9a08f2	-1.203398
221	0xbe810d01	-0.25205234
222	0xbe3b195f	-0.18271397
223	0xbeb48351	-0.35256436
224	0x3f891c63	1.0711788
225	0x40861aaf	4.1907573
226	0x3f632edd	0.8874338
227	0xbf43e3c6	-0.7651943
228	0x401f7726	2.4916472
229	0x3ef344fd	0.4751357
230	0xbed14fe7	-0.40881273
231	0x3e33dafc	0.17564005
232	0x404d07f7	3.2036111
233	0x3f0731fa	0.52810633
234	0xbfd1540c	-1.6353774
235	0x3fa495f8	1.2858267
236	0x3f58ebc0	0.84734726
237	0x3fafe372	1.3741286
238	0x3d8d261c	0.068920344
239	0x3ddc89a2	0.10768439
240	0x4081dcbc	4.058195
241	0xbe9f37d5	-0.31097284
242	0xbe9d5e44	-0.3073598
243	0xbf62de79	-0.88620716
244	0xbbefcc1f	-0.0073180343
245	0xbf90faca	-1.1326535
246	0xbdcd244c	-0.10016689
247	0x3ffdbf1e	1.9823949
248	0x3fadec90	1.3587818
249	0x400b2c98	2.1745968
250	0x3eba3f77	0.36376545
251	0xbfa0151c	-1.2506442
252	0x3eb44789	0.35210827
253	0x3ee9d110	0.45667315
254	0x3f679e71	0.9047614
255	0x3f4c32a6	0.79764783

lstm.weight_hh_l0 f4 [256, 64]
0	0x3d917cfe	0.071039185
1	0x3f26808f	0.65039915
2	0xbd1a6221	-0.03769124
3	0x3e683497	0.22676311
4	0xbe750a87	-0.23929797
5	0xbe8a0694	-0.26958144
6	0x3ec5b9a2	0.3861819
7	0xbc9b65f0	-0.018969506
8	0x3f96c2c6	1.177819
9	0x3e71de3f	0.23619936
10	0xbeeef11b	-0.46668324
11	0x3f2bc43b	0.670963
12	0x3dc1eb22	0.09468676
13	0x3f3efa31	0.7460051
14	0xbf3d31c6	-0.73904073
15	0xbcfdab74	-0.030965544
16	0x3e29ed2e	0.16594383
17	0xbd15a6f1	-0.03653616
18	0xbd7df232	-0.061998554
19	0x3f272d24	0.65303254
20	0x3f27676b	0.6539218
21	0x3dbca238	0.09210628
22	0xbe1c6157	-0.15271507
23	0xbec05394	-0.37563765
24	0xbe85b7a9	-0.26116684
25	0x3eb050f7	0.3443677
26	0x3d262516	0.04056271
27	0xbf5b3beb	-0.856383
28	0x3cc0c6f3	0.023532366
29	0xbe23f1dd	-0.16010232
30	0x3b42cdf1	0.0029724801
31	0x3f00e701	0.50352484
32	0x3eebe0e2	0.4607001
33	0xbef858c3	-0.4850522
34	0xbe55fab8	-0.20896423
35	0x3eddd107	0.43323538
36	0xbe5e6154	-0.21716815
37	0xbf8327a0	-1.0246468
38	0x3e9bd7b0	0.30437994
39	0xbf3ce5c7	-0.7378811
40	0xbd3c2f30	-0.04594344
41	0xbeb4014e	-0.35157245
42	0xbce2ab0e	-0.027669456
43	0xbf059a74	-0.521888
44	0x3e8457ac	0.25848138
45	0x3e7b894f	0.24564098
46	0x3f0892a0	0.5334873
47	0xbf0cef05	-0.55052215
48	0xbeb8df86	-0.36108035
49	0xbd0cba99	-0.03435764
50	0xbda28b39	-0.07936711
51	0xbdcde5f7	-0.10053628
52	0x3f548b0c	0.8302467
53	0x3f8d0c5f	1.10194
54	0x3ce96b16	0.028493445
55	0xbd8a636e	-0.06757246
56	0xbfb82102	-1.4385073
57	0xbf21d991	-0.63222605
58	0x3f003a99	0.5008941
59	0x3ece78bb	0.40326485
60	0xbe56223c	-0.20911497
61	0x3e5d0015	0.21582063
62	0xbbf12d66	-0.0073601482
63	0xbdb4fdbf	-0.08837461
64	0x3f535d79	0.825645
65	0xbfe69ab9	-1.8015968
66	0x3eecaf66	0.46227568
67	0x3ef9862b	0.48735175
68	0xbe86c89e	-0.26324934
69	0xbe06dfb4	-0.13171273
70	0xbeb6e3c8	-0.35720658
71	0x3dc99fe9	0.098449536
72	0x3f22ecd4	0.6364262
73	0xbcd26c3b	-0.025686374
74	0xbed61a98	-0.41817164
75	0x3e3c4455	0.18385442
76	0x3e6b35c1	0.22969724
77	0xbfc5d9f3	-1.5457138
78	0x3efbabae	0.4915442
79	0xbf04fc5a	-0.5194756
80	0x3f4a02e3	0.78910655
81	0xbfad4dda	-1.3539383
82	0x3d3ce884	0.04612018
83	0x3f2c59aa	0.67324317
84	0xbe06612a	-0.13123003
85	0xbe3d1de4	-0.18468434
86	0x3fcc77f4	1.5974107
87	0x3f6d50ca	0.927014
88	0x3ea8d95c	0.32978332
89	0xbeb8f5ce	-0.36125034
90	0x3e80d946	0.25165766
91	0x3f9292dd	1.1451069
92	0xbebb8500	-0.36624908
93	0xbf1eef70	-0.620841
94	0x3f194d98	0.59884024
95	0x3f825109	1.018098
96	0xbe275602	-0.16341403
97	0xbf9c615f	-1.2217215
98	0x3e586255	0.2113126
99	0x3e57b13e	0.21063706
100	0xbfb80ad6	-1.4378307
101	0x3d7eb854	0.062187508
102	0x3f99f6dd	1.2028462
103	0xbf37f488	-0.718575
104	0x3f885c86	1.0653236
105	0x3ef33ecb	0.47508845
106	0xbf05727b	-0.5212781
107	0xbf8b142e	-1.0865533
108	0x3c8cb488	0.017175928
109	0xbf2809d6	-0.6564001
110	0x3ef6191c	0.48066032
111	0x3cbbf969	0.022946076
112	0xc0026ddd	-2.0379555
113	0xbf3d2456	-0.7388357
114	0x3c90747e	0.017633673
115	0xbe6d2eb2	-0.23162344
116	0x3e52e8f2	0.20596674
117	0xbf82534e	-1.0181673
118	0xbed58b95	-0.41708055
119	0xbf067c28	-0.525332
120	0x3f111945	0.56679183
121	0x3da14a32	0.0787548
122	0xbeab61b9	-0.33472994
123	0xbf450a50	-0.7696886
124	0xbf1d5f77	-0.6147379
125	0xbe94d3a8	-0.2906773
126	0x3d9eaa1a	0.07747288
127	0xbfbfd3ef	-1.4986552
128	0xbf91e500	-1.139801
129	0x3fad57ea	1.3542454
130	0x3e760acb	0.24027555
131	0x3ea77a0a	0.32710296
132	0xbf8ce100	-1.1006165
133	0x3cca8513	0.024721658
134	0xbeca7048	-0.3953879
135	0xbe66f263	-0.225534
136	0x3f8c98f4	1.0984178
137	0xbf097762	-0.5369779
138	0xbcdff12b	-0.027336678
139	0xbe360eb9	-0.17779054
140	0xbf63831a	-0.8887192
141	0xbf89f07b	-1.0776514
142	0xbe9d0cdd	-0.30673876
143	0xbe87d822	-0.26532084
144	0x3fce1e32	1.6102965
145	0xbfc14479	-1.5099021
146	0xbf7c1486	-0.98468816
147	0x3ebd11c8	0.3692763
148	0x3daf7d75	0.08568851
149	0xbd2d81fa	-0.042360283
150	0xbee5751a	-0.44815904
151	0xbf57572c	-0.8411739
152	0xbf12dfd3	-0.5737278
153	0xbfa42320	-1.2823219
154	0x3e5e0887	0.2168294
155	0x3cb5fa6e	0.02221414
156	0xbf215f71	-0.6303626
157	0xbf523ff5	-0.8212884
158	0x3f237453	0.6384937
159	0x3f0c1241	0.54715353
160	0xbed51520	-0.4161768
161	0xbe582e3c	-0.21111387
162	0x3f2f5efe	0.6850432
163	0x3e8d2de3	0.2757407
164	0x3f68e77b	0.9097821
165	0x3f49d11c	0.788347
166	0x3ecaa081	0.3957558
167	0x3f5e32e6	0.86796415
168	0x3f243823	0.6414816
169	0x3f831eae	1.0243738
170	0x3ecdb266	0.4017517
171	0xbeed3fa6	-0.46337622
172	0xbc3680c0	-0.011139095
173	0x3ec606c2	0.3867703
174	0x3f358a03	0.70913714
175	0x3ed896b9	0.42302492
176	0xbe419adf	-0.18906735
177	0xbf5cca46	-0.86246145
178	0x3f68d50b	0.9095008
179	0x3f3752d3	0.71610755
180	0x3eca7a34	0.3954636
181	0x3e0dd924	0.13852364
182	0xbff21f5b	-1.8915819
183	0x3f5506f9	0.83213764
184	0xbf910d2f	-1.1332148
185	0xbf80ea63	-1.0071529
186	0x3ef44a8c	0.47713125
187	0x3ef85a9d	0.48506632
188	0xbf9fc212	-1.24811
189	0xbecc9dbb	-0.3996409
190	0x3f02f3de	0.5115336
191	0xbf2c42e7	-0.67289585
192	0xbe9bd2c6	-0.30434245
193	0x3f211832	0.62927544
194	0xbf0c35d3	-0.5476963
195	0xbeef0afc	-0.46688068
196	0xbf71d0fd	-0.94459516
197	0x3eb5d9ca	0.35517722
198	0xbd857b13	-0.06517615
199	0x3eb0f58d	0.3456234
200	0x3e246e2a	0.16057649
201	0xbed266a5	-0.41093937
202	0x3e5caa8c	0.21549433
203	0xbf71eaf4	-0.94499135
204	0x3eec1bc9	0.46114948
205	0xbeda5a6f	-0.4264712
206	0x3eb432d5	0.35195032
207	0xbec76463	-0.38943776
208	0x3e584d8a	0.21123329
209	0xbd96e76a	-0.073683575
210	0xbc12e306	-0.008965259
211	0x3e9dd9b2	0.3083015
212	0x3f671f81	0.90282446
213	0x3d2c1ba1	0.042018536
214	0x3edf7927	0.4364712
215	0x3df16b73	0.117880724
216	0x3e994c16	0.2994086
217	0xbdedd1de	-0.116122946
218	0xbf327726	-0.69713056
219	0x3f2ded65	0.6794036
220	0x3e570a30	0.2099998
221	0xbf1d657d	-0.61482984
222	0xbe0aae3f	-0.13543032
223	0x3f0a3dc5	0.540005
224	0x3de8df8a	0.11370762
225	0xbf2eb759	-0.68248516
226	0xbcedaaea	-0.029012162
227	0xbe49a020	-0.19689989
228	0xbeb4ff9d	-0.35351267
229	0x3e933983	0.28754815
230	0xbf030d36	-0.51192033
231	0x3ea9f012	0.33190972
232	0x3f1e6e21	0.61886793
233	0x3f638f6d	0.88890725
234	0x3ecefc4f	0.4042687
235	0x3f31f5b8	0.6951556
236	0x3f354428	0.70807123
237	0xbe833435	-0.25625768
238	0xbeb4d8a3	-0.3532153
239	0x3eba90a5	0.3643848
240	0xbe62852c	-0.22121114
241	0xbeb77d8e	-0.35837978
242	0x3f88d444	1.0689778
243	0xbe76bbeb	-0.24095123
244	0x3df9dfb6	0.122008726
245	0xbf28f918	-0.66005087
246	0xbfb9e59c	-1.4523196
247	0x3fe56bd7	1.7923535
248	0xbd5f4637	-0.05451032
249	0x3e42bda7	0.19017659
250	0xbdfed57f	-0.12443065
251	0xbf3120a4	-0.6919043
252	0xbde80101	-0.113283165
253	0x3dc9e269	0.098576374
254	0xbe7a11ac	-0.24420804
255	0xbf89398a	-1.0720685

lstm.bias_ih_l0 f4 [256]
0	0x3dc9fadd	0.098623015
1	0xbf0b643b	-0.54449815
2	0x3d969c3b	0.07354017
3	0xbe4a894b	-0.19778936
4	0x3e60b523	0.21944098
5	0xbe0806d0	-0.13283849
6	0xbc9f0c22	-0.019414965
7	0xbe833fd6	-0.2563464
8	0x3fc41928	1.5320177
9	0xbd0eb4f0	-0.034840524
10	0x3dafc073	0.08581629
11	0x3e9f9582	0.31168753
12	0xbeb1d330	-0.34731436
13	0xbf1fad79	-0.62374073
14	0xbe08e6e7	-0.13369332
15	0xbf19dfe7	-0.6010727
16	0xbd674463	-0.056461703
17	0x3d284d56	0.04108938
18	0xbda56cad	-0.08077369
19	0xbe226bc6	-0.15861425
20	0x3eb210b1	0.3477836
21	0xbe41ca2f	-0.18924783
22	0xbecee6a0	-0.40410328
23	0xbda5730b	-0.08078583
24	0x3f05633f	0.5210456
25	0x3ec8f42d	0.3924879
26	0xbcd5bc6e	-0.026090827
27	0xbe185ef2	-0.14879969
28	0x3f2d4e0d	0.6769722
29	0xbe657cb4	-0.22410852
30	0xbc7c4439	-0.015397125
31	0x3f347b5c	0.7050073
32	0xbeb01be7	-0.34396288
33	0x3f0d2756	0.55138147
34	0xbed144c3	-0.40872774
35	0xbedc3d70	-0.43015623
36	0x3f0a05f9	0.53915364
37	0xbebdd59c	-0.37077034
38	0xbd7765dd	-0.06039988
39	0xbe28b637	-0.1647576
40	0x3f9e19c1	1.235161
41	0xbd9a434b	-0.07532366
42	0xbc8970e1	-0.016777458
43	0x3da6c484	0.08142951
44	0x3d2633aa	0.040576614
45	0x3e5983db	0.21241705
46	0x3d2325c9	0.039830957
47	0x3ebeb4e4	0.37247384
48	0x3f597560	0.84944725
49	0xbe4e5c90	-0.20152497
50	0x3ba24e00	0.004953146
51	0x3f151d88	0.58248186
52	0xbe3a589f	-0.18197869
53	0xbe4b13bd	-0.19831748
54	0xbeaaa707	-0.33330557
55	0xbe887eb8	-0.2665918
56	0xbd73c79f	-0.059516545
57	0xbe93b76b	-0.28850874
58	0x3c8686c9	0.016421692
59	0xbe849a45	-0.25898948
60	0xbdbc7c64	-0.09203413
61	0xbed5d708	-0.41765618
62	0xbea7bbea	-0.32760555
63	0xbe3a1090	-0.1817038
64	0x3cac13e5	0.02100558
65	0xbeb083cf	-0.34475562
66	0xbe8740eb	-0.26416716
67	0x3e538c3a	0.20658961
68	0xbe9e4931	-0.30915216
69	0x3f6bc01e	0.9209002
70	0x3f263216	0.64920175
71	0xbe889ca3	-0.26682004
72	0x3d974104	0.073854476
73	0x3d15894d	0.036507893
74	0x3e2dba3f	0.16965578
75	0x3e0340e2	0.1281772
76	0x3df15ffe	0.11785887
77	0xbecb6c85	-0.3973123
78	0x3e1e2de8	0.154472
79	0xbe88577c	-0.26629245
80	0xbe807e66	-0.25096434
81	0xbe705955	-0.23471577
82	0x3eb90ab5	0.3614098
83	0x3e84afb7	0.2591531
84	0xbca45e0e	-0.02006438
85	0x3eb4a3b4	0.35281146
86	0xbeaa4c99	-0.33261564
87	0xbe9eca44	-0.3101369
88	0xbec981d5	-0.39356866
89	0xbc6c2809	-0.014413842
90	0x3e4c9456	0.1997846
91	0xbed88a94	-0.42293227
92	0x3eda509a	0.4263962
93	0xbe070b67	-0.13187943
94	0x3e8d0c6a	0.27548534
95	0xbf22e490	-0.6363001
96	0xbe9f84f0	-0.3115611
97	0xbdfd826c	-0.123783916
98	0x3d82962f	0.063763015
99	0xbe394287	-0.18091784
100	0x3deb2188	0.11481005
101	0xbe9d94d3	-0.30777606
102	0xbe9e0f39	-0.3087099
103	0xbe32c664	-0.17458493
104	0xbe29c121	-0.16577579
105	0xbf0d88ae	-0.5528668
106	0xbea412eb	-0.32045683
107	0x3d18796b	0.03722517
108	0x3ee7aed6	0.45250577
109	0x3ec49b15	0.38399568
110	0xbe90b2a4	-0.28261292
111	0xbe7040dd	-0.23462243
112	0xbe878d2b	-0.2647489
113	0x3ea8309e	0.32849592
114	0xbe80b59a	-0.2513855
115	0xbd1cc467	-0.03827324
116	0xbd9137f1	-0.07090748
117	0x3dc81dac	0.097712845
118	0x3c8c07fe	0.017093655
119	0xbe849db6	-0.25901574
120	0x3e8c4a8a	0.2740062
121	0xbe0588e6	-0.13040504
122	0x3e9fbfb6	0.3120095
123	0xbe9d8e70	-0.30772734
124	0xbea3731a	-0.31923753
125	0x3ec2e079	0.38061884
126	0xbeaa75fa	-0.33293134
127	0xbcd8ecd6	-0.02648012
128	0xbd946871	-0.07246483
129	0xbe8cdc9c	-0.27512062
130	0x3dfd1ea8	0.12359363
131	0xbbd2468a	-0.0064171003
132	0xbd6400ea	-0.055664934
133	0x3e103a4a	0.14084736
134	0xbde0ff93	-0.10986247
135	0x3d6071c6	0.054796003
136	0xbeb2ddc7	-0.34934828
137	0xbed15a52	-0.4088922
138	0xbd276c02	-0.04087449
139	0x3e293718	0.16524923
140	0xbd51621a	-0.051118948
141	0x3e26d34c	0.16291541
142	0x3e1d2ed3	0.15349893
143	0x3e711e54	0.23546726
144	0xbed6b99b	-0.4193848
145	0x3cde3207	0.027123464
146	0xbe8ca985	-0.27473083
147	0xbe109f64	-0.14123303
148	0x3db59d84	0.08867934
149	0xbeb6d7e8	-0.35711598
150	0x3d3cafe2	0.046066172
151	0x3d846fce	0.064666376
152	0x3e3e3329	0.18574204
153	0xbd7cfaa0	-0.061762452
154	0xbcd3f63e	-0.025874253
155	0xbd8fd6e4	-0.07023409
156	0xbe2d319c	-0.16913456
157	0x3c737511	0.014859454
158	0x3e2764f7	0.16347109
159	0xbe8f5327	-0.27993128
160	0xbdc7867b	-0.09742447
161	0x3ea69f54	0.32543433
162	0xbdf067c2	-0.1173854
163	0x3e7c949a	0.24666062
164	0x3e39426d	0.18091746
165	0x3e9073c9	0.28213337
166	0x3e42a12d	0.19006796
167	0x3d4ab610	0.049490035
168	0xbec601a6	-0.38673133
169	0xbd47b6e4	-0.048758402
170	0xbdd33d56	-0.10314433
171	0x3db30e3a	0.08742948
172	0xbd65801a	-0.05603037
173	0x3e66a05b	0.22522108
174	0xbe97876d	-0.2959551
175	0x3e322e7e	0.17400548
176	0x3eaecc06	0.34140033
177	0x3e0bd86f	0.13656782
178	0xbe0ba4ec	-0.13637131
179	0x3e6d4f35	0.23174746
180	0xbe72a866	-0.23697051
181	0xbe042603	-0.12905125
182	0x3eebffc1	0.46093562
183	0x3bc79ea3	0.006091909
184	0x3dbf7718	0.09348887
185	0x3e31afc5	0.17352207
186	0xbe9f1ede	-0.31078237
187	0xbd8a9559	-0.06766767
188	0x3eb4c6eb	0.35308012
189	0x3e030b41	0.12797262
190	0xbcf4b435	-0.029871086
191	0xbe5a471e	-0.21316192
192	0x3e262797	0.1622604
193	0x3eb8682a	0.3601697
194	0xbdffdf2e	-0.1249374
195	0xbea5bea6	-0.32372016
196	0x3e667cc8	0.22508538
197	0xbd68caa0	-0.056833863
198	0x3d1ffa16	0.03905686
199	0xbed3b847	-0.4135153
200	0x3fc292f8	1.5201101
201	0xbf2d85d5	-0.67782336
202	0x3e539e4d	0.20665856
203	0x3e54c34f	0.2077763
204	0xbeb3eda3	-0.3514224
205	0xbee60f0e	-0.4493336
206	0xbebcc523	-0.36869153
207	0xbe038264	-0.12842709
208	0xbdf92998	-0.121661365
209	0xbdd6a17c	-0.104800195
210	0xbeee7fd4	-0.465819
211	0xbe8964a2	-0.2683459
212	0x3e5b1482	0.21394542
213	0xbdf7e1e7	-0.12103634
214	0xbe85beaa	-0.26122028
215	0xbdde71f0	-0.108615756
216	0x3f6aa259	0.9165397
217	0xbd922912	-0.0713674
218	0xbf0cbcec	-0.5497577
219	0x3de38eaf	0.11111199
220	0xbe3bf51f	-0.18355225
221	0x3e3731e0	0.1789012
222	0x3efd0ac6	0.49422282
223	0x3f960a85	1.172196
224	0xbed8a4c9	-0.4231322
225	0x3f483cc2	0.7821771
226	0x3da64fa8	0.08120662
227	0x3e4ef3f3	0.20210247
228	0x3efb5385	0.49087158
229	0xbdd96f69	-0.10616953
230	0xbea21d92	-0.31663185
231	0xbddf168b	-0.108929716
232	0x3f9867fb	1.1906732
233	0xbf03eb59	-0.5153099
234	0xbeff1f14	-0.49828398
235	0xbe10e771	-0.14150788
236	0x3e9326e4	0.2874061
237	0x3e41bd86	0.18919954
238	0x3d558a9d	0.052134145
239	0x3eb34cc7	0.35019514
240	0x3f94d02a	1.1626027
241	0xbf03d172	-0.51491463
242	0x3d7b2e92	0.06132371
243	0x3f4b14bd	0.7932852
244	0x3ee99cb3	0.45627365
245	0xbe8df3cc	-0.27725065
246	0xbf034d54	-0.5128987
247	0xbecc0f1c	-0.39855278
248	0xbc9ef50c	-0.019403957
249	0xbef53748	-0.4789374
250	0x3c45c939	0.012071901
251	0xbeae7cbe	-0.34079546
252	0x3e4ee2e3	0.20203738
253	0xbe192723	-0.14956336
254	0x3e3da98c	0.18521708
255	0x3e5b9586	0.21443757

lstm.bias_hh_l0 f4 [256]
0	0xbcb2e454	-0.021837391
1	0xbedf3644	-0.4359609
2	0x3d32baa4	0.043635026
3	0xbe417339	-0.1889161
4	0x3ea1af73	0.3157917
5	0xbdb39427	-0.08768492
6	0xbd901026	-0.0703433
7	0xbe7b54f3	-0.24544124
8	0x3fb44200	1.4082642
9	0xbc88d366	-0.016702365
10	0x3e5d94ee	0.21638843
11	0x3db01518	0.08597773
12	0xbe053e7e	-0.1301212
13	0xbf08086d	-0.53137857
14	0xbe8bbcde	-0.27292532
15	0xbf2327de	-0.6373271
16	0xbe6c61aa	-0.23084131
17	0xbc3ae1c0	-0.011406362
18	0x3d17fe78	0.037107915
19	0xbe9978e5	-0.29975048
20	0x3ecf984b	0.40545878
21	0xbd682758	-0.056678146
22	0xbee55a50	-0.44795465
23	0xbc8f9b14	-0.017530002
24	0x3f0b1e6d	0.543433
25	0x3e4fe166	0.20300826
26	0x3d6d0375	0.057864625
27	0xbce8ab9d	-0.028402144
28	0x3f052faa	0.52025855
29	0xbe906d7d	-0.28208533
30	0x3d8b1306	0.06790738
31	0x3f12022e	0.57034576
32	0xbe718707	-0.23586665
33	0x3efdfa6f	0.49605128
34	0xbec9d440	-0.39419746
35	0xbebab225	-0.36464038
36	0x3ed98766	0.42486113
37	0xbede4fea	-0.43420345
38	0x3c17a5e5	0.009255861
39	0xbd8f5d81	-0.07000256
40	0x3fa2f3d4	1.273066
41	0x3bfc2aac	0.0076955166
42	0xbb25cb55	-0.0025298197
43	0xbd361a9a	-0.044458963
44	0xbd9aa1de	-0.07550405
45	0x3e285dd9	0.1644205
46	0x3d03969a	0.032126047
47	0x3eb37138	0.35047317
48	0x3f44c7ea	0.76867545
49	0xbe1e5c2d	-0.1546485
50	0x3cfd28bf	0.030903218
51	0x3f1c71a0	0.6111088
52	0xbed6e83d	-0.4197406
53	0xbead3565	-0.338298
54	0xbeec0970	-0.4610095
55	0xbebba624	-0.36650193
56	0xbe5d9a10	-0.21640801
57	0xbef27c60	-0.47360516
58	0x3dfb2dfd	0.12264631
59	0xbeb49602	-0.35270697
60	0xbdca1e5e	-0.09869073
61	0xbed1a5b7	-0.40946743
62	0xbe12142b	-0.14265506
63	0xbe67f9fb	-0.22653954
64	0x3e3a502e	0.18194649
65	0xbe941788	-0.28924203
66	0xbea1355d	-0.31486025
67	0x3cf25511	0.029581578
68	0xbe22dbe7	-0.15904199
69	0x3f67d9ea	0.90566885
70	0x3eed21f9	0.46314982
71	0xbdb8a2e4	-0.09015444
72	0xbc7b50f7	-0.015339128
73	0x3d93c694	0.0721561
74	0x3d8a396e	0.06749235
75	0x3e71d333	0.23615722
76	0x3e9b9cb0	0.3039298
77	0xbe9b4d5b	-0.30332455
78	0x3e8745df	0.26420495
79	0xbe4e8e96	-0.2017158
80	0xbebc1bf0	-0.36740065
81	0xbe899b0f	-0.26876113
82	0x3ec40199	0.3828247
83	0x3d98c2a4	0.07459
84	0x3d388fee	0.045059137
85	0x3e707f16	0.2348598
86	0xbe40e3ce	-0.188369
87	0xbea7865b	-0.32719693
88	0xbed90e38	-0.4239366
89	0xbd1c3f67	-0.038146403
90	0x3da06122	0.078310266
91	0xbef7c903	-0.48395547
92	0x3f033429	0.51251465
93	0xbe7e9c4b	-0.24864309
94	0x3d6402f1	0.055666868
95	0xbf03fe78	-0.51560163
96	0xbe8e64c8	-0.27811265
97	0x3dbc0e74	0.09182444
98	0x3dedb424	0.11606625
99	0x3d1b8903	0.03797246
100	0x3d1ff64d	0.03905325
101	0xbeb187e2	-0.34673983
102	0xbe9d578e	-0.3073086
103	0xbe4c2cb9	-0.19938935
104	0xbe03c14f	-0.1286671
105	0xbf261cb2	-0.64887536
106	0xbe20f88c	-0.15719813
107	0x3e31f072	0.17376879
108	0x3ee94b45	0.4556524
109	0x3e94de87	0.29076025
110	0xbe6da746	-0.23208341
111	0xbe5757b4	-0.2102955
112	0xbdf3caef	-0.11903941
113	0x3e8c0c9c	0.2735337
114	0xbe7ebfcd	-0.24877854
115	0xbc9fef3f	-0.019523261
116	0xbdc99197	-0.09842222
117	0x3d8695d5	0.06571547
118	0xbe147f91	-0.14501788
119	0xbe74322b	-0.23847263
120	0x3e907911	0.28217366
121	0xbe55037a	-0.20802107
122	0x3e9c64cd	0.30545655
123	0xbe7b9e7d	-0.24572177
124	0xbe895b8d	-0.2682766
125	0x3eb1d14d	0.34729996
126	0xbe696bcb	-0.22795026
127	0x3db10214	0.086429745
128	0xbc7b1446	-0.015324658
129	0xbdfee035	-0.12445108
130	0xbd1a5792	-0.03768117
131	0x3d99c84b	0.07508906
132	0x3d724c1f	0.059154626
133	0x3ea8aa5e	0.3294248
134	0xbe00911d	-0.12555356
135	0x3e2dba4f	0.16965602
136	0xbeb38bba	-0.3506754
137	0xbef12960	-0.4710188
138	0x3e1567c1	0.1459036
139	0x3e488d31	0.1958511
140	0x3c435088	0.011921056
141	0x3e2e348d	0.17012234
142	0x3e22b7f3	0.15890484
143	0x3ea7d9f7	0.3278348
144	0xbe4c38e7	-0.19943582
145	0x3dc2b3fc	0.095069855
146	0xbe885288	-0.26625466
147	0xbdc2735a	-0.09494658
148	0x3e762cb2	0.24040487
149	0xbe909f8d	-0.28246728
150	0xbc618ae1	-0.0137660215
151	0x3e2f6fdf	0.17132519
152	0x3e46df91	0.19421221
153	0x3d20aa43	0.039224874
154	0x3d6f59ef	0.058435377
155	0xbcbd41b1	-0.023102613
156	0xbe1c6a78	-0.1527499
157	0xbe38d18b	-0.18048684
158	0x3e4772b9	0.19477357
159	0xbed896f4	-0.42302668
160	0xbe20bf93	-0.1569808
161	0x3e303ff6	0.17211899
162	0xbdaf325a	-0.08554526
163	0x3db267eb	0.08711227
164	0x3e1106f7	0.14162813
165	0x3e7fbfa4	0.24975449
166	0x3e5f38f6	0.21799073
167	0x3dafd76d	0.08586011
168	0xbe634426	-0.22193965
169	0x3ab75484	0.001398698
170	0xbe0f2934	-0.13980561
171	0x3d254bc8	0.040355474
172	0xbd8c3449	-0.0684591
173	0x3dbf5c32	0.09343757
174	0xbea3b648	-0.31975007
175	0x3e252a76	0.16129479
176	0x3e49111c	0.19635433
177	0x3e0d8151	0.13818862
178	0xbe0205a4	-0.12697464
179	0x3ec3aea6	0.38219184
180	0xbe6214e9	-0.22078289
181	0xbe82f5ef	-0.25578257
182	0x3ec0f061	0.37683395
183	0x3d01b59d	0.03166734
184	0x3e8018fd	0.25019065
185	0x3d74c57e	0.059758656
186	0xbeaef8c2	-0.34174162
187	0xbe31a0e1	-0.17346527
188	0x3e18fef1	0.14941002
189	0x3d67e11d	0.05661117
190	0xbdf2497e	-0.11830424
191	0xbe8d89cb	-0.2764419
192	0x3e6a76b0	0.22896838
193	0x3e873481	0.26407245
194	0xbd1def07	-0.038558032
195	0xbeddd36b	-0.43325362
196	0x3e0715fb	0.13191979
197	0xbd80f642	-0.0629697
198	0xbe25278c	-0.16128367
199	0xbeeac566	-0.45853728
200	0x3fbe3f38	1.4863043
201	0xbf15159b	-0.5823609
202	0x3e2a5e94	0.16637641
203	0x3eaf326c	0.34218156
204	0xbec9ae04	-0.39390576
205	0xbeeede42	-0.46653944
206	0xbe88baa8	-0.26704907
207	0xbdffc525	-0.12488774
208	0xbdf11327	-0.11771231
209	0xbd6228b6	-0.055214606
210	0xbebee8f8	-0.37287116
211	0xbe83934d	-0.2569832
212	0x3eb0fd1e	0.34568113
213	0xbe8bc09c	-0.27295387
214	0xbea37f75	-0.3193318
215	0xbde781d9	-0.11304063
216	0x3f57e1bb	0.8432881
217	0xbceebbbd	-0.029142255
218	0xbec86adf	-0.39144036
219	0x3e50cc47	0.20390426
220	0xbdefe884	-0.11714271
221	0x3e1f8642	0.15578559
222	0x3efc5607	0.49284384
223	0x3f96ae1e	1.1771886
224	0xbf040ee5	-0.5158523
225	0x3f1f4aec	0.62223697
226	0x3e65b746	0.22433195
227	0x3de86c83	0.11348822
228	0x3f01e093	0.507333
229	0xbe57e0f6	-0.2108191
230	0xbed991b6	-0.4249398
231	0xbe2e27e7	-0.17007409
232	0x3f985104	1.1899724
233	0xbeb4a3e2	-0.35281283
234	0xbec33be0	-0.38131618
235	0xbde967b5	-0.11396734
236	0x3ea7bda4	0.32761872
237	0x3e4d69ab	0.2005984
238	0x3c20e374	0.009819854
239	0x3ef61d3e	0.48069185
240	0x3f8abfbf	1.0839766
241	0xbee3d22e	-0.44496292
242	0x3da93a98	0.08263129
243	0x3f3ecba0	0.7452946
244	0x3e837c8d	0.25680962
245	0xbe52043d	-0.2050943
246	0xbea9e87e	-0.3318519
247	0xbea24c38	-0.31698775
248	0x3db2549c	0.08707544
249	0xbf0fc1e9	-0.5615526
250	0xbd64648a	-0.055759944
251	0xbe165e86	-0.14684495
252	0x3e5619cc	0.20908278
253	0xbdccf906	-0.10008435
254	0xbcbb4126	-0.022858214
255	0x3e39e1ab	0.18152492

lstm.weight_ih_l1 f4 [256, 64]
0	0x3f494301	0.78617865
1	0xbfba5f03	-1.4560245
2	0x3f2514c1	0.6448479
3	0xbe835195	-0.2564818
4	0x3f9d8a8a	1.2307904
5	0x3f438012	0.76367295
6	0xbf83ed04	-1.0306706
7	0x3e64869b	0.22316973
8	0xbf2fb768	-0.6863923
9	0xbfac4f02	-1.3461611
10	0x3c16be7b	0.0092006875
11	0xbf1f85f7	-0.6231379
12	0x3f62315c	0.88356566
13	0x3dbc3859	0.09190435
14	0xbe2e1753	-0.17001085
15	0x3f57a040	0.842289
16	0x3f26114f	0.6487016
17	0xbee44922	-0.44587046
18	0xbfa25694	-1.2682672
19	0xbf5aaaac	-0.85416675
20	0x3f9cba4e	1.2244356
21	0x3e8a4859	0.27008322
22	0x3f3414af	0.7034406
23	0xbf2e168f	-0.6800317
24	0x3fc63cbb	1.5487283
25	0x3f482776	0.7818521
26	0xbe6a03e3	-0.22853045
27	0xbe23bde7	-0.15990411
28	0x3e34a814	0.17642242
29	0x3e5e2f5c	0.21697754
30	0xbd0e8add	-0.0348004
31	0xbc9122c3	-0.017716771
32	0x3f55fa41	0.8358498
33	0xbdfdca18	-0.12392062
34	0xbfbda667	-1.4816407
35	0xbeb7021b	-0.35743794
36	0x3fa856c1	1.3151475
37	0xbde51440	-0.11185503
38	0xbf44b268	-0.76834726
39	0xc013fbcb	-2.3122432
40	0x3eadb0ee	0.3392405
41	0xbfb725db	-1.4308428
42	0x3e9a276a	0.30108196
43	0x3d386e6e	0.04502719
44	0x3eeb0518	0.45902324
45	0xbee3cc63	-0.44491872
46	0xbf0c5818	-0.5482192
47	0xbf9d57f8	-1.2292471
48	0x3e66f451	0.22554137
49	0x3bd46839	0.006482151
50	0xbf9bcfd5	-1.21728
51	0x3fedb1c2	1.8569872
52	0x3c30691f	0.01076725
53	0xbe8858af	-0.2663016
54	0xbfba262e	-1.4542902
55	0xbea0a03f	-0.31372258
56	0xbffdaf0c	-1.9819045
57	0x3ed1fbf7	0.41012546
58	0x3f090d81	0.5353623
59	0xbeb110ff	-0.3458328
60	0x3e961a9a	0.2931717
61	0xbf9d131e	-1.2271459
62	0xbf011e4e	-0.50436866
63	0x3fe7277f	1.8058928
64	0xbe6279cb	-0.22116773
65	0x3de293e4	0.11063364
66	0xbf312ca9	-0.6920877
67	0xbec3e43e	-0.38260072
68	0x3ebc1efb	0.36742386
69	0x3f0f3955	0.55946857
70	0xbdd5cc62	-0.104393736
71	0x3ec953c8	0.39321733
72	0xc054ab30	-3.3229485
73	0xbf2b562b	-0.66928357
74	0x3f0ec78b	0.5577323
75	0xbf3e8abf	-0.7443046
76	0xbbb68aad	-0.0055707307
77	0xbf65f553	-0.8982746
78	0x3f820b05	1.0159613
79	0xbf0a1347	-0.53935665
80	0x3da671fd	0.0812721
81	0x3ffc6a54	1.9719949
82	0xbe45697c	-0.1927852
83	0xbf152019	-0.582521
84	0xbcd24937	-0.025669677
85	0xbf4327d0	-0.76232624
86	0x3f578bc2	0.8419763
87	0x3f6fa066	0.93604124
88	0x3eb79b30	0.35860586
89	0x3eb2c22f	0.34913775
90	0xbea58e1a	-0.32334977
91	0xbec4bf41	-0.38427165
92	0x3dbae534	0.09125748
93	0x3ee464b0	0.44608068
94	0xbe7ee5e1	-0.2489238
95	0xbf792080	-0.97315216
96	0xbdd65f7c	-0.10467431
97	0x3fd1794e	1.6365144
98	0x3f4a4685	0.79013854
99	0xbf8f39b8	-1.1189489
100	0xbf185c0b	-0.59515446
101	0xbeb2f273	-0.349506
102	0xbf9945e6	-1.1974456
103	0xbf4a836d	-0.7910679
104	0xbf212f1d	-0.62962514
105	0xbf24b98f	-0.6434564
106	0x3f0c96d1	0.5491763
107	0xbe60ffdc	-0.21972603
108	0xbe9f245e	-0.31082433
109	0xbeb900ed	-0.3613352
110	0xbecb949a	-0.39761811
111	0x3e8a2c6c	0.26987016
112	0x3f50bebb	0.8154103
113	0x3bdb5a4e	0.0066941148
114	0x3ea77199	0.32703856
115	0x3ff7b803	1.9353031
116	0xbf45423d	-0.77054197
117	0x3dc5c676	0.09656994
118	0x3f74526c	0.95438266
119	0xbf9013d5	-1.1256052
120	0x3f2712b6	0.65262926
121	0xbec97eb2	-0.39354473
122	0xbf812bf8	-1.0091543
123	0xbe3b16a4	-0.18270355
124	0xbe96c7d7	-0.2944934
125	0xbde367ed	-0.11103807
126	0x3f24cf4c	0.6437881
127	0xbf66c374	-0.9014199
128	0x3ee505f6	0.4473111
129	0x3e2179dd	0.15769143
130	0x3ecf2a42	0.40461928
131	0xbf4b36de	-0.79380596
132	0x3fbf635d	1.4952198
133	0xbf342617	-0.7037062
134	0xbf8119e3	-1.0086025
135	0x3f3b8e0d	0.7326363
136	0xbf82c0c6	-1.021508
137	0x3fa2ff40	1.2734146
138	0xbea545d6	-0.32279843
139	0xbea1c06d	-0.31592122
140	0xbea61d6a	-0.32444316
141	0x3ecf5cf2	0.405006
142	0xbed8fc5b	-0.42380032
143	0xbe70b1e7	-0.23505364
144	0xbc767c1b	-0.0150442375
145	0xbf164b8c	-0.58709025
146	0xbf0ed5f2	-0.55795205
147	0x3f10a378	0.56499434
148	0x3dc8384b	0.09776362
149	0xbeb07f9e	-0.34472364
150	0xbf22c6bb	-0.6358449
151	0x3f23f5a0	0.6404667
152	0x3eab4875	0.33453718
153	0x3f959d69	1.1688663
154	0xbdfcabc7	-0.123374514
155	0x3e062b49	0.1310245
156	0xbe71bc74	-0.23607045
157	0x3b853e22	0.0040662447
158	0xbdce10f8	-0.1006183
159	0xbe802483	-0.25027856
160	0x3dc31f99	0.09527511
161	0xbe749480	-0.23884773
162	0xbefe475b	-0.49663815
163	0xbedaa1a3	-0.42701444
164	0x3e03cfd5	0.1287225
165	0x3f043693	0.51645774
166	0x3f1b64f0	0.60700893
167	0x3ece7b84	0.4032861
168	0x3ec3a48c	0.38211477
169	0xbe2dee78	-0.169855
170	0xbdeb1770	-0.1147908
171	0xbf86f5da	-1.0543778
172	0xbdb8348d	-0.08994398
173	0xbe5a2d00	-0.21306229
174	0x3f20f4f0	0.62873745
175	0xbf071655	-0.5276845
176	0xbe00c3a8	-0.12574637
177	0xbe764302	-0.24048999
178	0xbf0bb516	-0.5457319
179	0x3f19a207	0.6001286
180	0x3d7e9e61	0.06216276
181	0xbd29e663	-0.04147948
182	0xbf8741f5	-1.0567003
183	0x3ed72b0d	0.42025033
184	0x3f0eed41	0.5583077
185	0x3f27126d	0.6526249
186	0x3ee294dd	0.442542
187	0xbeb3e556	-0.35135907
188	0xbeac9870	-0.3371005
189	0xbebec469	-0.37259224
190	0x3f069db0	0.5258436
191	0xbf23ac30	-0.6393461
192	0xbf3eb414	-0.7449353
193	0x3d264d78	0.040601224
194	0xbf796ea9	-0.9743448
195	0x3bcadbcc	0.0061907526
196	0xbea41847	-0.32049772
197	0x3e2dabc5	0.16960056
198	0x3d6ec2ea	0.058291353
199	0xbec2b673	-0.38029823
200	0xbf1089ad	-0.56460077
201	0xbdad3f36	-0.08459322
202	0x3c294f74	0.0103338845
203	0xbf0e06d7	-0.55479187
204	0xbe149ae4	-0.14512211
205	0xbf096f25	-0.5368522
206	0x3ec24e9e	0.37950605
207	0xbf2cb990	-0.67470646
208	0xbe83c853	-0.25738773
209	0xbe0c20aa	-0.13684335
210	0xbf113a3c	-0.56729484
211	0xbe9be79d	-0.30450144
212	0xbe66c11d	-0.22534604
213	0xbdea2c28	-0.114342034
214	0xbcc7ffa7	-0.024413897
215	0xbfb3cb67	-1.4046448
216	0xbea2ba80	-0.31782913
217	0xbf25e59c	-0.6480348
218	0xbe397a07	-0.18112956
219	0xbfa2b495	-1.2711359
220	0xbf97e864	-1.1867795
221	0x3ed97b1a	0.42476732
222	0x3eedee32	0.4647079
223	0x3e954566	0.2915451
224	0x3ee1b0b0	0.44080114
225	0x3ecca2a8	0.39967847
226	0xbf7b6737	-0.9820437
227	0x3d83df52	0.06439079
228	0xbe10e3ef	-0.1414945
229	0xbd70a014	-0.058746412
230	0xbe6430b1	-0.222842
231	0x3f9f9bbe	1.2469404
232	0x3dd40e4b	0.10354289
233	0x3dfe4ad1	0.12416614
234	0xbe9e5bb7	-0.30929348
235	0xbe751021	-0.23931934
236	0xbeca96da	-0.39568216
237	0xbeb5017a	-0.3535269
238	0xbb9fd160	-0.0048772544
239	0x3e50f4b5	0.20405848
240	0x3ea025ec	0.31278932
241	0x3e92fb3a	0.28707296
242	0xbece2a0f	-0.40266463
243	0x3f105b59	0.56389385
244	0xbf59acb6	-0.8502916
245	0xbef35b8f	-0.4753079
246	0xbf108635	-0.56454784
247	0x3f8da325	1.1065413
248	0xbed7ea63	-0.4217101
249	0x3e63dc59	0.22252025
250	0xbf13907e	-0.5764235
251	0xbfb06850	-1.3781834
252	0x3e8a28fe	0.269844
253	0x3ed6cbed	0.41952458
254	0x3f4abd02	0.79194653
255	0x3f9de82e	1.2336481

lstm.weight_hh_l1 f4 [256, 64]
0	0xc05a15da	-3.4075837
1	0x3e8d0479	0.27542475
2	0xbf4299dc	-0.7601602
3	0x3f475cd6	0.7787603
4	0xbf9b738c	-1.2144637
5	0xbfe5ee55	-1.7963358
6	0x3e1a86c1	0.15090467
7	0xbf7d480b	-0.98938054
8	0xbf44cbff	-0.76873773
9	0x3eaf925e	0.34291357
10	0x3f202843	0.62561435
11	0xc035ac6f	-2.8386495
12	0xc035c4b0	-2.8401299
13	0x3cec01f6	0.028809529
14	0x3e5f6c74	0.21818715
15	0x4062f6ad	3.546306
16	0xbffb444f	-1.9630221
17	0xbea75c02	-0.32687384
18	0xbf1e1d3d	-0.61763364
19	0x3d47bda5	0.048764843
20	0xbe4ba891	-0.19888522
21	0xbfb8543f	-1.440071
22	0xc0424e9a	-3.0360475
23	0xbf740945	-0.95326644
24	0xc00993c6	-2.1496444
25	0xbfeb3556	-1.8375652
26	0xbe872b9c	-0.2640046
27	0x3fed0117	1.8515958
28	0x3cf5e8df	0.030018268
29	0xbf829b84	-1.020371
30	0x401db55f	2.464195
31	0xbf15fba9	-0.5858713
32	0xbfbadc93	-1.4598564
33	0xbee356eb	-0.4440225
34	0xbfc1edd2	-1.5150702
35	0xbe66c6ba	-0.22536746
36	0xbe39d582	-0.18147853
37	0x3e5a009c	0.21289295
38	0xbf8356a3	-1.0260814
39	0xbf5612bb	-0.8362233
40	0xbfbc7e99	-1.4726135
41	0xbe4c4020	-0.19946337
42	0x3fdf3237	1.7437199
43	0xbdf632b0	-0.120213866
44	0x400e076d	2.2192032
45	0xbd537616	-0.051626287
46	0x3f816937	1.0110234
47	0xbe82ce5c	-0.25548065
48	0x3f1a89a4	0.6036627
49	0xbecefd57	-0.40427658
50	0xbdc1bae2	-0.09459473
51	0xbf94c756	-1.1623333
52	0xbf04a791	-0.51818186
53	0xbf833a53	-1.0252174
54	0xbdc6e6f2	-0.09712018
55	0x3efe15d1	0.4962602
56	0xbf66bdb6	-0.90133226
57	0xbf38e6d7	-0.72227234
58	0xbf550deb	-0.8322436
59	0xbeafc398	-0.34328914
60	0xbfb31f72	-1.3993971
61	0x3f0ec584	0.55770135
62	0xbe9d8f9b	-0.30773625
63	0xbb3c78e9	-0.0028758592
64	0x3f931688	1.1491251
65	0xbe89a542	-0.26883894
66	0x3f7e52f8	0.9934535
67	0xbe17a010	-0.14807153
68	0xbf9c3ba3	-1.22057
69	0x3fc56271	1.5420667
70	0xbf35e014	-0.7104504
71	0xbf512235	-0.8169282
72	0xbf0d5903	-0.55213946
73	0x3f4f45de	0.80965984
74	0x3f4fb6e8	0.8113847
75	0xbf8362d3	-1.0264534
76	0xbcd9b7e5	-0.026576946
77	0x3f4d75dc	0.80257964
78	0xbf1e53e3	-0.6184675
79	0xbf77e3a8	-0.9683175
80	0x4011fe9a	2.2811646
81	0xbef73ccf	-0.4828858
82	0xbfeeb44d	-1.8648773
83	0x3f4c12dc	0.7971628
84	0xbd9fa71a	-0.07795544
85	0xc0196135	-2.396558
86	0x3fa88fe1	1.3168908
87	0xbd893476	-0.06699459
88	0xbf4bfae6	-0.79679716
89	0x3fc95c76	1.5731342
90	0xbfc693ca	-1.5513852
91	0xbf2f5595	-0.6848996
92	0x3e26ceb2	0.16289786
93	0x3f150b18	0.5822005
94	0xbe518a5e	-0.20462939
95	0x3f1a3ed5	0.60252124
96	0x3f0dd2db	0.55399865
97	0xbf20b2c6	-0.62772787
98	0x3ee61d0f	0.44944045
99	0x3e91534a	0.28383857
100	0x3ec546c9	0.38530567
101	0x3f9ffd24	1.2499127
102	0x3f836a35	1.0266787
103	0x3f4802fa	0.7812954
104	0xbfb5c4d3	-1.4200691
105	0xbf9e74d3	-1.2379402
106	0xbf05fc37	-0.52337974
107	0xbf0c9dcf	-0.54928297
108	0xbf7b4e5a	-0.9816643
109	0x3d93b9e5	0.07213191
110	0xbf368429	-0.7129541
111	0x3cfd2447	0.030901087
112	0x3f29918e	0.66237724
113	0xbe16b316	-0.14716753
114	0xbfb363b0	-1.4014797
115	0x3eccfad1	0.40035108
116	0x3f1ea72e	0.61973846
117	0xbe93cd8c	-0.28867757
118	0xbe9bf206	-0.30458087
119	0xbe9b01ff	-0.3027496
120	0xbfb776d3	-1.4333137
121	0x3ecfc2d3	0.40578327
122	0xba42edb9	-0.0007435936
123	0x3dfb96b3	0.12284603
124	0x3e06ea8e	0.13175413
125	0x3ef8e1ca	0.48609763
126	0xbf854eda	-1.0414689
127	0x3dab8094	0.08374134
128	0xbfd88dd9	-1.6918288
129	0xc0527663	-3.2884758
130	0xbfeb186b	-1.8366827
131	0xc01f0d9d	-2.485206
132	0xbcb252b4	-0.021767952
133	0x3ed22a9d	0.41048136
134	0x3f53351d	0.8250292
135	0x3f8d4f22	1.1039774
136	0xbfdc8a22	-1.7229655
137	0xc0003051	-2.002949
138	0xbea85fef	-0.32885692
139	0xbfdcebeb	-1.7259496
140	0xc00caae1	-2.1979296
141	0xbfaeabaf	-1.3646144
142	0xc077f229	-3.8741553
143	0x401ff6b4	2.4994326
144	0x3fbfeb81	1.4993745
145	0x3af1199b	0.0018394472
146	0x3e809d9f	0.25120255
147	0x3fe114fb	1.7584528
148	0xbf8b7767	-1.0895814
149	0xbf226447	-0.6343426
150	0x3ff626bf	1.9230574
151	0x3f784c8a	0.9699179
152	0x40469e35	3.1034062
153	0x3f84b63f	1.0368117
154	0xc000be63	-2.0116203
155	0x3f46b799	0.776239
156	0xbf656eab	-0.8962199
157	0x3d9dfeb6	0.07714598
158	0xbecaae1e	-0.39585966
159	0x3f831e09	1.0243541
160	0x402890a5	2.6338284
161	0x3e9aa54d	0.3020424
162	0xbd730643	-0.059332144
163	0xbf6321a4	-0.88723207
164	0x3e9ac9fb	0.30232224
165	0xbe28050f	-0.1640818
166	0xbf43e414	-0.76519895
167	0x3f7f8a65	0.9982055
168	0xbfcfdfe3	-1.62402
169	0xbfc929a3	-1.5715832
170	0x4001c74f	2.0277898
171	0x3f0b34f2	0.54377663
172	0x3f5831f3	0.84451216
173	0xbf93a665	-1.1535155
174	0x3f55a048	0.83447695
175	0xbf297ff2	-0.66210854
176	0xbf6fb07e	-0.9362868
177	0x3cfa89e6	0.030583333
178	0xc02c0de0	-2.6883469
179	0xc09fdaa7	-4.995441
180	0xbef259bf	-0.47334096
181	0xbe2ce1fa	-0.16883078
182	0x3e8fdfdc	0.2810048
183	0x3e821b74	0.2541157
184	0x408961d0	4.29319
185	0xbfbee98e	-1.4915025
186	0x3f60bbcd	0.8778656
187	0xbf11f0c9	-0.57008034
188	0x3fe2f620	1.7731361
189	0x3fb8a4da	1.4425309
190	0xbee4475c	-0.44585693
191	0x3f91d3a3	1.1392711
192	0x3f4f5a81	0.80997473
193	0xbf955b87	-1.1668557
194	0xbfc8338b	-1.564073
195	0xbf4b7598	-0.7947631
196	0xbf3b57e5	-0.7318099
197	0xbd89e337	-0.06732791
198	0x3fb437ea	1.4079564
199	0xc00b9a5f	-2.181297
200	0xbf56ed37	-0.8395571
201	0x3f4a6830	0.7906523
202	0xbe3119b0	-0.17294955
203	0x4040d19c	3.0127935
204	0xbf108c1f	-0.5646381
205	0x3f68d343	0.9094736
206	0xbed67090	-0.41882753
207	0x3e77660e	0.24160025
208	0xbe16e941	-0.14737417
209	0xbfa5fa44	-1.2967
210	0xbec113e3	-0.37710485
211	0x3fef4be1	1.8695031
212	0x3fb79b39	1.4344245
213	0xbefa4b38	-0.48885512
214	0xbdf0d5d0	-0.117595315
215	0x3e0295f0	0.12752509
216	0x3f789419	0.9710098
217	0x3f9c7547	1.222329
218	0xbf85dd58	-1.0458174
219	0xbf4c3f8b	-0.7978446
220	0xbe82aeb1	-0.25523904
221	0xbfab54dd	-1.3385273
222	0x3df220fc	0.118226975
223	0x3f06cc0b	0.52655095
224	0x3e9a4706	0.30132312
225	0xbfb1d2db	-1.3892473
226	0x3ec7370a	0.3890918
227	0xbf13094c	-0.5743606
228	0x3e04e4f9	0.12977971
229	0xbe94e9cc	-0.29084623
230	0x400a07b0	2.1567192
231	0x3f5975fe	0.84945667
232	0xbf833c34	-1.0252748
233	0xbd7d1280	-0.06178522
234	0xbf2f3c9f	-0.68451875
235	0xc00dc342	-2.2150426
236	0x3f8477b5	1.0349032
237	0xbdf77862	-0.12083508
238	0x3f2bbbda	0.67083514
239	0xbe86fd14	-0.26364958
240	0x3dd2a0e2	0.10284592
241	0x3f4baa22	0.7955648
242	0x3fa18b4b	1.2620634
243	0xbeb0f387	-0.34560797
244	0x3ee05965	0.43818203
245	0x3f04b3cd	0.51836854
246	0xbe9e8209	-0.30958584
247	0x3f786d98	0.97042227
248	0xbf982c40	-1.1888504
249	0x3f6cd467	0.925116
250	0x3fac2585	1.344895
251	0x3f76567b	0.9622571
252	0xc0043e1d	-2.066291
253	0xbf6a963e	-0.916355
254	0xbfbed5c8	-1.4908991
255	0xbd391b2e	-0.045191936

lstm.bias_ih_l1 f4 [256]
0	0xbd81b4e2	-0.06333329
1	0xbdfee38b	-0.12445744
2	0x3e8b633f	0.27224156
3	0x3e1f86d5	0.15578778
4	0x3f096026	0.53662336
5	0xbe4e73d4	-0.20161372
6	0xbd9172ab	-0.07101949
7	0xbea9609e	-0.33081526
8	0xbe39e279	-0.18152799
9	0x3dafbf4e	0.0858141
10	0xbec36938	-0.38166213
11	0xbec40d9b	-0.3829163
12	0xbc46d216	-0.012135049
13	0x3e6ecc93	0.23320226
14	0xbda2213a	-0.07916494
15	0x3e912a09	0.28352383
16	0xbec21fc8	-0.37914872
17	0x3e422324	0.18958718
18	0xbeec8163	-0.46192464
19	0x3e87a3a8	0.26492047
20	0xbe634fe5	-0.22198446
21	0x3e8bcefd	0.27306357
22	0xbdb8e7cb	-0.09028586
23	0x3ea974b5	0.33096853
24	0x3e896c53	0.26840457
25	0x3e1076c7	0.1410781
26	0x3ea85cf7	0.32883427
27	0x3ca3c160	0.01998967
28	0x3ef1055a	0.47074395
29	0x3dee4f76	0.1163625
30	0xbe44b446	-0.19209394
31	0x3ea4962c	0.32145822
32	0x3ed04d7f	0.40684125
33	0x3ef62662	0.4807616
34	0x3eca872a	0.39556247
35	0x3e97a3da	0.29617196
36	0x3f5f3763	0.8719389
37	0x3eda1b99	0.4259918
38	0x3e5749fc	0.21024317
39	0x3e6dab49	0.23209871
40	0x3e7cd690	0.24691224
41	0x3e624560	0.22096777
42	0x3e0b10f3	0.13580684
43	0x3e4abfeb	0.19799773
44	0x3d725ce6	0.059170626
45	0xbdd768c8	-0.10518032
46	0x3e9d5c0a	0.30734283
47	0xbeeec78c	-0.46636617
48	0x3e80da35	0.2516648
49	0x3deb7df2	0.114986315
50	0x3c3996e4	0.011327479
51	0xbef0647f	-0.46951672
52	0xbda57f00	-0.08080864
53	0xbe3eec21	-0.18644764
54	0x3ec126de	0.37724966
55	0x3debf58b	0.11521443
56	0x3e1f534f	0.15559123
57	0xbe76aee3	-0.24090151
58	0x3e0a8f88	0.13531315
59	0x3d0be0a6	0.03414979
60	0x3d16ab0d	0.03678422
61	0x3ec7bd4a	0.39011604
62	0x3ea42088	0.3205607
63	0x3f0cc56a	0.5498873
64	0x3ed160f2	0.40894276
65	0xbe704d86	-0.23467073
66	0x3e82bf9c	0.2553681
67	0x3ea20f79	0.3165243
68	0x3e999589	0.299969
69	0x3e998bc0	0.29989433
70	0xbd88d061	-0.0668037
71	0xbc393e55	-0.011306365
72	0x3d8d7479	0.06906981
73	0xbda25c15	-0.079277195
74	0x3d335eea	0.04379169
75	0xbeaca9ea	-0.33723384
76	0xbe424a3e	-0.18973634
77	0x3e329028	0.17437804
78	0xbe269125	-0.16266306
79	0x3ed2c2c9	0.41164234
80	0xbe455e6f	-0.19274305
81	0x3ebaa023	0.364503
82	0xbe8ca543	-0.27469835
83	0x3de9f6b3	0.11424007
84	0xbd8618f9	-0.06547732
85	0xbe6f01db	-0.23340552
86	0xbcf6dbf3	-0.030134177
87	0xbed3cac4	-0.41365635
88	0x3e4f1f6f	0.20226835
89	0xbec8d2c2	-0.39223295
90	0x3e6ed84f	0.23324703
91	0x3ed5b229	0.41737488
92	0x3dccd017	0.100006275
93	0x3c3b7051	0.011440353
94	0x3ea4343a	0.32071096
95	0xbc3d652f	-0.011559769
96	0x3eb13156	0.34607953
97	0xbd563be0	-0.052303195
98	0x3f13d6f3	0.5774986
99	0x3ec07b9d	0.3759431
100	0x3f1c4189	0.610375
101	0x3ea4e0c5	0.32202736
102	0xbdf7e3e1	-0.12104011
103	0xbe8bf209	-0.27333096
104	0x3f3b5e1b	0.7319047
105	0xbe5dfbab	-0.21678035
106	0x3dfd8b02	0.12380029
107	0x3ec08dab	0.37608084
108	0x3f0aa087	0.54151195
109	0x3e7c28e9	0.24624981
110	0x3ec4e48a	0.3845561
111	0x3f95fcff	1.1717833
112	0x3ed04d2c	0.40683877
113	0x3ee0950e	0.4386372
114	0x3f1cf0f3	0.6130516
115	0xbe58b008	-0.211609
116	0x3f16dd33	0.58931273
117	0x3e04f9a6	0.12985858
118	0x3f190f08	0.5978856
119	0x3da99ce0	0.08281875
120	0xbdf16db4	-0.11788502
121	0x3e982b59	0.29720572
122	0x3dd59837	0.10429423
123	0x3eb4eb50	0.3533578
124	0xbe185982	-0.14877895
125	0x3ea2e542	0.31815535
126	0x3e56de1e	0.20983168
127	0x3f0a2d1b	0.53975075
128	0x3e7c2df5	0.24626906
129	0x3d394f4e	0.045241646
130	0xbf2f3cec	-0.68452334
131	0xbdde0235	-0.10840265
132	0xbe429bef	-0.19004796
133	0xbdff669a	-0.124707416
134	0x3d2317b0	0.039817512
135	0xbcc35af1	-0.023847075
136	0x3e380b0a	0.17972961
137	0x3d680800	0.056648254
138	0xbe38a43e	-0.18031403
139	0x3bdb2187	0.0066873464
140	0xbddf2d91	-0.10897363
141	0xbe9689dd	-0.29402056
142	0xbf000fa7	-0.50023884
143	0xbdac531f	-0.084142916
144	0x3d550184	0.0520034
145	0x3ed1ac3b	0.40951714
146	0xbeb0c4b8	-0.34525084
147	0xbe665996	-0.22495112
148	0x3e857d55	0.26072183
149	0xbdcdd0bd	-0.10049579
150	0xbd80c12f	-0.06286847
151	0x3e359147	0.177312
152	0x3e8aec76	0.2713353
153	0x3e8a98fa	0.27069837
154	0xbdce481e	-0.10072349
155	0xbde45707	-0.11149412
156	0xbead88e4	-0.33893502
157	0xbdd373f1	-0.103248484
158	0x3e217f67	0.15771256
159	0x3e5079b2	0.20358923
160	0x3ec661b8	0.38746428
161	0xbe2cc228	-0.1687094
162	0xbd0c641c	-0.03427516
163	0x3e14e9ca	0.14542308
164	0xbda09e95	-0.07842747
165	0x3f3ae798	0.73009634
166	0x3da1fce3	0.079095624
167	0xbe435509	-0.19075407
168	0xbe854cf6	-0.2603528
169	0x3ea2bb53	0.31783542
170	0xbef03bf1	-0.46920732
171	0xbeca5a30	-0.39521933
172	0x3e535139	0.20636453
173	0xbcd71c4a	-0.026258606
174	0xbc7ffa45	-0.015623634
175	0xbe5e7e33	-0.21727829
176	0xbebc6a34	-0.36799777
177	0x3ecda255	0.40162912
178	0x3e29e159	0.1658987
179	0x3e9ce272	0.30641514
180	0x3e5d4863	0.21609645
181	0xbe08aa4c	-0.13346213
182	0x3e903f3f	0.28173253
183	0xbedb7e93	-0.42870006
184	0xbf082f05	-0.53196746
185	0x3ccb91ea	0.02484985
186	0x3e7078a3	0.2348352
187	0x3eed4381	0.46340564
188	0xbe59068e	-0.21193907
189	0x3db2d311	0.08731664
190	0x3e412cfe	0.1886482
191	0x3c03cfb8	0.0080451295
192	0x3e54af8d	0.20770092
193	0xbd76dd38	-0.060269564
194	0x3ea9869a	0.33110505
195	0x3ebf7ba9	0.37399033
196	0x3f241eec	0.64109683
197	0x3df33960	0.11876178
198	0x3eaaef12	0.3338552
199	0x3ef0aac6	0.4700529
200	0x3f083227	0.53201526
201	0x3ec10320	0.37697697
202	0x3eb28075	0.3486363
203	0x3f11611e	0.56788814
204	0x3edb81d9	0.42872503
205	0x3f06f546	0.5271801
206	0x3e9bcd53	0.30430087
207	0x3f095f01	0.5366059
208	0x3e612f31	0.21990658
209	0x3e226633	0.15859298
210	0xbe81620b	-0.25270113
211	0x3f38081e	0.71887386
212	0x3da37de2	0.079829946
213	0xbd381a40	-0.04494691
214	0x3e9c6878	0.30548453
215	0x3e6108ff	0.21976088
216	0x3e41b100	0.18915176
217	0x3e9fdac6	0.31221598
218	0x3e92a20b	0.28639254
219	0x3f12ee33	0.57394713
220	0x3e1aabf1	0.15104653
221	0x3ea07f03	0.31346902
222	0xbe2c8a98	-0.16849744
223	0x3ec708b3	0.38873824
224	0x3f2f5aec	0.6849811
225	0x3f919972	1.1374953
226	0x3f69ad34	0.9127991
227	0x3e93b9b0	0.28852606
228	0x3ed95fa8	0.42455792
229	0x3ec297b6	0.3800637
230	0xbdb13074	-0.0865182
231	0x3e5c8e53	0.21538667
232	0x3e97a7d7	0.2962024
233	0x3e25728a	0.16156974
234	0x3e8b115f	0.2716169
235	0x3ed0488d	0.40680352
236	0x3dd849aa	0.10560925
237	0x3f0671c0	0.5251732
238	0x3eae2e6d	0.34019795
239	0x3e1ac702	0.15114978
240	0x3ebf5b10	0.37374163
241	0x3e69e603	0.22841649
242	0x3efca304	0.4934312
243	0x3e0baee2	0.13640931
244	0x3f71f704	0.9451754
245	0x3db7b002	0.08969118
246	0x3ef5f598	0.48038936
247	0xbe47cbf1	-0.19511391
248	0x3eadd64c	0.33952558
249	0x3de052ac	0.109532684
250	0x3eec2476	0.46121567
251	0x3ed4a39e	0.4153108
252	0xbc24ffa1	-0.010070712
253	0x3e914ade	0.28377432
254	0x3e607bd3	0.21922235
255	0x3ef9591d	0.487008
