param1/lstm_model_91000.pth (torch, 204435 bytes, 9 tensors)

lstm.weight_ih_l0 f4 [256, 1]
0	0x3f3f0ef5	0.746322
1	0x3faff284	1.3745885
2	0x3f60f288	0.87870073
3	0x3f4b53fb	0.7942502
4	0x3f5cf9a8	0.86318445
5	0xbf33c0de	-0.70216167
6	0xbf1ed73a	-0.6204716
7	0x3f4e46fa	0.8057705
8	0xbf0b6e88	-0.5446553
9	0x3ec0500e	0.37561077
10	0xbf4099c3	-0.7523462
11	0x3fca06c0	1.578331
12	0x3cd21164	0.025643058
13	0xbf7447f2	-0.9542228
14	0x3fc40541	1.5314103
15	0x3f1d1f3d	0.6137579
16	0x3e9898b9	0.29804018
17	0x4013bfae	2.3085742
18	0x3f012f7a	0.5046307
19	0x3f225e42	0.63425076
20	0x3faf6f67	1.3705872
21	0xbf8ebfe7	-1.1152314
22	0x3e361861	0.17782737
23	0x3ecae035	0.3962418
24	0xbe73dd14	-0.23814803
25	0x3e8f8554	0.2803141
26	0x3f18c044	0.59668374
27	0x3f1e0212	0.6172191
28	0xbe82268f	-0.25420043
29	0xbf7372ad	-0.95096856
30	0xbeae1ea8	-0.34007764
31	0x3fbabf7a	1.4589684
32	0x3fb965bf	1.4484175
33	0x403d9fd7	2.9628808
34	0xbe836a5c	-0.25667083
35	0x3f040f09	0.5158544
36	0x3fda724a	1.7066128
37	0xbe6b2a0b	-0.22965257
38	0xbec48bcd	-0.3838791
39	0x3fa1d37d	1.2642666
40	0x403e10ec	2.9697828
41	0xbf7ab258	-0.9792838
42	0xbf6ad683	-0.9173357
43	0x3eadb599	0.3392761
44	0x3f35b93a	0.7098576
45	0x3d1e77aa	0.03868834
46	0x3e048952	0.12943009
47	0x3e4c840b	0.19972245
48	0x40148b50	2.321003
49	0xbf9f7ecd	-1.2460572
50	0x3fe1408a	1.7597821
51	0x3d1df993	0.03856809
52	0x3e8c914b	0.274546
53	0xbf00c4ee	-0.5030049
54	0xbe1529ed	-0.14566775
55	0x3f6b81bc	0.91994834
56	0x3ed08416	0.40725774
57	0x3f3cec23	0.73797816
58	0x3ee019b8	0.43769622
59	0xbf8644a3	-1.0489696
60	0x3e4e3825	0.20138605
61	0x3e6d73b3	0.23188667
62	0x3decf097	0.11569326
63	0x3f5f3872	0.87195504
64	0xbf8fe294	-1.1241021
65	0x3dc813d2	0.097694054
66	0x3f5edeb1	0.8705855
67	0x3fa3b18e	1.278856
68	0x3f81c9d6	1.013972
69	0x4016c110	2.3555336
70	0x3fbf917a	1.4966271
71	0x3eb5d585	0.35514465
72	0xbfd299d9	-1.64532
73	0x3e6fc945	0.23416622
74	0x3f21bdcc	0.6318023
75	0x3f942377	1.1573323
76	0x3f1c38a6	0.6102394
77	0x3e988bfb	0.29794297
78	0x3f88b62e	1.0680597
79	0x3f2b5465	0.6692565
80	0x3efd90a1	0.49524406
81	0x3fad599a	1.3542969
82	0x3f43e0e1	0.7651501
83	0x3df95760	0.121748686
84	0x3f22e9eb	0.6363818
85	0xbf17224b	-0.590367
86	0xbf3ae081	-0.72998816
87	0xbeff43ac	-0.49856317
88	0x3e83e01d	0.25756922
89	0x3f1cfb07	0.6132054
90	0x3dd8ca40	0.10585451
91	0xbdad1c17	-0.08452623
92	0xbfbf992e	-1.4968622
93	0x3d8b5642	0.06803562
94	0x3f474719	0.7784286
95	0xc007fc65	-2.12478
96	0x3f29654c	0.6617019
97	0x3e92bd7d	0.28660193
98	0x3f6adb56	0.9174093
99	0x3ff39ee3	1.9032863
100	0x3e517fa8	0.20458853
101	0x3f94568e	1.1588914
102	0x3e7b2426	0.24525508
103	0xbf0c92ec	-0.54911685
104	0x3cea0e18	0.028571174
105	0x3ed156a1	0.40886405
106	0xbf35784a	-0.7088667
107	0x3f52fb08	0.82414293
108	0xbe0fe36d	-0.140516
109	0x3f3e4fd3	0.7434055
110	0x3e81c3d8	0.2534473
111	0xbf01a2f7	-0.5063929
112	0x3f726702	0.9468843
113	0x3edfb3fa	0.43692
114	0xbe4d6e6f	-0.20061658
115	0xc03c4195	-2.9415028
116	0x3f0ce70b	0.55040044
117	0x3f4122e2	0.7544385
118	0x3f8c5c13	1.0965599
119	0x3f8979e6	1.0740325
120	0x3e5938c7	0.21213065
121	0x3f1cd18e	0.61257255
122	0x3f3db9b3	0.7411148
123	0xbf45ecb4	-0.77314305
124	0x3ed6bf03	0.41942605
125	0x3e1eb446	0.15498456
126	0xbe5d1cb9	-0.21592988
127	0x3c4009a1	0.011721046
128	0x3fc09021	1.5043985
129	0xbe32ce8d	-0.17461605
130	0x3ff7fb49	1.9373561
131	0xbf918088	-1.136735
132	0xbfcffd14	-1.6249108
133	0xbf0b9f8d	-0.5454033
134	0x3d017785	0.031608123
135	0x3f575af6	0.8412317
136	0x40fae197	7.840038
137	0xbf720c41	-0.9454995
138	0xc0020fb6	-2.032209
139	0xbfb8da3e	-1.4441602
140	0xbf952565	-1.1652037
141	0xbe684d2f	-0.22685693
142	0xbf922b01	-1.1419374
143	0xbf3c6c82	-0.7360307
144	0x3fbdfde0	1.4843102
145	0xc01e0c2b	-2.4694927
146	0xbf06fabf	-0.5272636
147	0x3f66e0f3	0.90186995
148	0x4000e8e1	2.0142138
149	0x3dfcac13	0.12337508
150	0xc0069a10	-2.1031532
151	0x3f8ba4f3	1.0909714
152	0x3fd82240	1.6885452
153	0xbfbe88eb	-1.4885534
154	0xbf0b00e4	-0.54298234
155	0xbedd6fce	-0.43249363
156	0x3fa09681	1.254593
157	0xbf9ff2e5	-1.2496
158	0xbc8542ad	-0.016267145
159	0x4060d474	3.512967
160	0x3ecc0f60	0.3985548
161	0xc0287b11	-2.6325114
162	0xc0808b6f	-4.0170207
163	0x3f14ed7c	0.5817487
164	0xc009da84	-2.1539621
165	0xbf629bbb	-0.88518876
166	0x3eee649e	0.4656114
167	0x3f18f384	0.59746575
168	0x4041c750	3.02779
169	0xbf028ddd	-0.50997716
170	0xbf967a10	-1.1756
171	0xbff3adef	-1.9037455
172	0x3fd3fb71	1.6561109
173	0xbf286e95	-0.65793735
174	0x3fab6d16	1.3392665
175	0xc0653514	-3.5813646
176	0xc02c3d8f	-2.6912572
177	0xbdaa1d61	-0.08306385
178	0x3f3c77d3	0.7362034
179	0xc07b9d26	-3.9314666
180	0x3faf63f5	1.370238
181	0x3f1bc264	0.6084349
182	0xbea850e8	-0.32874227
183	0xbf8b8b68	-1.0901918
184	0xbfb2c6cc	-1.3966918
185	0xbf96ccf8	-1.1781301
186	0xbf691320	-0.9104481
187	0xbf9f1203	-1.2427372
188	0xc0157844	-2.3354654
189	0xbef8ede9	-0.4861901
190	0x3fec477e	1.8459318
191	0xbf54fdb5	-0.83199626
192	0xbeec7b27	-0.46187708
193	0x3e6cd907	0.23129664
194	0x406773ac	3.616435
195	0x3f56d6eb	0.8392169
196	0x405af39f	3.4211195
197	0x3d29e94b	0.04148225
198	0xbef00a83	-0.4688302
199	0x3ec94b51	0.39315274
200	0xbdf73da3	-0.12072303
201	0x3db8ecda	0.09029551
202	0xbea6f329	-0.3260739
203	0x3f06b6bb	0.52622575
204	0x4071733a	3.7726579
205	0x3db6aa4f	0.089192025
206	0x400fcf6e	2.2470355
207	0x3ed2e088	0.4118693
208	0x3f86bbad	1.0526024
209	0x403f658b	2.9905727
210	0x3f2bf392	0.67168534
211	0x3cc64cf3	0.024206614
212	0x3f9235a2	1.1422617
213	0xbef55c23	-0.47921857
214	0xbf4cc20b	-0.79983586
215	0x3d980ab1	0.07423914
216	0x3fd9b1eb	1.7007421
217	0x401a771e	2.4135203
218	0xbe4d3f15	-0.20043595
219	0x3f7d0474	0.9883492
220	0xbf9d59b0	-1.2292995
221	0xbe54143d	-0.20710845
222	0xbe243da2	-0.16039136
223	0xbe5ea347	-0.21741973
224	0x3f9f92f2	1.2466719
225	0x4082268f	4.067207
226	0x3f6be01e	0.9213885
227	0xbf3d1089	-0.73853356
228	0x4015992f	2.3374746
229	0x3ee4bff2	0.44677693
230	0xbed9e75c	-0.42559326
231	0x3dfacc4c	0.12245998
232	0x404fee3b	3.2489154
233	0x3ece55db	0.40299878
234	0xbfbf4b0d	-1.4944779
235	0x3f86a249	1.0518275
236	0x3f4b980c	0.7952888
237	0x3fa4961d	1.2858311
238	0xbd9c862c	-0.07642779
239	0x3dfe42f6	0.124151155
240	0x407ae89a	3.9204469
241	0xbea4fd5d	-0.3222455
242	0xbe131f67	-0.14367448
243	0xbf75ce3f	-0.9601783
244	0xbe2aee6b	-0.16692512
245	0xbf8a0924	-1.078404
246	0xbe5a25d6	-0.21303496
247	0x3ffb8cbf	1.9652327
248	0x3fa14bf8	1.2601309
249	0x4015b11f	2.3389356
250	0x3e823b37	0.25435802
251	0xbf9ae3e4	-1.2100797
252	0x3edd882e	0.4326796
253	0x3eebbb9c	0.46041572
254	0x3f2affc6	0.6679653
255	0x3f3375c6	0.70101583

lstm.weight_hh_l0 f4 [256, 64]
0	0xbcf9fcd7	-0.030516071
1	0x3f77d40b	0.96807927
2	0xbe91ed6e	-0.28501457
3	0xbd369007	-0.04457095
4	0xbe84d0a0	-0.25940418
5	0xbda4e65f	-0.08051752
6	0x3dba786a	0.091049984
7	0x3db5a268	0.08868867
8	0x3f90ba80	1.1306915
9	0xbdc67dfc	-0.09691998
10	0xbef69cb5	-0.48166433
11	0x3eff7d2e	0.49900192
12	0x3e14ed38	0.14543617
13	0x3f7887cd	0.97082216
14	0xbf6179c2	-0.8807641
15	0xbd9eeddd	-0.077602126
16	0x3e270ed0	0.16314244
17	0xbdc66c81	-0.09688664
18	0xbe0360fa	-0.12829962
19	0x3f1b7df9	0.60739094
20	0x3f249881	0.642952
21	0x3ebf7dee	0.37400764
22	0xbd96d66d	-0.07365117
23	0xbe005dde	-0.12535807
24	0xbde8f35d	-0.11374543
25	0x3f11c1a1	0.5693608
26	0xbd855824	-0.06510952
27	0xbf8669a0	-1.0500984
28	0xbc10341a	-0.0088014845
29	0xbec7a69b	-0.38994297
30	0x3dc26f00	0.09493828
31	0x3f00928a	0.502236
32	0x3e09e1af	0.13464998
33	0xbf1565d2	-0.5835849
34	0xbd309f26	-0.043120526
35	0x3ed8a73f	0.423151
36	0xbe25bb2c	-0.16184682
37	0xbf6fb35a	-0.93633044
38	0x3e3046df	0.17214535
39	0xbf1ab899	-0.60437924
40	0xb9080d68	-0.00012974965
41	0xbe2e96dc	-0.17049736
42	0x3d5e7518	0.054310888
43	0xbead20f9	-0.3381422
44	0x3eb72cbe	0.35776323
45	0x3e85f00b	0.261597
46	0x3e9b33ed	0.30313054
47	0xbf0fe28a	-0.56205046
48	0xbef04e67	-0.46934816
49	0x3cb34267	0.021882249
50	0x3e66d08b	0.2254049
51	0xbe0bb1d3	-0.13642053
52	0x3f2937c1	0.661007
53	0x3f63d9a5	0.89003974
54	0x3d234da7	0.039868977
55	0xbc169a87	-0.009192116
56	0xbf9f1b29	-1.2430164
57	0xbee11188	-0.43958688
58	0x3e565e9f	0.20934533
59	0x3ea1851b	0.31546864
60	0xbe9dec0b	-0.3084415
61	0xbc28bc31	-0.010298775
62	0x3c9f4a57	0.019444628
63	0xbe97e4c2	-0.29666716
64	0x3f54c292	0.8310939
65	0xbfcb07a2	-1.5861704
66	0x3efbd6ed	0.49187413
67	0x3f15a896	0.58460367
68	0xbdaff0b4	-0.08590832
69	0xbe3b399b	-0.18283693
70	0xbed12fa7	-0.40856668
71	0x3c9984d1	0.01874009
72	0x3f00a2b4	0.50248265
73	0x3dc8734c	0.09787616
74	0xbebee0b4	-0.3728081
75	0x3d48150e	0.048848204
76	0x3e9ff6bb	0.31242928
77	0xbfcc9122	-1.5981791
78	0x3f0c0a6f	0.5470342
79	0xbf186aa2	-0.5953771
80	0x3f4e4bcf	0.80584425
81	0xbfb2adfe	-1.3959348
82	0xbd5c4ebe	-0.053786032
83	0x3f56365c	0.83676696
84	0xbe5a974c	-0.21346778
85	0xbe7d10ec	-0.24713486
86	0x3fd2e667	1.6476563
87	0x3f5a017c	0.85158515
88	0x3e77cfa4	0.24200302
89	0xbeb86c30	-0.3602004
90	0x3eb1ae88	0.3470347
91	0x3f8fea4c	1.1243377
92	0xbee80455	-0.45315805
93	0xbf06426e	-0.52445114
94	0x3ed8e64e	0.4236321
95	0x3f95c1fb	1.1699823
96	0xbe2d8ad2	-0.16947487
97	0xbf9bfae4	-1.2185941
98	0x3e4cfc57	0.20018135
99	0x3e81ded1	0.25365308
100	0xbfb222da	-1.3916886
101	0xbd1e7e59	-0.038694713
102	0x3f849257	1.0357159
103	0xbf4430a6	-0.7663673
104	0x3f8c8dff	1.0980834
105	0x3ed183d0	0.40920877
106	0xbee27354	-0.44228613
107	0xbf97310e	-1.1811845
108	0x3ba0bfa5	0.0049056583
109	0xbf2add89	-0.66744286
110	0x3ef255aa	0.47330981
111	0x3d5a550c	0.053303763
112	0xbff5236e	-1.9151437
113	0xbf45d0c0	-0.7727165
114	0x3e1d0a87	0.15336047
115	0xbe8fc3a3	-0.28078946
116	0x3d6a0865	0.057136912
117	0xbf6136aa	-0.87974036
118	0xbeb3abdd	-0.3509206
119	0xbf043aff	-0.5165252
120	0x3f02d9d8	0.51113653
121	0x3dbde663	0.092724584
122	0xbebd840a	-0.370148
123	0xbf32efd6	-0.6989721
124	0xbf1e429e	-0.618204
125	0xbe18afb3	-0.14910774
126	0xbd0b4844	-0.034004465
127	0xbfa3344b	-1.2750334
128	0xbfa4b7a3	-1.2868541
129	0x3f960f1b	1.172336
130	0x3eafa839	0.3430803
131	0x3e9698a0	0.2941332
132	0xbfa7edda	-1.3119462
133	0x3e62a25f	0.22132252
134	0xbea7fcfb	-0.32810196
135	0xbe676b0d	-0.2259943
136	0x3f8e3286	1.1109169
137	0xbe9aa690	-0.30205202
138	0xbc33f03f	-0.010982572
139	0xbdedf643	-0.11619236
140	0xbf595318	-0.84892416
141	0xbf883f72	-1.0644362
142	0xbeb372b8	-0.3504846
143	0xbe9a6a5a	-0.30159265
144	0x3fd3d043	1.6547931
145	0xbfafb178	-1.3726034
146	0xbf192dae	-0.59835327
147	0x3e49b25b	0.19696943
148	0x3db9b8e8	0.09068471
149	0xbe047944	-0.12936884
150	0xbed41865	-0.41424862
151	0xbf3d6149	-0.7397657
152	0xbf1fd640	-0.62436295
153	0xbfba3908	-1.4548655
154	0x3e0de429	0.13856567
155	0x3d183051	0.037155453
156	0xbf2d65d0	-0.6773348
157	0xbf34d58c	-0.70638347
158	0x3f1bee0c	0.60910106
159	0x3f0f7e83	0.56052417
160	0xbeb6b3d9	-0.35684088
161	0xbd88013c	-0.066408604
162	0x3f2ac8d6	0.667127
163	0x3e293e47	0.16527663
164	0x3f731db8	0.9496722
165	0x3f3a577d	0.72789747
166	0x3ef4bd05	0.4780046
167	0x3f5a29c6	0.8521999
168	0x3f13f3dd	0.5779398
169	0x3f620775	0.8829263
170	0x3e9796f9	0.2960737
171	0xbef82031	-0.4846206
172	0x3d9d8da2	0.0769303
173	0x3ed7de35	0.42161718
174	0x3f3ae208	0.73001146
175	0x3eeca339	0.4621828
176	0x3dd9e32c	0.10639033
177	0xbf6e1bd1	-0.93011194
178	0x3f3e9d97	0.74459213
179	0x3f45c89c	0.7725923
180	0x3ef56f35	0.47936407
181	0x3e98e6fe	0.29863733
182	0xbfeb7038	-1.8393621
183	0x3f38e4e8	0.72224283
184	0xbf7491af	-0.95534796
185	0xbf4414eb	-0.7659442
186	0x3eb44e81	0.35216144
187	0x3e983266	0.2972595
188	0xbfa570a9	-1.2925006
189	0xbea947dc	-0.33062637
190	0x3ef99044	0.48742878
191	0xbf5b8125	-0.85743934
192	0xbe8becdf	-0.27329156
193	0x3f518de5	0.8185714
194	0xbf145c98	-0.57953787
195	0xbf16986e	-0.5882634
196	0xbf8129b9	-1.0090858
197	0x3e82c543	0.25541124
198	0xbce5abdc	-0.02803605
199	0x3edebd3f	0.43503758
200	0x3ea10d3f	0.31455418
201	0xbea0c844	-0.3140279
202	0x3d37d370	0.044879377
203	0xbf6262d5	-0.88432056
204	0x3e9ad025	0.30236927
205	0xbe82335c	-0.2542981
206	0x3e24d889	0.16098227
207	0xbeeeb5e7	-0.46623155
208	0x3e92d0c8	0.28674912
209	0xbe24984c	-0.16073722
210	0x3d72614b	0.059174817
211	0x3e865997	0.26240227
212	0x3f802a7c	1.0012965
213	0xbd1e968b	-0.038717788
214	0x3ea8c22c	0.3296064
215	0x3e09c79b	0.1345505
216	0x3eb5f58c	0.355389
217	0x3d135381	0.035968307
218	0xbf3201b8	-0.6953387
219	0x3ef2d4e5	0.4742805
220	0x3e87cc28	0.26522946
221	0xbf089266	-0.53348386
222	0x3cc03e85	0.023467312
223	0x3f23fb2c	0.6405513
224	0x3b1f478e	0.0024304125
225	0xbf4faaad	-0.81119806
226	0xbe1afe26	-0.15136012
227	0xbe6eae3d	-0.23308654
228	0xbecb3715	-0.39690462
229	0x3e6f579b	0.23373263
230	0xbf01d680	-0.50717926
231	0x3edd902f	0.43274066
232	0x3f262eb1	0.64914995
233	0x3f6d3e4d	0.9267319
234	0x3e8c4cda	0.27402383
235	0x3f491737	0.7855105
236	0x3f25bb6f	0.64739126
237	0xbe6635c6	-0.2248145
238	0xbed16749	-0.40899113
239	0x3e282d46	0.1642352
240	0xbe95e10a	-0.29273254
241	0xbe366555	-0.17812093
242	0x3f82171f	1.0163306
243	0xbe796026	-0.24353084
244	0x3e24d869	0.16098179
245	0xbec3f381	-0.38271716
246	0xbfbafce2	-1.4608424
247	0x3fd13f6f	1.6347483
248	0x3c62bccd	0.013838959
249	0x3de62162	0.11236836
250	0xbd9d5207	-0.07681661
251	0xbefee087	-0.49780676
252	0xbeabfde7	-0.3359215
253	0x3d0fa416	0.035068594
254	0xbde5fdfb	-0.112300836
255	0xbf91a55e	-1.1378591

lstm.bias_ih_l0 f4 [256]
0	0x3ded5252	0.11587967
1	0xbf1f3d29	-0.622027
2	0x3dbe06f1	0.09278668
3	0xbe1eeeb2	-0.15520743
4	0x3e5c76fc	0.21529764
5	0xbeaadac4	-0.3337003
6	0xbda26351	-0.07929099
7	0xbe05ad12	-0.13054302
8	0x3fb901dd	1.4453694
9	0x3e242bae	0.16032287
10	0x3da09d9d	0.07842562
11	0x3e7ef4d6	0.24898085
12	0xbe6c03c3	-0.2304831
13	0xbf1c2c32	-0.61004937
14	0xbe1da5b0	-0.15395236
15	0xbef49b0c	-0.4777454
16	0xbabe546c	-0.0014521009
17	0x3de5fe46	0.112301394
18	0xbe9f950d	-0.31168404
19	0xbe613664	-0.21993405
20	0x3edef093	0.4354292
21	0xbe94dcae	-0.29074615
22	0xbeb7079e	-0.35748
23	0xbe2ea619	-0.17055549
24	0x3eef17af	0.46697757
25	0x3e5248ea	0.20535627
26	0xbdbf8ce1	-0.093530424
27	0xbd28bf07	-0.041197803
28	0x3f124e43	0.5715067
29	0xbdc601ef	-0.096683376
30	0xbd0d53db	-0.0345038
31	0x3f5935b8	0.84847593
32	0xbeadddce	-0.33958286
33	0x3f0a8ee0	0.5412426
34	0xbeca1601	-0.39469913
35	0xbec5077d	-0.38482276
36	0x3eca9785	0.39568725
37	0xbe9c5948	-0.30536866
38	0x3e06de40	0.13170719
39	0xbc524a06	-0.012835031
40	0x3f99a5af	1.2003688
41	0x3d76d523	0.060261857
42	0xbe2eeb54	-0.17081958
43	0x3e0dec70	0.13859725
44	0x3e50c9af	0.20389436
45	0x3e91030e	0.28322643
46	0xbd7160e9	-0.05893031
47	0x3edfd36d	0.43715993
48	0x3f8055a2	1.0026133
49	0xbe862144	-0.26197255
50	0x3e374ff0	0.17901587
51	0x3f055628	0.5208459
52	0xbcc90417	-0.024538083
53	0xbe8a6cdb	-0.27036175
54	0xbeb7475c	-0.3579663
55	0xbe4e3314	-0.20136672
56	0x3ce6a80c	0.028156303
57	0xbe2a7e8a	-0.16649833
58	0xbe54e1f4	-0.2078932
59	0xbeb239f0	-0.34809828
60	0x3caecc15	0.021337548
61	0xbeaa818a	-0.33301955
62	0xbe9ae95a	-0.30256158
63	0xbea16e5e	-0.31529516
64	0xbd7ff554	-0.062489823
65	0xbec2135c	-0.37905395
66	0xbe77c6ff	-0.24197005
67	0x3e99aec8	0.3001616
68	0xbe6b6a76	-0.2298983
69	0x3f2f1916	0.68397653
70	0x3f18583a	0.59509623
71	0xbe1c9a3a	-0.15293208
72	0x3ceafa03	0.028683668
73	0x3d1e42d4	0.03863795
74	0x3e231aa7	0.15928136
75	0xbda4c8ba	-0.08046098
76	0x3e99a5e9	0.30009392
77	0xbea1ede2	-0.31626803
78	0x3e2b1448	0.16706955
79	0xbea13bf4	-0.31491053
80	0x3dc6e692	0.097119465
81	0xbd3854d3	-0.04500277
82	0x3e7207a3	0.23635726
83	0x3e655f3a	0.22399607
84	0xbd9b140a	-0.075721815
85	0x3e95a5cc	0.29228055
86	0xbea957ed	-0.33074895
87	0xbe86e0dc	-0.2634343
88	0xbf04087c	-0.51575446
89	0x3de45f81	0.111510284
90	0x3e8062c7	0.2507536
91	0xbe5f5422	-0.21809438
92	0x3e802b17	0.25032875
93	0xbdc11ade	-0.09428953
94	0x3ea32dd9	0.31870916
95	0xbf1095e9	-0.56478745
96	0xbe11bc6a	-0.1423203
97	0xbe43aec3	-0.19109635
98	0xbdad9409	-0.08475501
99	0xbe78ec2d	-0.24308844
100	0x3df701a0	0.12060857
101	0xbd0b663b	-0.03403304
102	0xbe4d0218	-0.2002033
103	0xbaac744f	-0.0013157221
104	0xbe0f614c	-0.1400196
105	0xbec0e3be	-0.37673753
106	0xbeca5b92	-0.39522988
107	0x3da0cd24	0.078516275
108	0x3e95fe1a	0.29295427
109	0x3ecbbd0d	0.39792672
110	0xbe8781c8	-0.26466203
111	0xbe496c79	-0.19670285
112	0xbe27819e	-0.16358039
113	0x3ef4e2f3	0.478294
114	0xbdc3e912	-0.09565939
115	0xbde7a78c	-0.11311254
116	0x3c38dabf	0.011282622
117	0x3dced116	0.10098474
118	0xbd71e1ee	-0.059053354
119	0xbe3f9d95	-0.18712457
120	0x3ec1447e	0.37747568
121	0xbc22ba54	-0.009932119
122	0x3e28d31e	0.16486785
123	0xbdd7cb48	-0.1053682
124	0xbe9a1d5e	-0.3010053
125	0x3e9b9244	0.3038503
126	0xbed93c25	-0.424287
127	0xbdd7960d	-0.10526667
128	0xbd9853d1	-0.07437862
129	0xbe07a7d0	-0.13247609
130	0x3d840e38	0.064480245
131	0xbc80d8be	-0.01572835
132	0xbbdb439f	-0.0066914107
133	0x3dc6c20a	0.09704979
134	0xbdb0602d	-0.08612094
135	0x3d8396c1	0.064252384
136	0xbe5f0b56	-0.21781668
137	0xbecb7091	-0.3973432
138	0xbe0b2c00	-0.13591003
139	0x3e65a04c	0.2242443
140	0xbd5c0529	-0.05371586
141	0x3e92f467	0.2870209
142	0x3e1cdc6c	0.1531846
143	0x3e1a0c50	0.1504376
144	0xbeb67c4c	-0.35641706
145	0x3d75338f	0.059863623
146	0xbe4c6304	-0.19959646
147	0xbe275839	-0.16342248
148	0x3dc8682f	0.097854964
149	0xbe32cca1	-0.17460872
150	0xbddbb239	-0.10727353
151	0x3d55d23f	0.05220246
152	0x3e3f28eb	0.18667953
153	0xbd0a119a	-0.033708192
154	0xbdd07d3e	-0.10180138
155	0xbd2d032c	-0.042239353
156	0xbd682932	-0.056679912
157	0xbd181a5a	-0.037134506
158	0xbc3fb293	-0.01170029
159	0xbe7087fc	-0.23489374
160	0xbdc42ba4	-0.09578636
161	0x3e5b3a3e	0.21408936
162	0x3d2899eb	0.041162413
163	0x3e9e116b	0.30872664
164	0x3e18e438	0.14930809
165	0x3e6e4edc	0.2327227
166	0x3e5cc934	0.21561128
167	0x3e20708f	0.15667938
168	0xbe6f5021	-0.2337041
169	0x3db38dde	0.087672934
170	0xbd7bc04f	-0.061462697
171	0x3dd0253e	0.101633534
172	0xbe0ec2af	-0.13941453
173	0x3e95de2c	0.29271066
174	0xbe8d4dd8	-0.27598453
175	0x3dceeb49	0.10103471
176	0x3e5a4fa5	0.21319444
177	0x3e2389d3	0.15970545
178	0xbde3249e	-0.110909685
179	0x3d6420ec	0.05569546
180	0xbe0cebb2	-0.13761786
181	0x3c837542	0.016047124
182	0x3e2e4dc4	0.17021853
183	0x3d2e77a5	0.04259457
184	0xbd0f6dd3	-0.035016846
185	0x3e2a2358	0.16615045
186	0xbe9aad92	-0.3021055
187	0x3b8dccb4	0.004327381
188	0x3e792982	0.2433224
189	0x3d6758e8	0.056481272
190	0xbd39ca29	-0.04535881
191	0x3c8911a4	0.016732045
192	0x3e2eaf7b	0.17059128
193	0x3dc1fcb0	0.094720244
194	0xbb0e664f	-0.002172846
195	0xbe4d28b5	-0.2003506
196	0x3e2159c3	0.15756898
197	0xbdff4397	-0.124640636
198	0xbd065221	-0.032793168
199	0xbe456819	-0.19277991
200	0x3fbb50ad	1.4633995
201	0xbf33cb89	-0.70232445
202	0x3e616d65	0.22014387
203	0x3e23b2bc	0.1598615
204	0xbe209c7a	-0.15684691
205	0xbec50c1d	-0.38485804
206	0xbea3de59	-0.32005575
207	0xbc60e28b	-0.013725887
208	0xbb521054	-0.003205319
209	0xbd704ecf	-0.058668908
210	0xbefefdad	-0.49802914
211	0xbe53d899	-0.20688094
212	0x3ea48e40	0.32139778
213	0xbd922a65	-0.07136992
214	0xbe025017	-0.12725864
215	0xbdb1dc21	-0.086845644
216	0x3f3fc613	0.7491161
217	0xbd47674e	-0.048682503
218	0xbef1763f	-0.47160527
219	0x3e02f4a9	0.12788643
220	0xbe420581	-0.18947412
221	0x3e93347d	0.28750983
222	0x3ecc5c7b	0.39914307
223	0x3f9da50a	1.2315991
224	0xbe9957e1	-0.2994986
225	0x3f299c5d	0.66254216
226	0x3c99e2df	0.018784938
227	0x3dc9ee33	0.09859886
228	0x3ed04b38	0.40682387
229	0x3d30df1d	0.043181527
230	0xbe489577	-0.19588266
231	0x3c6043d4	0.0136880465
232	0x3f862613	1.0480369
233	0xbf0194b5	-0.50617534
234	0xbed15536	-0.40885323
235	0xbe11ac4f	-0.14225887
236	0x3ea1c701	0.3159714
237	0x3de55aca	0.11198957
238	0x3d285803	0.04109956
239	0x3efaf50c	0.4901508
240	0x3f932f54	1.1498818
241	0xbedf2bd5	-0.4358813
242	0x3e3cedf4	0.18450147
243	0x3f41e2c2	0.7573663
244	0x3ebfe4c9	0.37479237
245	0xbe431182	-0.19049647
246	0xbf0add6d	-0.5424412
247	0xbea9d8e2	-0.3317328
248	0x3d4165b8	0.047216147
249	0xbe5dd97f	-0.21665
250	0xbda9b177	-0.08285802
251	0xbecda961	-0.40168288
252	0x3e7b6af5	0.2455252
253	0xbda97bd5	-0.08275572
254	0x3e426a6a	0.18985906
255	0x3e328f6d	0.17437525

lstm.bias_hh_l0 f4 [256]
0	0xbb9617af	-0.00458046
1	0xbf0373de	-0.51348674
2	0x3d80c848	0.062882006
3	0xbe15d8a4	-0.14633423
4	0x3e9f90b2	0.3116508
5	0xbe93bc8e	-0.28854793
6	0xbe05585d	-0.13021989
7	0xbdf504d8	-0.119638145
8	0x3fa92ab5	1.3216158
9	0x3e36be7c	0.17846102
10	0x3e560312	0.20899609
11	0x3cbea5e0	0.023272455
12	0xbc59b2ea	-0.013287285
13	0xbf048725	-0.51768714
14	0xbe961c05	-0.29318252
15	0xbf03956b	-0.5139987
16	0xbe340d43	-0.17583184
17	0x3d74f77e	0.05980634
18	0xbe467461	-0.19380333
19	0xbeb8de22	-0.36106974
20	0x3efc7860	0.4931059
21	0xbe21f898	-0.15817487
22	0xbecd7b5b	-0.40133175
23	0xbddbbfce	-0.10729943
24	0x3efa8dcf	0.48936316
25	0x3c820fc6	0.015876662
26	0xbc1cdf83	-0.009574774
27	0x3da23381	0.0791998
28	0x3ed45f9f	0.41479203
29	0xbe1e5f82	-0.15466121
30	0x3d47e2e6	0.04880037
31	0x3f36bc8a	0.7138144
32	0xbe6d0a31	-0.23148419
33	0x3ef8c960	0.48591137
34	0xbec2a57e	-0.38016886
35	0xbea37c32	-0.3193069
36	0x3e9012cd	0.28139344
37	0xbebcd396	-0.36880177
38	0x3e4e31c7	0.20136176
39	0x3da7c5d2	0.08192028
40	0x3f9e7fc2	1.2382739
41	0x3e12b847	0.14328109
42	0xbe205468	-0.15657198
43	0x3c503baa	0.0127095375
44	0x3db3d7c4	0.087813884
45	0x3e70e002	0.23522952
46	0xbd88780e	-0.066635236
47	0x3ed48fc1	0.41515926
48	0x3f6bfdb9	0.92184025
49	0xbe5c41f3	-0.21509533
50	0x3e51e29c	0.20496601
51	0x3f0caa40	0.5494728
52	0xbe864c46	-0.26230067
53	0xbed2183d	-0.41034117
54	0xbef8a9c5	-0.48567024
55	0xbe9a40d0	-0.30127573
56	0xbe03d2eb	-0.12873428
57	0xbeb403d7	-0.3515918
58	0xbdd03742	-0.101667896
59	0xbee235c6	-0.4418165
60	0x3c708846	0.014680928
61	0xbea65043	-0.3248311
62	0xbdf0de5e	-0.11761163
63	0xbeb86337	-0.36013195
64	0x3dc9a0cb	0.09845122
65	0xbea5a71b	-0.32354054
66	0xbe95d7d1	-0.29266217
67	0x3dfc3817	0.12315386
68	0xbda36712	-0.079786435
69	0x3f2b32e2	0.66874516
70	0x3ed16e85	0.40904632
71	0x3cc26f5a	0.023734737
72	0xbd77d814	-0.060508803
73	0x3d982393	0.0742866
74	0x3d69f650	0.057119668
75	0x3ce16f4e	0.027518895
76	0x3ef8ea60	0.48616314
77	0xbe639d76	-0.22228035
78	0x3e8db8ed	0.2768015
79	0xbe802bcb	-0.2503341
80	0xbc9e3eda	-0.01931708
81	0xbda1e3e9	-0.079047985
82	0x3e83fab5	0.25777212
83	0x3d218530	0.039433658
84	0xbc2da5c9	-0.010598608
85	0x3e32830d	0.17432804
86	0xbe3efa33	-0.18650131
87	0xbe8f9cf0	-0.2804942
88	0xbf0bce98	-0.5461211
89	0x3db3c4dd	0.08777783
90	0x3e046188	0.1292783
91	0xbe8ee863	-0.27911672
92	0x3eac42fd	0.33644858
93	0xbe581ea4	-0.21105438
94	0x3dca882d	0.09889255
95	0xbee35f78	-0.44408774
96	0xbddef7d1	-0.10887111
97	0x3cc8ccc3	0.0245117
98	0xbd04ebf0	-0.03245157
99	0xbcc63dc8	-0.024199381
100	0x3d37b74d	0.044852544
101	0xbd958036	-0.07299845
102	0xbe4b92bc	-0.19880193
103	0xbcd5fa0b	-0.026120206
104	0xbdd2c313	-0.10291114
105	0xbef20c00	-0.4727478
106	0xbe6d89be	-0.23197076
107	0x3e5c387e	0.21505925
108	0x3e979a89	0.29610088
109	0x3e9c007e	0.30469126
110	0xbe5b45a4	-0.21413285
111	0xbe308394	-0.17237693
112	0xbc92652a	-0.017870504
113	0x3ed8bef1	0.42333177
114	0xbdbe923f	-0.09305238
115	0xbdc14113	-0.0943624
116	0xbc84f945	-0.016232142
117	0x3d8d4924	0.06898716
118	0xbe6278e7	-0.22116433
119	0xbe2a9436	-0.166581
120	0x3ec57305	0.38564315
121	0xbdb34cc3	-0.087548755
122	0x3e221d47	0.15831481
123	0xbd319c1f	-0.04336178
124	0xbe8005d5	-0.2500445
125	0x3e8a8318	0.27053142
126	0xbea37c50	-0.3193078
127	0x3bfa7129	0.0076428843
128	0xbc8d3765	-0.017238328
129	0x3c950911	0.0181928
130	0xbdc63c5c	-0.096794814
131	0x3d86b6a5	0.065778054
132	0x3ddd723a	0.108128026
133	0x3e923daa	0.2856267
134	0xbdd082d2	-0.10181202
135	0x3e376970	0.17911315
136	0xbe60673a	-0.21914378
137	0xbeeb3fc5	-0.4594709
138	0x3d505aa1	0.05086768
139	0x3e827b3c	0.25484645
140	0x3c18c56b	0.009324412
141	0x3e96a506	0.29422778
142	0x3e22657f	0.1585903
143	0x3e78a245	0.24280651
144	0xbe0bbe06	-0.13646707
145	0x3e02e0a9	0.12781014
146	0xbe43b50c	-0.19112033
147	0xbdefe4aa	-0.11713536
148	0x3e7f9232	0.24958113
149	0xbdccb6d1	-0.09995807
150	0xbe2b1dcf	-0.1671059
151	0x3e22ac8c	0.15886134
152	0x3e47d553	0.1951497
153	0x3d89c9d7	0.06727951
154	0xbc8f4ad0	-0.017491728
155	0x3ba04fd7	0.00489233
156	0xbd250c93	-0.040295195
157	0xbe6e0f51	-0.2324803
158	0x3ca09464	0.019602008
159	0xbec187b9	-0.3779886
160	0xbe1f124e	-0.15534326
161	0x3d78efc2	0.060775526
162	0x3d958262	0.07300259
163	0x3e18c221	0.14917804
164	0x3de151dc	0.110019416
165	0x3e4d26de	0.20034358
166	0x3e7960ec	0.24353379
167	0x3e45aeb5	0.19304927
168	0xbd8d21c9	-0.0689121
169	0x3e0d235f	0.13783024
170	0xbdc8f531	-0.098123915
171	0x3d5f79e7	0.054559615
172	0xbe1b7ccd	-0.15184326
173	0x3e24ca50	0.16092801
174	0xbe997cba	-0.2997797
175	0x3db4e345	0.08832411
176	0x3d8b9196	0.06814878
177	0x3e2532b8	0.16132629
178	0xbdcfe63d	-0.10151336
179	0x3e5315ff	0.2061386
180	0xbdf8b071	-0.121430285
181	0xbde2ae40	-0.11068392
182	0x3db05e64	0.086117536
183	0x3d8b9cc9	0.06817014
184	0x3df93650	0.121685624
185	0x3d56939c	0.052386865
186	0xbeaa8776	-0.33306473
187	0xbdcfd00d	-0.101471044
188	0x3d2269fa	0.03965185
189	0xbc73cd31	-0.014880464
190	0xbe09006c	-0.13379067
191	0xbd3ea9a5	-0.046548504
192	0x3e72fe93	0.23729925
193	0xbab47bf7	-0.0013769855
194	0x3dac7481	0.08420659
195	0xbe9ea8b3	-0.30988082
196	0x3d83e68a	0.06440456
197	0xbe05ea44	-0.13077646
198	0xbe6ebace	-0.23313448
199	0xbe738252	-0.23780182
200	0x3fb6fced	1.4295937
201	0xbf1b5b4f	-0.606862
202	0x3e382dad	0.17986174
203	0x3e96a9cb	0.29426417
204	0xbe4c1d1f	-0.19932984
205	0xbecddb50	-0.40206385
206	0xbe5fa746	-0.21841154
207	0xbc26e4d9	-0.0101863975
208	0x3a42fd6b	0.0007438275
209	0xbc14d46b	-0.0090838475
210	0xbecf6731	-0.40508416
211	0xbe483605	-0.19551857
212	0x3ee800ea	0.45313197
213	0xbe64a56e	-0.22328731
214	0xbe3dd1a6	-0.18537006
215	0xbdbaec12	-0.09127058
216	0x3f2d0575	0.6758645
217	0xbbd39841	-0.006457359
218	0xbea0672e	-0.3132872
219	0x3e61f987	0.22067843
220	0xbdfc094d	-0.123064615
221	0x3e875ebd	0.26439467
222	0x3ecba7c0	0.3977642
223	0x3f9e48a3	1.2365917
224	0xbec8d110	-0.39222002
225	0x3f00aa88	0.5026021
226	0x3e25cbe4	0.1619106
227	0x3c2395ab	0.009984414
228	0x3ed8b914	0.42328703
229	0xbd7bc652	-0.06146843
230	0xbe9bbef3	-0.3041912
231	0xbd42617c	-0.04745625
232	0x3f860f1c	1.0473361
233	0xbeaff6c3	-0.34367952
234	0xbe957205	-0.29188552
235	0xbdeaf13d	-0.11471794
236	0x3eb65dbe	0.35618395
237	0x3dfcb31a	0.123388484
238	0xba9f3cbe	-0.001214884
239	0x3f1ee2c7	0.62064785
240	0x3f891ef6	1.0712574
241	0xbebb5b50	-0.36593103
242	0x3e52bfcd	0.20580979
243	0x3f3599a5	0.7093757
244	0x3e338910	0.17532754
245	0xbdf25bc2	-0.11833908
246	0xbeb90874	-0.36139262
247	0xbe801606	-0.25016803
248	0x3e1d626b	0.15369575
249	0xbe993975	-0.2992665
250	0xbe1a4e6c	-0.15068978
251	0xbe54b7a9	-0.20773186
252	0x3e8150f8	0.25257087
253	0xbd084d1c	-0.033276662
254	0xbc953936	-0.018215757
255	0x3e10db9d	0.14146276

lstm.weight_ih_l1 f4 [256, 64]
0	0x3f664d7b	0.89961976
1	0xbfa64dee	-1.2992532
2	0x3eaa2b6b	0.3323625
3	0xbf016646	-0.5054668
4	0x3f8d0e22	1.1019938
5	0x3f1f1d32	0.62153924
6	0xbf4db759	-0.8035789
7	0x3e3a5b7d	0.18198963
8	0xbf31d5af	-0.6946668
9	0xbfd32bdb	-1.6497759
10	0xbe1b762f	-0.15181802
11	0xbf212063	-0.62940043
12	0x3f27e539	0.6558414
13	0x3ef9568a	0.48698837
14	0xbec5fb92	-0.38668495
15	0x3f48af50	0.78392506
16	0x3f540a1f	0.82827944
17	0xbe9dde00	-0.30833435
18	0xbf6f2d41	-0.93428427
19	0xbf331dca	-0.6996733
20	0x3fb7dae2	1.4363673
21	0x3e27c6e2	0.16384462
22	0x3fa811cc	1.3130431
23	0xbf31bca9	-0.694285
24	0x3faeaa90	1.3645802
25	0x3f871e1a	1.0556061
26	0xbe3623c1	-0.17787077
27	0xbeb9c30d	-0.36281624
28	0x3e269b75	0.1627024
29	0x3e2616cc	0.16219634
30	0x3e7f4300	0.24927902
31	0xbd8dcc29	-0.06923706
32	0x3f6ba061	0.92041594
33	0xbde6a1b2	-0.1126131
34	0xbfbce07a	-1.4756005
35	0xbe3b4332	-0.18287352
36	0x3f95dba8	1.1707659
37	0xbd1eba31	-0.038751785
38	0xbec858bc	-0.391302
39	0xc050d276	-3.2628455
40	0x3ef73f1d	0.4829034
41	0xbfa6cbc6	-1.3030937
42	0x3e2bcc13	0.16777067
43	0x3e6a8abb	0.22904484
44	0x3e46245c	0.19349808
45	0xbe5dea27	-0.21671353
46	0xbf164def	-0.5871267
47	0xbf8464b8	-1.0343237
48	0x3ec3dfb0	0.38256598
49	0x3d83ac41	0.06429339
50	0xbfc274a7	-1.519185
51	0x3fdaef6e	1.7104318
52	0x3eca5850	0.39520502
53	0xbe565911	-0.20932414
54	0xbfba0fd0	-1.4536076
55	0xbd881e4a	-0.06646402
56	0xc010e635	-2.2640507
57	0x3eef0b0b	0.46688113
58	0x3efde713	0.49590358
59	0xbd63e21e	-0.055635564
60	0xba317bec	-0.000677048
61	0xbfca28ac	-1.5793662
62	0xbe58220e	-0.21106741
63	0x3fe4cc9f	1.7874945
64	0xbe11c080	-0.14233589
65	0x3e8d3960	0.27582836
66	0xbf456625	-0.77108985
67	0xbeef5a75	-0.467487
68	0x3e75dc8e	0.24009916
69	0x3f38e6e8	0.72227335
70	0xbf0f27a0	-0.5591984
71	0x3efb6577	0.4910085
72	0xc0562c7b	-3.3464649
73	0xbf3b611b	-0.73195046
74	0x3f2c2bd9	0.67254406
75	0xbf7096cd	-0.93980104
76	0x3e076a17	0.13224064
77	0xbf724d6a	-0.94649374
78	0x3f87cedd	1.0610005
79	0xbef4dacc	-0.4782318
80	0xbe405be8	-0.1878506
81	0x3fd97cff	1.6991271
82	0xbedfa2d5	-0.43678918
83	0xbeb538bd	-0.3539485
84	0xbe7fb0c5	-0.24969776
85	0xbef67542	-0.48136336
86	0x3f5b71a1	0.8572026
87	0x3f9183cb	1.1368345
88	0x3e4de223	0.20105796
89	0x3e9a0fcb	0.30090174
90	0xbe66f228	-0.22553313
91	0xbe36effe	-0.17864987
92	0xbeaa1479	-0.33218744
93	0x3ece7f0f	0.40331313
94	0xbe4c17d9	-0.19930972
95	0xbf8ae844	-1.0852132
96	0xbe9489b8	-0.2901132
97	0x3fbd3ef5	1.4784838
98	0x3f67cc34	0.90545964
99	0xbf7ff2b1	-0.9997969
100	0xbf038b7b	-0.51384705
101	0xbe8cc8fb	-0.27497086
102	0xbfb81449	-1.438119
103	0xbf620fc4	-0.88305306
104	0xbf30d9bd	-0.6908224
105	0xbf48e74a	-0.7847792
106	0x3f1c7fcf	0.6113252
107	0x3e528f04	0.20562369
108	0xbe0a7107	-0.13519679
109	0xbe6d5db3	-0.23180275
110	0xbe690dbe	-0.22759148
111	0x3ef552eb	0.47914824
112	0x3f356854	0.7086232
113	0xbde819f5	-0.11333076
114	0x3ed3ff5a	0.41405755
115	0x4003cf97	2.0595453
116	0xbf43f9cc	-0.76553035
117	0xbe8db613	-0.27677974
118	0x3f5353b8	0.8254962
119	0xbf9fffa4	-1.249989
120	0x3f2dba9d	0.67862874
121	0xbef8d226	-0.4859783
122	0xbf85183c	-1.0398021
123	0xbedcbf72	-0.4311481
124	0xbeb9efb4	-0.3631569
125	0xbe6bcecb	-0.23028104
126	0x3eb97f4b	0.3622993
127	0xbf7d6041	-0.98974997
128	0x3eb4b585	0.35294738
129	0xbe3b89c0	-0.18314266
130	0x3ea6348f	0.32461974
131	0xbf1e3c08	-0.6181035
132	0x3f802e65	1.0014158
133	0xbf3d8b51	-0.74040705
134	0xbf8da006	-1.106446
135	0x3ea9e4bf	0.33182332
136	0xbf6ed1e2	-0.93289006
137	0x3f854b14	1.0413537
138	0x3d575cfb	0.052578907
139	0xbe5fe89c	-0.21866077
140	0xbed53ee9	-0.4164956
141	0x3e130662	0.14357904
142	0xbe7f77ec	-0.2494809
143	0xbec8aca1	-0.39194205
144	0x3ece79d7	0.4032733
145	0xbf0e0651	-0.5547839
146	0xbe273b8e	-0.16331312
147	0x3e169488	0.14705098
148	0xbe796efa	-0.2435874
149	0xbe4c90dd	-0.19977136
150	0xbef7f3f9	-0.48428324
151	0x3f2526a0	0.6451206
152	0x3ebbb0e6	0.366584
153	0x3f67a2aa	0.9048258
154	0x3dd6ffcd	0.10498009
155	0xbe6b9f09	-0.23009886
156	0xbed25cd2	-0.4108644
157	0x3e69d8b4	0.22836572
158	0x3f023af6	0.5087122
159	0xbea52a3d	-0.32258788
160	0xbe426cc9	-0.1898681
161	0xbd46e467	-0.048557665
162	0xbea69d5f	-0.3254194
163	0xbf3c4471	-0.73541933
164	0x3eb2698a	0.34846145
165	0x3ed49136	0.41517037
166	0x3f1db2b4	0.61600804
167	0x3f341e5d	0.7035883
168	0x3f12012a	0.57033026
169	0xbf0ee84c	-0.55823207
170	0xba47e1aa	-0.0007624874
171	0xbf67f706	-0.906113
172	0xbe70f999	-0.23532714
173	0xbe9ad2b1	-0.3023887
174	0x3c80f5d9	0.01574223
175	0xbe945a21	-0.28975013
176	0xbeaad62a	-0.3336652
177	0xbea3f03d	-0.32019225
178	0xbf1f1f1c	-0.62156844
179	0x3f411187	0.7541737
180	0xbd5b71e8	-0.053575426
181	0xbe0c16fd	-0.13680644
182	0xbf6477db	-0.89245385
183	0x3f625137	0.88405174
184	0x3e9fab5b	0.3118542
185	0x3f25fc2b	0.648379
186	0x3e430ff1	0.1904905
187	0xbe590883	-0.21194653
188	0xbedb1580	-0.4278984
189	0xbef9f2bb	-0.48818
190	0x3f8e7440	1.1129227
191	0xbf7e19cb	-0.99258107
192	0xbf5ce748	-0.8629041
193	0xbe3bd863	-0.18344264
194	0xbf7d568b	-0.9896018
195	0x3e18a9f7	0.14908586
196	0xbebc49f0	-0.3677516
197	0x3dad45ba	0.08460565
198	0xbe81efa0	-0.25378132
199	0xbefb55b9	-0.4908884
200	0xbf26d6f8	-0.65171766
201	0xbe5f01fc	-0.217781
202	0x3e37e6be	0.17959115
203	0xbedd2b03	-0.43196878
204	0xbe3dcd25	-0.18535288
205	0xbf43ce30	-0.7648649
206	0x3ec672dc	0.38759506
207	0xbf3c1215	-0.7346509
208	0xbe3dbdce	-0.18529436
209	0xbecdf245	-0.402239
210	0xbf06ace4	-0.5260756
211	0xbe77cf07	-0.24200068
212	0xbe999046	-0.29992884
213	0x3deb683e	0.11494492
214	0x3ce67604	0.028132446
215	0xbfbbee16	-1.4682033
216	0xbed27711	-0.41106465
217	0xbf070920	-0.527483
218	0x3e0d3493	0.13789587
219	0xbf9227da	-1.1418412
220	0xbfb01c8e	-1.3758714
221	0x3efd1858	0.49432635
222	0x3ed4821c	0.41505516
223	0x3e4b6fd6	0.19866881
224	0x3dfe56ad	0.12418876
225	0x3e23d928	0.16000807
226	0xbf8d8e37	-1.1059026
227	0xbe20b141	-0.15692617
228	0x3d1a8c90	0.037731707
229	0x3d1b41d6	0.037904583
230	0xbe37291a	-0.17886773
231	0x3fa2267f	1.2667998
232	0x3e54643c	0.20741361
233	0xbe40eda6	-0.18840656
234	0xbee094f3	-0.4386364
235	0xbe99b1ed	-0.3001856
236	0xbe673aa2	-0.2258096
237	0xbea0d297	-0.31410667
238	0xbe0e2e03	-0.1388474
239	0x3e77aa72	0.24186113
240	0x3e1ca0fc	0.15295786
241	0x3f6449d5	0.8917516
242	0xbc994fa2	-0.01871473
243	0x3f1c8222	0.61136067
244	0xbf528a2c	-0.82242084
245	0xbeef475c	-0.4673413
246	0xbec09320	-0.37612247
247	0x3f448275	0.7676156
248	0xbe6aae61	-0.22918083
249	0x3e450da5	0.19243486
250	0xbf2db21b	-0.6784989
251	0xbfc8c6b3	-1.5685638
252	0x3ee393e7	0.44448778
253	0x3e830bb0	0.25594854
254	0x3f684f58	0.9074607
255	0x3f8fa647	1.1222619

lstm.weight_hh_l1 f4 [256, 64]
0	0xc04b7792	-3.179173
1	0x3e5c0970	0.21487975
2	0xbedde016	-0.43335027
3	0x3f294e9c	0.66135573
4	0xbf8657f2	-1.0495589
5	0xc0058fd0	-2.0869026
6	0x3ea3b737	0.3197572
7	0xbf93589a	-1.1511414
8	0xbf7e0375	-0.99224025
9	0x3e7df62f	0.24800943
10	0x3f3f96fa	0.74839747
11	0xc04a09aa	-3.1568398
12	0xc01c491b	-2.441962
13	0xbddea21d	-0.108707644
14	0x3e91eb53	0.2849985
15	0x405deb8f	3.4675024
16	0xc005d09f	-2.0908582
17	0xbef9130c	-0.48647344
18	0xbf07a568	-0.52986765
19	0x3c543ece	0.012954427
20	0xbee9a1e6	-0.4563133
21	0xbfaac035	-1.3339907
22	0xc043152b	-3.048167
23	0xbf8b1c76	-1.086806
24	0xc004f6e0	-2.077568
25	0xbfd7f0a9	-1.6870319
26	0xbe7bf8a5	-0.24606569
27	0x3feb6a00	1.8391724
28	0xbd55d84b	-0.052208226
29	0xbf7aa2ad	-0.97904474
30	0x401dc2a2	2.4650044
31	0xbf1b320b	-0.60623235
32	0xbfb2100e	-1.391115
33	0xbf192da4	-0.5983527
34	0xbfb344ad	-1.4005333
35	0xbee7a883	-0.45245752
36	0xbe9600d9	-0.29297522
37	0x3ef059fe	0.4694366
38	0xbf34dbac	-0.7064769
39	0xbf8a0511	-1.0782796
40	0xbfc80366	-1.5626037
41	0xbe2fdc30	-0.17173839
42	0x3fc6d386	1.5533302
43	0x3d0a8e76	0.033827268
44	0x4004c016	2.074224
45	0x3e4b22e1	0.19837524
46	0x3f9517bf	1.1647872
47	0xbeb123f6	-0.3459775
48	0x3f068377	0.5254435
49	0xbf10962b	-0.5647914
50	0xbd0d9353	-0.034564327
51	0xbf87e834	-1.0617738
52	0xbed85621	-0.4225321
53	0xbf83919b	-1.027881
54	0xbe88b40e	-0.2669987
55	0x3f17c1b9	0.5927997
56	0xbf61813e	-0.8808783
57	0xbf2a9c9b	-0.6664521
58	0xbf304879	-0.68860584
59	0xbe9dccae	-0.3082022
60	0xbfbae4af	-1.4601039
61	0x3e89adb8	0.2689035
62	0xbe868611	-0.2627416
63	0xbc50dadb	-0.012747492
64	0x3f9009a2	1.125294
65	0xbea19ab0	-0.3156333
66	0x3f63029c	0.88675857
67	0xbde39f42	-0.111143604
68	0xbf90d652	-1.1315405
69	0x3fc44d00	1.5335999
70	0xbf696bba	-0.9118
71	0xbf8fbb32	-1.1229002
72	0xbf3d6c32	-0.7399322
73	0x3ec6c1b2	0.38819653
74	0x3f0010cc	0.5002563
75	0xbf3301b1	-0.69924456
76	0xbeddfcc0	-0.43356895
77	0x3f6efc25	0.9335349
78	0xbf3f3141	-0.7468453
79	0xbeec0cc9	-0.46103504
80	0x3ff828b3	1.938742
81	0xbec1965e	-0.37810034
82	0xc0007abb	-2.0074909
83	0x3f20a8ef	0.6275777
84	0xbbe7af55	-0.0070704618
85	0xc001782c	-2.0229597
86	0x3f91d5c9	1.1393367
87	0x3e7a04bb	0.24415867
88	0xbf84ff40	-1.0390396
89	0x3fc4e01f	1.5380896
90	0xbfdfe919	-1.7493011
91	0xbf2ef241	-0.683384
92	0x3e312fb6	0.17303357
93	0x3f008f61	0.5021878
94	0xbdabab82	-0.08382322
95	0x3f4c6ce5	0.7985366
96	0x3ed43a26	0.41450614
97	0xbf460877	-0.77356666
98	0x3e6b7d80	0.22997093
99	0x3dcf254b	0.10114535
100	0x3f1ef0aa	0.62085974
101	0x3f9a053d	1.2032849
102	0x3f14c3ed	0.5811146
103	0x3fb08701	1.37912
104	0xbf76793d	-0.96278745
105	0xbf9e145b	-1.2349962
106	0xbf3750c0	-0.7160759
107	0xbf107812	-0.5643321
108	0xbf0e1f8f	-0.55516905
109	0x3ca11b71	0.019666405
110	0xbeed351b	-0.4632958
111	0xbeb19940	-0.34687233
112	0x3f1e1ba0	0.617609
113	0xbe93d05b	-0.288699
114	0xbfcd5127	-1.6040391
115	0x3eb6be75	0.35692182
116	0x3ea3d1ec	0.31996095
117	0xbe505acc	-0.20347136
118	0xbe3e69f4	-0.18595105
119	0xbf019579	-0.506187
120	0xbf8a7e69	-1.0819827
121	0x3ec8b04e	0.3919701
122	0xbe7db7cd	-0.24777146
123	0x3ceaddee	0.028670277
124	0x3e680680	0.2265873
125	0x3f1947ae	0.59875
126	0xbf8f8f25	-1.1215559
127	0x3e9d6adf	0.307456
128	0xbfbe2069	-1.4853641
129	0xc0715dd6	-3.7713523
130	0xbfb1a630	-1.3878841
131	0xbfcf7ab9	-1.6209327
132	0x3e2f3ef5	0.1711386
133	0x3e63d9f2	0.22251108
134	0x3f2f4fca	0.68481123
135	0x3f83c9d4	1.0295968
136	0xc008d1b5	-2.1377995
137	0xbffd7f71	-1.9804517
138	0xbe4ba646	-0.19887647
139	0xbfc3f8c5	-1.5310293
140	0xc01914f5	-2.391904
141	0xbf6a42d5	-0.9150823
142	0xc08b537e	-4.353942
143	0x3fccff0f	1.6015338
144	0x3fa7740f	1.3082293
145	0x3e0cc0e4	0.13745457
146	0x3ed0502e	0.40686172
147	0x3f847f27	1.0351304
148	0xbfdde3c4	-1.7335134
149	0xbe7c28fd	-0.24625011
150	0x3f8238f9	1.0173637
151	0x3f826d0e	1.0189531
152	0x40542fab	3.3154094
153	0x3ee2df7d	0.44311133
154	0xbf67ed31	-0.905963
155	0x3ee38cdd	0.44443408
156	0xbfbba02d	-1.4658257
157	0x3e185c95	0.14879067
158	0xbf642665	-0.89121085
159	0x3f583348	0.8445325
160	0x4026c2d2	2.605641
161	0xbf24e53e	-0.64412296
162	0x3e5a0f99	0.21295013
163	0xbdb2e787	-0.087355666
164	0x3ec37d32	0.38181454
165	0xbe82b10b	-0.25525698
166	0xbf51a315	-0.8188947
167	0x3f78dac0	0.97208786
168	0xbea1b1cd	-0.31580964
169	0xbfbe69f5	-1.4876086
170	0x4007000f	2.1093786
171	0x3efb6093	0.49097118
172	0x3e7d183e	0.24716279
173	0xbf900d41	-1.1254045
174	0x3f531bac	0.824641
175	0xbf048855	-0.51770526
176	0xbf68b3b9	-0.90899235
177	0xbeba4a6b	-0.363849
178	0xc03544e2	-2.8323293
179	0xc08c12ea	-4.377309
180	0xbf0630d9	-0.52418286
181	0x3dbbe051	0.09173644
182	0x3dd8a173	0.10577669
183	0xbed3908a	-0.41321212
184	0x4090c9a5	4.524615
185	0xbf9304ac	-1.1485801
186	0x3f50f6ca	0.8162657
187	0xbf844e53	-1.0336403
188	0x3feda14d	1.856485
189	0x3fa2858c	1.2697005
190	0xbf0da4ba	-0.5532948
191	0x3f9bb76b	1.216535
192	0x3f4ec294	0.8076565
193	0xbef571d3	-0.47938403
194	0xbfc77402	-1.5582278
195	0x3e59576e	0.21224758
196	0xbf15edf4	-0.5856621
197	0x3db37f9f	0.08764576
198	0x3fa6b6c2	1.3024523
199	0xbfde13a1	-1.734974
200	0xbf8528ff	-1.0403136
201	0x3f026db5	0.5094865
202	0xbead18c8	-0.3380797
203	0x4028dea9	2.63859
204	0xbf001f4d	-0.5004776
205	0x3f68ea90	0.90982914
206	0xbf125bb0	-0.57171154
207	0x3e690110	0.22754312
208	0xbf287632	-0.6580535
209	0xbf8bdac2	-1.0926135
210	0x3eb1ae4b	0.34703287
211	0x3fb9d22e	1.4517267
212	0x3fd3c458	1.6544294
213	0xbf07b533	-0.53010863
214	0xbee2cbb6	-0.44296044
215	0x3e8396a4	0.25700867
216	0x3ea9a549	0.33133915
217	0x3f947578	1.1598349
218	0xbf8afc58	-1.0858259
219	0xbf59ffde	-0.8515605
220	0xbe8120c3	-0.25220308
221	0xbf9a02e2	-1.203213
222	0x3f558201	0.83401495
223	0x3ebe9edb	0.37230572
224	0x3ea14366	0.31496733
225	0xc002ef24	-2.045846
226	0x3ecfc912	0.40583092
227	0xbf4548de	-0.7706431
228	0xbc76bc17	-0.015059493
229	0xbe45b59f	-0.19307564
230	0x3ff8e0df	1.9443625
231	0x3f6512cf	0.89481825
232	0xbf494285	-0.78617126
233	0xbd35075c	-0.04419647
234	0xbed2192c	-0.4103483
235	0xc022422b	-2.5352886
236	0x3f465926	0.7747978
237	0xbf196bea	-0.5993029
238	0x3ef64edd	0.48107043
239	0xbe616d16	-0.22014269
240	0x3d582dd0	0.052778065
241	0x3f25e45e	0.64801586
242	0x3f5c5997	0.86074203
243	0xbd9ccc1f	-0.076561205
244	0x3ebf4773	0.373592
245	0x3e8d60a8	0.27612805
246	0xbe7db30d	-0.24775334
247	0x3f49ab0a	0.7877661
248	0xbf9ac37c	-1.2090907
249	0x3f50a9b8	0.8150897
250	0x3f9c0d84	1.2191625
251	0x3f108d93	0.56466025
252	0xbff0228a	-1.876054
253	0xbf7115d5	-0.9417394
254	0xbfd7503b	-1.6821359
255	0x3da64a06	0.081195876

lstm.bias_ih_l1 f4 [256]
0	0xbd2bb14a	-0.041917123
1	0xbd140629	-0.036138687
2	0x3e897df3	0.26853904
3	0x3e665691	0.2249396
4	0x3f13c565	0.57723075
5	0x3d151322	0.0363952
6	0x3c8b88f4	0.017033078
7	0xbe3951cb	-0.18097608
8	0xbd4693e8	-0.0484809
9	0x3e17ba22	0.14817098
10	0xbe9dfd4c	-0.30857313
11	0xbedb0691	-0.42778447
12	0xbe0d2d9d	-0.13786931
13	0x3e54c50e	0.20778295
14	0xbcd2aeb9	-0.02571808
15	0x3e2f24d2	0.1710389
16	0xbecb1db6	-0.39671105
17	0x3e66814e	0.22510263
18	0xbeeb37ee	-0.45941108
19	0x3e4c1b08	0.19932187
20	0xbc4cc8c9	-0.012499043
21	0x3e886953	0.26642856
22	0xbe09156e	-0.13387081
23	0x3ed1fdd8	0.4101398
24	0x3e1327e6	0.14370689
25	0x3d81938d	0.06326971
26	0x3e82b802	0.25531012
27	0xbc91a3e6	-0.017778348
28	0x3e76d78b	0.2410566
29	0x3df17f22	0.11791827
30	0xbe891cd2	-0.267798
31	0x3ede84e1	0.43460754
32	0x3eb76d06	0.35825366
33	0x3ea0fa2b	0.31440863
34	0x3e7d4fee	0.24737522
35	0x3e718f1e	0.23589751
36	0x3f2d5d05	0.6772006
37	0x3e31b1d1	0.17352988
38	0x3e6a7dc0	0.22899532
39	0x3e76583c	0.24057096
40	0x3e3bdb64	0.1834541
41	0x3d6e370e	0.058157973
42	0x3d72b8c4	0.059258237
43	0x3e2ee6ae	0.17080185
44	0x3dbe0c6b	0.09279712
45	0xbdf4ac72	-0.11946954
46	0x3ecc5919	0.39911726
47	0xbf12344e	-0.5711106
48	0x3e9513e3	0.29116735
49	0xbccf38f4	-0.025295712
50	0xbc94fd97	-0.018187327
51	0xbed682fb	-0.41896805
52	0xbd77b038	-0.06047079
53	0xbe47beef	-0.19506429
54	0x3ec3fae1	0.38277343
55	0x3de31b58	0.110892
56	0x3e091d63	0.13390116
57	0xbea734c0	-0.32657433
58	0x3e5cd0d8	0.21564043
59	0x3d802a03	0.06258013
60	0x3df70d16	0.12063043
61	0x3ecc3150	0.39881372
62	0x3e15eed8	0.14641893
63	0x3ed073a0	0.40713215
64	0x3ef6aa5a	0.48176843
65	0xbec20310	-0.37892962
66	0x3e86e3ac	0.26345575
67	0x3ec124ee	0.37723488
68	0x3e4f4c1d	0.20243879
69	0x3dbf4e1d	0.09341071
70	0x3d239eee	0.03994649
71	0x3d8154d1	0.063150056
72	0x3d17e411	0.037082735
73	0xbe304b86	-0.1721631
74	0x3d52599b	0.051354986
75	0xbe6e2da6	-0.23259601
76	0xbe2ec1c8	-0.17066109
77	0x3d2ae3c6	0.041721128
78	0x3b09a06f	0.0021000167
79	0x3ecbb480	0.39786148
80	0xbe89b27e	-0.2689399
81	0x3ebfcaf1	0.3745952
82	0xbe56350f	-0.20918678
83	0x3e073212	0.13202694
84	0xbe62ce96	-0.22149119
85	0xbe2543c2	-0.16139129
86	0x3c22da15	0.00993969
87	0xbeeea1e6	-0.46607894
88	0x3e2fb8f1	0.17160393
89	0xbea6b8c7	-0.3256285
90	0x3e68f139	0.22748269
91	0x3e9531d4	0.29139578
92	0x3d8b2ba2	0.06795432
93	0x3ca4c38f	0.02011278
94	0x3e618388	0.22022831
95	0xbe10cb6b	-0.14140098
96	0x3d94c99e	0.07265018
97	0x3d27a337	0.04092714
98	0x3ef189af	0.47175357
99	0x3ebb1937	0.36542675
100	0x3ed263e2	0.4109183
101	0x3ea27996	0.31733388
102	0xbe3cbb45	-0.18430813
103	0xbea3df62	-0.32006365
104	0x3f1dace3	0.6159193
105	0xbe0d00b8	-0.13769805
106	0x3eb2a0eb	0.34888396
107	0x3e0c72e0	0.13715696
108	0x3f069cf6	0.52583253
109	0x3e81ab14	0.25325835
110	0x3ef66f16	0.48131627
111	0x3f8a1314	1.0787072
112	0x3e590aab	0.21195476
113	0x3ea37688	0.3192637
114	0x3efb5771	0.4909015
115	0xbd95ae06	-0.07308583
116	0x3f42ae7f	0.7604751
117	0x3e4920c0	0.196414
118	0x3ee10cf3	0.43955192
119	0x3e0bcb0a	0.13651672
120	0xbd3a3c0c	-0.04546742
121	0x3e91aa4c	0.2845024
122	0x3db3c4b6	0.08777754
123	0x3f0b7021	0.5446797
124	0xbdc390e4	-0.0954912
125	0x3e8d4fa0	0.27599812
126	0x3d28511f	0.041092988
127	0x3ecfe6d4	0.40605795
128	0x3e498d3e	0.19682786
129	0x3d7eccdb	0.062207084
130	0xbf017de3	-0.5058271
131	0xbe767846	-0.24069318
132	0xbe4c3b5c	-0.19944519
133	0x3d395ad0	0.04525262
134	0xbcc6a047	-0.024246348
135	0x3ccf4a6a	0.025304038
136	0x3e5aa70c	0.21352786
137	0x3d7ffea8	0.06249872
138	0xbe1e83f5	-0.15480025
139	0x3d2a088f	0.04151207
140	0xbe291200	-0.16510773
141	0xbe9b38e5	-0.30316845
142	0xbeeb64d8	-0.45975375
143	0x3c839838	0.016063794
144	0x3d8a51c6	0.06753878
145	0x3ebadd92	0.3649717
146	0xbe417b44	-0.18894678
147	0xbe54042e	-0.2070472
148	0x3e81c384	0.2534448
149	0xbd994e2d	-0.07485614
150	0xbe0e5e62	-0.13903192
151	0xbb0fe23e	-0.002195492
152	0x3e9da95c	0.30793273
153	0x3e9fd16a	0.31214458
154	0xbe62cf2b	-0.22149341
155	0xbd88d759	-0.06681699
156	0xbe9088cf	-0.28229377
157	0xbd97d45f	-0.074135534
158	0x3d8c4e8a	0.06850918
159	0x3dbf2966	0.09334068
160	0x3ea1d74a	0.31609565
161	0xbe047418	-0.12934911
162	0xbd6ef4a4	-0.058338776
163	0x3e1694f6	0.14705262
164	0xbbad8ab8	-0.0052960776
165	0x3f2e269c	0.68027663
166	0x3d0031e6	0.031297587
167	0xbdd0c8aa	-0.10194524
168	0xbe8ebf5f	-0.2788038
169	0x3dce6bb7	0.10079139
170	0xbebafec0	-0.36522484
171	0xbf037996	-0.513574
172	0x3e385bd1	0.18003775
173	0xbdbc97a7	-0.09208613
174	0xbdc270e4	-0.094941884
175	0xbe811e17	-0.2521827
176	0xbeb415c4	-0.35172856
177	0x3e6f7475	0.23384269
178	0x3e26f18c	0.1630308
179	0x3e013e7e	0.12621495
180	0x3e8da40d	0.27664223
181	0xbe0e3627	-0.13887845
182	0x3e7cd415	0.24690278
183	0xbe9f2140	-0.31080055
184	0xbf07bbe7	-0.5302109
185	0x3d52d1f8	0.051469773
186	0x3eaf717a	0.34266263
187	0x3ef5615c	0.47925842
188	0xbe1f04e3	-0.15529208
189	0xbe13112b	-0.14362018
190	0x3dc15e02	0.09441759
191	0x3c8642c5	0.01638926
192	0x3e575f66	0.21032485
193	0xbe6f0977	-0.23343454
194	0x3e843858	0.25824237
195	0x3f1baa35	0.6080659
196	0x3f092302	0.5356904
197	0x3edb8e86	0.42882174
198	0x3e97829c	0.29591835
199	0x3eadcaa2	0.3394366
200	0x3ea01fab	0.3127416
201	0x3ee6f5a4	0.45109284
202	0x3ec4f153	0.38465366
203	0x3ef64b0b	0.48104128
204	0x3ed33975	0.41254774
205	0x3f2c6a13	0.67349356
206	0x3ee20cda	0.4415043
207	0x3f161947	0.5863232
208	0x3daefe59	0.08544607
209	0x3e16018f	0.14649032
210	0xbe8d5e45	-0.27610984
211	0x3f046135	0.51710826
212	0x3d81c205	0.063358344
213	0xbd990b53	-0.07472863
214	0x3ec3fef8	0.38280463
215	0x3e3163f0	0.1732328
216	0x3e3bcc0b	0.18339555
217	0x3eb44775	0.35210767
218	0x3ecc36c7	0.39885542
219	0x3f0cb6a8	0.5496621
220	0x3cb86719	0.022510098
221	0x3ea6b14e	0.32557148
222	0xbda909e3	-0.08253839
223	0x3ed92658	0.42412066
224	0x3f0911c1	0.53542715
225	0x3f950fa0	1.1645393
226	0x3f200a32	0.62515557
227	0x3e391616	0.18074831
228	0x3e959293	0.2921339
229	0x3ead8902	0.3389359
230	0xbe168c94	-0.14702064
231	0x3eb2bc68	0.34909368
232	0x3e7a5599	0.24446715
233	0x3e74de0a	0.23912826
234	0x3e284cc4	0.16435534
235	0x3e55e4ba	0.20888034
236	0x3d82f33a	0.06394048
237	0x3eacf9c3	0.33784303
238	0x3ea00768	0.3125565
239	0x3e2656c3	0.16244034
240	0x3eb2c396	0.34914845
241	0x3da2c67f	0.079480164
242	0x3ee1e420	0.44119358
243	0x3d55cf54	0.052199677
244	0x3f472c4b	0.7780196
245	0x3e6cfd31	0.2314346
246	0x3eaf6664	0.34257805
247	0xbe159a91	-0.14609744
248	0x3eecf796	0.46282643
249	0x3e0fc9a1	0.14041759
250	0x3eedde17	0.46458504
251	0x3edfd8c8	0.43720078
252	0xbcf8eb69	-0.03038569
253	0x3e420bb3	0.18949775
254	0x3d129f60	0.035796523
255	0x3ef0ec09	0.4705508
