param1/lstm_model_90000.pth (torch, 204435 bytes, 9 tensors)

lstm.weight_ih_l0 f4 [256, 1]
000000 47 7a 40 3f 07 1d a9 3f d8 1d 52 3f 7b 3d 4f 3f
       0.7518658 1.3211983 0.8207679 0.80953187
000010 a5 25 50 3f 37 ec 22 bf 78 b7 1e bf aa 42 4f 3f
       0.8130744 -0.63641685 -0.619987 0.80961096
000020 e3 03 0e bf db 5b c9 3e 82 b9 3b bf 7c 17 c1 3f
       -0.5547468 0.39327893 -0.7332994 1.5085292
000030 b2 78 13 3d 9a 1c 7d bf 69 a7 bd 3f d7 ca 19 3f
       0.036003776 -0.9887177 1.4816715 0.60075134
000040 b6 65 77 3e 22 f8 12 40 30 7c 03 3f c5 f1 1d 3f
       0.24159893 2.2963948 0.5136137 0.61697036
000050 1b 77 a2 3f 3c d2 8f bf a8 ab c2 3d 6a 80 da 3e
       1.2692598 -1.1236033 0.09505397 0.42676097
000060 d2 e3 38 be 59 df 75 3e 06 c3 23 3f 85 71 10 3f
       -0.18055657 0.24010982 0.6396946 0.5642322
000070 18 12 95 be 4a b4 77 bf db 0f c3 be 25 21 b4 3f
       -0.29115367 -0.96759474 -0.38098034 1.4072615
000080 ec ef c4 3f bf e0 40 40 f6 3d 81 be c2 49 e4 3e
       1.5385718 3.0137174 -0.25242585 0.44587523
000090 ca 3b d3 3f 92 a8 ed bd ae d6 c5 be 82 41 98 3f
       1.6502621 -0.11604418 -0.3864035 1.1894991
0000a0 e9 02 3e 40 4b 5a 78 bf 3b 43 71 bf 03 ce af 3e
       2.9689276 -0.97012776 -0.9424321 0.34336862
0000b0 51 ea 36 3f b1 42 15 3d a1 60 14 3e 49 47 53 3e
       0.7145129 0.036440555 0.14489986 0.20632662
0000c0 69 57 11 40 11 ac a3 bf 82 22 df 3f e4 52 07 3d
       2.27096 -1.2786885 1.7432406 0.033038035
0000d0 5b 6f 88 3e 70 99 dc be 88 dd 10 be 6a 09 68 3f
       0.26647457 -0.43085814 -0.14147007 0.90639365
0000e0 bd 17 b4 3e 7d a7 37 3f 3a c3 ea 3e b5 98 83 bf
       0.3517436 0.7173994 0.4585207 -1.0280977
0000f0 8c db 60 3e 38 32 69 3e e4 db 35 3e a8 d1 64 3f
       0.2195875 0.22773063 0.17759663 0.8938241
000100 f4 4d 92 bf 36 a2 29 3d ca ca 55 3f 53 c1 a0 3f
       -1.143004 0.041414462 0.83512557 1.2558998
000110 82 e4 78 3f bb 9b 14 40 8e d4 bd 3f e7 f4 c0 3e
       0.97223675 2.322005 1.4830492 0.37686846
000120 2f 12 ce bf 4d d9 6f 3e 0c 43 12 3f 14 07 98 3f
       -1.6099299 0.23422737 0.57133555 1.187716
000130 50 35 18 3f 7b 73 72 3e bf 51 86 3f 53 ed 38 3f
       0.5945635 0.23676865 1.0493697 0.7223713
000140 98 9c 07 3f c8 86 af 3f 0a b1 48 3f 7c 29 c6 3d
       0.5297332 1.3713007 0.7839514 0.09675881
000150 6a 2a 1b 3f aa b4 18 bf f5 f5 3c bf 6b c8 f5 be
       0.60611594 -0.5965067 -0.738128 -0.4800447
000160 48 bd 70 3e 08 59 18 3f 74 da 2e 3e 00 f9 e1 bd
       0.23509705 0.5951085 0.17075521 -0.11033821
000170 47 3d c7 bf fe de 6c 3d 2a 0d 4d 3f d9 51 0b c0
       -1.5565575 0.05782985 0.8009821 -2.1768706
000180 2b d6 38 3f aa 4e 97 3e f6 52 68 3f f5 69 ec 3f
       0.72201794 0.29552203 0.9075159 1.8469836
000190 6e 30 83 3e fc 55 97 3f 49 f1 53 3e a2 41 1c bf
       0.25622886 1.1823115 0.20697512 -0.6103765
0001a0 50 62 08 bd e2 f2 e5 3e 10 92 3d bf ec e2 50 3f
       -0.033296883 0.44911867 -0.74051 0.81596255
0001b0 6f c0 07 be 59 b8 42 3f 7f 72 b3 3e 23 29 0c bf
       -0.13257001 0.7606254 0.3504829 -0.5475027
0001c0 4a 8a 68 3f ee 4e e1 3e 59 0e 7d be b8 5b 38 c0
       0.9083601 0.4400553 -0.24712504 -2.880598
0001d0 17 2e 18 3f c4 b3 3a 3f 36 85 81 3f 47 e1 88 3f
       0.5944533 0.7293055 1.0118778 1.0693749
0001e0 32 e6 48 3e 00 a6 27 3f 49 dd 40 3f 81 b7 44 bf
       0.19619063 0.6548767 0.75337654 -0.76842505
0001f0 d3 b4 d1 3e 10 09 d0 3d 42 e2 0c be cc 24 95 3b
       0.4095827 0.101579785 -0.13758186 0.0045515057
000200 a5 89 c1 3f a3 1e 1f be ca c8 ef 3f fb 45 8e bf
       1.5120131 -0.1553903 1.8733151 -1.1115106
000210 0f 36 ce bf 46 fa 0f bf 9d 12 23 3d 90 a1 5d 3f
       -1.6110247 -0.5624126 0.039812673 0.8657465
000220 13 30 fa 40 cd 9b 6d bf 32 55 fe bf 4e d5 b8 bf
       7.8183684 -0.9281586 -1.986975 -1.4440095
000230 53 9c 96 bf d6 49 97 be a4 dc 8a bf b8 e6 48 bf
       -1.1766456 -0.2954852 -1.0848584 -0.7847705
000240 ff cd bd 3f fd 90 1c c0 69 4a ed be da 7c 6a 3f
       1.482849 -2.4463494 -0.46345833 0.9159676
000250 49 28 f6 3f b0 90 40 3d 75 3c 02 c0 59 d3 8f 3f
       1.9231044 0.047012985 -2.03494 1.1236373
000260 52 e4 d6 3f 29 af bb bf d8 8f 13 bf c7 a9 ca be
       1.6788428 -1.466283 -0.57641363 -0.39582655
000270 ec c9 9e 3f f9 6d 9c bf 33 14 21 3d 6f f9 61 40
       1.2405372 -1.2221061 0.039325904 3.5308492
000280 36 0b e3 3e d9 ee 27 c0 a4 3d 80 c0 24 3f 0b 3f
       0.4434449 -2.623953 -4.0075245 0.5439322
000290 48 77 09 c0 02 bb 5d bf 5e 29 dc 3e 58 3b 18 3f
       -2.1479053 -0.86613476 0.4300031 0.5946555
0002a0 ea e7 3f 40 d3 d3 05 bf 7c 17 9b bf 71 dd f0 bf
       2.99853 -0.52276343 -1.2116542 -1.8817579
0002b0 f0 e4 d1 3f 78 85 31 bf 88 9a aa 3f 50 bd 62 c0
       1.6397991 -0.6934428 1.3328409 -3.5428047
0002c0 40 dc 2b c0 9d b0 7b bd fe c8 38 3f 0c 01 7b c0
       -2.685318 -0.06144773 0.7218169 -3.921939
0002d0 2c 72 ae 3f 8c 78 11 3f 2c 53 bc be ab ce 8a bf
       1.3628592 0.56824565 -0.36782205 -1.084432
0002e0 d8 12 af bf ec 25 96 bf 32 9a 7d bf 25 d9 9f bf
       -1.3677626 -1.1730323 -0.9906341 -1.2488142
0002f0 39 fc 14 c0 58 94 f1 be 11 fe f0 3f de b8 5f bf
       -2.3278944 -0.4718349 1.8827535 -0.8739146
000300 16 34 e9 be 1f e2 31 3e 4f 58 69 40 24 4d 54 3f
       -0.4554755 0.17371415 3.646015 0.8293021
000310 99 c9 59 40 1b a3 5f 3c 7c 97 f7 be 86 84 f9 3e
       3.4029295 0.013649727 -0.4835776 0.4873392
000320 f6 4d 02 be a4 f8 eb 3d 4f 4f 8b be 85 9c 02 3f
       -0.12725052 0.11522034 -0.27208945 0.5102008
000330 a8 63 6f 40 fb 73 01 3e 47 e0 0d 40 6d 35 d7 3e
       3.7404575 0.126419 2.2168138 0.42032948
000340 06 7c 8a 3f 93 a0 3e 40 5a 27 33 3f a6 25 ad 3c
       1.0819099 2.9785507 0.6998192 0.021136116
000350 12 2b 8b 3f 43 ec f7 be e7 0b 4b bf 9e 97 e4 3d
       1.0872519 -0.4842244 -0.79315037 0.11161731
000360 99 af d3 3f b6 41 1a 40 03 5b 26 be 5b 34 83 3f
       1.6537963 2.4102607 -0.16245656 1.0250353
000370 3c e3 9a bf 48 2b 64 be 5b 30 27 be ae 26 8e be
       -1.2100596 -0.22282135 -0.1632704 -0.27763885
000380 44 e6 9f 3f 09 20 7f 40 07 21 68 3f 7b 78 3b bf
       1.2492146 3.9863303 0.90675396 -0.73230714
000390 10 a7 14 40 09 05 f8 3e c2 b5 e3 be be b5 06 3e
       2.3226967 0.48441342 -0.44474608 0.13155267
0003a0 c9 e9 4c 40 69 57 aa 3e ea de c4 bf 9c d9 84 3f
       3.201769 0.33269814 -1.5380528 1.0378909
0003b0 59 41 45 3f 4a 40 ac 3f 5e 40 89 bd 15 1f 36 3d
       0.7705284 1.345712 -0.0670173 0.044463236
0003c0 2a 50 7a 40 e1 4a 90 be 47 4d 1b be 65 94 5d bf
       3.9111428 -0.28182128 -0.15166198 -0.8655456
0003d0 13 d7 0d be 55 d3 84 bf d3 05 43 be d8 67 f2 3f
       -0.13851576 -1.0376993 -0.1904519 1.8937941
0003e0 86 d6 9f 3f 89 9a 15 40 ea 2a 90 3e ca 62 94 bf
       1.2487342 2.337557 0.2815774 -1.1592648
0003f0 ce f6 e4 3e b7 bc f4 3e 7d 9b 33 3f a9 56 2c 3f
       0.44719547 0.47800228 0.7015913 0.6731973

lstm.weight_hh_l0 f4 [256, 64]
000000 c1 eb be bd 90 43 6f 3f ab 86 91 be b1 6d 73 3c
       -0.0932231 0.9346247 -0.28423056 0.014857695
000010 f9 3a 87 be 58 d3 58 be c5 5d 20 3e 83 44 a5 3d
       -0.2641218 -0.21174371 0.1566077 0.08069708
000020 3d 1b 93 3f 25 5d b8 bd 0e 14 f3 be 2e c4 05 3f
       1.1492687 -0.09002141 -0.47476238 0.5225247
000030 b6 cb 41 3e 0b 3d 78 3f 69 e1 69 bf a8 ed 94 bd
       0.18925366 0.96968144 -0.91359574 -0.07271892
000040 77 7c 24 3e 52 69 8a bd a0 c3 c7 3c bd 4e 19 3f
       0.16063105 -0.067583695 0.024385273 0.5988577
000050 14 57 23 3f 37 44 c8 3e fe 4e 01 bd ab c3 0f be
       0.63804746 0.39114544 -0.031569473 -0.14039485
000060 84 05 09 be bb 1e 17 3f 5d 2f 08 be 15 aa 7e bf
       -0.1338101 0.59031266 -0.13299318 -0.99478275
000070 74 05 12 3c e6 97 bf be 41 06 c2 3c e6 5e fe 3e
       0.008912433 -0.37420577 0.023684623 0.49681777
000080 5c 30 49 3e 6e f1 14 bf 87 6e 80 bd af b6 fb 3e
       0.19647354 -0.5818089 -0.062710814 0.49162814
000090 d1 05 40 be 6e ce 62 bf e7 5b 97 3d 41 a6 18 bf
       -0.18752219 -0.88596237 0.07390576 -0.59628683
0000a0 b9 be 05 3d 80 4a 30 be fb 02 f0 3d fd 44 a1 be
       0.03265259 -0.1721592 0.117193185 -0.31497946
0000b0 be 3e c4 3e 89 8b 50 3e f0 97 9a 3e 65 57 15 bf
       0.38329118 0.20365728 0.30194044 -0.5833648
0000c0 58 d2 f2 be 15 b1 06 3e 1c 97 15 3e 9b c3 2a be
       -0.47426105 0.13153489 0.14608425 -0.1667618
0000d0 b1 e3 2b 3f 52 94 7b 3f b4 1d ca 3d d9 36 18 bc
       0.67144305 0.98273194 0.09868947 -0.00929042
0000e0 02 6d 94 bf 47 c5 9e be 43 cc 79 3e da f7 78 3e
       -1.1595767 -0.31009886 0.24394326 0.24313298
0000f0 4c 5f 92 be 00 9c 9c 3d 92 b0 13 3d 0d 0b 92 be
       -0.2858833 0.07646942 0.036057062 -0.28524056
000100 60 57 54 3f 80 f2 cf bf aa 71 00 3f d7 8e 1b 3f
       0.82945824 -1.624588 0.5017344 0.6076483
000110 20 6f 81 bd 14 9d 22 be 7b 8f 04 bf ee 86 17 3d
       -0.063200235 -0.15880233 -0.51781434 0.036993913
000120 50 8c cb 3e 1a 59 bf 3d f9 58 af be 28 1c bf 3c
       0.39755487 0.09343167 -0.34247568 0.023328856
000130 40 e3 9e 3e 98 af d1 bf 99 07 11 3f 37 8d 17 bf
       0.31032753 -1.6381712 0.5665222 -0.5919985
000140 e1 9a 53 3f cb 2e b4 bf 7c 61 5f bd 9b ab 61 3f
       0.826582 -1.407678 -0.054536328 0.88152474
000150 6a 37 71 be bc 6e 9d be 7b 58 c3 3f 7c 0d 59 3f
       -0.23556295 -0.30748546 1.5261377 0.847862
000160 f4 b9 52 3e fd ba c0 be 40 39 91 3e f0 25 91 3f
       0.20578748 -0.3764266 0.2836399 1.1339703
000170 21 42 f6 be 05 6c 00 bf 45 87 e2 3e 7a 31 92 3f
       -0.48097327 -0.50164825 0.44243827 1.1421349
000180 24 59 61 be 3e ea 9c bf f7 79 56 3e 5b 30 39 3e
       -0.2200666 -1.2258985 0.20944963 0.18084852
000190 db e4 ab bf bc ee 68 bc 1a 45 8a 3f e6 6f 49 bf
       -1.3429216 -0.014217075 1.0802338 -0.7868637
0001a0 ba 4a 85 3f a3 21 c9 3e 38 06 c2 be 2c 6e 91 bf
       1.041343 0.39283475 -0.3789537 -1.1361747
0001b0 26 73 cb bd 23 4f 37 bf 72 5f e9 3e ed 94 11 3e
       -0.09934072 -0.7160513 0.45580631 0.14216967
0001c0 07 87 f3 bf db 3b 44 bf ac 3b 36 3e 17 ae 7f be
       -1.9025582 -0.7665383 0.177962 -0.24968754
0001d0 40 9e d1 bb 92 6d 86 bf 73 8a 99 be 11 6f 0e bf
       -0.0063970387 -1.0502188 -0.2998844 -0.55638224
0001e0 d9 24 e7 3e 52 84 86 3d 9e 3c c1 be dd 1b 3b bf
       0.451453 0.06568207 -0.3774156 -0.7308939
0001f0 77 5c 10 bf b7 42 1c be 02 18 58 be f3 95 a0 bf
       -0.5639109 -0.15259825 -0.21102908 -1.2545761
000200 55 aa a1 bf ff 05 8b 3f fc 47 c1 3e d4 cd a4 3e
       -1.2630106 1.0861205 0.37750232 0.32188284
000210 b2 6c a6 bf a1 fa 44 3e 56 9e 86 be 74 4a 72 be
       -1.3001921 0.19236232 -0.26292676 -0.23661214
000220 a3 43 93 3f 3b 8a af be c6 ee 2d bc 0c 4b db bd
       1.1505016 -0.3428515 -0.01061601 -0.107076734
000230 dd 84 5a bf 51 91 8a bf 3d d2 a8 be 06 4d a4 be
       -0.85358983 -1.0825597 -0.329729 -0.32090014
000240 b6 04 d7 3f c7 90 ac bf c6 ab 2a bf 3c 12 06 3e
       1.6798313 -1.3481683 -0.66668355 0.13092893
000250 7c 04 ab 3d 6a 35 26 be 25 fe cd be 92 76 3f bf
       0.08350465 -0.16231313 -0.4023296 -0.747903
000260 ac d5 03 bf c8 da b9 bf 48 c5 63 3e 1f 37 5d 3d
       -0.5149791 -1.4519892 0.22243226 0.054007646
000270 67 00 30 bf f6 ac 20 bf a2 b5 1c 3f 42 bf 09 3f
       -0.68750614 -0.6276392 0.6121465 0.5380746
000280 14 25 c0 be e3 fe 01 bd 6e 59 40 3f 18 c3 53 3e
       -0.37528288 -0.03173722 0.7513646 0.20679891
000290 d9 8a 77 3f 67 b0 2d 3f cb bf 03 3f e6 2c 63 3f
       0.9669624 0.67847294 0.5146453 0.88740385
0002a0 70 b5 10 3f 1c 9d 63 3f 93 06 8b 3e e3 ba f6 be
       0.5652685 0.88911605 0.27153453 -0.48189458
0002b0 e9 8a 13 3e 89 ae c9 3e d8 34 20 3f 6e 5e b0 3e
       0.14408459 0.39390972 0.62580633 0.34447044
0002c0 da 82 b6 3d 7a 63 65 bf e5 d0 46 3f ba fc 49 3f
       0.08911677 -0.89604914 0.776625 0.78901255
0002d0 d9 b3 d8 3e ad 98 a7 3e d5 b3 eb bf a0 d7 28 3f
       0.42324713 0.3273367 -1.8414255 0.6595402
0002e0 57 8a 83 bf ca 22 4c bf 92 c6 c6 3e db 82 96 3e
       -1.0276593 -0.79740584 0.38823372 0.2939671
0002f0 be 25 a3 bf e8 66 a4 be 1a 9c 06 3f 10 c0 4d bf
       -1.2745893 -0.3210976 0.5258194 -0.8037119
000300 f2 cb a7 be 52 a9 30 3f 98 2d 08 bf d1 95 19 bf
       -0.32772785 0.6900836 -0.5319457 -0.59994227
000310 96 d2 75 bf eb 22 7f 3e 0c 30 12 3d e7 dd cb 3e
       -0.96024454 0.24915664 0.035690352 0.39817736
000320 26 43 b1 3e b5 00 89 be ec f5 92 3a 2e bb 52 bf
       0.34621543 -0.26758352 0.0011212206 -0.82316864
000330 d8 4c ad 3e 38 da 5f be 1a ae 00 3e 40 33 e3 be
       0.3384769 -0.21860588 0.12566414 -0.44375038
000340 55 6b 68 3e 05 4d e8 bd b4 79 d0 3d 0b 54 be 3e
       0.22697194 -0.11342815 0.10179463 0.37173495
000350 3a 50 89 3f f8 fd 80 bd aa 9e bd 3e 20 8a 0a 3e
       1.0727608 -0.06298441 0.37035114 0.13529253
000360 6f b8 ac 3e 62 85 05 3d e6 24 3f bf cb c4 ed 3e
       0.33734462 0.032597907 -0.7466568 0.46439204
000370 f0 0f ce 3e 51 cd 11 bf 17 30 24 b8 35 f5 31 3f
       0.40246534 -0.5695391 -3.9145434e-05 0.6951478
000380 8c 7a 10 3d 34 8d 47 bf c8 87 42 be bf 7a 28 be
       0.03527312 -0.77949834 -0.18997109 -0.16453074
000390 78 95 ed be 1b 67 4c 3e 9e 66 e6 be 24 32 bd 3e
       -0.46403098 0.19961207 -0.45000166 0.36952317
0003a0 f8 7e 2a 3f 66 af 6e 3f 21 b2 90 3e e1 40 48 3f
       0.6659999 0.93236387 0.28260902 0.78224
0003b0 a3 e0 25 3f a4 67 72 be 4a ae bb be 55 3c fe 3d
       0.64795893 -0.23672348 -0.3665641 0.12413851
0003c0 fc 13 8c be 2d d9 f0 bd 83 ee 79 3f fa 86 a3 be
       -0.27358997 -0.11760173 0.97629565 -0.31938916
0003d0 38 6f 60 3e 1f 40 90 be 10 d9 b2 bf db 92 d5 3f
       0.21917427 -0.2817392 -1.3972492 1.6685442
0003e0 26 74 76 3c 5b bc 07 3e 37 1e 39 bc e8 a6 0d bf
       0.01504234 0.13255446 -0.011298708 -0.55332804
0003f0 d2 b6 cf be 4b e2 b6 3c 7d 7f 00 be 11 25 8b bf
       -0.40569168 0.022324702 -0.12548633 -1.0870687

lstm.bias_ih_l0 f4 [256]
000000 cb 4b f9 3d 08 5f 1c bf 9a 23 97 3d 64 08 55 be
       0.121726595 -0.61082506 0.07379837 -0.20803982
000010 81 73 32 3e 3c 95 a8 be b7 9d d6 bd 19 71 e6 bd
       0.17426874 -0.32926357 -0.104793005 -0.112520404
000020 05 51 b9 3f b7 c1 16 3e 7f d2 9a 3d 35 25 55 3e
       1.447785 0.14722334 0.0755968 0.20814975
000030 02 2a 7f be 72 52 18 bf 9a fc 2a be 42 a4 09 bf
       -0.24918368 -0.595008 -0.16697922 -0.5376626
000040 99 1e 28 3c d5 66 e1 3d 07 f3 a5 be aa c8 1b be
       0.010261201 0.11005942 -0.32411978 -0.15213266
000050 d8 65 cf 3e f8 ae 80 be a7 cd c7 be cf 1c 43 be
       0.40507388 -0.2513349 -0.39024088 -0.19053958
000060 d3 98 d4 3e 55 dc 3e 3e ae 9e 31 bd d9 33 f0 bd
       0.41522846 0.18638737 -0.04336422 -0.11728639
000070 64 39 16 3f 24 dc ee bd a5 0d 4c bd b5 d9 58 3f
       0.5868132 -0.11663082 -0.0498177 0.84707195
000080 67 e6 91 be 40 fa 15 3f f5 cb c6 be 1b fb d9 be
       -0.28496096 0.58584976 -0.38827482 -0.4257439
000090 4b 95 d6 3e 13 07 8e be 64 f0 f5 3d e1 8b ac 3c
       0.41910776 -0.27739772 0.120087415 0.021062793
0000a0 fd e5 99 3f 1b ff cd 3c 4e 44 32 be ab 0c f2 3d
       1.2023312 0.025146058 -0.17408869 0.118188225
0000b0 45 2e 3e 3e 54 81 49 3e 4e 34 26 bd 2a 7a e2 3e
       0.18572338 0.19678241 -0.040577225 0.4423383
0000c0 ff 5d 82 3f bb 46 81 be b1 43 df 3d b7 62 0f 3f
       1.0184935 -0.25249276 0.10901583 0.5601
0000d0 26 ec 06 bd c0 7f 8b be 33 80 a0 be 3f 72 5d be
       -0.032940052 -0.27245903 -0.31347808 -0.21625613
0000e0 dc 37 33 bd a8 60 63 be 78 6e 47 be 30 ca b2 be
       -0.043754444 -0.2220484 -0.19475734 -0.34919882
0000f0 63 e8 a0 3d a6 0d a7 be 2a 6f 95 be 2d cc 9b be
       0.07856824 -0.326276 -0.29186374 -0.3042921
000100 d7 9b b1 bd 7f e4 ba be da a6 64 be f4 0c 8b 3e
       -0.08672302 -0.36502454 -0.22329274 0.2715832
000110 f2 ad 87 be 23 aa 2a 3f 62 d5 12 3f b6 49 0c be
       -0.26499897 0.6666586 0.57356846 -0.13699993
000120 67 07 f0 3c ac d0 60 3d 49 eb f7 3d f7 e3 c3 bd
       0.029300405 0.054886505 0.12105424 -0.09564965
000130 b7 ed 88 3e 91 db a0 be 77 c3 b5 3d 95 26 99 be
       0.26743862 -0.31417516 0.088751726 -0.29912248
000140 3c 7e af 3d c5 6d 85 bd 81 99 71 3e 32 3e 5b 3e
       0.08568999 -0.065150775 0.23593713 0.21410444
000150 de f5 e8 bd 82 1c 8c 3e 4b 2a ae be 1d 17 75 be
       -0.113750204 0.273655 -0.34016642 -0.23934598
000160 f0 59 0d bf 27 83 e6 3d 0a 1e 99 3e 38 f1 61 be
       -0.5521536 0.11255484 0.2990573 -0.22064674
000170 8a 07 43 3e e8 6a a9 bd 96 e8 9c 3e 90 af 16 bf
       0.19045845 -0.08272344 0.306462 -0.5886164
000180 54 e6 4b bd d5 79 4c be f3 57 de bd e5 00 88 be
       -0.049780205 -0.1996835 -0.10856619 -0.26563182
000190 fa 56 12 3e 0f be 9c 3b 5c 4c 4e be bb b1 24 3d
       0.14290991 0.004783399 -0.20146316 0.04020856
0001a0 7b 7f 0f be d1 64 cf be 41 69 be be 2b c3 91 3d
       -0.14013474 -0.40506604 -0.37189677 0.071173035
0001b0 eb a3 9d 3e 78 92 cb 3e 17 96 33 be 9a 82 2f be
       0.30789122 0.39760184 -0.17537723 -0.17139664
0001c0 2f 08 1d be 28 9f f2 3e ee 77 77 bd 12 fa c6 bd
       -0.15335153 0.47387052 -0.06041711 -0.09715666
0001d0 9a 91 72 3c 97 00 fb 3d a0 d0 26 bd 54 5d 3e be
       0.014805222 0.12255972 -0.040726304 -0.1859029
0001e0 1c 02 a7 3e 25 c7 cb bc 85 2a 75 3e cd 11 c1 bd
       0.32618797 -0.024875233 0.23942001 -0.09427223
0001f0 be 44 7c be 95 c8 94 3e 58 4d cd be c3 6e 9a bd
       -0.24635598 0.29059282 -0.4009807 -0.07540657
000200 7e f1 9e bd da 6b 03 be 5a ea 46 3d 40 a8 0c 3d
       -0.07760905 -0.12834111 0.04856334 0.034340143
000210 44 8e 86 bc 59 9b d9 3d 5c 83 bc bd da 73 ee 3d
       -0.01642526 0.10625333 -0.09204742 0.11643191
000220 df 84 63 be cb 33 c4 be 71 cd c1 bd b1 77 5a 3e
       -0.22218655 -0.38320765 -0.09463013 0.21334721
000230 dc 5c 46 bd 99 b0 7e 3e 2a 2e 29 3e 1d fe 43 3d
       -0.0484284 0.24872054 0.16521516 0.047849763
000240 ca 2b bb be 23 3d 8b 3d b1 54 29 be f6 8d 4f be
       -0.36556846 0.0679877 -0.16536213 -0.20268998
000250 d9 4c d7 3b e9 e9 5f be 5e f7 e1 bd a5 be a9 3d
       0.0065704403 -0.21866573 -0.1103351 0.08288316
000260 2c 33 1e 3e 68 96 65 bd 53 7d b7 bd 1d 39 04 bc
       0.15449208 -0.05605164 -0.089594506 -0.0080702575
000270 bc 04 ba bd f3 da 1b 3d a4 66 b9 b9 be bf 5e be
       -0.09082934 0.038050603 -0.00035362423 -0.21752831
000280 04 9e f2 bd ff 59 58 3e c5 bd 8b 3c b0 48 84 3e
       -0.11846545 0.21128081 0.017058263 0.25836706
000290 b9 1c 0a 3e 90 d4 7c 3e 04 f8 4d 3e d9 c5 0c 3e
       0.1348752 0.24690461 0.20114142 0.13747348
0002a0 4b aa 74 be 72 50 3a 3d 25 03 88 bd 4f 06 0a 3e
       -0.23893087 0.045486875 -0.06641225 0.13478969
0002b0 86 e7 34 be c2 71 79 3e f3 c1 97 be b2 75 0c 3e
       -0.17666444 0.24359801 -0.2964016 0.13716772
0002c0 f9 4f 63 3e 61 e9 0d 3e b8 66 bd bd e3 5e 7f 3d
       0.22198476 0.13858558 -0.09248108 0.06234635
0002d0 51 41 38 be 44 42 56 bc ea 81 37 3e 83 71 0c 3d
       -0.17993666 -0.013077322 0.17920652 0.03428794
0002e0 40 87 b7 3c 54 5e 2d 3e 11 95 b5 be 4a 6d 27 bd
       0.02240336 0.16930515 -0.3546529 -0.04087571
0002f0 d9 ad 86 3e 03 dd 99 3d d9 4c d5 bc 76 49 0c 3d
       0.2630451 0.07512858 -0.02603762 0.034249745
000300 b9 90 14 3e 65 8b b8 3d d0 7f ec bc cf 1a 83 be
       0.14508332 0.090109624 -0.02886954 -0.2560639
000310 6d 8b 10 3e 88 72 e6 bd 71 50 b3 bc 72 b9 29 be
       0.14115687 -0.11252314 -0.021888943 -0.16574648
000320 68 cd be 3f c6 69 2c bf 29 fc 72 3e c3 8f 14 3e
       1.4906435 -0.673489 0.23729004 0.14507966
000330 5a 69 1d be e8 cd bb be d8 86 ac be 26 15 97 bc
       -0.1537222 -0.36680532 -0.33696628 -0.018442702
000340 57 b2 8c 3d ea b4 31 bd 12 94 ea be e0 85 1a be
       0.06869953 -0.043385424 -0.45816094 -0.15090132
000350 db 7b a5 3e 7c 96 ab bd 6c 50 c4 bd 4c b0 a7 bd
       0.32321057 -0.08378312 -0.09585652 -0.08187923
000360 4b 42 3a 3f f6 09 46 bd 39 7b de be 41 3a cb 3d
       0.72757405 -0.048349343 -0.43453386 0.099232204
000370 09 9f 2f be 3b e6 89 3e 64 d0 bc 3e e2 9b 9a 3f
       -0.17150511 0.26933464 0.3687774 1.2078822
000380 8a 94 89 be 2e 8c 29 3f 7b 30 6f 3c 89 1b cc 3d
       -0.2687114 0.6622952 0.014598961 0.099661894
000390 3d ee da 3e da 37 0c 3d 63 cf 40 be ff 87 3a 3d
       0.42759886 0.03423295 -0.18829112 0.045539852
0003a0 a9 4a 88 3f 02 64 04 bf 8c 50 d6 be d3 06 17 be
       1.0647784 -0.517151 -0.41858327 -0.14748697
0003b0 5a ad 8c 3e 60 e4 0e 3d bf 38 5e 3d da 48 fd 3e
       0.27476007 0.034885764 0.054253336 0.49469644
0003c0 20 98 99 3f d3 0f eb be fe 64 12 3e 75 92 45 3f
       1.199955 -0.4591051 0.14296338 0.771766
0003d0 29 98 96 3e c3 20 56 be ae 56 f5 be 15 9c a8 be
       0.29412964 -0.20910935 -0.47917694 -0.3293158
0003e0 02 41 29 bc b8 f9 7b be af ff a2 bd 59 eb c4 be
       -0.0103304405 -0.24606979 -0.07958924 -0.38460806
0003f0 30 09 8d 3e aa 67 b7 bd 48 81 5c 3e 96 e6 3b 3e
       0.27546072 -0.08955319 0.21533692 0.1834968

lstm.bias_hh_l0 f4 [256]
000000 d0 02 a6 3a bb 95 00 bf d8 c9 33 3d 56 f2 4b be
       0.0012665633 -0.5022847 0.043893665 -0.19916663
000010 f2 8e 8a 3e 06 77 91 be a4 75 1f be ca 1b d0 bd
       0.27062184 -0.2841112 -0.1557222 -0.1016155
000020 dd 79 a9 3f 85 54 29 3e a4 1d 53 3e d9 d6 8f bc
       1.3240315 0.16536148 0.20616776 -0.017558502
000030 95 05 03 bd 6a ad 00 bf 5e c7 9c be 3d ec 12 bf
       -0.031987745 -0.5026461 -0.30620855 -0.5739172
000040 c1 0e 28 be 7d c8 6b 3d 5e 30 53 be 4f 27 96 be
       -0.16411878 0.057564247 -0.2062392 -0.29326865
000050 9a ed ec 3e 1e 3a f3 bd 64 41 de be 91 56 02 be
       0.46275026 -0.11876319 -0.43409264 -0.12728335
000060 f3 0e e0 3e 76 a6 4a bb 45 43 26 3d b0 e7 4b 3b
       0.43761405 -0.0030921972 0.040591497 0.0031113438
000070 bc 35 dc 3e a8 cc 32 be 32 29 09 3d 87 60 36 3f
       0.43009746 -0.17460883 0.033486553 0.7124104
000080 56 1b 35 be 10 d0 07 3f 72 5b bf be d0 6f b8 be
       -0.17686209 0.53051853 -0.37374455 -0.36022806
000090 93 10 9c 3e 61 81 ae be b3 4b 42 3e 04 32 ed 3d
       0.30481395 -0.34083083 0.1897419 0.11581805
0000a0 10 c0 9e 3f 9d 85 dd 3d 62 ad 23 be 0d 4c fc bb
       1.2402363 0.108165 -0.15984109 -0.0076994956
0000b0 1c a1 8e 3d 3b 5b 18 3e 7a c3 45 bd 7e 36 d7 3e
       0.06964323 0.14878552 -0.048282124 0.42033762
0000c0 48 0e 70 3f cd 8c 52 be 86 34 0a 3e cf b6 16 3f
       0.9377179 -0.20561524 0.13496599 0.58872694
0000d0 68 99 8a be 22 2b d3 be 9c e2 e1 be 59 e0 a1 be
       -0.27070165 -0.41243845 -0.44118202 -0.31616476
0000e0 dd 75 4d be e2 74 d0 be 29 50 b5 bd 06 c6 e2 be
       -0.20064493 -0.40714175 -0.0885318 -0.44291705
0000f0 68 46 93 3d 5f dc a2 be dc f5 da bd 06 c1 b2 be
       0.07191163 -0.31808755 -0.10691425 -0.3491289
000100 93 ff 97 3d 3e 78 9e be c0 47 8c be c0 b0 c1 3d
       0.07421794 -0.30951113 -0.2739849 0.094575405
000110 ec 49 eb bd ef c3 26 3f c6 68 c6 3e ed 79 22 3d
       -0.11488709 0.6514272 0.3875181 0.03966706
000120 62 51 75 bd 82 6a b9 3d f1 c4 9a 3c 73 04 4a 3c
       -0.059892066 0.09053518 0.018892737 0.012330162
000130 2e 32 e8 3e d1 78 61 be 4c 3f 4b 3e f7 2c 70 be
       0.45350784 -0.22018744 0.19848365 -0.23454653
000140 27 e0 fb bc 2f 27 cb bd bb c3 83 3e ee 01 f2 3c
       -0.030746533 -0.09919583 0.25735268 0.029541936
000150 b3 2c 47 bd 7a 70 1f 3e dd 9e 48 be 8f 47 83 be
       -0.048626613 0.1557025 -0.19591852 -0.25640532
000160 0c 20 15 bf 84 e8 b5 3d 22 d8 35 3e ef 36 90 be
       -0.58252025 0.088822395 0.1775823 -0.2816691
000170 b2 9b 8d 3e b7 46 4c be fe 72 b1 3d a5 92 ef be
       0.2765785 -0.1994885 0.08664511 -0.46791568
000180 63 c8 85 bc 5a 75 82 3c 9b 73 66 bd 07 75 3f bd
       -0.016330903 0.015925098 -0.056262594 -0.046742465
000190 c7 87 89 3d 6c 02 0c bd 00 dd 4c be 64 61 7c 3c
       0.067153506 -0.034181997 -0.2000618 0.015404079
0001a0 31 ff d2 bd 8b 46 00 bf 4b a5 55 be 7a b3 54 3e
       -0.1030258 -0.5010764 -0.20863836 0.2077159
0001b0 5a 40 9f 3e e9 d5 9b 3e 26 b0 ff bd b5 99 16 be
       0.31103784 0.30436638 -0.124847695 -0.14707072
0001c0 a5 68 fa bb 25 7b d6 3e 47 ca 6c bd 99 93 a0 bd
       -0.007641869 0.41890827 -0.057810094 -0.07840652
0001d0 8d 3b 50 bc aa 78 b9 3d 9f b4 4f be f5 53 29 be
       -0.0127095105 0.09056218 -0.20283745 -0.16535933
0001e0 a3 30 ab 3e 62 e7 d1 bd ae 74 6e 3e f3 28 04 bd
       0.33435544 -0.10249211 0.23286697 -0.032265615
0001f0 7a 15 48 be 66 b9 83 3e 83 8d 97 be ca 9c 19 3d
       -0.19539443 0.25727385 -0.29600152 0.03750304
000200 df ad a7 bc c0 e8 b6 3c 79 d5 e6 bd ed 40 ed 3d
       -0.02046865 0.02232778 -0.112711854 0.11584649
000210 dd 82 c9 3d 05 f4 96 3e 04 a6 dc bd dd d7 6c 3e
       0.09839413 0.29483047 -0.107738525 0.2312922
000220 c3 e0 64 be ff 02 e4 be fb b7 bc 3d ec cd 79 3e
       -0.22351365 -0.44533536 0.09214779 0.24394959
000230 39 66 6f 3c d5 08 83 3e 3d b7 2e 3e 66 95 0f 3e
       0.014611774 0.25592676 0.17062087 0.14021835
000240 ab 1c 15 be 50 32 0b 3e b9 a6 20 be 0f 28 20 be
       -0.14561717 0.13593411 -0.156886 -0.15640281
000250 8e 18 22 3e ab 78 13 be 54 40 2e be 52 17 42 3e
       0.1582968 -0.144015 -0.17016727 0.18954208
000260 94 df 26 3e e1 0e 38 3d 4e 2d ad bb eb fe 1f 3d
       0.16296226 0.044936065 -0.0052849418 0.039061468
000270 6f 76 98 bd ed 11 21 be f3 87 fd 3c 8d a3 b8 be
       -0.074444644 -0.15729494 0.030948615 -0.3606228
000280 71 4b 36 be f7 6e 6d 3d ce 49 48 3d 35 61 ca 3d
       -0.17802216 0.057967152 0.04889851 0.09881822
000290 db c2 c3 3d af ac 5b 3e c1 8f 6a 3e 00 04 32 3e
       0.0955865 0.21452592 0.229064 0.17384338
0002a0 21 d6 97 bd 62 e1 c3 3d 34 18 d3 bd 36 a4 b3 3d
       -0.07413889 0.09564473 -0.10307351 0.08771555
0002b0 a4 a1 41 be 66 ff e4 3d d5 f0 a3 be 5b e3 fe 3d
       -0.18909317 0.11181526 -0.32019678 0.12445708
0002c0 34 92 9d 3d 46 92 0f 3e 54 28 aa bd 57 e5 59 3e
       0.07693902 0.14020643 -0.08308473 0.21278892
0002d0 dd ad 27 be e9 29 0f be b6 c6 c2 3d 75 33 75 3d
       -0.16374917 -0.13980831 0.09510557 0.059863526
0002e0 6d 67 37 3e 77 7f 63 3d f5 6e c5 be c1 31 16 be
       0.17910548 0.05554148 -0.38561216 -0.14667417
0002f0 6a 32 73 3d bd dc 76 3b ff 6e ea bd 00 d2 ed bc
       0.05937425 0.0037668191 -0.11446952 -0.0290308
000300 d1 df 58 3e ab 32 c4 bb 9e 8f 6b 3d 32 2f bb be
       0.21179129 -0.0059874854 0.05751001 -0.36559445
000310 39 94 44 3d 81 03 f3 bd 50 90 63 be ab d3 57 be
       0.04799292 -0.11865903 -0.2222302 -0.21076839
000320 a8 79 ba 3f 8c f9 13 bf 72 bc 49 3e 43 18 8f 3e
       1.4568377 -0.57802653 0.19700792 0.27948198
000330 ff e9 48 be 1b 9d c4 be 52 f8 70 be ae 2c 74 bc
       -0.19620512 -0.38401112 -0.23532227 -0.014903231
000340 cf c8 94 3d fd 25 cb 3b 99 fd ba be 4c e3 0e be
       0.07264864 0.006199597 -0.36521605 -0.13953894
000350 85 ee e8 3e 6d 5b 71 be b9 a9 1d be 3d c0 b0 bd
       0.45494476 -0.23570032 -0.15396775 -0.086304165
000360 ad 81 27 3f 85 ac c8 bb 28 6c 8d be ff a1 44 3e
       0.65432245 -0.0061240816 -0.2762158 0.19202422
000370 4d 3c d7 bd f3 20 7c 3e a9 1b bc 3e 7b 3f 9b 3f
       -0.10509548 0.24621944 0.36739853 1.2128748
000380 b9 0d b9 be 55 9a 00 3f 8d 82 21 3e 3e 00 35 3c
       -0.36143282 0.5023549 0.15772457 0.011047421
000390 19 5c e3 3e d7 36 90 bd e3 db 97 be 30 aa 7f bc
       0.44406202 -0.0704171 -0.29659948 -0.015604541
0003a0 b2 33 88 3f 23 95 b5 be 5b 6d 9a be 38 a6 f5 bd
       1.0640776 -0.35465345 -0.30161557 -0.11994594
0003b0 17 44 a1 3e 17 95 3d 3d 38 9b 43 3c a9 0c 20 3f
       0.3149726 0.04628476 0.0119388625 0.6251932
0003c0 c2 87 8f 3f 4e 3f c7 be d7 36 28 3e 58 49 39 3f
       1.1213305 -0.38915485 0.1642717 0.7237754
0003d0 9c df c1 3d 25 3d 0c be 1e a4 98 be 75 b2 7d be
       0.09466478 -0.136952 -0.2981271 -0.24775107
0003e0 b5 e9 c4 3d 82 49 a8 be 7c f5 16 be 9f 3b 43 be
       0.096148886 -0.32868582 -0.14742082 -0.19065712
0003f0 97 a4 90 3e cc 24 24 bd 6a f7 ed 3b c3 32 1a 3e
       0.28250572 -0.040074155 0.00726216 0.15058427

lstm.weight_ih_l1 f4 [256, 64]
000000 5b 48 6b 3f 37 ca 9d bf 77 9a 9c 3e 9c b5 f8 be
       0.9190728 -1.2327336 0.30586597 -0.48576057
000010 d6 a9 92 3f 9e 77 14 3f 02 cb 60 bf 51 6d 75 3e
       1.145808 0.5799502 -0.87809765 0.23967482
000020 28 e9 36 bf cc fe da bf 3f 9b 24 be 74 49 23 bf
       -0.7144952 -1.7109008 -0.16074847 -0.63783956
000030 77 bc 31 3f 9b 4f f7 3e 85 c1 cd be 1f 65 37 3f
       0.694282 0.48302922 -0.40186706 0.71638674
000040 bf ab 5b 3f 9b 69 bb be 8d 62 6e bf ce ce 27 bf
       0.8580894 -0.36604008 -0.93119127 -0.65549934
000050 e8 09 b4 3f 6c ae 13 3e a8 59 c0 3f 29 13 38 bf
       1.4065523 0.14422005 1.5027361 -0.71904236
000060 c7 0c ae 3f 6a d2 85 3f 5a 52 38 be 2b bd c7 be
       1.3597649 1.0454838 -0.18000165 -0.3901151
000070 2f 4f 43 3e c3 71 29 3e 9b 93 80 3e af 01 28 bd
       0.19073175 0.16547303 0.25112614 -0.04101723
000080 ec 5f 6c 3f 22 57 ed bc 97 fc bd bf 82 d8 2e be
       0.92333865 -0.028972212 -1.4842709 -0.17074779
000090 20 bf 95 3f 3b aa 32 bd 27 49 bb be c6 56 56 c0
       1.1698952 -0.043619376 -0.36579248 -3.3490462
0000a0 25 3f ef 3e 93 19 92 bf 17 8d 10 3e 09 b8 5c 3e
       0.46727863 -1.1414055 0.14116322 0.21554579
0000b0 df f7 fb 3d 30 df a1 be 73 a1 1f bf 54 48 80 bf
       0.12303137 -0.3161559 -0.62355727 -1.0022073
0000c0 d6 2d da 3e 32 23 18 3b 61 04 c8 bf aa 83 d8 3f
       0.42613095 0.0023214337 -1.5626336 1.6915181
0000d0 79 ee a6 3e 7d c7 0d be 65 d1 9c bf 75 9e 02 be
       0.32603815 -0.1384563 -1.2251402 -0.12755759
0000e0 42 64 12 c0 39 f9 e1 3e 71 ab e5 3e 92 cc d2 bc
       -2.2873693 0.44135454 0.44857362 -0.025732312
0000f0 33 f2 80 bd 8f b0 c9 bf b0 20 f6 bd 73 8b e4 3f
       -0.06296196 -1.5757006 -0.120179534 1.7855057
000100 aa aa 20 be 93 5a 97 3e 49 d1 39 bf 30 08 e0 be
       -0.15690103 0.2956129 -0.7258497 -0.43756247
000110 96 6b 7d 3e 2b 40 29 3f 80 4d 23 bf a1 f4 de 3e
       0.24748072 0.6611354 -0.6379013 0.43546012
000120 e2 6c 58 c0 d3 49 39 bf 15 06 20 3f 8a c3 6d bf
       -3.3816457 -0.7237827 0.6250928 -0.92876494
000130 41 02 17 3e a5 b3 71 bf 94 f5 86 3f 5e ff ea be
       0.14746954 -0.9441474 1.0543694 -0.45897955
000140 39 3a 81 be 4a e6 d5 3f 16 47 d2 be 6e b9 c4 be
       -0.25239733 1.6710904 -0.4106986 -0.38422722
000150 fc 6e 98 be fa 55 ea be be fd 5f 3f 67 67 8e 3f
       -0.29772174 -0.4576872 0.87496555 1.1125306
000160 7c a6 42 3e 56 d4 9c 3e e6 7c 84 be 6c 36 e7 bd
       0.19008821 0.3063075 -0.2587654 -0.11289677
000170 d7 35 87 be 0c e6 d7 3e 7e a6 7d be d2 b1 8b bf
       -0.26408264 0.421677 -0.24770543 -1.0913641
000180 63 b8 8f be c4 41 b8 3f 71 b8 51 3f 6a 8e 80 bf
       -0.28070363 1.439507 0.8192206 -1.0043461
000190 cd 6e 0e bf cd 0f 88 be cf f8 bd bf 8e 30 6b bf
       -0.5563782 -0.26574555 -1.4841555 -0.91870964
0001a0 b3 5f 3f bf 20 ef 52 bf 0b c2 1d 3f fe 91 2c 3e
       -0.747554 -0.82396126 0.6162421 0.16852567
0001b0 39 77 89 be ba 3f 83 be 57 35 7c be 45 69 00 3f
       -0.26848772 -0.25634557 -0.24629723 0.5016063
0001c0 23 f8 3d 3f 53 41 a7 bd 03 f9 cb 3e 02 18 01 40
       0.7420675 -0.081667565 0.39838418 2.0170903
0001d0 94 0d 4c bf 3f af 7c be 48 59 50 3f 2a 20 9e bf
       -0.7970822 -0.24676226 0.8138623 -1.2353566
0001e0 54 0c 30 3f 91 36 ed be e6 6c 81 bf 18 09 22 bf
       0.6876881 -0.46330693 -1.0111358 -0.63295126
0001f0 35 98 b9 be 45 fd 37 be db 96 93 3e a4 92 81 bf
       -0.36248937 -0.17967708 0.2882603 -1.0122876
000200 56 7d 99 3e 34 f6 3b be 1e 61 9b 3e 8c f0 20 bf
       0.29978436 -0.18355638 0.30347532 -0.62867045
000210 cf ca 6e 3f 31 cb 2a bf cd ff 92 bf cf b1 2e 3e
       0.9327821 -0.66716295 -1.1484314 0.17060016
000220 1c 6e 4c bf 14 5a 89 3f 35 17 82 3d f7 1d 60 be
       -0.79855514 1.0730615 0.06352083 -0.2188643
000230 be a8 c1 be a3 05 28 3e ae eb 6f be 6b bd ce be
       -0.37824053 0.164084 -0.23429748 -0.4037889
000240 eb c9 eb 3e 8b 0d 12 bf ba 62 43 be 83 b8 e7 3d
       0.4605249 -0.57051915 -0.1908063 0.1131449
000250 46 c2 60 be 19 17 15 be 45 ee cd be 03 ea 2f 3f
       -0.2194911 -0.14559592 -0.40220848 0.6871645
000260 5b 85 c1 3e eb 3c 8b 3f a6 c5 41 3e 58 80 6f be
       0.37797055 1.0877966 0.18923053 -0.23388803
000270 65 64 bb be 6c d6 1b 3e 0e 5f 06 3f 58 14 9f be
       -0.36600032 0.15218514 0.5248879 -0.3107021
000280 09 2c 44 be 76 8c 8c bd 91 d4 aa be f7 4e 47 bf
       -0.19157423 -0.06862728 -0.333653 -0.77854866
000290 5e c1 b8 3e 4e b6 cf 3e 7b 5c 0a 3f 94 f8 3a 3f
       0.36085027 0.40568775 0.54047364 0.7303555
0002a0 7e bf 0c 3f 28 73 11 bf ee b3 9a bd 6d 04 78 bf
       0.54979694 -0.5681634 -0.0755385 -0.96881753
0002b0 10 4e 7c be 42 3b b7 be 21 79 cc bd 88 db 95 be
       -0.24639153 -0.35787398 -0.09984041 -0.29269052
0002c0 c4 29 c2 be 5c 45 79 be 84 49 13 bf 9b c3 3e 3f
       -0.3792249 -0.24342865 -0.5753405 0.7451722
0002d0 92 3b dd bd 25 2f 97 bd 21 74 7e bf 5c d5 75 3f
       -0.10802378 -0.07382039 -0.9939595 0.96028686
0002e0 01 79 57 3e a8 fb 2d 3f 37 72 81 3e 7f 03 fc bd
       0.21042253 0.6796212 0.25282452 -0.12305354
0002f0 34 17 ec be 80 42 e8 be ca 29 8e 3f f4 c1 5a bf
       -0.46111453 -0.45363235 1.1106503 -0.854522
000300 72 3e 5b bf 06 f6 51 be da 64 5f bf 42 1c 0f 3e
       -0.8564216 -0.20504007 -0.8726326 0.13975623
000310 2d e0 cb be df 07 fb 3c 98 d7 5a be 9b ae fb be
       -0.3981947 0.030643402 -0.21371305 -0.4915665
000320 42 9f 01 bf 2b 2f 54 be 0b d6 32 3e 35 bb c2 be
       -0.50633633 -0.20721118 0.17464463 -0.38033453
000330 23 2d 8b be ef a9 42 bf 5c 11 d0 3e db 77 43 bf
       -0.27182874 -0.7604055 0.40638244 -0.7635476
000340 6d b0 7d be 7e 5f 98 be e2 3e 14 bf ef fc 83 be
       -0.24774332 -0.29760355 -0.5790845 -0.2577891
000350 84 cf 93 be e9 d2 03 3e 5f fe 0e 3d 1c ad be bf
       -0.2886926 0.12873425 0.034910556 -1.4896579
000360 b1 1c c3 be cd d2 0b bf 8a 67 26 3e 33 53 92 bf
       -0.38107827 -0.5461853 0.16250435 -1.143164
000370 ea 4d ae bf 7d 48 fb 3e aa 3c d1 3e 62 b4 7e 3e
       -1.3617527 0.49078742 0.40866596 0.24873498
000380 28 7c 27 3e f6 20 0b 3e 6a a7 85 bf 3b a9 07 be
       0.16355956 0.13586792 -1.0441716 -0.1324815
000390 d1 6c 3b 3d 0c cf 58 3d d5 c3 18 be 9f 02 af 3f
       0.045758072 0.05293183 -0.14918454 1.3672675
0003a0 7a d0 96 3e 35 d7 f8 bd b1 f5 e8 be 48 f7 8c be
       0.2945593 -0.121504225 -0.45499948 -0.2753241
0003b0 be 0f 1b be 1b 2e 95 be a3 97 3a be a4 b1 04 3e
       -0.15142724 -0.29136738 -0.18221907 0.1295839
0003c0 4d 30 07 3e bb 04 63 3f d8 89 90 bd 06 69 15 3f
       0.13202019 0.88679093 -0.070575416 0.5836338
0003d0 54 77 4f bf c6 a8 f4 be b4 57 d4 be 0f 14 52 3f
       -0.81041455 -0.47785014 -0.41473162 0.82061857
0003e0 b6 fc 65 be ce 6b 54 3e 6a 2d 19 bf 0d cb ba bf
       -0.22459683 0.20744249 -0.5983492 -1.4593216
0003f0 ba ba d7 3e c2 70 94 3e d4 ab 6e 3f cd ba 94 3f
       0.4213465 0.28992277 0.9323094 1.1619507

lstm.weight_hh_l1 f4 [256, 64]
000000 ec 88 46 c0 bf cf 0a 3e 83 98 9c be 20 c8 4d 3f
       -3.102107 0.13555811 -0.30585107 0.8038349
000010 70 ae 88 bf 21 97 05 c0 b2 d5 9d 3e c3 82 a2 bf
       -1.0678234 -2.0873492 0.308271 -1.2696155
000020 60 30 80 bf 98 1f 45 3e 97 bb 54 3f 07 7b 4f c0
       -1.0014763 0.19250333 0.8309874 -3.241884
000030 be 2e 21 c0 40 de 38 be aa 0e 8d 3e 78 55 5f 40
       -2.518478 -0.18053532 0.2755025 3.4895916
000040 0e 47 04 c0 07 57 f8 be e9 b3 f3 be ba 59 31 bd
       -2.0668368 -0.48503897 -0.47598198 -0.04329846
000050 be 94 d6 be d9 c4 aa bf 8b 6a 44 c0 48 2f 84 bf
       -0.41910356 -1.3341323 -3.0690029 -1.0326929
000060 fd 34 04 c0 db 9c e0 bf f0 f9 87 be 6e c5 f3 3f
       -2.0657341 -1.7547868 -0.26557875 1.9044626
000070 ee 1e 4e 3c 2c e3 85 bf 11 06 1b 40 fc e8 19 bf
       0.012580616 -1.0459952 2.4222453 -0.6012113
000080 a6 81 b7 bf 29 c1 23 bf 95 5f b2 bf f7 47 c1 be
       -1.433644 -0.63966614 -1.3935419 -0.37750217
000090 79 10 b1 be 6f 2f d8 3e 65 e2 43 bf b2 39 89 bf
       -0.3458288 0.4222369 -0.76517326 -1.0720732
0000a0 af ec b8 bf 23 47 16 be 44 5c c2 3f 1c 76 34 bc
       -1.444723 -0.14675574 1.5184407 -0.011014488
0000b0 6f 59 f8 3f 23 4a 3c 3e 96 89 9a 3f 65 b1 91 be
       1.9402293 0.18387656 1.2073238 -0.28455654
0000c0 64 e7 02 3f e8 60 10 bf 7b 93 02 bc 20 77 94 bf
       0.51134324 -0.5639787 -0.007969732 -1.1598854
0000d0 02 e4 dc be b2 82 83 bf 5b a2 7c be b9 5e 14 3f
       -0.43142706 -1.027426 -0.24671309 0.57957035
0000e0 f6 ab 68 bf 31 26 29 bf 9b ee 2e bf 85 86 bb be
       -0.9088739 -0.660739 -0.68332833 -0.36626068
0000f0 62 e4 b6 bf 30 af 58 3e b0 70 8c be e5 3d c2 3b
       -1.4288447 0.21160579 -0.27429724 0.0059277886
000100 cb 98 8b 3f 63 95 c7 be 43 73 65 3f f6 48 a5 bd
       1.0906004 -0.3898116 0.89629 -0.08070557
000110 4a 57 8a bf ff 60 c3 3f 61 8c 77 bf de 0f 8d bf
       -1.0807889 1.5263976 -0.96698576 -1.1020467
000120 04 2b 38 bf e3 5a bf 3e c0 3a 16 3f da 7b 2c bf
       -0.71940637 0.3737403 0.58683395 -0.6737648
000130 40 ce e7 be 45 96 61 3f dc ef 39 bf fa d0 e8 be
       -0.45274544 0.8811992 -0.7263162 -0.45471936
000140 8a 76 f6 3f 83 f9 ce be c2 4c ff bf 78 25 26 3f
       1.9254925 -0.40424737 -1.99453 0.6490092
000150 05 ed 5f 3c 2d 70 02 c0 b4 81 89 3f dd 13 50 3e
       0.01366735 -2.0380967 1.0742707 0.20320077
000160 46 5f 87 bf 5b d3 bf 3f 1e cb d9 bf 9b 82 2e bf
       -1.057595 1.4986376 -1.7015111 -0.6816804
000170 16 f6 61 3e bb 87 f8 3e 92 b8 1b bc 6c 6e 4a 3f
       0.2206653 0.48541054 -0.009504454 0.7907474
000180 46 64 c2 3e d9 90 4b bf f6 97 69 3e ee d4 aa 3d
       0.37967128 -0.79517895 0.22811875 0.08341394
000190 d8 b6 30 3f 3e 42 94 3f 91 9d 07 3f 2e 1f b1 3f
       0.69029 1.1582716 0.529748 1.383764
0001a0 41 41 73 bf 93 a5 a2 bf 74 ee 44 bf f1 3e 20 bf
       -0.95021445 -1.2706779 -0.7692635 -0.6259604
0001b0 4d cf 1b bf de 63 5b 3d f2 fd ed be 76 37 ad be
       -0.6086319 0.053562038 -0.46482807 -0.33831376
0001c0 d0 f7 20 3f b0 72 ad be 56 de d4 bf b2 a2 c2 3e
       0.6287813 -0.33876562 -1.6630352 0.38014752
0001d0 90 71 a4 3e 41 7c 0f be e2 e8 41 be 15 8e 03 bf
       0.3211789 -0.14012243 -0.18936494 -0.51388675
0001e0 be 5c 94 bf cf 9f f6 3e c3 2e 44 be 84 22 a5 3d
       -1.1590803 0.481688 -0.19158463 0.08063224
0001f0 d7 5b 46 3e 6e 0d 19 3f 35 63 93 bf fc bd 9e 3e
       0.19370972 0.5978612 -1.151465 0.31004322
000200 fb 43 b4 bf eb e0 63 c0 ae aa b1 bf da ce c1 bf
       -1.4083246 -3.560603 -1.3880212 -1.5141251
000210 d9 34 59 3e fc 6b 42 3e 71 c3 41 3f e9 21 99 3f
       0.21211566 0.18986505 0.75688845 1.1963474
000220 17 3a 08 c0 bd bc ef bf ca da 24 be ac 0b d3 bf
       -2.1285455 -1.8729473 -0.16099086 -1.6487937
000230 8e 3c 14 c0 8c 7c 77 bf b3 5e 80 c0 29 2c b3 3f
       -2.316196 -0.9667442 -4.01156 1.3997852
000240 13 ff be 3f 38 8e 1f 3e 74 84 eb 3e c1 9b 7f 3f
       1.4921592 0.15581596 0.4599949 0.99847037
000250 0d d0 f6 bf b1 f4 1d be b7 bb 64 3f 0f 9e 66 3f
       -1.9282242 -0.15425374 0.8934893 0.9008493
000260 08 30 55 40 dc 68 07 3f 5b db 6e bf 36 05 ac 3e
       3.3310566 0.5289438 -0.9330346 0.33597726
000270 97 e4 b3 bf 08 ee 95 bc aa 5f 72 bf 1a 82 5c 3f
       -1.4054135 -0.018301979 -0.9467722 0.8613602
000280 f2 de 1c 40 6c 15 28 bf 45 f4 50 3e f7 a1 47 be
       2.4511075 -0.6565769 0.20405681 -0.19495378
000290 1a c2 c9 3e 6e 9e 42 be f4 2b 51 bf 32 84 71 3f
       0.394059 -0.19005749 -0.8170769 0.9434234
0002a0 6d b5 65 be 86 6e bd bf 97 9f 00 40 db 24 52 3f
       -0.2243249 -1.4799354 2.0097406 0.82087487
0002b0 c2 a7 26 3e bf e1 90 bf 83 fb 5f 3f 8c 8e 02 bf
       0.16274932 -1.1318892 0.8749315 -0.5099876
0002c0 64 d4 8b bf b2 59 d7 be f3 cb 34 c0 10 ff 89 c0
       -1.0924191 -0.4206062 -2.824948 -4.3123856
0002d0 19 46 09 bf 6b 7e 20 be 8d bc bd 3d 68 a0 06 bf
       -0.53622586 -0.15673225 0.09264479 -0.5258851
0002e0 21 4b 94 40 d6 51 ab bf 20 1a 4e 3f f9 f8 88 bf
       4.634171 -1.3384349 0.80508614 -1.070098
0002f0 71 75 05 40 66 bf a2 3f e5 80 10 bf 98 1c 9a 3f
       2.085293 1.271466 -0.5644668 1.2039976
000300 bf f2 6e 3f 40 b6 da be da f8 c9 bf 34 21 b8 3e
       0.9333915 -0.4271717 -1.5779068 0.35962832
000310 52 20 1a bf 83 db 6e 3d c1 92 ad 3f ab 68 de bf
       -0.60205567 0.05831481 1.3560411 -1.7375692
000320 f8 bf 86 bf 9a 08 01 3f c8 d7 d3 be 5e 99 28 40
       -1.0527334 0.5040375 -0.41375566 2.6343608
000330 7c d1 fd be c6 34 53 3f 22 86 0b bf cf 19 85 3e
       -0.49573886 0.825024 -0.54501545 0.25996253
000340 ff 12 04 bf 01 a8 8d bf 5e 69 8e 3e b1 f2 b5 3f
       -0.51591486 -1.1066896 0.27814764 1.4214689
000350 00 ab cc 3f d2 4d 01 bf 69 06 06 bf 78 b4 90 3e
       1.5989685 -0.5050937 -0.5235353 0.28262687
000360 75 59 b4 3e 95 d4 8a 3f de cb 82 bf 09 be 49 bf
       0.352245 1.0846125 -1.0218465 -0.78805596
000370 ea e8 85 be 35 0f 9e bf c8 52 39 3f b4 9e c4 3e
       -0.26154262 -1.2348391 0.7239194 0.3840233
000380 46 da 86 3e 12 4e 09 c0 a4 22 ea 3e d6 32 50 bf
       0.26338404 -2.14539 0.45729554 -0.8132757
000390 7b c4 5a bd c0 3e 48 be 9c a6 f2 3f 42 cc 5c 3f
       -0.053410035 -0.19555187 1.8957095 0.8624917
0003a0 bd 7c 47 bf c6 c7 e6 bc 3a 55 ca be ac 0c 27 c0
       -0.7792471 -0.028171431 -0.39518148 -2.6101484
0003b0 35 67 43 3f e9 98 1c bf 35 83 fa 3e df 81 66 be
       0.76329356 -0.6117082 0.48928228 -0.2251048
0003c0 ad ff b4 3c eb c4 26 3f ba e4 46 3f e5 c4 02 3e
       0.022094572 0.6514422 0.7769276 0.12770422
0003d0 f9 f9 c3 3e 92 04 8a 3e 25 2c 33 be da 1a 5d 3f
       0.38276652 0.26956612 -0.17497309 0.863691
0003e0 a3 eb a3 bf a1 16 53 3f 00 70 99 3f 86 10 1c 3f
       -1.2806286 0.82456404 1.1987305 0.6096271
0003f0 4d e9 e8 bf 29 dc 74 bf 74 6a d9 bf 24 82 b3 3d
       -1.8196198 -0.9564844 -1.6985612 0.08765057

lstm.bias_ih_l1 f4 [256]
000000 70 da 07 bd 18 a3 29 bd 29 be 80 3e f9 84 6d 3e
       -0.033167303 -0.041415304 0.2514508 0.23195256
000010 6a 7b 14 3f 98 9a 52 3d 94 cf 99 bc 1b f1 23 be
       0.58000815 0.051416963 -0.018775739 -0.16009943
000020 ce 12 b4 bd 9d 98 1a 3e 74 ee a1 be b2 64 cd be
       -0.08792649 0.1509728 -0.31627238 -0.40115887
000030 a0 c3 17 be 9c 44 3c 3e 79 e6 02 bd ce ba 1a 3e
       -0.14820719 0.18385547 -0.031958077 0.15110323
000040 97 22 ca be 6c 64 70 3e d7 cd ed be 5a fc 79 3e
       -0.39479515 0.23475808 -0.46446106 0.2441267
000050 3f f7 60 bd 59 52 86 3e b4 8e 1f be f5 8e cc 3e
       -0.054923292 0.262347 -0.1558178 0.39952818
000060 43 9c 01 3e f4 ac 98 3d 5d 81 98 3e e2 fa e6 bb
       0.12657265 0.07454863 0.29786196 -0.0070489505
000070 07 99 5f 3e 68 4a b6 3d cb ae 87 be ca 81 d5 3e
       0.21835719 0.089009106 -0.26500544 0.41700584
000080 d8 e6 b6 3e 88 5e b8 3e 5d 97 81 3e d0 78 74 3e
       0.35722995 0.36009622 0.25310794 0.23874211
000090 b8 9a 1e 3f a1 c0 48 3e a4 ef 87 3e 11 c9 65 3e
       0.6195483 0.19604732 0.2655002 0.22439982
0000a0 5e 5b 11 3e ab c8 8b 3d 81 78 11 3d 71 13 2f 3e
       0.1419501 0.06825384 0.035515312 0.1709726
0000b0 b8 13 b0 3d 13 bd d9 bd da b8 d2 3e 70 39 0d bf
       0.08597511 -0.10631766 0.41156656 -0.5516577
0000c0 39 9b 91 3e 89 ad 12 bd 47 f7 3b bd 9f c4 dd be
       0.28438738 -0.035810027 -0.04589012 -0.43314072
0000d0 7f 48 94 bd 58 6a 1d be 05 66 d3 3e 05 77 eb 3d
       -0.0724039 -0.15372598 0.41288772 0.114973105
0000e0 eb f5 01 3e 03 76 7c be 0e fb 6d 3e fc ca d1 3d
       0.12691467 -0.24654393 0.23240301 0.10243794
0000f0 65 65 bc 3d 1a d1 bf 3e af e6 1d 3e de f5 c9 3e
       0.09199027 0.3746422 0.1542003 0.39445394
000100 c9 c0 f8 3e 0e 75 b7 be 2e 35 88 3e 05 5c c5 3e
       0.48584583 -0.35831493 0.26603073 0.38546768
000110 6e 86 2f 3e 89 c0 9d 3d a4 e6 0c bc ea 9f 33 3d
       0.17141125 0.07702739 -0.008599911 0.043853678
000120 83 d8 ad 3a 5c 89 08 be 20 09 88 3d ae 54 47 be
       0.0013263378 -0.13333648 0.066423655 -0.19465896
000130 94 87 14 be e5 ce ec 3b 7b 5f 14 bd 45 66 d5 3e
       -0.14504844 0.007226812 -0.03622387 0.41679588
000140 f9 15 93 be 29 f1 ac 3e d5 72 5f be 9e d2 0b 3e
       -0.287277 0.3377774 -0.21821149 0.13654563
000150 99 8b 77 be 51 58 65 be a0 7f 97 3b 29 2a ca be
       -0.24174346 -0.22396971 0.0046233684 -0.3948529
000160 a2 ea 1e 3e ce ac a9 be de e3 79 3e 47 f0 95 3e
       0.15519193 -0.33139652 0.2440333 0.2928488
000170 45 08 a5 3d 66 89 38 bc a7 d7 5a 3e db 87 d0 bd
       0.08058218 -0.011263227 0.21371327 -0.101821624
000180 5d 79 a8 3d ed 8d c4 3c c4 73 f8 3e 12 86 b6 3e
       0.08226273 0.023993457 0.48525822 0.35649163
000190 60 89 bf 3e 41 1a 9f 3e dc 36 3b be 59 66 a5 be
       0.37409496 0.31074718 -0.18282646 -0.32304648
0001a0 26 98 0f 3f 6e d9 11 be 83 9c bf 3e a1 91 0a 3e
       0.56091535 -0.14243099 0.37424096 0.13532116
0001b0 74 d9 07 3f 8d 30 7e 3e 3e 58 f5 3e 37 a9 89 3f
       0.5306618 0.24823208 0.47918886 1.0754765
0001c0 f4 5e 5c 3e e8 5b 93 3e 73 61 ef 3e 33 cb c9 bc
       0.21520597 0.28781056 0.46754035 -0.024633026
0001d0 38 f6 38 3f 34 b7 33 3e ea a5 d4 3e c1 99 16 3e
       0.722507 0.17550355 0.41532832 0.1470709
0001e0 2b 0a 60 bd a3 ee 9c 3e 2f 11 0e 3e 3d 8b 0c 3f
       -0.054697197 0.30650815 0.13873743 0.5489996
0001f0 36 1f be bd 07 21 86 3e e7 94 40 3d f1 fc db 3e
       -0.09283297 0.26197073 0.047017004 0.42966416
000200 9c ae 3b 3e d1 9a 84 3d ce e0 f5 be 85 cf 79 be
       0.18328327 0.064748414 -0.48023075 -0.24395569
000210 e6 99 87 be 96 7e 41 bd c1 84 e2 bc 73 70 56 3d
       -0.26484603 -0.047239862 -0.027651193 0.052353334
000220 0a 47 4b 3e e0 c7 9e 3d 00 7f 1e be d7 92 c9 3c
       0.19851318 0.07752967 -0.15478134 0.024606152
000230 9a e7 e3 bd 94 5f 9d be 69 86 d8 be 83 b5 e6 3c
       -0.11128159 -0.30736983 -0.42290047 0.028162723
000240 e6 e8 a9 3d ff e0 ce 3e e1 27 1c be 4b 2d 42 be
       0.08296375 0.40406033 -0.15249588 -0.1896259
000250 8a bc 91 3e 7f 9e 7a bd 47 e9 da bd 11 81 2b 3b
       0.28464156 -0.06118631 -0.10689025 0.002616946
000260 9d f3 86 3e 95 ba 91 3e 4b 98 6d be 54 1c a0 bd
       0.26357737 0.28462663 -0.23202626 -0.07817903
000270 5a f7 a7 be b4 2f b3 bd e9 b7 64 3d f6 ef e9 3d
       -0.32805902 -0.08749333 0.055839453 0.11422722
000280 d9 41 96 3e 11 71 e0 bd 6b 9b c5 bb f1 80 16 3e
       0.29347113 -0.10959066 -0.00603049 0.14697625
000290 c1 be 2a 3b d0 71 35 3f e1 9b 06 bc e4 ef 00 be
       0.002605364 0.7087679 -0.008215875 -0.12591511
0002a0 2f e6 88 be fa c9 0f 3e f8 4c d0 be c1 50 01 bf
       -0.26738116 0.14041892 -0.40683722 -0.50513846
0002b0 e9 08 51 3e 88 13 a6 bd 55 a7 cf bd c8 eb 68 be
       0.20413555 -0.08109194 -0.10139338 -0.22746193
0002c0 d2 4c bc be 2c fd 43 3e 21 a3 0e 3e 87 1b 0b 3e
       -0.3677736 0.19139546 0.13929416 0.1358472
0002d0 d1 32 6d 3e 79 99 ba bd 03 dd 85 3e 63 fd 89 be
       0.23163916 -0.09111304 0.2614518 -0.2695113
0002e0 95 45 02 bf 8e b4 6f 3c a7 c1 c9 3e ae 5c fc 3e
       -0.50887424 0.01463045 0.39405558 0.4928946
0002f0 16 c4 27 be 1e 82 e9 bd eb 24 a2 3d cc b1 9f 3c
       -0.16383395 -0.11401771 0.07917198 0.01949396
000300 af 7e 41 3e 03 b9 3b be 37 c9 72 3e 28 a9 19 3f
       0.18895982 -0.18332295 0.2370957 0.60023737
000310 ed ea 08 3f 19 7a e2 3e 9e 87 8b 3e 79 b9 bd 3e
       0.5348347 0.44233778 0.27251905 0.37055567
000320 db 39 a5 3e be b9 dc 3e 73 62 e3 3e f0 5f f9 3e
       0.32270703 0.4311046 0.44411048 0.48706007
000330 0d 70 ce 3e ba 2d 27 3f 8c 97 df 3e d0 4d 0e 3f
       0.40319863 0.6530415 0.4367031 0.5558748
000340 9b 7c e6 3d 9b 64 34 3e b8 63 8e be 36 35 02 3f
       0.11254235 0.17616503 -0.27810454 0.50862443
000350 4e 86 ac 3a 96 12 a7 bd 01 51 c3 3e 80 e9 69 3e
       0.0013162585 -0.08157842 0.3814774 0.2284298
000360 56 bc 24 3e 13 eb cc 3e 4e 5c db 3e 41 c2 02 3f
       0.1608747 0.40023097 0.4284386 0.5107766
000370 c2 3e b2 3b 45 c7 9f 3e c6 7c 94 bd b3 67 c9 3e
       0.00543961 0.31206718 -0.07250361 0.3933693
000380 ed c1 01 3f e3 06 8c 3f e3 44 17 3f be 6f 6c 3e
       0.5068653 1.0939602 0.5908949 0.23089501
000390 6c ad 89 3e 67 08 ae 3e 55 1b 18 be d6 16 b7 3e
       0.26890123 0.33990785 -0.14854176 0.3575961
0003a0 1e be 7e 3e 66 98 80 3e 3f 05 22 3e 08 ed 53 3e
       0.24877211 0.2511627 0.15822314 0.20695889
0003b0 3b c5 a0 3d 03 1d a0 3e 4e 99 9f 3e 58 62 f9 3d
       0.07850119 0.31272134 0.3117165 0.12176961
0003c0 4f 96 af 3e 98 e0 90 3d d5 d5 e2 3e 45 a4 46 3d
       0.34294364 0.07074088 0.44303766 0.048496503
0003d0 2d c2 43 3f 16 36 56 3e b4 8d ab 3e 17 76 f7 bd
       0.76468164 0.2091907 0.33506548 -0.12083071
0003e0 81 b3 e4 3e 4a b5 33 3e 38 68 fb 3e 79 93 c4 3e
       0.446682 0.17549625 0.4910295 0.38393763
0003f0 3b 01 1a bd c3 c2 1e 3e 61 66 19 3d 30 1b e0 3e
       -0.03759883 0.15503983 0.03745115 0.43770742
