param1/lstm_model_93000.pth (torch, 204435 bytes, 9 tensors)

lstm.weight_ih_l0 f4 [256, 1]
0.80899656 1.3954086 0.96322757 0.7619953 0.8245356 -0.671637 -0.6348278 0.7966124
-0.5594964 0.3476272 -0.7912271 1.5661753 0.06434777 -0.97020584 1.4995773 0.69918984
0.34401694 2.3707418 0.47739625 0.666282 1.4723073 -1.0520004 0.23014906 0.377211
-0.14538004 0.30114856 0.62593275 0.6275556 -0.2521504 -0.97585523 -0.40778384 1.4039805
1.4482045 2.9013898 -0.25498313 0.53619766 1.7188119 -0.3307024 -0.4222832 1.3310204
2.9337816 -1.008155 -0.8507434 0.3643509 0.66170144 0.022375308 0.20905773 0.1529553
2.1189103 -1.2230245 1.7314463 0.097123146 0.30627224 -0.52841043 -0.17928362 0.8925599
0.45569402 0.6754982 0.45500562 -1.0885518 0.16873926 0.21100387 0.17887284 0.84005314
-1.1411824 0.13729927 0.94963306 1.2310742 1.0097235 2.4238594 1.4907496 0.35066158
-1.6409467 0.23695488 0.5993052 1.1830964 0.6134584 0.28322682 1.1122308 0.7120388
0.5281361 1.268459 0.8391209 0.08409953 0.7136591 -0.5945004 -0.6671402 -0.50069094
0.30116165 0.63705456 0.1321045 -0.06636292 -1.2734811 -0.04989384 0.68599814 -2.0905788
0.5977861 0.298983 0.9850102 1.9459615 0.15328981 1.0477985 0.19581206 -0.55177253
-0.047585346 0.35466418 -0.64069724 0.84878075 -0.08579681 0.75850815 0.22049777 -0.61430657
0.9297977 0.37627372 -0.25743157 -2.8728602 0.4628592 0.78849363 1.121409 1.0147171
0.23584686 0.561531 0.7528522 -0.77769184 0.35801247 0.26826394 -0.2052292 0.034363125
1.5597657 -0.2657847 1.9742839 -1.090427 -1.6442599 -0.506068 0.034641426 0.7678321
7.871065 -0.9651954 -2.042779 -1.425011 -1.1789819 -0.22848736 -1.1558776 -0.66454494
1.4306349 -2.4756935 -0.47614506 0.9361139 2.0511463 0.05792926 -2.1910324 1.0886767
1.7302822 -1.5080409 -0.60472083 -0.43398347 1.2425429 -1.2223647 -0.041365124 3.504925
0.40280485 -2.610659 -4.0606 0.6145091 -2.1536186 -0.88331705 0.44565445 0.6164194
2.956985 -0.5709928 -1.1854278 -1.9324248 1.653272 -0.6487421 1.384067 -3.5486748
-2.6254368 -0.13869697 0.7964289 -3.9213686 1.417059 0.633641 -0.2837364 -1.1266414
-1.4569795 -1.1565564 -0.9068208 -1.4098545 -2.2730098 -0.5055004 1.8288038 -0.80524606
-0.39581406 0.30977046 3.6216066 0.8092033 3.4416974 0.020402255 -0.5198817 0.32472613
-0.16304624 0.06752431 -0.33679122 0.501764 3.69446 0.08455734 2.206732 0.4161632
1.0751665 2.9311922 0.65482396 -0.024438981 1.1750629 -0.3959381 -0.8084422 -0.05862631
1.7887608 2.3949914 -0.1623266 1.016105 -1.1625109 -0.27159497 -0.21201849 -0.2690292
1.2592344 4.0874662 0.9102874 -0.7309481 2.3820786 0.44441244 -0.4607688 0.15148188
3.2767186 0.36139032 -1.4681311 1.1666826 0.7493988 1.2950587 -0.084910624 0.09057717
3.889894 -0.33984682 -0.19523783 -0.9069486 -0.16158406 -1.0732194 -0.20962942 1.9617372
1.3763543 2.3017566 0.29250258 -1.199777 0.40103295 0.49525687 0.64499235 0.7319531
00000000: 661a 4f3f c09c b23f 1596 763f 2012 433f
00000010: c414 533f 67f0 2bbf 1384 22bf caee 4b3f
00000020: 283b 0fbf 31fc b13e dc8d 4abf 6f78 c83f
00000030: c3c8 833d 695f 78bf 26f2 bf3f 1bfe 323f
00000040: fd22 b03e 3cba 1740 486d f43e 7591 2a3f
00000050: 9174 bc3f f3a7 86bf 32ac 6b3e cd21 c13e
00000060: 81de 14be 2530 9a3e 213d 203f 7ca7 203f
00000070: db19 81be a6d1 79bf 0bc9 d0be a2b5 b33f
00000080: c45e b93f 5fb0 3940 268d 82be 4044 093f
00000090: 0702 dc3f d351 a9be 8135 d8be e05e aa3f
000000a0: 14c3 3b40 390b 81bf 52ca 59bf 338c ba3e
000000b0: 4465 293f 6c4c b73c 3b13 563e 50a0 1c3e
000000c0: 3a9c 0740 118c 9cbf 08a0 dd3f 80e8 c63d
000000d0: b7cf 9c3e e845 07bf 2096 37be ce7e 643f
000000e0: ba50 e93e 73ed 2c3f 7ff6 e83e aa55 8bbf
000000f0: fcc9 2c3e 6611 583e 712a 373e b90d 573f
00000100: 4412 92bf 2e98 0c3e 271b 733f d793 9d3f
00000110: 9f3e 813f 8320 1b40 e2d0 be3f ea89 b33e
00000120: 8b0a d2bf 4da4 723e 116c 193f b46f 973f
00000130: 9c0b 1d3f 1b03 913e 945d 8e3f 2d48 363f
00000140: ed33 073f dd5c a23f a1d0 563f 603c ac3d
00000150: 5db2 363f 2e31 18bf b3c9 2abf 482d 00bf
00000160: dc31 9a3e 0216 233f 6746 073e 48e9 87bd
00000170: 6e01 a3bf 7c5d 4cbd 939d 2f3f 0bcc 05c0
00000180: 8308 193f 4d14 993e a129 7c3f 4415 f93f
00000190: 01f8 1c3e 431e 863f f582 483e f740 0dbf
000001a0: dae8 42bd 8b96 b53e bc04 24bf b249 593f
000001b0: 3db6 afbd 972d 423f 2bca 613e 3243 1dbf
000001c0: 3907 6e3f f3a6 c03e 12ce 83be f1dc 37c0
000001d0: e2fb ec3e b8da 493f 558a 8f3f 40e2 813f
000001e0: d781 713e 7fc0 0f3f ecba 403f d016 47bf
000001f0: 694d b73e e459 893e 9a27 52be 59c0 0c3d
00000200: 67a6 c73f ef14 88be 56b5 fc3f 1d93 8bbf
00000210: 1c77 d2bf ac8d 01bf 2be4 0d3d a590 443f
00000220: c4df fb40 0c17 77bf e4bc 02c0 c366 b6bf
00000230: e1e8 96bf 97f8 69be ccf3 93bf 9e1f 2abf
00000240: 0b1f b73f c371 1ec0 49c9 f3be 29a5 6f3f
00000250: fb45 0340 3b47 6d3d e039 0cc0 c259 8b3f
00000260: e379 dd3f 7c07 c1bf fcce 1abf 1533 debe
00000270: a50b 9f3f 7276 9cbf 7a6e 29bd b150 6040
00000280: 703c ce3e 0915 27c0 6ff0 81c0 7850 1d3f
00000290: e3d4 09c0 1121 62bf d22c e43e a9cd 1d3f
000002a0: 3e3f 3d40 962c 12bf 19bc 97bf b259 f7bf
000002b0: 6b9e d33f f613 26bf 1c29 b13f 7d1d 63c0
000002c0: 2807 28c0 9406 0ebe c4e2 4b3f b4f7 7ac0
000002d0: 3062 b53f 4c36 223f e645 91be c935 90bf
000002e0: 4e7e babf 0a0a 94bf 6825 68bf 1d76 b4bf
000002f0: fe78 11c0 7968 01bf 3e16 ea3f 9b24 4ebf
00000300: 24a8 cabe 3c9a 9e3e 67c8 6740 f327 4f3f
00000310: c544 5c40 a122 a73c f816 05bf 8142 a63e
00000320: 98f5 26be 2f4a 8a3d e66f acbe 9b73 003f
00000330: 0872 6c40 662c ad3d 193b 0d40 5813 d53e
00000340: 0e9f 893f a798 3b40 8ba2 273f 4234 c8bc
00000350: 7668 963f 66b8 cabe 11f6 4ebf 2422 70bd
00000360: 1df6 e43f 8a47 1940 f238 26be bb0f 823f
00000370: 28cd 94bf 7f0e 8bbe 601b 59be 32be 89be
00000380: 982e a13f 86cc 8240 9808 693f 6a1f 3bbf
00000390: fa73 1840 078a e33e e3e9 ebbe 111e 1b3e
000003a0: c2b5 5140 2708 b93e b8eb bbbf db55 953f
000003b0: 9ad8 3f3f 7cc4 a53f 9fe5 adbd 8680 b93d
000003c0: 06f4 7840 6700 aebe 6dec 47be c92d 68bf
000003d0: 4b76 25be 415f 89bf 18a9 56be 341a fb3f
000003e0: 612c b03f fb4f 1340 e6c2 953e 4b92 99bf
000003f0: 3154 cd3e 4f92 fd3e 381e 253f 4761 3b3f

lstm.weight_hh_l0 f4 [256, 64]
-0.035279557 0.911355 -0.22847922 0.012481134 -0.27016133 -0.06670366 0.19679624 0.07767383
1.1622418 0.041100282 -0.49573883 0.5945371 0.14869869 0.99776584 -0.88499886 -0.009123479
0.114705615 -0.053152353 -0.11783895 0.5986869 0.7097423 0.28516337 -0.15544143 -0.24178763
-0.12721996 0.55288756 -0.050597142 -1.0035297 -0.023453576 -0.38646647 0.0931148 0.43528777
0.19505997 -0.53512734 -0.090223685 0.46345788 -0.18665862 -0.8966113 0.20426078 -0.60884297
0.025091903 -0.24997091 0.11980033 -0.43002617 0.32144374 0.3174085 0.34848905 -0.59871316
-0.46666571 0.10144242 0.12261893 -0.13899988 0.72164774 0.90915227 0.09953414 0.021645168
-1.2345942 -0.5208076 0.22407044 0.36765254 -0.322149 -0.03857536 -0.06629068 -0.20398094
0.83788586 -1.6190578 0.46342537 0.55586183 -0.10978219 -0.1631234 -0.38212174 0.030304411
0.5218193 -0.0024825747 -0.3621839 0.058396224 0.44336662 -1.588467 0.5325924 -0.5953095
0.7956631 -1.3971698 0.017722463 0.8178701 -0.2106665 -0.1945172 1.7530042 0.8710519
0.25666776 -0.3646401 0.40969887 1.1632799 -0.46777636 -0.6363875 0.42494375 1.0843405
-0.1716302 -1.2641578 0.1538452 0.26790044 -1.393805 0.0047878264 1.1819153 -0.6499012
1.1049286 0.41511214 -0.49769652 -1.1715841 0.02779093 -0.64833784 0.43027493 0.04235709
-1.9054762 -0.72200364 0.10817883 -0.27227715 0.055758744 -0.91904616 -0.39772865 -0.43943533
0.56778324 0.074233525 -0.356872 -0.8222806 -0.5955224 -0.18535022 -0.05730826 -1.2702247
-1.3277472 1.1728331 0.3768549 0.26732248 -1.3630317 0.19115077 -0.249422 -0.27349856
1.1598307 -0.3868179 -0.06768126 -0.04001984 -1.002303 -1.0089654 -0.43371344 -0.25001478
1.6066939 -1.3603572 -0.63313085 0.20281807 0.1580368 -0.06346921 -0.3796539 -0.799698
-0.6011509 -1.3813396 0.058120023 0.06112581 -0.5844622 -0.72636235 0.53938025 0.57210594
-0.27933678 -0.041503645 0.5921564 0.23941192 0.8734104 0.6858172 0.51021117 0.85488725
0.6592986 0.9783608 0.3351102 -0.51184547 0.15183757 0.4896671 0.7715852 0.36258683
-0.029244654 -0.8343149 0.7075222 0.7049157 0.5554851 0.26067722 -1.914222 0.6212694
-1.0112159 -0.75615245 0.40183437 0.26559964 -1.36351 -0.4010377 0.54340446 -0.7958066
-0.36840573 0.7670193 -0.573268 -0.49693653 -0.99555254 0.18444386 0.017443715 0.36306635
0.29372376 -0.25008672 0.09989412 -0.8979145 0.38216755 -0.35921386 0.2946358 -0.47301224
0.2406352 -0.101559065 0.06638603 0.330685 0.96627396 -0.049052186 0.35474166 0.037855033
0.32079065 -0.043026812 -0.6414527 0.6020213 0.2674633 -0.4792893 -0.008162677 0.62656057
0.07960509 -0.6888114 -0.14368188 -0.26322404 -0.40051326 0.1773816 -0.4895755 0.40400162
0.62260514 0.9109592 0.30048415 0.77607834 0.6539772 -0.24356712 -0.44080156 0.22404094
-0.20378464 -0.19026603 1.0026191 -0.23059982 0.14885093 -0.44031957 -1.5032254 1.5918382
-0.0005276213 0.20314595 -0.023873918 -0.51390034 -0.3053769 0.17081289 -0.08654011 -1.1588616
00000000: 4c81 10bd 904e 693f 75f6 69be ac7d 4c3c
00000010: 9652 8abe ee9b 88bd f484 493e 7513 9f3d
00000020: 57c4 943f c558 283d 7bd1 fdbe 9533 183f
00000030: 7844 183e 956d 7f3f 498f 62bf a57a 15bc
00000040: c7ea ea3d 48b6 59bd 8c55 f1bd 8b43 193f
00000050: acb1 353f ef00 923e 0a2c 1fbe 2d97 77be
00000060: f345 02be 0a8a 0d3f f33e 4fbd a973 80bf
00000070: b721 c0bc efde c5be f9b2 be3d 0ade de3e
00000080: cdbd 473e 1bfe 08bf 32c7 b8bd 5a4a ed3e
00000090: 7023 3fbe 5188 65bf bd29 513e 22dd 1bbf
000000a0: 898d cd3c 60f8 7fbe e059 f53d 642c dcbe
000000b0: 4694 a43e 5e83 a23e 286d b23e 4445 19bf
000000c0: cfee eebe 0bc1 cf3d a21f fb3d fc55 0ebe
000000d0: e8bd 383f 34be 683f 8ed8 cb3d 3551 b13c
000000e0: 2f07 9ebf a653 05bf b972 653e f43c bc3e
000000f0: b7f0 a4be 3201 1ebd 68c3 87bd 61e0 50be
00000100: b07f 563f 493d cfbf 1746 ed3e f64c 0e3f
00000110: 7cd5 e0bd d209 27be 76a5 c3be f540 f83c
00000120: f395 053f b1b2 22bb 2b70 b9be e130 6f3d
00000130: f300 e33e e352 cbbf fa57 083f 3466 18bf
00000140: 94b0 4b3f 76d6 b2bf b32e 913c ef5f 513f
00000150: f5b8 57be 842f 47be 7162 e03f 42fd 5e3f
00000160: f569 833e 1bb2 babe 0dc4 d13e 5be6 943f
00000170: 6280 efbe 4bea 22bf 3a92 d93e abcb 8a3f
00000180: d4bf 2fbe eccf a1bf 9989 1d3e 3f2a 893e
00000190: 3468 b2bf 33e3 9c3b 0049 973f ed5f 26bf
000001a0: 4d6e 8d3f 9489 d43e 14d2 febe 78f6 95bf
000001b0: cea9 e33c 78f9 25bf ff4c dc3e a17e 2d3d
000001c0: a5e6 f3bf 3bd5 38bf dd8c dd3d e967 8bbe
000001d0: 4863 643d 9c46 6bbf 17a3 cbbe abfd e0be
000001e0: 3e5a 113f bf07 983d edb7 b6be fb80 52bf
000001f0: 2874 18bf 73cc 3dbe 11bc 6abd b996 a2bf
00000200: 9ff3 a9bf 651f 963f 20f3 c03e 7ede 883e
00000210: d377 aebf 07bd 433e 7b68 7fbe 0108 8cbe
00000220: 5575 943f ff0c c6be 799c 8abd d8eb 23bd
00000230: 774b 80bf c725 81bf b00f debe f001 80be
00000240: 25a8 cd3f 2f20 aebf dd14 22bf 8aaf 4f3e
00000250: 66d4 213e 25fc 81bd ff61 c2be 02b9 4cbf
00000260: 06e5 19bf bccf b0bf 430f 6e3d 0f5f 7a3d
00000270: 519f 15bf e2f2 39bf d314 0a3f 8975 123f
00000280: 3b05 8fbe baff 29bd 9097 173f 6628 753e
00000290: d397 5f3f b791 2f3f 339d 023f e4d9 5a3f
000002a0: cbc7 283f da75 7a3f 9093 ab3e 4e08 03bf
000002b0: 4f7b 1b3e a5b5 fa3e 9c86 453f fba4 b93e
000002c0: 7c92 efbc a995 55bf 2d20 353f 5b75 343f
000002d0: 4634 0e3f 7c77 853e 3a05 f5bf 830b 1f3f
000002e0: 866f 81bf 3593 41bf 3cbd cd3e adfc 873e
000002f0: 7f87 aebf d054 cdbe 8e1c 0b3f fbb9 4bbf
00000300: ad9f bcbe 605b 443f b1c1 12bf 776e febe
00000310: 88dc 7ebf dade 3c3e 1fe6 8e3c d5e3 b93e
00000320: f662 963e 5e0b 80be 4a95 cc3d badd 65bf
00000330: 77ab c33e e1ea b7be 81da 963e a92e f2be
00000340: 1369 763e 33fe cfbd 66f5 873d 8b4f a93e
00000350: bb5d 773f f2ea 48bd b3a0 b53e e10d 1b3d
00000360: ac3e a43e e23c 30bd 3f36 24bf 111e 1a3f
00000370: f3f0 883e 6865 f5be c0bc 05bc 4666 203f
00000380: fe07 a33d f255 30bf 5821 13be 4dc5 86be
00000390: 1310 cdbe 86a3 353e a4a9 fabe 4dd9 ce3e
000003a0: 0d63 1f3f 9f34 693f 0fd9 993e 12ad 463f
000003b0: 0d6b 273f a969 79be beb0 e1be fd6a 653e
000003c0: ecac 50be 19d5 42be d355 803f 5c22 6cbe
000003d0: 616c 183e 9171 e1be b169 c0bf 5bc1 cb3f
000003e0: 1150 0aba 7e05 503e 3c93 c3bc f98e 03bf
000003f0: 5c5a 9cbe 93e9 2e3e f13b b1bd 9455 94bf

lstm.bias_ih_l0 f4 [256]
0.20206952 -0.58232397 0.12410643 -0.19067389 0.18965791 -0.3404463 -0.12263807 -0.12741792
1.4145182 0.17508946 0.055775132 0.24424742 -0.2736514 -0.63217676 -0.15475056 -0.41991156
0.050728172 0.059236508 -0.3007379 -0.18433924 0.4732386 -0.22763792 -0.32945645 -0.20909256
0.51640487 0.22568294 -0.041128945 -0.04018961 0.5992708 -0.14142808 -0.13113697 0.82835746
-0.24902007 0.52216226 -0.44573456 -0.37639275 0.3844929 -0.3590321 0.09223673 -0.011732893
1.2447927 0.07748615 -0.20073709 0.1643503 0.15645356 0.30409136 -0.050900202 0.38717887
0.9205029 -0.25577536 0.105505764 0.58317494 -0.073860206 -0.27837157 -0.3500634 -0.22674257
0.05711593 -0.1883974 -0.16108897 -0.35758978 -0.008145541 -0.3662464 -0.3709184 -0.308896
-0.00082423823 -0.35176662 -0.18224996 0.2089567 -0.2210172 0.80217123 0.5439353 -0.17660463
0.02272111 0.049154777 0.07229795 -0.042203415 0.265595 -0.36274552 0.1724595 -0.2932897
0.12239273 -0.12327934 0.29296064 0.20900103 0.008380358 0.29399446 -0.29319295 -0.29323867
-0.47088224 0.12787525 0.25702533 -0.22230726 0.29021838 -0.16565616 0.27172193 -0.57744
-0.15629448 -0.16983676 -0.07665067 -0.24718274 0.13806893 -0.14346634 -0.24974751 -0.0053204624
-0.21479264 -0.36523777 -0.3384041 0.08311669 0.4157209 0.4100843 -0.30145675 -0.2891272
-0.20905697 0.45978433 -0.18174668 -0.070291795 -0.006731231 0.027718386 -0.04956628 -0.19482401
0.3727112 0.015347223 0.15601867 -0.13212104 -0.35734364 0.36970866 -0.480071 -0.06985376
-0.011618321 -0.23636228 0.061714042 -0.013905678 0.0011095443 0.099152 -0.08235395 0.049564425
-0.23033425 -0.4286817 -0.14075398 0.23615676 -0.04845477 0.2622904 0.10651375 0.2144457
-0.39559639 -0.009825232 -0.18068682 -0.14855427 0.088879 -0.25448376 -0.16620521 0.10894995
0.20368017 -0.060178958 -0.10679326 -0.04960958 -0.09652039 -0.011108445 0.011399264 -0.23984075
-0.13915531 0.2166237 -0.0025179642 0.31703183 0.1318715 0.2019993 0.22170803 0.1237559
-0.30842432 0.052795123 -0.04658932 0.05396419 -0.12962066 0.29650322 -0.18485427 0.13632296
0.2623591 0.147442 -0.047353357 0.08841296 -0.11437281 0.10397008 0.21768098 0.026479542
-0.0677145 0.16651762 -0.33158782 -0.0262279 0.26413527 0.020190872 -0.03283214 0.017840097
0.23099117 0.19096977 -0.018624222 -0.22484405 0.1754836 -0.146881 -0.07361621 -0.22977698
1.4260062 -0.70892274 0.2174647 0.15690038 -0.23070751 -0.4598303 -0.33523542 -0.015970608
-0.05053287 -0.117046125 -0.5148879 -0.2559382 0.33368564 -0.0037983276 -0.13421747 -0.15932447
0.7705493 -0.048578627 -0.4524755 0.06209014 -0.19020155 0.24854507 0.3646228 1.2127055
-0.25122043 0.69618064 0.008154203 0.1934092 0.40392128 0.0146499695 -0.19659786 0.0015237961
1.1646396 -0.5682709 -0.4662915 -0.12010157 0.28770316 0.18047366 0.025594559 0.42939717
1.0802865 -0.42292595 0.14534739 0.77928 0.3593583 -0.21778163 -0.5705261 -0.3604239
0.113010906 -0.24343936 -0.07223636 -0.38480082 0.24109425 -0.08528816 0.14262341 0.21764493
00000000: 50eb 4e3e 2f13 15bf 832b fe3d 0440 43be
00000010: af35 423e fa4e aebe ab29 fbbd d879 02be
00000020: ef0e b53f a74a 333e 7774 643d ff1b 7a3e
00000030: 091c 8cbe 56d6 21bf ee76 1ebe a6fe d6be
00000040: 58c8 4f3d fba1 723d 51fa 99be 6dc3 3cbe
00000050: 544c f23e ea19 69be 84ae a8be 5c1c 56be
00000060: 1c33 043f 6e19 673e d376 28bd dc9d 24bd
00000070: d069 193f 86d2 10be c548 06be 3c0f 543f
00000080: 1eff 7ebe 6dac 053f 5237 e4be 8db6 c0be
00000090: 41dc c43e 0ed3 b7be 9ce6 bc3d 523b 40bc
000000a0: 5e55 9f3f 0fb1 9e3d 068e 4dbe 724b 283e
000000b0: 5d35 203e ddb1 9b3e bb7c 50bd 4f3c c63e
000000c0: 14a6 6b3f fdf4 82be 6813 d83d f44a 153f
000000d0: 0544 97bd b886 8ebe 833b b3be 342f 68be
000000e0: 65f2 693d 3feb 40be 82f4 24be 0216 b7be
000000f0: e074 05bc a684 bbbe 04e9 bdbe 9e27 9ebe
00000100: b111 58ba c11a b4be bc9f 3abe bff8 553e
00000110: 5552 62be 185b 4d3f 583f 0b3f d8d7 34be
00000120: 9f21 ba3c 8556 493d f310 943d 7ddd 2cbd
00000130: 11fc 873e c8b9 b9be 3999 303e 112a 96be
00000140: 0aa9 fa3d e179 fcbd f0fe 953e 5e04 563e
00000150: c54d 093c 7186 963e 631d 96be 6123 96be
00000160: 7a17 f1be bbf1 023e d398 833e 84a4 63be
00000170: 8197 943e c5a1 29be 231f 8b3e 1cd3 13bf
00000180: a90b 20be b0e9 2dbe 07fb 9cbd 791d 7dbe
00000190: f161 0d3e d7e8 12be d0bd 7fbe 4657 aebb
000001a0: 9af2 5bbe 7200 bbbe 4d43 adbe 1539 aa3d
000001b0: 5fd9 d43e 92f6 d13e 8a58 9abe 7b08 94be
000001c0: 0813 56be da68 eb3e cd1b 3abe 25f5 8fbd
000001d0: a991 dcbb ab11 e33c 0306 4bbd f27f 47be
000001e0: 01d4 be3e eb72 7b3c 5cc3 1f3e bd4a 07be
000001f0: bff5 b6be 744a bd3e decb f5be 7d0f 8fbd
00000200: c55a 3ebc f408 72be ddc7 7c3d a4d4 63bc
00000210: 216e 913a 3410 cb3d 30a9 a8bd 1104 4b3d
00000220: bedc 6bbe 2b7c dbbe d021 10be 14d3 713e
00000230: 8278 46bd ed4a 863e e223 da3d a797 5b3e
00000240: 9c8b cabe 03fa 20bc f705 39be 9c1e 18be
00000250: 3106 b63d b24b 82be b331 2abe 2721 df3d
00000260: 8991 503e 367e 76bd 6db6 dabd 6a33 4bbd
00000270: 7bac c5bd 3200 36bc fbc3 3a3c d098 75be
00000280: bb7e 0ebe 9ad2 5d3e 6e04 25bb ff51 a23e
00000290: 5309 073e e8d8 4e3e 6e07 633e bc73 fd3d
000002a0: cbe9 9dbe b33f 583d 71d4 3ebd 8e09 5d3d
000002b0: 47bb 04be 45cf 973e 704a 3dbe 3f98 0b3e
000002c0: ef53 863e 09fb 163e 98f5 41bd db11 b53d
000002d0: 4b3c eabd 44ee d43d c3e7 5e3e a0eb d83c
000002e0: e6ad 8abd 9883 2a3e e1c5 a9be e5db d6bc
000002f0: bd3c 873e 5467 a53c fe7a 06bd 6525 923c
00000300: f388 6c3e 948d 433e d391 98bc 853d 66be
00000310: f9b1 333e f967 16be 18c4 96bd a84a 6bbe
00000320: 5f87 b63f f67b 35bf 11af 5e3e 7eaa 203e
00000330: 973e 6cbe e16e ebbe faa3 abbe cbd4 82bc
00000340: 8efb 4ebd e1b5 efbd b2cf 03bf 550a 83be
00000350: d8d8 aa3e 5ded 78bb 4e70 09be f425 23be
00000360: b842 453f 62fa 46bd deaa e7be 3b52 7e3d
00000370: 32c4 42be 9982 7e3e d7af ba3e ef39 9b3f
00000380: f79f 80be e538 323f 3599 053c 100d 463e
00000390: c5ce ce3e 6d06 703c f350 49be 1dba c73a
000003a0: e912 953f 347a 11bf c2bd eebe d0f7 f5bd
000003b0: d44d 933e 16ce 383e aeab d13c f2d9 db3e
000003c0: d446 8a3f c089 d8be f2d5 143e e57e 473f
000003d0: d0fd b73e 2602 5fbe 000e 12bf 7b89 b8be
000003e0: 4372 e73d 2b48 79be a8f0 93bd 9d04 c5be
000003f0: 69e1 763e 8fab aebd df0b 123e 50de 5e3e

lstm.bias_hh_l0 f4 [256]
0.08160941 -0.4737838 0.09420171 -0.1818007 0.28600997 -0.2952939 -0.1735668 -0.11651248
1.2907647 0.1932276 0.18634582 0.018538773 -0.05645542 -0.5398146 -0.29398093 -0.45616573
-0.1236514 0.006741386 -0.1828576 -0.3254737 0.5309131 -0.09506658 -0.3733082 -0.1458369
0.5387905 0.036203228 0.04282636 0.080207735 0.44255668 -0.19940633 -0.04783308 0.6936959
-0.1409228 0.46683052 -0.4312043 -0.3108769 0.2701991 -0.4224652 0.16189209 0.0830226
1.2826978 0.16050555 -0.1864895 0.03846219 0.040373094 0.2560946 -0.05860509 0.3651782
0.8397311 -0.20889813 0.13145588 0.61180186 -0.3116238 -0.418351 -0.47776735 -0.32665163
-0.099774845 -0.37349257 -0.054863483 -0.451308 -0.014802234 -0.35805795 -0.18596885 -0.3537328
0.16011699 -0.2962532 -0.23294245 0.031948727 -0.070904866 0.78693986 0.35788548 6.1987346e-05
-0.066471726 0.08480323 -0.029863931 0.065776534 0.4516646 -0.26875776 0.28219193 -0.22871307
0.005956079 -0.15732507 0.31437552 0.024439083 0.07350381 0.17604177 -0.14894657 -0.31029868
-0.5012504 0.10414298 0.13555025 -0.2833299 0.37633833 -0.28242105 0.051905684 -0.45674294
-0.12284506 0.04577117 -0.02434738 -0.028293429 0.06231244 -0.1824319 -0.2483461 -0.03012493
-0.17768425 -0.46124804 -0.17514509 0.21966027 0.41886753 0.31684884 -0.2509281 -0.26480177
-0.06334663 0.4048221 -0.17913967 -0.05154164 -0.034245994 -0.004279164 -0.21167743 -0.17428043
0.3808787 -0.0622695 0.14946564 -0.07011481 -0.30638283 0.33638978 -0.37509182 0.04305579
0.045521926 -0.08569336 -0.099561125 0.06760068 0.11592898 0.2877298 -0.09804494 0.16442463
-0.23166135 -0.49080828 0.046023905 0.26675975 0.0145854745 0.26949757 0.11191944 0.3068132
-0.17564644 0.05812099 -0.17221068 -0.102267265 0.2406048 -0.17983349 -0.22603758 0.21560866
0.21215035 0.040808704 -0.02248357 -0.0024779914 -0.08013589 -0.20645492 0.042701624 -0.38293567
-0.19871251 0.06331026 0.029322207 0.15748407 0.09258306 0.16962019 0.24963075 0.16012582
-0.14363214 0.102952324 -0.083250836 0.0068901093 -0.14204934 0.16471986 -0.20864931 0.123612426
0.1173132 0.14906284 -0.037956897 0.23885682 -0.09818517 -0.022761056 0.13358061 0.052054923
0.08898816 0.05275356 -0.36254707 -0.13202642 0.06046607 -0.051170945 -0.121264145 -0.04544033
0.29769814 0.094872534 0.06775509 -0.33437595 0.08231778 -0.15301679 -0.27395734 -0.27479914
1.3922004 -0.6134603 0.17718257 0.29130417 -0.2731909 -0.47703612 -0.2335902 -0.012431155
-0.046583727 -0.06746081 -0.42194143 -0.24457572 0.46541983 -0.15571587 -0.19232889 -0.16374941
0.6972977 -0.0063535594 -0.29415742 0.15488252 -0.12379199 0.2254304 0.36324394 1.2176981
-0.34394178 0.5362405 0.15127958 0.10479511 0.42038444 -0.0899999 -0.3049065 -0.059620436
1.1639388 -0.40577367 -0.34932333 -0.092560336 0.3279157 0.19187252 -0.016719738 0.55989444
1.001662 -0.3529757 0.16665517 0.7312894 0.1598931 -0.14562406 -0.3894767 -0.278859
0.21949029 -0.3260561 -0.14006853 -0.19084963 0.24814023 -0.03580913 -0.06545158 0.18473242
00000000: d622 a73d ca93 f2be d3ec c03d f629 3abe
00000010: e66f 923e c330 97be 7fbb 31be 189e eebd
00000020: c737 a53f 75dd 453e 70d1 3e3e a0de 973c
00000030: cc3d 67bd 4a31 0abf ab84 96be 8e8e e9be
00000040: f23c fdbd d8e6 dc3b 063f 3bbe 7da4 a6be
00000050: ece9 073f 44b2 c2bd 4122 bfbe 4556 15be
00000060: 2dee 093f d649 143d b16a 2f3d f443 a43d
00000070: ca96 e23e 2c31 4cbe 9fec 43bd 0e96 313f
00000080: 114e 10be 6904 ef3e cfc6 dcbe 422b 9fbe
00000090: 8957 8a3e 5c4d d8be 0ac7 253e c107 aa3d
000000a0: 712f a43f 915b 243e 1af7 3ebe 888a 1d3d
000000b0: 425e 253d d51e 833e e40b 70bd a3f8 ba3e
000000c0: 9ef8 563f 64e9 55be 5f9c 063e 0c9f 1c3f
000000d0: 288d 9fbe 1a32 d6be ec9d f4be e23e a7be
000000e0: c156 ccbd 6b3a bfbe 88b8 60bd d811 e7be
000000f0: 1285 72bc 5f53 b7be 9e6e 3ebe 771c b5be
00000100: b5f5 233e 80ae 97be 7788 6ebe abdc 023d
00000110: 9236 91bd e474 493f c43c b73e 34ff 8138
00000120: 5422 88bd 51ad ad3d 34a5 f4bc d9b5 863d
00000130: 9540 e73e 9e9a 89be 767b 903e c233 6abe
00000140: 362b c33b d319 21be d4f5 a03e 7934 c83c
00000150: 2a89 963d 4b44 343e 7385 18be 78df 9ebe
00000160: f251 00bf ea48 d53d afcd 0a3e 9e10 91be
00000170: 6baf c03e 7e99 90be 0e9b 543d 36da e9be
00000180: 3196 fbbd 8d7a 3b3d 2874 c7bc 9fc7 e7bc
00000190: 543b 7f3d 6ecf 3abe 714e 7ebe 8fc8 f6bc
000001a0: dcf2 35be b428 ecbe 3c59 33be 9fee 603e
000001b0: ce75 d63e 033a a23e a679 80be 1994 87be
000001c0: e1bb 81bd d844 cf3e 6470 37be 541d 53bd
000001d0: 8745 0cbd 3b38 8cbb f8c1 58be 9276 32be
000001e0: 8802 c33e 4e0e 7fbd 850d 193e 5a98 8fbd
000001f0: 36de 9cbe 483b ac3e 090c c0be 455b 303d
00000200: 3375 3a3d 0080 afbd b4e6 cbbd 3a72 8a3d
00000210: 2c6c ed3d 5251 933e c9cb c8bd ee5e 283e
00000220: a238 6dbe 394b fbbe 9083 3c3d bc94 883e
00000230: eaf7 6e3c 96fb 893e 0536 e53d 9f16 9d3e
00000240: a9dc 33be 4610 6e3d ff57 30be 8071 d1bd
00000250: 1b61 763e 4526 38be 6576 67be 84c8 5c3e
00000260: f13d 593e 0727 273d 772f b8bc cc65 22bb
00000270: 491e a4bd eb68 53be e6e7 2e3d 2510 c4be
00000280: 4b7b 4bbe cfa8 813d 2035 f03c 8143 213e
00000290: 309c bd3d eab0 2d3e 349f 7f3e 06f8 233e
000002a0: 4e14 13be abd8 d23d 6a7f aabd 6dc6 e13b
000002b0: 6275 11be 53ac 283e 2aa8 55be 8328 fd3d
000002c0: e741 f03d eea3 183e b178 1bbd e296 743e
000002d0: 4e15 c9bd 6575 babc 5bc9 083e 8b37 553d
000002e0: 6d3f b63d 1e14 583d c59f b9be ef31 07be
000002f0: 45ab 773d a098 51bd 5659 f8bd a41f 3abd
00000300: e46b 983e 884c c23d 2ec3 8a3d 5333 abbe
00000310: 3996 a83d 6fb0 1cbe 2344 8cbe 79b2 8cbe
00000320: 9f33 b23f bc0b 1dbf 596f 353e d225 953e
00000330: addf 8bbe 143e f4be 4532 6fbe 0bac 4bbc
00000340: 94ce 3ebd e528 8abd b508 d8be 0f72 7abe
00000350: 824b ee3e fb73 1fbe ddf1 44be edad 27be
00000360: 1a82 323f 8531 d0bb cd9b 96be 8699 1e3e
00000370: a886 fdbd 3ad7 663e 1cfb b93e 88dd 9b3f
00000380: 2319 b0be 0f47 093f 09e9 1a3e d29e d63d
00000390: a13c d73e de51 b8bd b41c 9cbe 8f34 74bd
000003a0: f2fb 943f 91c1 cfbe 82da b2be 4690 bdbd
000003b0: 91e4 a73e 3b7a 443e d5f7 88bc 3e55 0f3f
000003c0: 7636 803f 3bb9 b4be a7a7 2a3e c835 3b3f
000003d0: 04bb 233e 791e 15be 7d69 c7be 9bc6 8ebe
000003e0: 10c2 603e d3f0 a6be 206e 0fbe 166e 43be
000003f0: 7918 7e3e 98ac 12bd 7a0b 86bd 7f2a 3d3e

lstm.weight_ih_l1 f4 [256, 64]
0.90901625 -1.3406318 0.31067556 -0.5563819 1.1407844 0.64798105 -0.69596237 0.092782184
-0.75664765 -1.5325164 -0.07685137 -0.6397446 0.6682591 0.41062266 -0.37872475 0.7335727
0.7431512 -0.26629153 -0.95573807 -0.6978576 1.3553586 0.13205701 1.1909509 -0.6187194
1.3136873 1.0621012 -0.14396317 -0.36080557 0.1090269 0.18811439 0.20116317 -0.033409074
0.7857822 -0.1882827 -1.4312279 -0.24470021 1.2522633 -0.1483803 -0.5104414 -3.310457
0.44953486 -1.303385 0.24486196 0.21037582 0.26334867 -0.24441096 -0.6126943 -0.99308586
0.3438645 0.059052467 -1.3812407 1.7570598 0.3481865 -0.29184428 -1.3876312 0.037706587
-2.2810817 0.4309779 0.52051604 -0.11733289 0.07268866 -1.4874289 -0.28097513 1.7817897
-0.20313339 0.22273313 -0.7647569 -0.4027464 0.12589133 0.67858976 -0.4596832 0.50079226
-3.4334295 -0.65939444 0.6637206 -0.92967653 0.15242583 -0.96122533 1.1394663 -0.5412006
-0.11048933 1.8454572 -0.32863176 -0.32140863 -0.24090162 -0.46428773 0.84535706 1.1174587
0.14465006 0.3068997 -0.1278737 -0.15203567 -0.25809127 0.44403318 -0.25866285 -1.0895312
-0.20553933 1.444058 0.9282409 -1.0438944 -0.5652609 -0.25963953 -1.5622647 -0.8055908
-0.68345016 -0.8472977 0.7203951 0.10394553 -0.16063847 -0.30106845 -0.16899985 0.5859688
0.72554207 -0.13022257 0.3861653 1.9861795 -0.6792191 -0.26506165 0.8347102 -1.3362218
0.64316547 -0.48587117 -1.0789615 -0.4195922 -0.34011957 -0.15850763 0.6002231 -0.92349964
0.54401374 -0.24708536 0.4535898 -0.69735336 0.92772275 -0.62957925 -1.0627275 0.49934685
-0.867101 0.8871112 0.008879467 -0.27524087 -0.5362046 0.12406722 -0.31048602 -0.34073544
0.33686456 -0.70359546 -0.25912908 0.28819764 -0.18930827 -0.20695175 -0.20790502 0.67892677
0.46187875 0.80795157 0.07984874 -0.18059568 -0.27429718 0.12324321 0.5495828 -0.35718697
-0.32275888 -0.15821159 -0.38704804 -0.64529777 0.32187077 0.4539242 0.71164155 0.7570804
0.6343646 -0.58901227 -0.10021228 -1.0080426 -0.18941005 -0.2099547 0.11992327 -0.3847861
-0.47076187 -0.46272367 -0.6275905 0.6780501 0.020399377 -0.092880376 -0.94012886 0.6065615
0.19383226 0.5026888 0.13550448 -0.19475432 -0.48319367 -0.5506505 0.9811545 -1.1426235
-0.8510608 -0.009298592 -1.0399158 0.15146184 -0.31770375 0.03720008 -0.17070015 -0.44771156
-0.6817416 -0.12719186 0.09363755 -0.3743847 -0.077093445 -0.7130012 0.5069262 -0.81529844
0.105431214 -0.48535633 -0.3246595 -0.30305636 -0.3275417 -0.012477426 0.109724216 -1.4818834
-0.4210835 -0.45175174 0.22283234 -1.2746161 -1.328022 0.48323265 0.49026674 0.23607296
0.30592534 0.34828183 -1.0349958 -0.19358957 0.039452378 0.06563532 -0.16452785 1.1769385
0.12689789 -0.20310682 -0.20489925 -0.21892715 -0.315958 -0.32872444 -0.007852293 0.1903687
0.10516281 0.75414664 -0.43432048 0.5959905 -0.86428046 -0.42018753 -0.41550565 0.8043965
-0.2889764 0.1949332 -0.6789586 -1.4373727 0.39350942 0.33990464 0.95200574 1.2572026
00000000: 4ab5 683f d399 abbf de10 9f3e 0b6f 0ebf
00000010: 3905 923f 16e2 253f 972a 32bf 9604 be3d
00000020: a9b3 41bf 7f29 c4bf 4064 9dbd 4dc6 23bf
00000030: 0713 2b3f 223d d23e 36e8 c1be 6ccb 3b3f
00000040: 283f 3e3f 5d57 88be 40ab 74bf cca6 32bf
00000050: 647c ad3f f439 073e 1471 983f 6564 1ebf
00000060: e826 a83f eff2 873f 156b 13be 82bb b8be
00000070: 7f49 df3d 0fa1 403e b8fd 4d3e f4d7 08bd
00000080: 0629 493f 2ecd 40be 7a32 b7bf b192 7abe
00000090: 2a4a a03f 01f1 17be 4aac 02bf 87de 53c0
000000a0: 6f29 e63e 52d5 a6bf 18bd 7a3e c26c 573e
000000b0: a3d5 863e de46 7abe 89d9 1cbf e03a 7ebf
000000c0: 020f b03e 00e1 713d 7fcc b0bf 56e7 e03f
000000d0: 8045 b23e 9d6c 95be e69d b1bf 3972 1a3d
000000e0: 3efd 11c0 23a9 dc3e 8a40 053f 3a4c f0bd
000000f0: cbdd 943d 1264 bebf f9db 8fbe af11 e43f
00000100: 3302 50be 2714 643e 1cc7 43bf c734 cebe
00000110: a8e9 003e 0fb8 2d3f 995b ebbe ec33 003f
00000120: 4fbd 5bc0 13ce 28bf 98e9 293f 48ff 6dbf
00000130: 8415 1c3e dd12 76bf 08da 913f 1f8c 0abf
00000140: 3b48 e2bd f137 ec3f 6c42 a8be ac8f a4be
00000150: eaae 76be 1fb7 edbe 5269 583f e308 8f3f
00000160: 251f 143e f521 9d3e 53f1 02be 3daf 1bbe
00000170: 8a24 84be 5158 e33e 756f 84be c275 8bbf
00000180: e778 52be e4d6 b83f 32a1 6d3f 559e 85bf
00000190: f0b4 10bf 79ef 84be 4af8 c7bf 333b 4ebf
000001a0: 97f6 2ebf 81e8 58bf d06b 383f 65e1 d43d
000001b0: 697e 24be a525 9abe 4c0e 2dbe 0d02 163f
000001c0: 20bd 393f 1159 05be 75b7 c53e 213b fe3f
000001d0: 4ee1 2dbf 29b6 87be 91af 553f 5109 abbf
000001e0: 7ea6 243f 1bc4 f8be 691b 8abf cad4 d6be
000001f0: 2724 aebe d34f 22be 39a8 193f 796a 6cbf
00000200: 7c44 0b3f f203 7dbe ec3c e83e c085 32bf
00000210: 3d7f 6d3f 1b2c 21bf 7407 88bf 64aa ff3e
00000220: 55fa 5dbf b819 633f 2f7b 113c 5fec 8cbe
00000230: b444 09bf f416 fe3d 06f8 9ebe e074 aebe
00000240: 8379 ac3e d51e 34bf 91ac 84be a48e 933e
00000250: 07da 41be 29eb 53be 0ee5 54be 25ce 2d3f
00000260: 5f7b ec3e ead5 4e3f bc87 a33d 13ee 38be
00000270: ae70 8cbe f066 fc3d 75b1 0c3f 36e1 b6be
00000280: a740 a5be 3802 22be 292b c6be 3c32 25bf
00000290: 3fcc a43e c168 e83e 242e 363f 05d0 413f
000002a0: b865 223f 82c9 16bf 193c cdbd 8a07 81bf
000002b0: b5f4 41be 5dfe 56be 559a f53d af02 c5be
000002c0: b307 f1be 1eea ecbe c5a9 20bf b194 2d3f
000002d0: 981c a73c 1138 bebd 49ac 70bf 9d47 1b3f
000002e0: f77b 463e 37b0 003f b0c1 0a3e ad6d 47be
000002f0: 2965 f7be 6ef7 0cbf f12c 7b3f 7d41 92bf
00000300: 1fdf 59bf 1f59 18bc f61b 85bf d018 1b3e
00000310: 11aa a2be 1c5f 183d 05cc 2ebe 733a e5be
00000320: 9e86 2ebf 953e 02be 0bc5 bf3d 5aaf bfbe
00000330: 2be3 9dbd 3f87 36bf eac5 013f 66b7 50bf
00000340: 52ec d73d a080 f8be c539 a6be 342a 9bbe
00000350: 8cb3 a7be 1e6e 4cbc 17b7 e03d 5bae bdbf
00000360: 4298 d7be 014c e7be 292e 643e 9f26 a3bf
00000370: a0fc a9bf 456a f73e 3e04 fb3e 1cbd 713e
00000380: 3fa2 9c3e ff51 b23e be7a 84bf 583c 46be
00000390: d198 213d d06b 863d fd79 28be eca5 963f
000003a0: 85f1 013e 3cfb 4fbe 1cd1 51be 702e 60be
000003b0: 3fc5 a1be 924e a8be e7a6 00bc 03f0 423e
000003c0: 995f d73d c10f 413f 415f debe d592 183f
000003d0: 7c41 5dbf d222 d7be 28bd d4be eeec 4d3f
000003e0: b7f4 93be 929c 473e 3bd0 2dbf d4fb b7bf
000003f0: 117a c93e fb07 ae3e a6b6 733f 04ec a03f

lstm.weight_hh_l1 f4 [256, 64]
-3.2014937 0.29096457 -0.42673987 0.6436424 -0.9330163 -2.0794203 0.36508223 -1.1802647
-1.0170846 0.29175934 0.74061096 -3.2714877 -2.6793478 0.05250241 0.22421207 3.3962572
-1.9555465 -0.5159899 -0.58629763 0.007037483 -0.373409 -1.3832815 -3.0899775 -0.9862283
-2.079815 -1.7345783 -0.11404687 1.7595017 0.0072362786 -0.9976366 2.4963102 -0.61295587
-1.4187086 -0.61599886 -1.3777206 -0.46706665 -0.14257409 0.3874018 -0.7950716 -1.1351111
-1.6097093 -0.25669962 1.6223037 0.0659643 2.0855348 0.2435243 1.0902032 -0.52536696
0.65191275 -0.5963635 -0.19719432 -1.0737269 -0.42900625 -0.99518013 -0.18969376 0.497253
-1.0023475 -0.6739741 -0.6896024 -0.21959573 -1.5492538 0.41439468 -0.33211932 0.012757346
1.2422513 -0.30682805 0.8276793 0.037493523 -1.2897078 1.5469458 -0.9326846 -1.1065584
-0.750174 0.4613936 0.62750375 -0.7041671 -0.26847738 0.9305953 -0.5612831 -0.35364994
1.977502 -0.38817638 -2.461923 0.6740952 -0.004571972 -2.134707 1.1695036 0.107784085
-0.96662074 1.5996387 -1.7572235 -0.5722469 0.09565478 0.59263724 -0.13414288 0.7967526
0.4128139 -0.6357102 0.3216904 0.098673195 0.5001095 1.2246788 0.46875545 1.2127274
-1.0264134 -1.2564162 -0.6180893 -0.5560529 -0.63466024 0.026749216 -0.42617637 -0.2949488
0.68589723 -0.18655625 -1.3618252 0.29663128 0.45189515 -0.18893403 -0.20885453 -0.61949426
-1.0769955 0.3631214 -0.26009303 -0.038955536 -0.0046432037 0.4905144 -1.0035033 0.31598026
-1.4418048 -3.6333938 -1.5085933 -1.7633137 0.12412266 0.17977028 0.72021693 1.094486
-1.8902234 -2.0854325 -0.41317523 -1.4015746 -2.3632855 -0.92458594 -4.531256 1.6505482
1.5497055 0.20825085 0.29981142 1.3976979 -1.4257501 -0.12448656 0.9786894 1.281588
3.3797874 0.4716714 -1.1293393 0.58416754 -1.437462 -0.0059779203 -0.8381859 0.9833491
2.619643 -0.31338623 0.3010978 -0.025852595 0.27901524 -0.21428014 -0.82547426 1.1807168
-0.3773816 -1.4510278 2.1253283 0.32548702 0.39158198 -1.1538835 0.91432744 -0.49180606
-1.0504929 -0.2439373 -2.8379972 -4.4026117 -0.5060378 0.23052436 0.13032275 -0.09430025
4.506165 -1.099975 0.84684485 -0.9688124 1.8705838 1.187525 -0.3168343 1.1545007
0.8298495 -0.74706495 -1.4844737 -0.04932333 -0.5649129 0.12856333 1.2969965 -1.9173309
-0.96556723 0.52983755 -0.30129024 2.5897622 -0.59306276 0.915964 -0.53696 0.30522934
-0.5126017 -1.2234986 0.24479982 1.6507406 1.6082038 -0.6735474 -0.36182153 0.29935455
0.49664634 1.1088153 -1.3680594 -0.9177848 -0.11610971 -1.1019789 0.49609867 0.5450418
0.25736228 -1.775137 0.38748482 -0.69277185 -0.01591706 -0.2474352 2.0495632 0.8058699
-0.90513664 0.039160836 -0.6919459 -2.3398614 0.8125105 -0.14930217 0.52423173 -0.16862567
-0.022253925 0.66807985 0.8289209 -0.18984985 0.4010516 0.40190735 -0.38727793 0.909427
-1.2194327 0.71548533 1.1755397 0.5826664 -1.8619463 -0.9179191 -1.7326187 0.07899114
00000000: 46e5 4cc0 4ff9 943e a67d dabe c0c5 243f
00000010: 28da 6ebf 3915 05c0 0fec ba3e ea12 97bf
00000020: d42f 82bf 7b61 953e ae98 3d3f 0e60 51c0
00000030: 6f7a 2bc0 c40c 573d d997 653e 475c 5940
00000040: 594f fabf ea17 04bf 9a17 16bf b09a e63b
00000050: 772f bfbe 5e0f b1bf 31c2 45c0 7579 7cbf
00000060: b01b 05c0 a906 debf 6891 e9bd 5a37 e13f
00000070: 4e1e ed3b 1d65 7fbf 8cc3 1f40 adea 1cbf
00000080: 3e98 b5bf 1ab2 1dbf 2659 b0bf 5c23 efbe
00000090: f1fe 11be 8759 c63e d089 4bbf 524b 91bf
000000a0: f40a cebf 226e 83be a6a7 cf3f 4a18 873d
000000b0: 6779 0540 6f5e 793e c78b 8b3f 737e 06bf
000000c0: c1e3 263f 47ab 18bf 4fed 49be e26f 89bf
000000d0: b5a6 dbbe 20c4 7ebf 153f 42be f297 fe3e
000000e0: ec4c 80bf 9189 2cbf c889 30bf b4dd 60be
000000f0: f34d c6bf 8a2b d43e 8b0b aabe 3004 513c
00000100: 1702 9f3f 9118 9dbe cae2 533f cf92 193d
00000110: 2515 a5bf 5202 c63f 6bc4 6ebf b5a3 8dbf
00000120: 670b 40bf c83b ec3e 16a4 203f 4c44 34bf
00000130: de75 89be 7e3b 6e3f 40b0 0fbf 9b11 b5be
00000140: c91e fd3f 0ebf c6be 2590 1dc0 8191 2c3f
00000150: 7bd0 95bb 0a9f 08c0 4bb2 953f e7bd dc3d
00000160: 7574 77bf f6c0 cc3f b3ec e0bf c67e 12bf
00000170: a7e6 c33d 13b7 173f c05c 09be faf7 4b3f
00000180: 585c d33e e7bd 22bf 9bb4 a43e 2c15 ca3d
00000190: 2d07 003f 46c2 9c3f b700 f03e a73a 9b3f
000001a0: 8461 83bf 3fd2 a0bf 1a3b 1ebf 7c59 0ebf
000001b0: 1879 22bf 2c21 db3c ca33 dabe 8703 97be
000001c0: f696 2f3f 9a08 3fbe 4a50 aebf 0ee0 973e
000001d0: cd5e e73e ec77 41be f6dd 55be 2d97 1ebf
000001e0: fdda 89bf 0ceb b93e ea2a 85be d78f 1fbd
000001f0: 0426 98bb b424 fb3e cc72 80bf 2ac8 a13e
00000200: 0f8d b8bf 8689 68c0 9619 c1bf 43b4 e1bf
00000210: 0534 fe3d b315 383e 2360 383f 1e18 8c3f
00000220: d7f2 f1bf ba77 05c0 b48b d3be cc66 b3bf
00000230: 1240 17c0 aab1 6cbf 0d00 91c0 2a45 d33f
00000240: c05c c63f b63f 553e e280 993e c4e7 b23f
00000250: fb7e b6bf cff2 febd 638b 7a3f 130b a43f
00000260: 704e 5840 ea7e f13e 318e 90bf 018c 153f
00000270: c1fe b7bf 6ee2 c3bb 5a93 56bf c4bc 7b3f
00000280: 3ba8 2740 2974 a0be 7e29 9a3e d2c8 d3bc
00000290: 16db 8e3e 416c 5bbe 4852 53bf ba21 973f
000002a0: 2938 c1be 47bb b9bf 6105 0840 3ca6 a63e
000002b0: 6f7d c83e 74b2 93bf 5d11 6a3f 01ce fbbe
000002c0: 8d76 86bf b3ca 79be bfa1 35c0 32e2 8cc0
000002d0: b18b 01bf 940e 6c3e 5473 053e 7d20 c1bd
000002e0: 8132 9040 fbcb 8cbf d3ca 583f 1704 78bf
000002f0: 4a6f ef3f d200 983f 1b38 a2be aec6 933f
00000300: 0471 543f a63f 3fbf 3c03 bebf 4307 4abd
00000310: 229e 10bf 1ba6 033e fb03 a63f 196b f5bf
00000320: 6a2f 77bf 6fa3 073f b742 9abe aabe 2540
00000330: f6d2 17bf 9e7c 6a3f 3676 09bf 0547 9c3e
00000340: dd39 03bf 9a9b 9cbf ceac 7a3e 784b d33f
00000350: 9fd9 cd3f 9a6d 2cbf ac40 b9be 0045 993e
00000360: 6e48 fe3e a9ed 8d3f 921c afbf f2f3 6abf
00000370: edca edbd a50d 8dbf a500 fe3e dc87 0b3f
00000380: fdc4 833e b037 e3bf 6964 c63e 7f59 31bf
00000390: 7f64 82bc a75f 7dbe 0b2c 0340 7d4d 4e3f
000003a0: 09b7 67bf 1d67 203d 5e23 31bf 4ac0 15c0
000003b0: b000 503f abe2 18be 0d34 063f 35ac 2cbe
000003c0: dd4d b6bc 4807 2b3f 2934 543f 0068 42be
000003d0: a356 cd3e cdc6 cd3e 4b49 c6be 35d0 683f
000003e0: 5f16 9cbf 0c2a 373f 1678 963f a029 153f
000003f0: 4254 eebf bffc 6abf 73c6 ddbf 1bc6 a13d

lstm.bias_ih_l1 f4 [256]
-0.11542834 -0.057859905 0.35292226 0.16460238 0.54196393 -0.014526643 0.087203205 -0.22233048
-0.05863207 0.11741063 -0.36233458 -0.3492106 -0.18573585 0.2909139 0.012144482 0.1982404
-0.44075474 0.24895506 -0.53950536 0.23262332 -0.02039088 0.27969664 -0.13736962 0.4114042
0.1439287 0.05701538 0.26954207 -0.0047929133 0.27513576 0.10263534 -0.3355128 0.40811968
0.324639 0.32858655 0.2881474 0.25845277 0.71239316 0.15315814 0.24366179 0.22329992
0.2398248 -0.0020653657 0.03470545 0.16146466 0.037461318 -0.18828838 0.33791065 -0.6043812
0.30913702 0.040180735 0.028177543 -0.44382364 0.023409737 -0.118094556 0.40462157 0.07760608
0.060498934 -0.27219597 0.15929942 0.063381575 0.088856116 0.31945196 0.17672756 0.45959175
0.43554038 -0.40383476 0.29405934 0.3855864 0.24655184 0.15581761 0.098229244 -0.012899962
0.021969704 -0.05400869 0.17309031 -0.11125306 -0.19384296 0.09486363 -0.024444401 0.44296616
-0.284347 0.4298734 -0.23345055 0.16137888 -0.18652076 -0.06959229 0.050959542 -0.4102917
0.13823254 -0.30144423 0.29177323 0.29380658 0.042256106 0.022577552 0.20645693 -0.08813413
0.15208535 -0.02220229 0.5119565 0.34408996 0.49637213 0.3076277 -0.14848748 -0.3250596
0.6493789 -0.15918902 0.22692771 0.29125488 0.51253176 0.22549385 0.51484334 1.0409851
0.28551775 0.37649018 0.5149299 -0.077435255 0.8201246 0.22491361 0.51319164 0.11368719
-0.03948253 0.31601727 0.16065767 0.5125864 -0.065794595 0.31272733 0.031591818 0.447999
0.17335196 0.053246558 -0.525014 -0.1623167 -0.20192845 -0.028982703 0.020204639 -0.0021071488
0.22175455 0.07709496 -0.1639584 0.12906301 -0.12728596 -0.3647409 -0.46486264 0.021762675
0.027883796 0.3770813 -0.25855887 -0.26574877 0.21870084 -0.10064389 -0.122661896 0.06176722
0.32184085 0.3077246 -0.15804256 -0.0211068 -0.29728696 -0.07556507 0.10511964 0.11359355
0.41454965 -0.122138895 0.07531523 0.16534382 -0.037200328 0.6974376 0.102355205 -0.17058136
-0.33170506 0.10999735 -0.34141403 -0.49955574 0.1939618 -0.043270715 -0.07949029 -0.29640976
-0.32985598 0.31692848 0.17564331 0.14973949 0.21766005 -0.21846463 0.23535143 -0.32453534
-0.49973777 0.114873074 0.3377551 0.4456743 -0.17974164 -0.049015924 0.16574459 0.074534096
0.14388148 -0.20615387 0.29990202 0.57370615 0.52411145 0.3301041 0.2783941 0.3064797
0.3005079 0.3738432 0.4063064 0.58760995 0.40278155 0.68410224 0.37885174 0.6023282
0.16857971 0.21236661 -0.34883738 0.576221 0.008942341 -0.0781948 0.2787295 0.13506918
0.18867227 0.2972351 0.39301404 0.5787179 0.060926013 0.30515867 -0.1286372 0.42799893
0.63748837 1.2321765 0.7172421 0.17078152 0.31910428 0.33859387 -0.19559044 0.41900286
0.28248203 0.14874986 0.17500846 0.2735685 -0.016627848 0.4635041 0.31431025 0.1312121
0.35620984 0.17726795 0.46490934 0.07273371 0.7954621 0.21966635 0.3480839 -0.12280108
0.38908243 0.1274928 0.52071786 0.427792 -0.0056239017 0.16837096 0.14336373 0.48888606
00000000: b265 ecbd 82fe 6cbd 3ab2 b43e 878d 283e
00000010: 26be 0a3f 2801 6ebc 9897 b23d 9aaa 63be
00000020: 2e28 70bd fc74 f03d eb83 b9be bbcb b2be
00000030: 8a31 3ebe abf2 943e a6f9 463c 88ff 4a3e
00000040: 9baa e1be 13ee 7e3e 061d 0abf cf34 6e3e
00000050: c60a a7bc 6634 8f3e 9faa 0cbe 92a3 d23e
00000060: 0c62 133e f688 693d 6b01 8a3e df0d 9dbb
00000070: 98de 8c3e 7a32 d23d 55c8 abbe 10f5 d03e
00000080: 1537 a63e 7f3c a83e 0e88 933e ec53 843e
00000090: 665f 363f 7dd5 1c3e 7a82 793e bca8 643e
000000a0: a294 753e 165b 07bb 4d27 0e3d fe56 253e
000000b0: 0a71 193d abce 40be a002 ad3e bab8 1abf
000000c0: 3547 9e3e 8e94 243d 97d4 e63c da3c e3be
000000d0: c7c5 bf3c 8fdb f1bd 8f2a cf3e f0ef 9e3d
000000e0: bbcd 773d 455d 8bbe 631f 233e 33ce 813d
000000f0: 32fa b53d 358f a33e 12f8 343e 9c4f eb3e
00000100: 26ff de3e 6ec3 cebe f28e 963e 956b c53e
00000110: 1678 7c3e a78e 1f3e 6a2c c93d 5d5a 53bc
00000120: cff9 b33c 3738 5dbd 963e 313e a5d8 e3bd
00000130: c57e 46be dd47 c23d a03f c8bc 76cc e23e
00000140: ee95 91be 5e18 dc3e a90d 6fbe 8140 253e
00000150: 4cff 3ebe 6786 8ebd f4ba 503d c111 d2be
00000160: d58c 0d3e e656 9abe 4d63 953e d16d 963e
00000170: bd14 2d3d 8ff4 b83c 7269 533e ab7f b4bd
00000180: 43bc 1b3e 94e1 b5bc 950f 033f 8f2c b03e
00000190: 7d24 fe3e 6181 9d3e 1a0d 18be 366e a6be
000001a0: b23d 263f 7202 23be bd5f 683e 5c1f 953e
000001b0: 4835 033f dce7 663e c6cc 033f 003f 853f
000001c0: 622f 923e 52c3 c03e 72d2 033f 6096 9ebd
000001d0: b0f3 513f c14f 663e 8760 033f d4d4 e83d
000001e0: 6fb8 21bd 04cd a13e 7283 243e dd38 033f
000001f0: 51bf 86bd cc1d a03e 6c66 013d 2060 e53e
00000200: 2d83 313e 1019 5a3d 5167 06bf 5936 26be
00000210: 55c6 4ebe 226d edbc 3384 a53c 1718 0abb
00000220: a013 633e f6e3 9d3d b6e4 27be 1829 043e
00000230: 4057 02be 52bf babe 7a02 eebe a347 b23c
00000240: 8f6c e43c cd10 c13e d461 84be 3910 88be
00000250: 1df3 5f3e 621e cebd 2936 fbbd a0ff 7c3d
00000260: 53c8 a43e 148e 9d3e e9d5 21be 2be8 acbc
00000270: ff35 98be dcc1 9abd f748 d73d bca3 e83d
00000280: da3f d43e f523 fabd df3e 9a3d e44f 293e
00000290: 5f5f 18bd 458b 323f 9b9f d13d e1ac 2ebe
000002a0: 3fd5 a9be 4a46 e13d d2cd aebe c5c5 ffbe
000002b0: ec9d 463e a23c 31bd cecb a2bd 05c3 97be
000002c0: e2e2 a8be 7344 a23e d7db 333e 4f55 193e
000002d0: 47e2 5e3e 31b5 5fbe f7ff 703e 7f29 a6be
000002e0: a1dd ffbe 9342 eb3d 3dee ac3e 6c2f e43e
000002f0: 310e 38be ecc4 48bd f3b8 293e 55a5 983d
00000300: ab55 133e 001a 53be c28c 993e 68de 123f
00000310: 2b2c 063f 6803 a93e ac89 8e3e e8ea 9c3e
00000320: 2cdc 993e 6068 bf3e 6407 d03e 9b6d 163f
00000330: 6239 ce3e 5321 2f3f dbf8 c13e 2e32 1a3f
00000340: 29a0 2c3e a276 593e d09a b2be 3883 133f
00000350: e682 123c 9824 a0bd a2b5 8e3e 934f 0a3e
00000360: 4e33 413e 332f 983e 2339 c93e db26 143f
00000370: 8e8d 793d c23d 9c3e 78b9 03be ad22 db3e
00000380: 7032 233f f6b7 9d3f 2e9d 373f 5ae1 2e3e
00000390: a361 a33e 2d5c ad3e dc48 48be 8b87 d63e
000003a0: 7ca1 903e e251 183e 6b35 333e 2c11 8c3e
000003b0: 2037 88bc 6950 ed3e 46ed a03e 775c 063e
000003c0: 2361 b63e bb85 353e 9908 ee3e 69f5 943d
000003d0: 67a3 4b3f 37f0 603e 0e38 b23e 227f fbbd
000003e0: d035 c73e 798d 023e c44d 053f 8e07 db3e
000003f0: b548 b8bb 7069 2c3e f1cd 123e 464f fa3e

lstm.bias_hh_l1 f4 [256]
-0.08674174 -0.21160392 0.32140133 -0.010345797 0.47604853 0.103126615 0.06997489 -0.087565474
-0.08629529 -0.033179495 -0.14498615 -0.32600492 -0.22535586 0.31495163 0.056896728 0.12190205
-0.31873444 0.43742657 -0.50501025 0.16429123 -0.21074691 0.16818193 -0.077439256 0.32870287
0.11936875 -0.0104459245 0.186017 0.011843264 0.22407457 0.24610475 -0.24761392 0.561616
0.54630333 0.38995138 0.2813474 0.33335033 0.71372896 -0.0016590654 0.21536396 0.3023721
0.19906828 -0.052830093 0.07995507 0.17315899 -0.15283637 -0.086792156 0.39639708 -0.64541614
0.3392041 0.05329949 -0.014383737 -0.3233736 0.047575805 -0.049314108 0.33159006 -0.026981916
-0.044890713 -0.18382156 0.23825489 0.0074841185 -0.02591975 0.31286713 0.1175221 0.38359082
0.38443953 -0.23161292 0.21740216 0.29110247 0.40749958 0.24455017 0.12787269 -0.048813164
0.20654926 -0.021488724 0.04165713 -0.1868257 -0.23067625 0.11830481 -0.059711177 0.32878178
-0.29320332 0.4473654 -0.20828763 0.025570374 -0.30422062 -0.012004546 0.087751925 -0.1994672
0.22590132 -0.2923958 0.31209287 0.24146847 0.13851538 0.1834122 0.15119603 0.042305477
0.11464752 -0.00458793 0.50470364 0.44363496 0.47031534 0.37067103 -0.016956355 -0.24183066
0.49963537 -0.12631747 0.17709751 0.24734573 0.4895549 0.21864687 0.62789184 0.9528173
0.36574018 0.31992728 0.41432464 0.052794732 0.84018856 0.15041728 0.37235302 0.1801552
0.022389833 0.29453954 0.15544558 0.34221128 0.10372681 0.45278123 0.07107792 0.28355888
0.11932958 0.04945338 -0.3078362 -0.1440588 -0.2145178 0.03045418 0.1436158 -0.22949791
0.12296043 0.29183424 -0.033343405 0.15639158 -0.084725454 -0.17310712 -0.48507726 0.013924465
-0.124667846 0.35693553 -0.08305814 -0.06388563 -0.00029899157 -0.15644026 -0.24382168 -0.140879
0.14484856 0.17278527 0.068805195 0.08839298 -0.2980038 -0.21583837 0.19562957 0.034391236
0.42658323 -0.08150217 -0.006118134 0.18237004 0.044977564 0.71771324 -0.010918017 -0.3056854
-0.44838732 0.026034396 -0.28883967 -0.40084305 0.111868456 -0.030564101 -0.22516625 -0.24733211
-0.20978685 0.17962696 0.16942617 0.13283703 0.19932663 -0.024587836 0.31740904 -0.34680885
-0.43706235 0.053661823 0.26934215 0.5413443 -0.22083929 -0.06745336 0.17100276 -0.0027210934
0.11350202 -0.28446284 0.27931175 0.37185347 0.7018986 0.27737775 0.28416508 0.22104502
0.2732809 0.3093212 0.5007595 0.4604266 0.30940184 0.657772 0.18767786 0.43845847
0.18249702 0.3755464 -0.31009492 0.48838106 0.012790647 0.07817407 0.1778098 -0.0093963165
0.25884557 0.34764212 0.38280806 0.7390863 0.2661685 0.2240318 -0.14007282 0.42556995
0.5481324 1.1734627 0.867187 0.21285327 0.3299165 0.29784784 -0.2750023 0.36750394
0.2606474 -0.0090652285 0.19313224 0.31651312 0.21246417 0.5588704 0.11027864 0.18281996
0.25448576 0.21149358 0.27141136 0.18610266 0.83754486 0.1735801 0.4188574 -0.11714768
0.41416177 0.24769433 0.46735463 0.49579135 0.21701966 0.10466272 0.098138206 0.67429864
00000000: a7a5 b1bd b3ae 58be b78e a43e 6b81 29bc
00000010: a2bc f33e 0c34 d33d ff4e 8f3d 8755 b3bd
00000020: 96bb b0bd 39e7 07bd 4077 14be 1eea a6be
00000030: b0c3 66be 5741 a13e 8b0c 693d c8a7 f93d
00000040: 2931 a3be 60f6 df3e 5a48 01bf f63b 283e
00000050: 0ace 57be e237 2c3e 7998 9ebd be4b a83e
00000060: 9a77 f43d 6225 2bbc 3e7b 3e3e 400a 423c
00000070: ce73 653e e202 7c3e 818e 7dbe 11c6 0f3f
00000080: 89da 0b3f b5a7 c73e c40c 903e e5ac aa3e
00000090: f1b6 363f ff74 d9ba 5f88 5c3e 84d0 9a3e
000000a0: 8ed8 4b3e 5e64 58bd 7cbf a33d 9750 313e
000000b0: 2381 1cbe 16c0 b1bd 8ff4 ca3e fe39 25bf
000000c0: 29ac ad3e 9150 5a3d c4a9 6bbc 3991 a5be
000000d0: d9de 423d 97fd 49bd 2cc6 a93e 2e09 ddbc
000000e0: 53df 37bd b83b 3cbe 17f9 733e 563d f53b
000000f0: a855 d4bc 1f30 a03e 6daf f03d 0466 c43e
00000100: 42d5 c43e f02b 6dbe ac9e 5e3e 620b 953e
00000110: c9a3 d03e 5c6b 7a3e 0ff1 023e 50f0 47bd
00000120: a681 533e 1f09 b0bc aba0 2a3d 3c4f 3fbe
00000130: 6536 6cbe cb49 f23d b593 74bd 1656 a83e
00000140: bf1e 96be 140d e53e 5a49 55be f678 d13c
00000150: cec2 9bbe b7ae 44bc 48b7 b33d 2141 4cbe
00000160: ad52 673e e7b4 95be a3ca 9f3e 8343 773e
00000170: fad6 0d3e 68d0 3b3e 22d3 1a3e 8248 2d3d
00000180: 52cc ea3d 5956 96bb 4234 013f 1f24 e33e
00000190: 2ccd f03e 98c8 bd3e 0ee8 8abc 75a2 77be
000001a0: 35d0 ff3e 5e59 01be 0d59 353e 3348 7d3e
000001b0: f1a6 fa3e f7e4 5f3e 85bd 203f d6eb 733f
000001c0: 4c42 bb3e 82cd a33e 5c22 d43e 4a3f 583d
000001d0: 9916 573f fd06 1a3e 0ea5 be3e 9b7a 383e
000001e0: e26a b73c e3cd 963e 202d 1f3e 5136 af3e
000001f0: b96e d43d f1d2 e73e 4d91 913d a12e 913e
00000200: 1163 f43d a18f 4a3d b59c 9dbe 2684 13be
00000210: 8eaa 5bbe 0b7b f93c 0510 133e 8001 6bbe
00000220: aed2 fb3d 4c6b 953e 1893 08bd 1d25 203e
00000230: 8a84 adbd fe42 31be 0c5c f8be 7023 643c
00000240: db51 ffbd 41c0 b63e 631a aabd 78d6 82bd
00000250: f8c1 9cb9 e031 20be 64ac 79be 9642 10be
00000260: 2e53 143e 9fee 303e bde9 8c3d 6107 b53d
00000270: f493 98be bc04 5dbe 1e53 483e d3dd 0c3d
00000280: 1e69 da3e 9cea a6bd a17a c8bb 36bf 3a3e
00000290: 653a 383d 0ebc 373f 7be1 32bc cc82 9cbe
000002a0: 0693 e5be 1646 d53c cbe2 93be 4d3b cdbe
000002b0: 4a1b e53d 9161 fabc fb91 66be a144 7dbe
000002c0: 5dd2 56be 21f0 373e 0e7e 2d3e 6e06 083e
000002d0: 481c 4c3e 6e6c c9bc 7083 a23e ee90 b1be
000002e0: a3c6 dfbe 80cc 5b3d 37e7 893e 8a95 0a3f
000002f0: b223 62be fd24 8abd 591b 2f3e 5f54 32bb
00000300: bf73 e83d 1da5 91be f301 8f3e 9463 be3e
00000310: a0af 333f 7504 8e3e 167e 913e a059 623e
00000320: 79eb 8b3e 595f 9e3e c631 003f 09bd eb3e
00000330: eb69 9e3e bf63 283f a02e 403e a17d e03e
00000340: 80e0 3a3e 9e47 c03e c3c4 9ebe 150d fa3e
00000350: dd8f 513c ba19 a03d c613 363e 02f3 19bc
00000360: 6887 843e 26fe b13e 6bff c33e c234 3d3f
00000370: 3d47 883e 9868 653e 406f 0fbe 4ee4 d93e
00000380: 6852 0c3f 0734 963f f8ff 5d3f 35f6 593e
00000390: d1ea a83e 837f 983e 1acd 8cbe 7a29 bc3e
000003a0: 9373 853e 5386 14bc 75c4 453e 020e a23e
000003b0: 3590 593e 2112 0f3f c5d9 e13d 2835 3b3e
000003c0: f54b 823e c691 583e 6ef6 8a3e b291 3e3e
000003d0: 5769 563f fbbe 313e 7a74 d63e 1feb efbd
000003e0: 030d d43e 95a3 7d3e 1b49 ef3e 5dd8 fd3e
000003f0: 673a 5e3e 6859 d63d affc c83d d69e 2c3f
