param1/lstm_model_89000.pth (torch, 204435 bytes, 9 tensors)

lstm.weight_ih_l0 f4 [256, 1]
0.78542954 1.3196074 0.7886902 0.8544016 0.83019304 -0.64690167 -0.6450245 0.7939082
-0.5352611 0.36593154 -0.7230306 1.4782758 0.05048903 -0.9947691 1.4126209 0.60440725
0.21706009 2.2679203 0.517907 0.6467788 1.2423544 -1.108165 0.042931765 0.38752583
-0.1893353 0.2291947 0.6055407 0.5191048 -0.29118586 -0.8962226 -0.37638775 1.3674892
1.5309042 3.021543 -0.26656616 0.42338273 1.579479 -0.06581757 -0.36254552 1.2115462
2.9753234 -0.95796484 -0.9491534 0.34528175 0.7407237 0.0350363 0.1869683 0.18789971
2.2963636 -1.3109044 1.7386358 0.027609415 0.28770825 -0.35506865 -0.07989983 0.9001448
0.3280868 0.7562343 0.45537886 -1.0479921 0.2543178 0.1785941 0.19791694 0.8946373
-1.1680902 0.0036664458 0.84135973 1.22465 0.9905129 2.2954597 1.4612207 0.37700197
-1.6113855 0.26561826 0.5812182 1.2210282 0.58749706 0.21220317 1.0914365 0.74163723
0.6218442 1.3681593 0.8069459 0.18961833 0.58589005 -0.5882102 -0.7333807 -0.5094295
0.25756034 0.5778892 0.15315299 -0.0989271 -1.5227598 0.050409954 0.80785906 -2.2155242
0.684967 0.30434138 0.9265282 1.8175322 0.24970777 1.134651 0.21752137 -0.5927809
-0.050213605 0.436674 -0.71855557 0.8158083 -0.11015347 0.74576557 0.36413273 -0.5461423
0.91119665 0.42360747 -0.24985783 -2.8370464 0.59029716 0.7503951 0.986442 1.0476319
0.2063454 0.67595 0.76882464 -0.799538 0.3829721 0.097176716 -0.14687833 0.0036873603
1.5177566 -0.14268854 1.86177 -1.1127317 -1.6247835 -0.60675347 0.001445865 0.8807115
7.8044696 -1.0102674 -1.9909596 -1.4228505 -1.1805509 -0.29124153 -1.1045141 -0.7584308
1.4804646 -2.4288106 -0.43613115 0.9051662 1.8662122 0.06671736 -2.0124846 1.1158068
1.6665808 -1.4433833 -0.55472374 -0.40928075 1.2667899 -1.2333845 0.004927789 3.5091593
0.4187697 -2.612705 -4.0048027 0.54579294 -2.1637876 -0.86694765 0.47821584 0.60395646
2.9708142 -0.5826308 -1.1899097 -1.893151 1.6613946 -0.68536454 1.3292658 -3.53306
-2.6593516 -0.0517386 0.75272125 -3.9138155 1.3254049 0.58694214 -0.3762054 -1.1133698
-1.3343289 -1.16234 -1.0264621 -1.252061 -2.3177545 -0.445282 1.883391 -0.8859406
-0.47495115 0.094356574 3.6068087 0.8027741 3.4166496 -0.00472398 -0.4743314 0.48554933
-0.08938556 0.13217153 -0.22838213 0.53618866 3.7228627 0.119332716 2.2579684 0.42758334
1.0314466 2.9237678 0.69344574 -0.0049659307 1.0885597 -0.50378543 -0.8184505 0.075805604
1.5371197 2.399255 -0.18805477 1.0588169 -1.2053561 -0.16649346 -0.123662755 -0.28017768
1.2550977 3.9826188 0.8834078 -0.7329306 2.309903 0.4982098 -0.41400066 0.1485806
3.2038615 0.30443594 -1.5277157 1.0269319 0.7378088 1.3227562 -0.03252005 0.023922812
3.8827846 -0.25934651 -0.16123939 -0.8467247 -0.14788647 -1.026645 -0.18879063 1.8809084
1.2751024 2.3468406 0.25628322 -1.1632633 0.47209677 0.46233717 0.71025544 0.6724101
00000000: e911 493f e5e8 a83f 9ae7 493f 10ba 5a3f
00000010: 8887 543f 599b 25bf 5320 25bf 913d 4b3f
00000020: df06 09bf 615b bb3e 8918 39bf 2438 bd3f
00000030: 96cd 4e3d 30a9 7ebf c3d0 b43f 6fba 1a3f
00000040: 0045 5e3e 9b25 1140 8e95 043f 4c93 253f
00000050: 7805 9f3f 5ad8 8dbf 38d9 2f3d c969 c63e
00000060: 1de1 41be 04b2 6a3e b704 1b3f 0de4 043f
00000070: 5016 95be d86e 65bf e5b5 c0be e309 af3f
00000080: abf4 c33f f660 4140 5c7b 88be 9fc5 d83e
00000090: 5e2c ca3f 5dcb 86bd 919f b9be f213 9b3f
000000a0: b36b 3e40 2f3d 75bf b8fb 72bf c5c8 b03e
000000b0: 12a0 3d3f 3982 0f3d 9e74 3f3e c868 403e
000000c0: 9ff7 1240 b7cb a7bf 9e8b de3f 242d e23c
000000d0: 7f4e 933e 8fcb b5be 86a2 a3bd e46f 663f
000000e0: fefa a73e 9298 413f 6b27 e93e 9b24 86bf
000000f0: f135 823e 5fe1 363e bdaa 4a3e f306 653f
00000100: fb83 95bf c148 703b 5a63 573f 55c1 9c3f
00000110: 4192 7d3f d0e8 1240 4809 bb3f 6706 c13e
00000120: e141 cebf 1eff 873e b7ca 143f a74a 9c3f
00000130: 3566 163f ca4b 593e 31b4 8b3f f0db 3d3f
00000140: 2e31 1f3f d81f af3f 0294 4e3f 4f2b 423e
00000150: e4fc 153f f294 16bf d6be 3bbf f969 02bf
00000160: f3de 833e 8cf0 133f 23d4 1c3e 4b9a cabd
00000170: cbe9 c2bf ab7a 4e3d dacf 4e3f 26cb 0dc0
00000180: ff59 2f3f a2d2 9b3e f430 6d3f e5a4 e83f
00000190: 65b3 7f3e 3e3c 913f ecbd 5e3e 7dc0 17bf
000001a0: c8ac 4dbd bc93 df3e 42f3 37bf d0d8 503f
000001b0: 2498 e1bd 7eea 3e3f 9b6f ba3e fbcf 0bbf
000001c0: 2f44 693f 14e3 d83e bbda 7fbe 2b92 35c0
000001d0: b71d 173f e519 403f 7787 7c3f cd18 863f
000001e0: 354c 533e 0f0b 2d3f b1d1 443f 86ae 4cbf
000001f0: eb14 c43e 9604 c73d 4667 16be a4a7 713b
00000200: d945 c23f f21c 12be 7b4e ee3f fe6d 8ebf
00000210: e8f8 cfbf 3254 1bbf 2e83 bd3a 4f76 613f
00000220: 37be f940 7150 81bf c4d7 febf f71f b6bf
00000230: 4b1c 97bf 9c1d 95be b860 8dbf 8528 42bf
00000240: dd7f bd3f a271 1bc0 954c dfbe f9b8 673f
00000250: 0be0 ee3f 1ca3 883d 8ccc 00c0 c2d2 8e3f
00000260: 8552 d53f c9c0 b8bf 6002 0ebf 3f8d d1be
00000270: 2c26 a23f 8bdf 9dbf 4a79 a13b 1196 6040
00000280: fb68 d63e 8f36 27c0 5827 80c0 16b9 0b3f
00000290: 7f7b 0ac0 48f0 5dbf b5d8 f43e e49c 1a3f
000002a0: d221 3e40 4b27 15bf f64e 98bf c652 f2bf
000002b0: 94a8 d43f 0d74 2fbf 6225 aa3f a81d 62c0
000002c0: d132 2ac0 dbeb 53bd 57b2 403f f47b 7ac0
000002d0: dea6 a93f d741 163f ff9d c0be e782 8ebf
000002e0: 4acb aabf 8fc7 94bf 1c63 83bf 8943 a0bf
000002f0: 1756 14c0 01fc e3be f512 f13f 01cd 62bf
00000300: cc2c f3be 053e c13d f4d5 6640 9a82 4d3f
00000310: 63aa 5a40 9ecb 9abb 91db f2be ec99 f83e
00000320: c70f b7bd f957 073e 01dd 69be a943 093f
00000330: 6243 6e40 b664 f43d 8e82 1040 34ec da3e
00000340: 7106 843f 031f 3b40 a985 313f 3fb9 a2bb
00000350: ed55 8b3f 15f8 00bf f985 51bf f83f 9b3d
00000360: 57c0 c43f 658d 1940 6e91 40be 5087 873f
00000370: 1c49 9abf 437d 2abe e642 fdbd 7373 8fbe
00000380: 0ba7 a03f 3ae3 7e40 0327 623f 57a1 3bbf
00000390: 73d5 1340 5b15 ff3e e5f7 d3be 8325 183e
000003a0: 110c 4d40 07df 9b3e 308c c3bf 8172 833f
000003b0: 0ae1 3c3f 1350 a93f be33 05bd c6f9 c33c
000003c0: 8b7f 7840 11c9 84be f01b 25be f3c2 58bf
000003d0: 8d6f 17be 1a69 83bf 5552 41be 9bc1 f03f
000003e0: 8e36 a33f a332 1640 8e37 833e d0e5 94bf
000003f0: abb6 f13e 75b7 ec3e 4dd3 353f 1123 2c3f

lstm.weight_hh_l0 f4 [256, 64]
-0.102071695 0.93119204 -0.29605156 0.028025053 -0.27186543 -0.30025917 0.16372253 0.10118833
1.1416171 -0.118961625 -0.47477213 0.5526563 0.18293834 0.99656224 -0.92301476 -0.01712561
0.14532493 -0.06349274 0.00848353 0.58102095 0.6140944 0.42624575 -0.050043188 -0.13528508
-0.13052137 0.5694595 -0.15443294 -1.0410638 0.015817005 -0.3560185 -0.053365357 0.4782478
0.28535053 -0.58754605 -0.12753293 0.48712748 -0.15023331 -0.8992292 0.045134112 -0.56988794
0.027433675 -0.19093409 0.14097229 -0.28838357 0.34256643 0.17935704 0.29516485 -0.5701508
-0.4554707 0.092342965 0.10074762 -0.16572158 0.6357125 1.008355 0.1332404 -0.017228514
-1.1880643 -0.24572523 0.3163178 0.19252194 -0.24778417 0.102484636 0.04343847 -0.329789
0.8058433 -1.6641556 0.501486 0.6353372 -0.05797153 -0.15956357 -0.5204609 0.033512104
0.38117272 0.025383193 -0.3417592 0.03309921 0.31150973 -1.6419711 0.55684674 -0.58131593
0.85487014 -1.357302 -0.03633391 0.86241376 -0.23577942 -0.3195369 1.508119 0.8431859
0.22364765 -0.3238843 0.22358732 1.1769583 -0.47952187 -0.527567 0.42758992 1.1429955
-0.22899526 -1.0966773 0.20486915 0.17398162 -1.345706 -0.012829919 1.1510068 -0.7909003
1.0439332 0.3544497 -0.38075146 -1.1415693 -0.06676638 -0.7143175 0.44443026 0.07927558
-1.9818729 -0.7376964 0.17357033 -0.25171438 -0.017960595 -1.0708477 -0.30267665 -0.576932
0.42048857 0.03235313 -0.35395736 -0.7551344 -0.5879777 -0.14445928 -0.2925268 -1.2530103
-1.2383021 1.1613928 0.36754838 0.3638425 -1.3099912 0.1708911 -0.18225643 -0.20392624
1.1278132 -0.39246333 -0.018226342 -0.10971621 -0.8619713 -1.0705273 -0.320112 -0.34122837
1.6910645 -1.3606335 -0.67244935 0.079664536 0.105843656 -0.17446245 -0.3792055 -0.7968297
-0.33415678 -1.4551826 0.24485797 0.051040243 -0.6521348 -0.6081969 0.60894066 0.49188012
-0.39348325 -0.03602312 0.70790017 0.23990211 0.9491212 0.6703728 0.5298933 0.8814701
0.55362993 0.91787404 0.25262296 -0.51376706 0.18684903 0.38829133 0.608134 0.27036375
0.16778123 -0.8473326 0.77282304 0.78900415 0.40501285 0.35495988 -1.9082977 0.6121439
-1.0572281 -0.8038044 0.38333258 0.27600574 -1.2856581 -0.32107905 0.49412942 -0.78146386
-0.36036208 0.5960621 -0.5461706 -0.6281722 -0.94400245 0.25268173 0.05339958 0.42903158
0.36693656 -0.27423158 0.010385586 -0.808637 0.34863484 -0.19349733 0.123628154 -0.4362278
0.22404762 -0.11231079 0.14820126 0.3849775 1.0831532 -0.026188092 0.35163713 0.1531664
0.3414281 0.0003735358 -0.7397936 0.43331766 0.40472567 -0.57198477 -0.021186277 0.7441499
0.04461976 -0.7902098 -0.21379063 -0.16750196 -0.47460875 0.18174149 -0.3679791 0.35283965
0.6859936 0.8521659 0.31076023 0.8168513 0.6475542 -0.22400126 -0.4177416 0.12486695
-0.28378695 -0.12118947 0.9683342 -0.2814414 0.17746969 -0.26240683 -1.3326406 1.6484338
0.024073193 0.18408783 -0.026796049 -0.5628162 -0.35752463 -0.026142193 -0.10676115 -1.1098557
00000000: f70a d1bd 9a62 6e3f 1294 97be cc94 e53c
00000010: f231 8bbe 92bb 99be e1a6 273e d43b cf3d
00000020: 8220 923f 27a2 f3bd 5515 f3be e27a 0d3f
00000030: 3054 3b3e b41e 7f3f b24a 6cbf 024b 8cbc
00000040: 0fd0 143e 7b08 82bd 81fe 0a3c cabd 143f
00000050: 4a35 1d3f e23c da3e 16fa 4cbd 2c88 0abe
00000060: 65a7 05be 19c8 113f ab23 1ebe 9441 85bf
00000070: aa92 813c 0f48 b6be a295 5abd e5dc f43e
00000080: 7719 923e 6b69 16bf fe97 02be c668 f93e
00000090: c3d6 19be e333 66bf 8cde 383d 2de4 11bf
000000a0: 96bc e03c 3a84 43be 0a5b 103e 03a7 93be
000000b0: de64 af3e 5fa9 373e d91f 973e 67f5 11bf
000000c0: 7533 e9be 4f1e bd3d c554 ce3d ebb2 29be
000000d0: 0ebe 223f c711 813f 2c70 083e d022 8dbc
000000e0: 7e12 98bf 659f 7bbe 68f4 a13e 7924 453e
000000f0: 22bb 7dbe 77e3 d13d 8aec 313d 1bda a8be
00000100: bf4b 4e3f 0d03 d5bf 6361 003f 75a5 223f
00000110: 8e73 6dbd a264 23be ed3c 05bf fd43 093d
00000120: 1229 c33e 6af0 cf3c 10fb aebe 0a93 073d
00000130: 347e 9f3e 1c2c d2bf 828d 0e3f 1fd1 14bf
00000140: c5d8 5a3f 12bc adbf ded2 14bd 26c7 5c3f
00000150: 2970 71be 579a a3be 0b0a c13f 08db 573f
00000160: e403 653e 2ad4 a5be 13f4 643e 92a6 963f
00000170: e483 f5be a20e 07bf 11ed da3e ad4d 923f
00000180: bc7d 6abe ec5f 8cbf 38c9 513e 3d28 323e
00000190: 1840 acbf 9534 52bc 3154 933f 7178 4abf
000001a0: 9a9f 853f 6e7a b53e dbf1 c2be f11e 92bf
000001b0: d0bc 88bd 83dd 36bf 5d8c e33e 3c5b a23d
000001c0: 03ae fdbf acd9 3cbf 6cbc 313e b5e0 80be
000001d0: 1922 93bc 8a11 89bf 6ff8 9abe d1b1 13bf
000001e0: 474a d73e b784 043d e639 b5be 7d50 41bf
000001f0: b585 16bf 22ed 13be 13c6 95be a462 a0bf
00000200: af80 9ebf 85a8 943f 4d2f bc3e 9049 ba3e
00000210: cbad a7bf 14fe 2e3e 6ea1 3abe 0ad2 50be
00000220: 2f5c 903f f4f0 c8be 694f 95bc e4b2 e0bd
00000230: 27aa 5cbf 0a07 89bf b8e5 a3be 7cb5 aebe
00000240: cd74 d83f 3d29 aebf a425 2cbf 2927 a33d
00000250: 8fc4 d83d 49a6 32be 3927 c2be 08fd 4bbf
00000260: 9916 abbe 6c43 babf 0cbc 7a3e 930f 513d
00000270: 4ef2 26bf cbb2 1bbf 89e3 1b3f b6d7 fb3e
00000280: a376 c9be fb8c 13bd f238 353f e6a8 753e
00000290: 9bf9 723f 8d9d 2b3f 16a7 073f 06a8 613f
000002a0: b1ba 0d3f cbf9 6a3f cc57 813e 3d86 03bf
000002b0: 5a55 3f3e 1fce c63e abae 1b3f 1e6d 8a3e
000002c0: d8ce 2b3e caea 58bf bbd7 453f 2dfc 493f
000002d0: d85d cf3e 4dbd b53e 1943 f4bf 76b5 1c3f
000002e0: 4053 87bf 20c6 4dbf 2b44 c43e a050 8d3e
000002f0: 7290 a4bf 7964 a4be 88fe fc3e 040e 48bf
00000300: 6181 b8be 8797 183f d6d1 0bbf e5cf 20bf
00000310: 25aa 71bf 805f 813e 85b9 5a3d 07aa db3e
00000320: 1cdf bb3e 1568 8cbe 4e28 2a3c d602 4fbf
00000330: 4480 b23e 2a24 46be c230 fd3d 4059 dfbe
00000340: bd6c 653e 3303 e6bd 12c2 173e c51b c53e
00000350: c4a4 8a3f 6988 d6bc c809 b43e a7d7 1c3e
00000360: aacf ae3e 20d7 c339 1d63 3dbf d0db dd3e
00000370: 3438 cf3e 986d 12bf d88e adbc 9c80 3e3f
00000380: 36c3 363d 304b 4abf eeeb 5abe a285 2bbe
00000390: ebff f2be 711a 3a3e c267 bcbe 66a7 b43e
000003a0: 479d 2f3f 8b27 5a3f f71b 9f3e 2b1d 513f
000003b0: 1dc6 253f 9660 65be 3ae2 d5be 3eba ff3d
000003c0: 864c 91be 2f32 f8bd c0e4 773f 1619 90be
000003d0: 9dba 353e 305a 86be f893 aabf e1ff d23f
000003e0: 2535 c53c 8581 3c3e 6383 dbbc b914 10bf
000003f0: 780d b7be 2728 d6bc 97a5 dabd c00f 8ebf

lstm.bias_ih_l0 f4 [256]
0.14784987 -0.60301846 0.069536075 -0.1885994 0.17344512 -0.30533993 -0.10529712 -0.115485765
1.4356015 0.09156023 0.09165527 0.21057202 -0.27451426 -0.5716063 -0.22282475 -0.517047
-0.0015041514 0.09672616 -0.32596323 -0.13025361 0.40414593 -0.26852876 -0.3712897 -0.19763023
0.38476864 0.15846981 -0.042362694 -0.1378902 0.5789831 -0.122120604 -0.053866297 0.83230793
-0.30272222 0.57985383 -0.38540828 -0.42644823 0.3990079 -0.30371764 0.11440222 0.038150974
1.2001109 0.034188293 -0.17533314 0.14485788 0.19056998 0.22368237 -0.042467184 0.4446801
1.0011754 -0.25755784 0.11579915 0.543933 -0.033108074 -0.21464035 -0.27885592 -0.22278246
-0.015421077 -0.21876329 -0.21077175 -0.36224243 0.06407544 -0.3387069 -0.29083478 -0.29920146
-0.08782366 -0.372122 -0.2131445 0.27691096 -0.2572801 0.655214 0.53367126 -0.131219
0.023992997 0.027810285 0.13533436 -0.06506801 0.27283153 -0.2962569 0.07156404 -0.29061803
0.07186339 -0.10249795 0.23661126 0.20721176 -0.12548311 0.26675612 -0.33089483 -0.22488837
-0.5644959 0.09960949 0.28564152 -0.20969734 0.1860781 -0.066280566 0.31532907 -0.6015552
-0.051642008 -0.20970738 -0.10007433 -0.27484304 0.15108562 -0.022606183 -0.21162282 0.047285818
-0.14132568 -0.41914722 -0.3733926 0.061943617 0.3083407 0.3978744 -0.18896182 -0.16112489
-0.1639759 0.47760972 -0.067183994 -0.09870519 0.014415723 0.13596246 -0.047496825 -0.19438747
0.31261176 -0.004335677 0.24983168 -0.08466752 -0.23474027 0.29148063 -0.4081122 -0.090969965
-0.08097093 -0.090907864 0.05337079 0.030853203 -0.017924061 0.10344105 -0.11167965 0.117865205
-0.22489235 -0.39777312 -0.093822256 0.21938315 -0.033187173 0.27089283 0.13630475 0.0752764
-0.37492278 0.05033055 -0.16852953 -0.19780123 0.011567734 -0.20304836 -0.11846233 0.07336214
0.15726247 -0.04242227 -0.08756514 -0.012535884 -0.08120908 0.037453678 -0.021918228 -0.21336046
-0.10179508 0.22069182 0.017651118 0.25535452 0.124893874 0.20945673 0.21123214 0.13079745
-0.23674639 0.04161621 -0.07568192 0.13574935 -0.16692308 0.251062 -0.2951424 0.13256454
0.2224589 0.14654872 -0.090234056 0.064681955 -0.14956868 -0.019600157 0.17300373 0.03643341
0.02151149 0.17712067 -0.36182278 -0.040167533 0.2606062 0.081744984 -0.026169892 0.033338916
0.15341133 0.051501434 -0.036971495 -0.25644547 0.13369127 -0.10283133 -0.038553104 -0.1760548
1.4815363 -0.64674205 0.25439358 0.15380403 -0.15391755 -0.36573398 -0.33961865 -0.013608395
0.03975094 -0.045028117 -0.4349076 -0.14916836 0.3277838 -0.10141747 -0.08246962 -0.07666641
0.71298134 -0.061193086 -0.44880936 0.11833991 -0.166439 0.28312084 0.35910258 1.2338232
-0.25657928 0.66187394 0.003521139 0.08891517 0.4118337 0.024349073 -0.18042606 0.047875963
1.0505714 -0.5235385 -0.43547812 -0.1393131 0.27000022 0.036618173 0.06543503 0.4950344
1.1990232 -0.44307968 0.14190689 0.75995064 0.26276362 -0.1840383 -0.478726 -0.32812124
-0.013588788 -0.22977704 -0.08659943 -0.38539866 0.26761177 -0.0894648 0.18864483 0.19029525
00000000: f565 173e 6b5f 1abf ee68 8e3d 3320 41be
00000010: 999b 313e 8455 9cbe 04a6 d7bd cd83 ecbd
00000020: cac1 b73f ee83 bb3d c2b5 bb3d 31a0 573e
00000030: 228d 8cbe ca54 12bf 2c2c 64be 315d 04bf
00000040: f226 c5ba 5d18 c63d a7e4 a6be 3461 05be
00000050: 37ec ce3e 9a7c 89be af19 bebe 945f 4abe
00000060: 6500 c53e e945 223e 8184 2dbd 1733 0dbe
00000070: 3d38 143f 5e1a fabd e8a2 5cbd 2212 553f
00000080: 68fe 9abe 4d71 143f 3c54 c5be 6c57 dabe
00000090: c34a cc3e e180 9bbe b64b ea3d 3244 1c3d
000000a0: 3c9d 993f 0609 0c3d 888a 33be a055 143e
000000b0: c724 433e fe0c 653e 12f2 2dbd 1cad e33e
000000c0: 8426 803f 9fde 83be 1b28 ed3d 313f 0b3f
000000d0: 559c 07bd aeca 5bbe 34c6 8ebe 1621 64be
000000e0: afa8 7cbc 7c03 60be 8dd4 57be d777 b9be
000000f0: fc39 833d fe6a adbe 4ce8 94be ef30 99be
00000100: e4dc b3bd c686 bebe 8d42 5abe 46c7 8d3e
00000110: 38ba 83be 1bbc 273f ae9e 083f 465e 06be
00000120: f68c c43c 65d2 e33c 1795 0a3e 6042 85bd
00000130: 93b0 8b3e fcae 97be 2b90 923d e3cb 94be
00000140: 1d2d 933d 72ea d1bd 394a 723e 522f 543e
00000150: a57e 00be 4294 883e 0c6b a9be 2349 66be
00000160: ce82 10bf 0f00 cc3d 9b3f 923e e6ba 56be
00000170: 428b 3e3e 1bbe 87bd d072 a13e 86ff 19bf
00000180: 9286 53bd 88bd 56be c5f3 ccbd 3ab8 8cbe
00000190: 30b6 1a3e 9a30 b9bc a7b3 58be c6ae 413d
000001a0: aeb7 10be 779a d6be 512d bfbe 97b8 7d3d
000001b0: d5de 9d3e 31b6 cb3e 357f 41be ecfd 24be
000001c0: 4ce9 27be 4389 f43e c397 89bd f225 cabd
000001d0: ed2f 6c3c be39 0b3e 088c 42bd 820d 47be
000001e0: a60e a03e 4b12 8ebb e0d3 7f3e 2a66 adbd
000001f0: c15f 70be f33c 953e 15f4 d0be 764e babd
00000200: 16d4 a5bd e72d babd 549b 5a3d dbbf fc3c
00000210: 7bd5 92bc e7d8 d33d 4db8 e4bd 5063 f13d
00000220: 2e4a 66be eba8 cbbe e225 c0bd faa5 603e
00000230: 46ef 07bd 77b2 8a3e 7993 0b3e 832a 9a3d
00000240: e1f5 bfbe 6827 4e3d 0193 2cbe 688c 4abe
00000250: 9886 3d3c e9eb 4fbe 619c f2bd e43e 963d
00000260: 6a09 213e f9c2 2dbd 5a55 b3bd 4f63 4dbc
00000270: f250 a6bd 0769 193d db8d b3bc 2a7b 5abe
00000280: f079 d0bd 09fd 613e 1499 903c d4bd 823e
00000290: 5cc8 ff3d d37b 563e 3d4d 583e c4ef 053e
000002a0: a56d 72be c275 2a3d 1fff 9abd e101 0b3e
000002b0: e2ed 2abe 338b 803e e81c 97be 00bf 073e
000002c0: 44cc 633e de10 163e a2cc b8bd f977 843d
000002d0: 8828 19be 8290 a0bc e427 313e 333b 153d
000002e0: dd38 b03c 1f5f 353e d640 b9be b686 24bd
000002f0: 2d6e 853e ea69 a73d 3e62 d6bc 638e 083d
00000300: dc17 1d3e 2bf3 523d 6c6f 17bd d24c 83be
00000310: 5de6 083e 3b99 d2bd dce9 1dbd b647 34be
00000320: fba2 bd3f e390 25bf e03f 823e ce7e 1d3e
00000330: 909c 1dbe 7c41 bbbe 7fe2 adbe bff5 5ebc
00000340: e2d1 223d 676f 38bd 35ac debe 97bf 18be
00000350: 47d3 a73e f6b3 cfbd d5e5 a8bd 4703 9dbd
00000360: f285 363f 9aa5 7abd 57ca e5be 325c f23d
00000370: fc6e 2abe 37f5 903e 4bdc b73e ebed 9d3f
00000380: 5c5e 83be 9270 293f e9c2 663b 2819 b63d
00000390: dedb d23e b577 c73c 9cc1 38be 9619 443d
000003a0: 2079 863f 9e06 06bf fdf6 debe 18a8 0ebe
000003b0: 783d 8a3e f0fc 153d cd02 863d 2675 fd3e
000003c0: 9879 993f 57db e2be 0a50 113e 208c 423f
000003d0: f488 863e 8974 3cbe 931b f5be 82ff a7be
000003e0: 82a3 5ebc ac4a 6bbe 0b5b b1bd f952 c5be
000003f0: 6904 893e 5239 b7bd 1c2c 413e c2dc 423e

lstm.bias_hh_l0 f4 [256]
0.02738976 -0.49447823 0.039631605 -0.1797262 0.26979828 -0.26018757 -0.1562262 -0.104580864
1.3118479 0.10969847 0.22222641 -0.015135863 -0.05731856 -0.47924525 -0.3620554 -0.5533016
-0.17588404 0.044230983 -0.20808253 -0.27138847 0.4618223 -0.1359576 -0.41514146 -0.134374
0.40715423 -0.031009782 0.041593023 -0.017492738 0.42226905 -0.1800987 0.029437916 0.6976464
-0.19462317 0.5245226 -0.370878 -0.36093238 0.28471407 -0.36715075 0.18405697 0.13290596
1.238016 0.11720726 -0.16108555 0.018970098 0.074489854 0.17568548 -0.050172083 0.42267942
0.92039746 -0.21068133 0.14174944 0.5725599 -0.2708692 -0.35461962 -0.40655985 -0.3226914
-0.1723113 -0.40385687 -0.104545794 -0.45596066 0.05741887 -0.33051845 -0.10588551 -0.34403825
0.0731173 -0.31660858 -0.26383618 0.09990438 -0.10716878 0.63998264 0.34762028 0.045447793
-0.065199435 0.06345881 0.033172645 0.042911753 0.45890075 -0.20226853 0.18129583 -0.2260417
-0.044573154 -0.13654318 0.25802618 0.022649195 -0.060359653 0.14880314 -0.18664654 -0.24194762
-0.5948626 0.07587704 0.16416681 -0.27071884 0.27219754 -0.18304561 0.09551229 -0.4808538
-0.018192751 0.0059013152 -0.04777054 -0.055953942 0.07532897 -0.061571546 -0.21022145 0.022481449
-0.10421676 -0.51515853 -0.2101341 0.19848658 0.31148732 0.30463892 -0.13843231 -0.13679896
-0.018266458 0.42264748 -0.06457696 -0.07995505 -0.013098989 0.10396496 -0.20960769 -0.1738439
0.32077923 -0.08195253 0.24327841 -0.022660922 -0.18377872 0.25816166 -0.303133 0.02193975
-0.023830526 0.05976075 -0.107904226 0.112359524 0.09689517 0.29201758 -0.12737046 0.23272534
-0.22621945 -0.45990083 0.092955664 0.24998552 0.029853063 0.27809882 0.14171046 0.16764493
-0.15497129 0.1182772 -0.16005339 -0.15151407 0.1632942 -0.12839763 -0.17829455 0.18002068
0.16573265 0.058565438 -0.003255569 0.03459594 -0.06482438 -0.15789148 0.009383933 -0.35645488
-0.1613514 0.06737842 0.049491376 0.09580675 0.085605025 0.17707792 0.23915473 0.16716735
-0.0719544 0.091774106 -0.11234318 0.088675566 -0.1793518 0.11927942 -0.3189376 0.11985366
0.077413104 0.14816956 -0.08083771 0.21512449 -0.13338119 -0.1463309 0.088902436 0.062008996
0.17821401 0.06335748 -0.39278203 -0.1459654 0.056936458 0.010383303 -0.114601456 -0.02994157
0.2201193 -0.044595577 0.049408175 -0.365976 0.040527407 -0.108967215 -0.2388945 -0.22107671
1.4477304 -0.5512796 0.21411183 0.28820646 -0.19640048 -0.3829398 -0.23797469 -0.010068974
0.04370012 0.0045568706 -0.3419627 -0.13780598 0.459518 -0.2533342 -0.14058109 -0.081091344
0.63972974 -0.018967884 -0.29049128 0.21113227 -0.100029014 0.2600059 0.3577237 1.2388158
-0.3493007 0.5019335 0.14664654 0.00030089606 0.42829686 -0.08030096 -0.28873524 -0.013268425
1.0498706 -0.3610422 -0.3185104 -0.111772 0.31021276 0.04801717 0.023120517 0.6255295
1.1203988 -0.37312943 0.1632152 0.71196 0.06329858 -0.11188111 -0.29767618 -0.24655709
0.09289048 -0.31239292 -0.1544311 -0.19144905 0.27465677 -0.039985638 -0.01942986 0.15738271
00000000: 7d60 e03c 402c fdbe c054 223d 250a 38be
00000010: 0023 8a3e 4e37 85be c3f9 1fbe 7e2e d6bd
00000020: a2ea a73f 97a9 e03d 528f 633e 69fc 77bc
00000030: dec6 6abd a25f f5be 535f b9be 2ca5 0dbf
00000040: f21a 34be 8c2b 353d 9613 55be 6ef3 8abe
00000050: f973 ec3e 7838 0bbe 6c8d d4be 5699 09be
00000060: 8576 d03e 3a08 febc 725d 2a3d ee4c 8fbc
00000070: a633 d83e cb6b 38be c927 f13c f498 323f
00000080: 4c4b 47be 1d47 063f b9e3 bdbe 21cc b8be
00000090: 0bc6 913e 2ffb bbbe 6e79 3c3e 8018 083e
000000a0: 4f77 9e3f 5c0a f03d 9cf3 24be 2e67 9b3c
000000b0: 238e 983d e5e6 333e 3e81 4dbd 7069 d83e
000000c0: 2b9f 6b3f d9bc 57be c426 113e 4993 123f
000000d0: 5eaf 8abe b490 b5be 9d28 d0be cf37 a5be
000000e0: 6072 30be 54c6 cebe 1b1c d6bd ad73 e9be
000000f0: 0d30 6b3d b739 a9be 81da d8bd c825 b0be
00000100: 86be 953d 851a a2be 8915 87be ab9a cc3d
00000110: 4e7b dbbd e7d5 233f 49fb b13e 7727 3a3d
00000120: 4887 85bd b1f6 813d 0ae0 073d 3cc4 2f3d
00000130: 0af5 ea3e 7b1f 4fbe 9da5 393e 7a77 67be
00000140: 5792 36bd fad1 0bbe 021c 843e ce8a b93c
00000150: af3b 77bd da5f 183e 4520 3fbe 1ec1 77be
00000160: ea48 18bf 6c65 9b3d 581b 283e a99b 8abe
00000170: 7a5d 8b3e 4f70 3bbe f39b c33d 7832 f6be
00000180: f708 95bc d25f c13b 0bab 43bd f62f 65bd
00000190: 1346 9a3d 7232 7cbd 4b44 57be 042b b83c
000001a0: 996f d5bd 6ee1 03bf 652d 57be 1140 4b3e
000001b0: 447b 9f3e a2f9 9b3e 33c1 0dbe 0715 0cbe
000001c0: 8aa3 95bc 4065 d83e ed40 84bd 79bf a3bd
000001d0: 249d 56bc 95eb d43d 66a3 56be 2304 32be
000001e0: 2d3d a43e bad6 a7bd fa1d 793e 66a3 b9bc
000001f0: 7d30 3cbe c42d 843e 4034 9bbe feba b33c
00000200: 3c38 c3bc b0c7 743d e4fc dcbd c01c e63d
00000210: fa70 c63d 5483 953e 676d 02be 8d4f 6e3e
00000220: 12a6 67be 1f78 ebbe 8a5f be3d 34fc 7f3e
00000230: 698e f43c f862 8e3e 8c1c 113e 1dab 2b3e
00000240: cbb0 1ebe 513b f23d 09e5 23be 8126 1bbe
00000250: 9836 273e ab7a 03be d992 36be 5757 383e
00000260: d2b5 293e 50e2 6f3d 625b 55bb 79b4 0d3d
00000270: a5c2 84bd 4eae 21be 11bf 193c 4181 b6be
00000280: 4d39 25be b2fd 893d 78b7 4a3d 5436 c43d
00000290: b051 af3d ea53 353e fae4 743e eb2d 2b3e
000002a0: d45c 93bd 10f4 bb3d 2e14 e6bd 899b b53d
000002b0: 00a8 37be c548 f43d ca4b a3be d675 f53d
000002c0: c38a 9e3d c3b9 173e 3e8e a5bd 9849 5c3e
000002d0: 1495 08be c4d7 15be 7b12 b63d 25fd 7d3d
000002e0: bc7d 363e 91c1 813d ba1a c9be f477 15be
000002f0: 3436 693d bb1e 2a3c 2bb4 eabd 0648 f5bc
00000300: f466 613e daa9 36bd 3a60 4a3d 3561 bbbe
00000310: 1100 263d 342a dfbd c3a0 74be ef61 62be
00000320: 3b4f b93f a920 0dbf 2240 5b3e cc8f 933e
00000330: 351d 49be af10 c4be a3af 73be 57f8 24bc
00000340: e6fe 323d cd51 953b bc15 afbe 031d 0dbe
00000350: f145 eb3e 05b5 81be 7df4 0fbe 3813 a6bd
00000360: 54c5 233f 8962 9bbc 46bb 94be 0f33 583e
00000370: 03dc ccbd 7e1f 853e 9027 b73e 8491 9e3f
00000380: 8bd7 b2be b77e 003f 832a 163e 96c1 9d39
00000390: ba49 db3e d474 a4bd 1bd5 93be cf63 59bc
000003a0: 2962 863f 86da b8be cc13 a3be b8e8 e4bd
000003b0: 35d4 9e3e a7ad 443d 3d67 bd3c b422 203f
000003c0: 3a69 8f3f d20a bfbe e321 273e 0343 363f
000003d0: b0a2 813d ec21 e5bd 0369 98be 7679 7cbe
000003e0: 5d3d be3d f7f1 9fbe 3023 1ebe 380b 44be
000003f0: d09f 8c3e fbc7 23bd 5f2b 9fbc ef28 213e

lstm.weight_ih_l1 f4 [256, 64]
0.9304893 -1.0196468 0.30658224 -0.48170483 1.1776438 0.4552906 -0.86435384 0.31205103
-0.73790264 -1.7103529 -0.16300133 -0.6376858 0.7131445 0.47591832 -0.39804766 0.694477
0.9102789 -0.37289408 -0.9440535 -0.661841 1.3962018 0.14933634 1.7322313 -0.8066753
1.3986522 1.0705533 -0.17288873 -0.38140884 0.19449487 0.12866311 0.2524858 -0.052405126
0.90829974 -0.041971445 -1.4722111 -0.16420114 1.1798946 -0.02610613 -0.32539827 -3.1811843
0.46575195 -1.0007768 0.1451019 0.21625848 0.15261994 -0.33440402 -0.629014 -0.92618155
0.44494534 0.026379671 -1.5713855 1.6735667 0.29103044 -0.14108242 -1.3075316 -0.143012
-2.2705934 0.43642738 0.468732 -0.015278713 -0.08194752 -1.571181 -0.07561656 1.9022993
-0.15184979 0.31632543 -0.7122399 -0.43343666 0.20835982 0.6277438 -0.67938465 0.39890704
-3.3835278 -0.7277908 0.61311287 -0.9332019 0.15871179 -0.94966894 1.056386 -0.44927207
-0.29030138 1.6702614 -0.42944118 -0.38976488 -0.3073752 -0.4538103 0.7889747 1.0474397
0.19811852 0.20873322 -0.25930604 -0.08826719 -0.25063473 0.41212356 -0.25454888 -1.074621
-0.19464384 1.4356666 0.8304643 -1.0166562 -0.5444572 -0.23725283 -1.3931077 -0.8545592
-0.7459805 -0.82140625 0.6147646 0.17535754 -0.28708297 -0.26843712 -0.34000418 0.504283
0.7679244 -0.07855217 0.40668145 1.9991456 -0.80832994 -0.2640592 0.78825617 -1.2267067
0.6829136 -0.46479845 -0.9107976 -0.70911944 -0.43792653 -0.17512059 0.16435458 -0.9931142
0.31866044 -0.20347805 0.26022103 -0.5445066 0.9494111 -0.6311061 -1.284818 0.015678527
-0.6887525 1.0229448 0.050465472 -0.21267469 -0.35652247 0.16283269 -0.24928528 -0.42478973
0.44190243 -0.5965427 -0.19697787 0.088449694 -0.20871358 -0.13323608 -0.20955618 0.6702482
0.3794306 1.1316235 0.20443244 -0.2040469 -0.35757104 0.081581995 0.5302777 -0.3528276
-0.14866564 -0.10563629 -0.43358856 -0.78475153 0.34999168 0.40016973 0.4956679 0.79341984
0.5328311 -0.5418724 -0.08484809 -1.00629 -0.2063679 -0.43340716 -0.35061324 -0.31127918
-0.26626325 -0.20614037 -0.5508068 0.76705617 -0.19011596 -0.06909631 -1.0945135 0.9364104
0.11982477 0.68680996 0.21274617 -0.09093699 -0.45889193 -0.4541458 1.1096587 -0.764777
-0.83088315 -0.1967764 -0.7631774 0.12694871 -0.4030231 0.055609003 -0.2058346 -0.45156664
-0.37357038 -0.23873845 0.17734079 -0.3863139 -0.40197074 -0.76752216 0.4075326 -0.77100176
-0.33122706 -0.3785747 -0.50788635 -0.18901974 -0.29209587 0.14091071 0.078787595 -1.3537592
-0.38613877 -0.55391324 0.07637778 -1.1828654 -1.3064665 0.4765535 0.43878508 0.31060696
0.15389664 0.2347031 -1.0249732 -0.120269895 0.044028025 0.060947433 -0.31099626 1.3786236
0.34224486 -0.09055395 -0.5141562 -0.25611886 -0.15071195 -0.30734238 -0.16113153 0.039400548
0.10633172 0.8474495 -0.15272096 0.5512055 -0.78864944 -0.4753795 -0.42836556 0.78493005
-0.2499989 0.21207555 -0.61571115 -1.3313861 0.44898137 0.32694668 0.96235216 1.1854934
00000000: 8c34 6e3f c983 82bf 59f8 9c3e 04a2 f6be
00000010: 08bd 963f d91b e93e 4b46 5dbf 27c5 9f3e
00000020: 30e7 3cbf d8ec dabf d2e9 26be 603f 23bf
00000030: a390 363f 91ab f33e e7cc cbbe 3fc9 313f
00000040: 0a08 693f f9eb bebe 7dad 71bf 696e 29bf
00000050: beb6 b23f a0eb 183e c1b9 dd3f 4682 4ebf
00000060: 0907 b33f e407 893f be09 31be 0548 c3be
00000070: aa29 473e 43c0 033e d245 813e c2a6 56bd
00000080: 5586 683f 40ea 2bbd 6a71 bcbf 5824 28be
00000090: c906 973f 86dc d5bc 9a9a a6be 8698 4bc0
000000a0: 0a77 ee3e 7419 80bf 9895 143e dd72 5d3e
000000b0: 6748 1c3e 0137 abbe 1007 21bf 3c1a 6dbf
000000c0: e0cf e33e 2e1a d83c 2923 c9bf 6f37 d63f
000000d0: f101 953e e977 10be 325d a7bf bd71 12be
000000e0: 6751 11c0 6973 df3e a4fd ef3e 9153 7abc
000000f0: 1ad4 a7bd 761c c9bf dbdc 9abd 8b7e f33f
00000100: 837e 1bbe 68f5 a13e 5b55 36bf 69eb ddbe
00000110: 475c 553e d1b3 203f 27ec 2dbf 8b3d cc3e
00000120: b88b 58c0 7f50 3abf f7f4 1c3f 52e6 6ebf
00000130: 5885 223e 811d 73bf a837 873f fd06 e6be
00000140: 62a2 94be 20cb d53f b7df dbbe 438f c7be
00000150: 4860 9dbe d359 e8be 3ffa 493f 8112 863f
00000160: 95df 4a3e 29be 553e c3c3 84be 6ec5 b4bd
00000170: 3253 80be dc01 d33e 3b54 82be 2e8d 89bf
00000180: b750 47be ecc3 b73f 4f99 543f ca21 82bf
00000190: 8c61 0bbf 68f2 72be 5a51 b2bf 64c4 5abf
000001a0: 94f8 3ebf ae47 52bf 3661 1d3f ed90 333e
000001b0: 8afc 92be 9770 89be 0715 aebe b118 013f
000001c0: b296 443f f6df a0bd 8d38 d03e 01e4 ff3f
000001d0: b6ee 4ebf c432 87be 28cb 493f ba04 9dbf
000001e0: 6dd3 2e3f 10fa edbe 082a 69bf da88 35bf
000001f0: e837 e0be d052 33be 914c 283e bb3c 7ebf
00000200: 7627 a33e 8d5c 50be b13b 853e c964 0bbf
00000210: 9b0c 733f 2b90 21bf eb74 a4bf 4170 803c
00000220: 1552 30bf dbef 823f e2b4 4e3d 65c7 59be
00000230: 1d8a b6be 9dbd 263e a444 7fbe 0a7e d9be
00000240: 0941 e23e 06b7 18bf 91b4 49be 1d25 b53d
00000250: 03b9 55be 0a6f 08be e595 56be 6395 2b3f
00000260: ba44 c23e 0ad9 903f bd56 513e acf1 50be
00000270: 8d13 b7be 7614 a73d 48c0 073f d2a5 b4be
00000280: ce3b 18be d757 d8bd 52ff ddbe 7ae5 48bf
00000290: 1c32 b33e 0ce3 cc3e 2fc8 fd3e 901d 4b3f
000002a0: 9e67 083f 26b8 0abf d6c4 adbd 1cce 80bf
000002b0: 1b52 53be 8be7 ddbe 9483 b3be fc5f 9fbe
000002c0: a853 88be 7616 53be ad01 0dbf cb5d 443f
000002d0: c2ad 42be 5e82 8dbd 0519 8cbf 98b8 6f3f
000002e0: b066 f53d c7d2 2f3f 22da 593e 2c3d babd
000002f0: e2f3 eabe cc85 e8be 4c09 8e3f 6dc8 43bf
00000300: c2b4 54bf c17f 49be 985f 43bf d8fe 013e
00000310: 0b59 cebe 44c6 633d 4ec6 52be be33 e7be
00000320: 9e44 bfbe da77 74be d398 353e efca c5be
00000330: 1ccf cdbe 557c 44bf 1da8 d03e 5f60 45bf
00000340: 9896 a9be 8bd4 c1be d704 02bf 648e 41be
00000350: 978d 95be e64a 103e 645b a13d fb47 adbf
00000360: fbb3 c5be 42cd 0dbf f46b 9c3d 2268 97bf
00000370: 4b3a a7bf d2fe f33e 70a8 e03e e007 9f3e
00000380: 1597 1d3e 0256 703e 5232 83bf 1050 f6bd
00000390: bb56 343d 04a4 793d e73a 9fbe bd76 b03f
000003a0: b83a af3e 5974 b9bd be9f 03bf 0322 83be
000003b0: 3c54 1abe fb5b 9dbe aaff 24be 7862 213d
000003c0: 72c4 d93d 73f2 583f e262 1cbe ce1b 0d3f
000003d0: eee4 49bf f164 f3be bb52 dbbe 2df1 483f
000003e0: b6ff 7fbe 552a 593e 3f9f 1dbf dc6a aabf
000003f0: e3e0 e53e 8e65 a73e b65c 763f 3fbe 973f

lstm.weight_hh_l1 f4 [256, 64]
-3.0615892 0.1272863 -0.18791339 0.85380566 -1.0691743 -2.0881853 0.17597371 -1.2678092
-1.032528 0.18755588 0.8396664 -3.2492359 -2.5047383 -0.224423 0.28699306 3.4797676
-2.0444148 -0.48339152 -0.4938699 -0.029095132 -0.43154526 -1.377701 -3.1010358 -1.0226568
-2.1056778 -1.7669197 -0.26950455 1.9096355 -0.030033939 -1.0568358 2.4499395 -0.6501157
-1.4213866 -0.6015698 -1.3961575 -0.38819724 -0.34549168 0.4560114 -0.7853215 -1.083274
-1.4358896 -0.15989678 1.4346826 -0.021560457 1.7953347 0.18763554 1.2082247 -0.26547638
0.440673 -0.5591627 -0.08313398 -1.1989912 -0.43121564 -1.0290046 -0.2783577 0.52618045
-1.0014701 -0.7476893 -0.67886037 -0.33334202 -1.3586727 0.07408836 -0.2683137 0.0020078889
1.0913472 -0.45359343 0.9160172 -0.089411214 -1.0985837 1.543342 -0.85243076 -1.0001745
-0.717551 0.2624352 0.66918004 -0.5286782 -0.42956874 0.95845443 -0.66919625 -0.39252126
1.9565067 -0.42206505 -1.8931025 0.65823805 -0.014805553 -2.0623534 1.0618398 0.21313359
-0.99784774 1.5170276 -1.6611124 -0.6642261 0.14656366 0.47295442 0.01388687 0.77380145
0.35795525 -0.7229647 0.24118127 0.07703509 0.6938535 1.1654606 0.53478646 1.4889514
-0.9519244 -1.2630082 -0.73102105 -0.6113143 -0.63805664 0.03983497 -0.46590042 -0.32404214
0.65075475 -0.3263157 -1.6836121 0.26699886 0.32568568 -0.14361508 -0.1884311 -0.48745173
-1.1248889 0.51619583 -0.2062118 0.003974728 0.24217461 0.6249633 -1.2395612 0.32328904
-1.3862194 -3.2543025 -1.3695493 -1.4038799 0.21901701 0.18163227 0.96658576 1.2104812
-2.1200812 -1.5726198 -0.036713473 -2.0040638 -2.207861 -1.0910164 -3.9900162 1.175056
1.5019755 0.15855132 0.4590475 0.99832565 -1.9187244 0.03109998 0.7444967 0.91890115
3.3329833 0.53429466 -0.8688523 0.28761193 -1.499538 -0.06931154 -0.9461879 0.94670856
2.4550269 -0.69022316 0.20017722 -0.21698041 0.37963837 -0.14918725 -0.81413436 0.9278723
-0.20308082 -1.5236652 1.9992648 0.86951566 0.17340432 -1.1266125 0.87556773 -0.5367444
-1.0915984 -0.43203205 -2.8803759 -4.3374276 -0.53737265 -0.12853856 0.076058514 -0.47962958
4.6899056 -1.1493143 0.80348974 -1.2247831 2.1885653 1.3431329 -0.5568781 1.1881666
0.9050115 -0.5324838 -1.5954813 0.57511324 -0.57118714 0.051047493 1.4659199 -1.7667089
-1.0595454 0.4434098 -0.48478764 2.3854637 -0.5405384 0.8142819 -0.5623091 0.32560256
-0.46277803 -1.105183 0.20476563 1.4330521 1.581744 -0.4688556 -0.5477408 0.33701468
0.2910811 0.9742994 -0.94418657 -0.7385739 -0.2668704 -1.2560235 0.70959055 0.34144586
0.23459952 -2.1198907 0.4955907 -0.8187223 -0.06134331 -0.22316192 1.8898505 0.8751781
-0.7940562 -0.0010455352 -0.4451103 -2.6513555 0.7712868 -0.5277569 0.4407753 -0.22288613
0.017948728 0.6657105 0.72164714 0.18181917 0.3917816 0.36505175 -0.09779809 0.96960485
-1.316641 0.7190296 1.1660583 0.5391694 -1.8364676 -0.9927839 -1.7062848 0.10315472
00000000: 14f1 43c0 5757 023e 5e6c 40be 0293 5a3f
00000010: b4da 88bf d4a4 05c0 7432 343e 9247 a2bf
00000020: e129 84bf a60e 403e 61f4 563f 7bf3 4fc0
00000030: a24d 20c0 25cf 65be c1f0 923e 83b4 5e40
00000040: b1d7 02c0 187f f7be 84dc fcbe ea58 eebc
00000050: 80f3 dcbe 8258 b0bf 5f77 46c0 6be6 82bf
00000060: 6dc3 06c0 6d2a e2bf 80fc 89be f06e f43f
00000070: bc09 f6bc 6546 87bf cfcb 1c40 fc6d 26bf
00000080: ffef b5bf 7a00 1abf 4ab5 b2bf cac1 c6be
00000090: 49e4 b0be 547a e93e d40a 49bf b9a8 8abf
000000a0: 3bcb b7bf fbbb 23be aea3 b73f 8e9f b0bc
000000b0: 87cd e53f 8823 403e 1ba7 9a3f 85ec 87be
000000c0: e49f e13e 4925 0fbf 2642 aabd 8b78 99bf
000000d0: 4cc8 dcbe 6cb6 83bf e784 8ebe c3b3 063f
000000e0: 2c30 80bf 9168 3fbf cbc9 2dbf ceab aabe
000000f0: fde8 adbf a3bb 973d 6a60 89be c996 033b
00000100: 44b1 8b3f 663d e8be 1a80 6a3f 3a1d b7bd
00000110: 649e 8cbf 3b8c c53f e738 5abf b805 80bf
00000120: 6cb1 37bf e85d 863e 624f 2b3f 7457 07bf
00000130: 6ff0 dbbe 455d 753f 7250 2bbf 8cf8 c8be
00000140: d06e fa3f e918 d8be 2f51 f2bf 4a82 283f
00000150: fd92 72bc 99fd 03c0 5eea 873f b13f 5a3e
00000160: f372 7fbf f62d c23f 559f d4bf b90a 2abf
00000170: c914 163e 1527 f23e c185 633c da17 463f
00000180: e945 b73e 3714 39bf 39f8 763e 93c4 9d3d
00000190: 62a0 313f d02d 953f c4e7 083f f695 be3f
000001a0: 51b1 73bf 41aa a1bf 3224 3bbf 187f 1cbf
000001b0: ae57 23bf fe29 233d 808a eebe dae8 a5be
000001c0: dd97 263f da12 a7be 9a80 d7bf 13b4 883e
000001d0: 46c0 a63e d50f 13be 15f4 40be 4693 f9be
000001e0: 5cfc 8fbf 6925 043f 3029 53be 6f3e 823b
000001f0: 9ffc 773e 98fd 1f3f f1a9 9ebf 2486 a53e
00000200: a36f b1bf 7e46 50c0 644d afbf 56b2 b3bf
00000210: ff45 603e cffd 393e 2a72 773f 0cf1 9a3f
00000220: 69af 07c0 9b4b c9bf de60 16bd 9542 00c0
00000230: 984d 0dc0 6da6 8bbf 6d5c 7fc0 3c68 963f
00000240: bc40 c03f 475b 223e 4608 eb3e 4592 7f3f
00000250: c398 f5bf 63c5 fe3c 5697 3e3f 1b3d 6b3f
00000260: 994f 5540 89c7 083f 1b6d 5ebf df41 933e
00000270: dcf0 bfbf 35f3 8dbd 5f39 72bf 7e5b 723f
00000280: 291f 1d40 77b2 30bf 42fb 4c3e 1d30 5ebe
00000290: f65f c23e 8bc4 18be 1c6b 50bf 0a89 6d3f
000002a0: 6bf4 4fbe 7607 c3bf e9e7 ff3f 9498 5e3f
000002b0: e790 313e d734 90bf 3525 603f 1568 09bf
000002c0: 7fb9 8bbf 4e33 ddbe 1458 38c0 35cc 8ac0
000002d0: 4191 09bf 9d9f 03be 91c4 9b3d 0292 f5be
000002e0: b513 9640 bb1c 93bf 81b1 4d3f b1c5 9cbf
000002f0: 7411 0c40 c7eb ab3f 908f 0ebf d815 983f
00000300: d5ae 673f dc50 08bf bb38 ccbf 9f3a 133f
00000310: 5239 12bf 2d17 513d 43a3 bb3f 8423 e2bf
00000320: 2f9f 87bf 9c06 e33e 1636 f8be 70ab 1840
00000330: b960 0abf c774 503f 7df3 0fbf 61b5 a63e
00000340: 3ef1 ecbe a376 8dbf 15ae 513e 406e b73f
00000350: 9676 ca3f d70d f0be be38 0cbf 308d ac3e
00000360: 9508 953e af6b 793f 36b6 71bf 2e13 3dbf
00000370: 3da3 88be 61c5 a0bf baa7 353f fed1 ae3e
00000380: db3a 703e 4aac 07c0 10be fd3e c997 51bf
00000390: 1f43 7bbd 8f84 64be 9fe6 f13f ac0b 603f
000003a0: 4447 4bbf 570a 89ba 7fe5 e3be cfaf 29c0
000003b0: 0d73 453f 141b 07bf 4dad e13e 433c 64be
000003c0: 3609 933c 016c 2a3f debd 383f ce2e 3a3e
000003d0: 9997 c83e 10e8 ba3e 5d4a c8bd 0638 783f
000003e0: b187 a8bf 5312 383f 6641 953f 0107 0a3f
000003f0: 5f11 ebbf 1627 7ebf 8a67 dabf c842 d33d

lstm.bias_ih_l1 f4 [256]
-0.035450224 -0.047861844 0.2501397 0.22681491 0.5816226 0.07390793 0.0007065262 -0.16011716
-0.07155506 0.15585834 -0.32210058 -0.40728772 -0.13544992 0.17462827 0.022133922 0.14999366
-0.39586738 0.2335408 -0.4650385 0.25874168 -0.050986763 0.26565218 -0.16847788 0.3967007
0.118147805 0.06418747 0.29939064 -0.028962104 0.23190518 0.08654247 -0.26383638 0.4202935
0.36053115 0.36371362 0.23782766 0.2597818 0.6168496 0.19575097 0.25762308 0.22717427
0.13875848 0.072252624 0.08521996 0.17522968 0.084979646 -0.09897982 0.4030334 -0.5684538
0.2634731 -0.02398768 -0.04157768 -0.44634372 -0.04328603 -0.16014981 0.39779773 0.12588783
0.1275632 -0.24685447 0.23773693 0.09643121 0.074329235 0.39367464 0.16142206 0.39734298
0.47461647 -0.35224983 0.2573073 0.38140744 0.17378338 0.060782734 -0.0065376833 0.038696297
-0.0115407165 -0.14297293 0.049864683 -0.19436519 -0.14233747 0.0064373626 -0.03558669 0.42895132
-0.28752816 0.39631438 -0.2304199 0.12778376 -0.23872282 -0.21806283 0.010095619 -0.3717665
0.14944525 -0.3331031 0.23587961 0.28263712 0.087586634 -0.008978517 0.22378917 -0.107776344
0.11147194 0.004972031 0.49252388 0.32605302 0.38374367 0.30672285 -0.17816491 -0.31898662
0.5596084 -0.13788457 0.34635606 0.12632172 0.52914166 0.24806413 0.47998607 1.0590079
0.20048185 0.26880404 0.48615402 -0.03195479 0.69834596 0.14300193 0.40985465 0.15328132
-0.04436563 0.29867154 0.14013922 0.5463634 -0.09577132 0.2742657 0.053093433 0.43527895
0.16812454 0.066754065 -0.46706435 -0.23303139 -0.28299907 -0.04973267 -0.012575855 0.041969433
0.15729603 0.062173717 -0.15593618 0.02747059 -0.1158663 -0.30919448 -0.43433648 0.02042736
0.08451964 0.38382939 -0.1584656 -0.18642618 0.28844234 -0.04508685 -0.08405516 0.0072347587
0.2402911 0.28688872 -0.21642497 -0.07382923 -0.32970712 -0.09155707 0.065997474 0.14020213
0.3173823 -0.10027507 0.0043617724 0.17005032 -0.03204744 0.7024706 0.009077711 -0.13421051
-0.27120405 0.13243017 -0.37483823 -0.51037955 0.20371388 -0.071375355 -0.09846733 -0.20920303
-0.3593551 0.19182186 0.14027888 0.13934763 0.19386153 -0.1079694 0.23833647 -0.27699155
-0.49879748 0.016216828 0.41319183 0.49905267 -0.1813797 -0.11825267 0.07921305 0.017790211
0.17490365 -0.21489002 0.22509499 0.5842185 0.544815 0.47446513 0.26735297 0.3929639
0.33810708 0.42612642 0.42471957 0.47030777 0.40264404 0.6341381 0.43435127 0.54719245
0.117338225 0.19061254 -0.28613535 0.5094123 -0.0006444746 -0.10107169 0.38135293 0.23398425
0.14164148 0.3913867 0.42708972 0.48486495 0.013556615 0.3394374 -0.07213945 0.3917732
0.50909513 1.0705847 0.5706155 0.2110597 0.2747644 0.33016697 -0.15923707 0.35783562
0.26281634 0.24258345 0.16179062 0.20992655 0.08245896 0.28268993 0.3308509 0.13063803
0.35426167 0.070613876 0.42760608 0.058737643 0.7915673 0.20207968 0.35281798 -0.103313714
0.45519158 0.17647323 0.45228207 0.38232604 -0.028170869 0.14284965 0.021083567 0.42800328
00000000: 4134 11bd c80a 44bd 5012 803e 2b42 683e
00000010: 38e5 143f 0a5d 973d 2c36 393a c1f5 23be
00000020: 768b 92bd 5499 1f3e 5eea a4be 0488 d0be
00000030: 62b3 0abe c1d1 323e 3352 b53c f097 193e
00000040: 21af cabe 5225 6f3e 8719 eebe ca79 843e
00000050: 7fd7 50bd 9003 883e 7785 2cbe 5b1c cb3e
00000060: 7af7 f13d b874 833d bb49 993e ef41 edbc
00000070: 8d78 6d3e 2e3d b13d 9015 87be b630 d73e
00000080: 8a97 b83e ac38 ba3e 1889 733e 1f02 853e
00000090: dbe9 1d3f f172 483e 2ce7 833e 5fa0 683e
000000a0: b416 0e3e 2ff9 933d cd87 ae3d 696f 333e
000000b0: cf09 ae3d efb5 cabd 655a ce3e 3086 11bf
000000c0: f2e5 863e d081 c4bc 5b4d 2abd 2a87 e4be
000000d0: b14c 31bd 50fe 23be 25ac cb3e bde8 003e
000000e0: ed9f 023e 6bc7 7cbe 4f71 733e ba7d c53d
000000f0: ed39 983d b98f c93e d34b 253e 8a70 cb3e
00000100: ee00 f33e 175a b4be c8bd 833e d647 c33e
00000110: 45f4 313e 51f7 783d 103a d6bb 0280 1e3d
00000120: 4615 3dbc 7f67 12be e93e 4c3d ab07 47be
00000130: eac0 11be 83f0 d23b 59c3 11bd 829f db3e
00000140: e436 93be b8e9 ca3e 32f3 6bbe bfd9 023e
00000150: c173 74be dd4b 5fbe 1868 253c 2e58 bebe
00000160: 2d08 193e 7d8c aabe 6d8a 713e d0b5 903e
00000170: 9f60 b33d a11a 13bc fd28 653e d8b9 dcbd
00000180: 674b e43d 6bec a23b 172c fc3e 6cf0 a63e
00000190: 0d7a c43e c70a 9d3e dd70 36be 3752 a3be
000001a0: 7f42 0f3f 9d31 0dbe 9555 b13e 7b5a 013e
000001b0: d475 073f 8604 7e3e bcc0 f53e 928d 873f
000001c0: 1d4b 4d3e afa0 893e 2ee9 f83e 07e3 02bd
000001d0: cdc6 323f 196f 123e 78d8 d13e c7f5 1c3e
000001e0: bcb8 35bd 7aeb 983e a880 0f3e 79de 0b3f
000001f0: c123 c4bd 8e6c 8c3e 8078 593d e2dc de3e
00000200: d728 2c3e 5bb6 883d 0f23 efbe c89f 6ebe
00000210: 41e5 90be 7cb4 4bbd f50a 4ebc 24e8 2b3d
00000220: 3612 213e dea9 7e3d bcad 1fbe 010a e13c
00000230: 504b edbd bd4e 9ebe 5a61 debe 4757 a73c
00000240: a218 ad3d 4985 c43e ce44 22be 81e6 3ebe
00000250: b7ae 933e fdac 38bd 1d25 acbd 8e11 ed3b
00000260: df0e 763e 14e3 923e 829e 5dbe c833 97bd
00000270: 5fcf a8be 4682 bbbd af29 873d 2691 0f3e
00000280: ef7f a23e 045d cdbd 33ed 8e3b ac21 2e3e
00000290: 2d44 03bd 1dd5 333f aeba 143c 7b6e 09be
000002a0: 42db 8abe c69b 073e ccea bfbe 3ca8 02bf
000002b0: 5f9a 503e 3e2d 92bd 3da9 c9bd 5239 56be
000002c0: 64fd b7be f36c 443e 44a5 0f3e 25b1 0e3e
000002d0: a383 463e 101f ddbd 7a0e 743e d6d1 8dbe
000002e0: 6262 ffbe 27d9 843c e18d d33e d583 ff3e
000002f0: 9abb 39be 752e f2bd 743a a23d c7bc 913c
00000300: f119 333e 210c 5cbe 4d7f 663e 588f 153f
00000310: ff78 0b3f 18ed f23e 7de2 883e 9032 c93e
00000320: 5f1c ad3e 3e2d da3e d874 d93e 2ecc f03e
00000330: 5c27 ce3e e056 223f 4a63 de3e ce14 0c3f
00000340: 064f f03d ef2f 433e 5580 92be d868 023f
00000350: f5f1 28ba adfe cebd b140 c33e 9199 6f3e
00000360: 770a 113e d663 c83e 81ab da3e 3840 f83e
00000370: 911c 5e3c bdca ad3e d9bd 93bd 7f96 c83e
00000380: 0f54 023f eb08 893f db13 123f 0920 583e
00000390: ebad 8c3e a50b a93e 0b0f 23be 3b36 b73e
000003a0: dd8f 863e cc67 783e 71ac 253e fcf6 563e
000003b0: 3ee0 a83d bcbc 903e 4a65 a93e fac5 053e
000003c0: c961 b53e 029e 903d 2fef da3e e296 703d
000003d0: 28a4 4a3f faed 4e3e 8fa4 b43e 2496 d3bd
000003e0: df0e e93e 66b5 343e 8491 e73e 3dc0 c33e
000003f0: 98c6 e6bc 2e47 123e 72b7 ac3c 3f23 db3e

lstm.bias_hh_l1 f4 [256]
-0.006763554 -0.201606 0.2186188 0.05186752 0.51570845 0.19156103 -0.016521886 -0.025351845
-0.09921858 0.005267742 -0.10475595 -0.38408205 -0.17506978 0.19866599 0.06688624 0.07365568
-0.273847 0.42201322 -0.43054372 0.19040984 -0.24134235 0.15413786 -0.10854752 0.31399938
0.09358799 -0.0032739395 0.21586394 -0.012325987 0.18084364 0.23001191 -0.17593548 0.5737878
0.58219635 0.42507845 0.23102845 0.3346794 0.6181854 0.040933818 0.22932445 0.30624482
0.098001614 0.021487916 0.13046926 0.186924 -0.10531814 0.0025166052 0.46151984 -0.6094887
0.29354018 -0.0108688325 -0.08413947 -0.32589367 -0.019120002 -0.0913697 0.32476622 0.021300247
0.022174066 -0.1584818 0.31669477 0.040534206 -0.040446427 0.38708982 0.102215305 0.32134205
0.4235155 -0.18002875 0.1806483 0.2869231 0.33473206 0.14951484 0.023105932 0.0027834107
0.17303938 -0.11045294 -0.08156863 -0.26993823 -0.17917076 0.029878007 -0.07085355 0.31476694
-0.29638413 0.41380638 -0.20525698 -0.008025527 -0.35642248 -0.16047488 0.046887774 -0.160944
0.23711444 -0.32405466 0.25619727 0.23029868 0.18384688 0.1518562 0.16852827 0.022663377
0.07403464 0.02258636 0.48527113 0.42559803 0.3576869 0.36976618 -0.046634737 -0.23575808
0.40986717 -0.1050125 0.29652596 0.08241277 0.50616336 0.24121734 0.59303486 0.97083676
0.28070405 0.2122413 0.3855506 0.09827512 0.7184099 0.06850518 0.2690148 0.21974885
0.017506866 0.27719367 0.13492696 0.3759861 0.07375014 0.4143196 0.092579305 0.27083844
0.11410132 0.062960766 -0.24988537 -0.21477337 -0.2955884 0.009704181 0.11083532 -0.18542126
0.05850136 0.27691293 -0.025320617 0.054799143 -0.07330601 -0.117560394 -0.4545511 0.012589161
-0.068032086 0.3636836 0.017034283 0.015437521 0.06944308 -0.10088324 -0.20521414 -0.19541144
0.063299105 0.1519502 0.010422833 0.035670172 -0.33042395 -0.23182994 0.15650731 0.06099993
0.3294159 -0.05963864 -0.07707133 0.18707654 0.05013035 0.72274625 -0.104195856 -0.26931596
-0.38788632 0.04846707 -0.32226387 -0.4116658 0.12162057 -0.05866889 -0.24414319 -0.16012642
-0.2392873 0.054521605 0.13406174 0.12244502 0.17552839 0.08590714 0.32039395 -0.29926506
-0.43612155 -0.04499377 0.3447793 0.59472173 -0.22247706 -0.13668963 0.084471226 -0.059465174
0.144524 -0.2931982 0.20450568 0.38236296 0.7226021 0.42173877 0.27312395 0.30752793
0.31088006 0.36160442 0.5191767 0.343124 0.30926433 0.6078079 0.24317856 0.38332042
0.13125531 0.35379055 -0.24739109 0.4215736 0.0032039117 0.055297308 0.28043327 0.089517936
0.21181458 0.4417937 0.41688374 0.64523387 0.21879886 0.25831112 -0.08357508 0.38934422
0.41973835 1.0118709 0.7205604 0.2531328 0.2855766 0.28942093 -0.23865037 0.3063367
0.24098124 0.08476834 0.1799144 0.2528705 0.31155127 0.378057 0.12681943 0.18224621
0.25253743 0.104839236 0.23410772 0.17210719 0.8336501 0.15599379 0.42359146 -0.09766051
0.48027092 0.29667577 0.398918 0.45032534 0.19447163 0.07914002 -0.02414205 0.6134138
00000000: cea0 ddbb ce71 4ebe 9bdd 5f3e 0973 543d
00000010: 7805 043f 9328 443e e858 87bc acae cfbc
00000020: 1c33 cbbd 069d ac3b 4a8a d6bd 67a6 c4be
00000030: 7e45 33be 196f 4b3e a7fb 883d cad8 963d
00000040: ad35 8cbe 1e12 d83e 3a70 dcbe ccfa 423e
00000050: 7322 77be 51d6 1d3e 2a4e debd 87c4 a03e
00000060: 0fab bf3d 978f 56bb 700b 5d3e f0f2 49bc
00000070: 132f 393e 3e88 6b3e 6e28 34be c2e3 123f
00000080: d20a 153f e2a3 d93e b992 6c3e 195b ab3e
00000090: 6641 1e3f 38aa 273d 07d4 6a3e 1fcc 9c3e
000000a0: 12b5 c83d 6d07 b03c bc99 053e 0169 3f3e
000000b0: 09b1 d7bd a1ed 243b 544c ec3e 7407 1cbf
000000c0: e64a 963e 3013 32bc 5051 acbd 89db a6be
000000d0: 8da1 9cbc 0a20 bbbd c247 a63e db7d ae3c
000000e0: 63a6 b53c 0e49 22be d125 a23e 3207 263d
000000f0: 27ab 25bd a330 c63e 4256 d13d f286 a43e
00000100: 06d7 d83e 7559 38be defb 383e 96e7 923e
00000110: 0062 ab3e 6b1a 193e a748 bd3c e269 363b
00000120: 3c31 313e 2735 e2bd 740d a7bd 5835 8abe
00000130: 8a78 37be b9c2 f43c ab1b 91bd 2229 a13e
00000140: a9bf 97be 6ede d33e e32e 52be 807d 03bc
00000150: 027d b6be 8753 24be 650d 403d 81ce 24be
00000160: 21ce 723e 7eea a5be 4a2c 833e 6bd3 6b3e
00000170: 5b42 3c3e 3180 1b3e ad92 2c3e 8ca8 b93c
00000180: 799f 973d 0807 b93c 7575 f83e fce7 d93e
00000190: bd22 b73e fe51 bd3e 1104 3fbd 916a 71be
000001a0: 1cda d13e cb10 d7bd 40d2 973e 07c8 a83d
000001b0: ec93 013f ae01 773e 22d1 173f c288 783f
000001c0: 71b8 8f3e c955 593e e366 c53e 7744 c93d
000001d0: b6e9 373f 724c 8c3d 4fbc 893e d805 613e
000001e0: 8f6a 8f3c 54ec 8d3e 4b2a 0a3e 4081 c03e
000001f0: 500a 973d b321 d43e 389a bd3d 56ab 8a3e
00000200: f4ad e93d 93f1 803d f3e1 7fbe 8ded 5bbe
00000210: 5d57 97be 49fe 1e3c a1fd e23d 12df 3dbe
00000220: 1f9f 6f3d 88c7 8d3e 2f6d cfbc 1175 603d
00000230: 7621 96bd 81c3 f0bd ecba e8be c542 4e3c
00000240: 6854 8bbd bd34 ba3e 7b8b 8b3c a8ed 7c3c
00000250: 2c38 8e3d df9b cebd a823 52be f019 48be
00000260: f6a2 813d d598 1b3e 88c4 2a3c e31a 123d
00000270: 542d a9be d464 6dbe 7443 203e 10db 793d
00000280: 33a9 a83e a647 74bd 93d7 9dbd fe90 3f3e
00000290: 7b55 4d3d e605 393f a364 d5bd c8e3 89be
000002a0: 0999 c6be 6885 463d c5ff a4be dcc5 d2be
000002b0: 3514 f93d ca4e 70bd ac00 7abe 2ef8 23be
000002c0: bb07 75be 0c52 5f3d 7b47 093e 74c4 fa3d
000002d0: b7bd 333e 15f0 af3d ad0a a43e 4539 99be
000002e0: 534b dfbe 634b 38bd ea86 b03e af3f 183f
000002f0: 07d1 63be 5ef8 0bbe 40ff ac3d c191 73bd
00000300: 19fe 133e 131e 96be f069 513e 14c5 c33e
00000310: 74fc 383f 25ee d73e e7d6 8b3e 4d74 9d3e
00000320: ac2b 9f3e 3724 b93e c4e8 043f f3ad af3e
00000330: e557 9e3e 4c99 1b3f cd03 793e 9342 c43e
00000340: cb67 063e 0924 b53e 1754 7dbe 7fd8 d73e
00000350: b8f8 513b 6e7f 623d f394 8f3e 2e55 b73d
00000360: ece5 583e c932 e23e c971 d53e 0c2e 253f
00000370: cf0c 603e 5b41 843e 6929 abbd 2058 c73e
00000380: f2e7 d63e fc84 813f a576 383f 9f9a 813e
00000390: 1937 923e fb2e 943e c360 74be 2ad8 9c3e
000003a0: c9c3 763e 069b ad3d 7b3b 383e 3e78 813e
000003b0: a683 9f3e b090 c13e f4dc 013e c09e 3a3e
000003c0: 964c 813e f4b5 d63d efb9 6f3e de3c 303e
000003d0: 186a 553f d6bc 1f3e fbe0 d83e 3c02 c8bd
000003e0: 12e6 f53e e3e5 973e fb3e cc3e 0b91 e63e
000003f0: 9223 473e 2a14 a23d 8cc5 c5bc b008 1d3f
